data/ball_data/model.pth (torch_old, 853498 bytes, 13 tensors)

weight f4 [64, 1, 5, 5]
00000000: 4250 e7bc d959 a03d 7fca a7bd 8a10 aa3d
00000010: a7fd 063e ca0b a13d c6dc 023d 3cc5 06bd
00000020: a7d8 533d 2805 3cbd 49a5 17bd d6d5 e53c
00000030: 3905 7b3d 441e 53bd 836e 7dbd a194 edbd
00000040: 9352 bbbd 4f91 7bbd 6f3d eb3c 8c90 303c
00000050: e777 1ebe 2cb5 2c3d 1ae2 183d 8d4a e93d
00000060: 6314 363d 8429 6c3b d906 053d c046 263e
00000070: 4617 1f3e 7b47 c73c 97ed 643d 8005 60bc
00000080: 55bf a93d e579 253d 0b12 a0bc 36a0 03bd
00000090: 8d2f e4bb faec 85bd a6d0 83bd f3b9 303c
000000a0: e48e a0bd 4eac a9bd 8b0f c73c 4ec1 26bd
000000b0: 827a 90bc 64c2 dcbd 51cc 4b3d f794 6b3c
000000c0: fa38 afbd 79bb 51bd ef20 83bd 15e7 b6bd
000000d0: 15c7 3c3d e799 81bd 9ab8 e4bd c21b 983d
000000e0: cab7 03bd 541a 933c 6c20 d1bd 3277 f4ba
000000f0: 11db c6bd 313b 683c 12d5 133d 5358 a53d
00000100: f8a2 f73c 238a 2b3d 6281 32bc 7048 88bd
00000110: 7d8d f43d 2274 ce3d 65e2 44bd 95e1 0dbd
00000120: dcfe 8b3d 93c4 003c 8230 93bc ef02 0fbd
00000130: efd7 b6bd 81fe 01be 750a 22bd 890e a8bc
00000140: 4f3c 2fbd 2bfb 82bd ac7f a23b 0b2f ac3d
00000150: 09c1 273d 6d9a 9cbc 5e59 273d 9db3 e93c
00000160: 2a71 58bd eef2 863d d228 063d d022 73bc
00000170: ca02 363d 86f6 813d 721e c83d 4c0e a33b
00000180: f302 c03d 0ff1 b5bd f8a6 823d df8b f4bc
00000190: 297b 6bbd 0e23 1b3d 3333 76bc e090 60bd
000001a0: 189e ec3d 53ac edbc 3dd7 893d 28da 373d
000001b0: 6eb8 b03b 082c f2bb 1cbf 91bd 9e8d eabc
000001c0: 12fb a4bd d5e2 12be 71d3 bbbd 1503 0abd
000001d0: 9228 413d 582b b33d 0c53 c0bd e034 a83c
000001e0: d94d f53d 2a2b a03d 36c4 a63d c076 62bd
000001f0: 4649 04bd 31ef 513d 31d4 3a3d fa8a 5b3c
00000200: 5095 c5bd a1b9 e13d c808 a3bd 88c6 89bd
00000210: f1ac a53c 3aba f3bc d0fb 01bd 9c31 bc3d
00000220: 7600 c93d d2f2 55bd 799e 80bd 4da5 083e
00000230: 1f86 8e3d d9f0 17bd 9195 043a 1f7e 61bd
00000240: 29b2 e53c ed82 d83d f19d 85bd cb22 9ebd
00000250: 0456 01be c91f 9c3c b091 c73d ddf8 303d
00000260: ca7d 9bbd 1ed3 54bd 9870 4dbd 1997 aa3d
00000270: 1bf6 e23d f575 a0bd 7611 e5bd 16b0 3c3c
00000280: b355 133d dff1 b63c f7cd e03c ff07 eabd
00000290: bd8e 9fbd 209f ad3c e68b ac3d 7e14 373d
000002a0: 97d9 923d d908 1fbd 4537 d6bc 3a98 a5bc
000002b0: c090 043d dde0 efba c1b9 353c 509a 9739
000002c0: 9a13 443d c514 b43d 91c4 323c a4e6 1c3d
000002d0: 4e28 6cbd 01c9 dcbd 9f87 7fbd 03ba edbd
000002e0: 824e 043e f65c af3c 3eb7 813c 4f9a b1bb
000002f0: b0a2 f0bd 4e91 99bd 6354 af3c 4e03 e53d
00000300: 9ee3 eb3d 9bd9 54bd 7e33 65bd 5a6c c5bd
00000310: feca 3ebd 5563 aa3b 6376 ed3d 5d09 033c
00000320: 564d 173d dfd8 483d 6fef febd 87c4 fc3d
00000330: 126d 6c3d c7cd 91bd 44e0 87bb 1f81 d53b
00000340: 3717 753d 2fae 643d 9d45 3c3d f8de 67bb
00000350: 1ff8 fabd c892 573c 1f7e e13c bb8e dd3d
00000360: ca6a 923c a5e8 84bb 6001 ee3a d61e 0dbd
00000370: 3f3f b43d fd2d 9d3c 42fd a93d f051 02be
00000380: f718 92bd 2cfe 0ebd 7637 67bd cc99 8a3d
00000390: 6393 673c d61a abbd d9b2 d3bd e3ec a1bd
000003a0: c99b 82bc aca1 b03d 428f 0bbb d749 d73b
000003b0: f722 6abc fb54 ae3d 56f4 f4bc cdc1 eabc
000003c0: fde0 26bb f20f 12bb f39f bebc 00c6 2cbd
000003d0: 2a12 9bbd 3585 8fbc 9e65 cbbd 1963 d9bc
000003e0: f71d 3e3d 8800 a53d 1e45 da3d 50c3 cfbd
000003f0: 1a9f f8bc ae5b ba3d 4b3f 7e3d c4f2 37bd
-0.028236512 0.07829637 -0.0819292 0.08303936 0.13182698 0.07863577 0.031948827 -0.03290294
0.051720288 -0.045903355 -0.037022863 0.028056066 0.061284278 -0.051542535 -0.06187297 -0.11600614
-0.09146609 -0.061417874 0.028715817 0.01077665 -0.15475427 0.042164966 0.037325002 0.113911726
0.044453036 0.0036035487 0.032477234 0.16237926 0.15536222 0.024326077 0.055890646 -0.013673186
0.08288447 0.04039945 -0.019539854 -0.03213521 -0.0069636763 -0.0653934 -0.06436281 0.010786521
-0.07839754 -0.08284818 0.024299404 -0.040711693 -0.017636541 -0.107792646 0.0497554 0.014378778
-0.08555789 -0.05120418 -0.06402766 -0.08930794 0.046088297 -0.06328183 -0.111680225 0.074271694
-0.032157697 0.01795689 -0.10211262 -0.0018651246 -0.09709752 0.014174269 0.03609187 0.08073487
0.030229077 0.041879784 -0.010895105 -0.06654441 0.11941049 0.10080744 -0.04806747 -0.03463896
0.0683572 0.007859367 -0.017967466 -0.034914907 -0.08927905 -0.12694742 -0.039560754 -0.020514743
-0.042782124 -0.06395563 0.0049590673 0.0840741 0.040955577 -0.019116605 0.04085671 0.02852803
-0.052842297 0.06589304 0.032753773 -0.014839843 0.044436254 0.06345849 0.09771432 0.0049760696
0.093755625 -0.08883869 0.06379503 -0.029851852 -0.0574905 0.037875228 -0.015026855 -0.054825664
0.115535915 -0.029012835 0.067305066 0.044885784 0.0053930795 -0.007390503 -0.07116529 -0.028631981
-0.080557 -0.14344342 -0.091711886 -0.033694346 0.04715783 0.087485015 -0.0939084 0.020533025
0.11977739 0.07820733 0.08142893 -0.05528903 -0.03229644 0.0512535 0.045612518 0.013399834
-0.0964762 0.11021734 -0.07960659 -0.0672732 0.020224066 -0.029751886 -0.031734288 0.0918915
0.09814541 -0.052233525 -0.06280226 0.13344307 0.06959175 -0.037094925 0.00050576875 -0.05505192
0.028039055 0.10571847 -0.065242656 -0.0772148 -0.12630469 0.019058125 0.097445846 0.043206085
-0.07592352 -0.05195915 -0.050156206 0.08329601 0.11082097 -0.078349985 -0.11184971 0.0115165915
0.0359704 0.02233213 0.027441962 -0.114273064 -0.07790897 0.02119404 0.08425121 0.044697277
0.07170408 -0.038826797 -0.026149401 -0.020214189 0.032364607 -0.0018301267 0.01109165 0.00028915936
0.047870256 0.08793024 0.010911123 0.038305894 -0.057655625 -0.10780526 -0.062385198 -0.116077445
0.12920573 0.021406632 0.015834447 -0.0054200063 -0.1174978 -0.07498418 0.021402543 0.11182271
0.11518024 -0.051965337 -0.05595731 -0.09639807 -0.046580307 0.0051998296 0.11594846 0.007997838
0.036938988 0.04903495 -0.12448012 0.12342172 0.057721205 -0.07119327 -0.0041466076 0.0065156366
0.059836593 0.055830177 0.045964826 -0.0035380702 -0.122543566 0.013157554 0.02752596 0.10818239
0.017873187 -0.0040560537 0.0018158369 -0.034453236 0.08801126 0.019186968 0.08300258 -0.12726569
-0.07133668 -0.034910366 -0.056449376 0.06767616 0.014134261 -0.08354728 -0.10336847 -0.07906511
-0.015943425 0.086245865 -0.0021295105 0.0065700817 -0.014290563 0.085123025 -0.029901665 -0.028656865
-0.0025463693 -0.0022287336 -0.02326963 -0.042181015 -0.07571824 -0.017519573 -0.09931491 -0.026536511
0.046415295 0.08056742 0.10657714 -0.10144675 -0.030349303 0.09099518 0.06207208 -0.044909254

bias f4 [64]
00000000: c43a 80bd a01b 08bd 8855 a5bd f9b8 8c3c
00000010: 055b 9dbd 7f25 d2bc bac2 33bc c3f6 bcbc
00000020: c0ca c1bd d699 0dbe a0c1 1fbd bc34 b9bd
00000030: 79a6 1dbe 730b b33c 74fd cabd eca1 c23c
00000040: 7288 63bc 7948 06be 5e87 5cbb 9c53 83bc
00000050: 2903 32bc 7152 253d b344 a8bd 241b f7bd
00000060: dfc7 92bd f396 bebc c669 3bbd 5997 0d3c
00000070: 1aa6 1abe 2843 13be 9db5 7bbd bf64 67bb
00000080: c481 adbc bf8c d6bc a02b 3f3d 0cd0 89bd
00000090: 5464 dbbd 02f1 7ebd cce9 c7bb 0011 0bbd
000000a0: d1c2 d0bd 7f6a 75bc d60f ecbc d252 f03a
000000b0: 2543 3ebc ffd7 173d dbe7 40bd 8cd9 cabc
000000c0: ea7b 76bd 8fe6 893b 31d5 8dbd 0b90 8ebd
000000d0: 5886 5ebd 35e4 c5bc 10db b3bd c6fc 2e3a
000000e0: 8313 16be 8fe4 59bd c15d 95bd 91d4 05be
000000f0: d72c 02be cff6 9dbd ca8c 17be 5ea6 10be
-0.06261209 -0.03322947 -0.080729544 0.017178046 -0.07683376 -0.025652645 -0.010971719 -0.023066884
-0.094624996 -0.13828215 -0.039003015 -0.090432614 -0.15395536 0.021856045 -0.099116236 0.023758851
-0.013887512 -0.13113584 -0.003365002 -0.016031079 -0.010865011 0.040361825 -0.08216228 -0.120657235
-0.07167029 -0.023265338 -0.04575517 0.008642041 -0.15102425 -0.14381087 -0.061452497 -0.0035307852
-0.021180041 -0.02619016 0.046672463 -0.06729135 -0.107124954 -0.06224156 -0.006100869 -0.03395176
-0.10193408 -0.014979004 -0.028816145 0.0018335229 -0.011612688 0.037071224 -0.047096115 -0.024761938
-0.060176767 0.004208393 -0.06925429 -0.06961068 -0.05432734 -0.02415667 -0.08782017 0.00066752394
-0.1465588 -0.053196486 -0.07293273 -0.13069369 -0.12712418 -0.07713091 -0.147998 -0.14125964

weight f4 [64]
00000000: 77d4 0c3f 8fd9 513f f1af 473f a165 863e
00000010: a679 193f 218c 053f 387e 303f 9a19 c73e
00000020: dd82 963e 8f75 d23e bb55 0f3e 5f3f b03e
00000030: 4d2c db3e 9d26 5c3f 306a 1d3f b13b 753d
00000040: 5011 073f 4fa4 8e3e 06f4 0a3e 1419 103f
00000050: 1895 ed3e 95d6 313f 47f9 623d c441 9d3e
00000060: c0e6 d13e bfbe 333f 6a7f 1b3f 6713 113f
00000070: bc3c 453e c694 073f 3595 3b3f c426 583e
00000080: b4e5 5d3f 8d73 423f 3ca7 b63c a040 673e
00000090: 4fe3 143f 4d6b 423e 36fd e43d d1a6 ab3e
000000a0: 6a4b 323f 08ff 183e 9447 e6ba e1ec 2a3f
000000b0: 0f9d 383f 6d2e 9c3e df32 763e 3b56 5a3f
000000c0: e21d 073f 4683 2e3f 031a d23e 7646 373f
000000d0: 0499 c03e 197f 113f 8537 613e d164 d23e
000000e0: a325 143f 491b 003f 2ac1 4b3f 4742 b03e
000000f0: 5b6e 4f3e abb6 ab3e 49c2 4e3f f6c0 113e
0.55011696 0.81972593 0.7800284 0.26249412 0.59951246 0.52166945 0.68942595 0.3888672
0.29396716 0.41105315 0.13997547 0.34423348 0.42807236 0.8599642 0.61490154 0.05987138
0.5276079 0.27859733 0.1356965 0.56288266 0.46402812 0.6946805 0.05541351 0.30714238
0.4099636 0.7021293 0.60741293 0.5667023 0.1926145 0.52961385 0.73274547 0.21108538
0.86678624 0.75957566 0.02229654 0.22583246 0.58159345 0.18986244 0.11181109 0.33525708
0.6964632 0.14941037 -0.0017568939 0.667677 0.7211465 0.3050417 0.24042843 0.8528783
0.5277997 0.6816906 0.4103547 0.7159189 0.37616742 0.5683456 0.21993835 0.41092542
0.5786993 0.50041634 0.7959162 0.34425566 0.20256941 0.33537802 0.80765206 0.14233765

bias f4 [64]
00000000: 7ecb 1e3d 4589 35bc ead3 333e 7bf9 883d
00000010: d123 e43d 2fb8 1a3e adaf e4bc 0f9f af3d
00000020: e390 13bd 6ec0 0f3e 2773 88bd e990 febb
00000030: 0a91 f73d 6cf8 953c b902 62bd 86b9 adbd
00000040: 2ddc fa3d d9ae a63d b13a 6abe 43dc 8d3d
00000050: 49d7 45bc 4a0b 073c 8dbd 1cbd f259 80bd
00000060: 7f66 c23d b83b 403e c890 d73d 5033 3cbd
00000070: bf62 cd3d b9a8 59bd 914e 173e 91f5 343e
00000080: 9019 db3c 4176 fb3d d304 993e fe8a b03d
00000090: d28d ea3d 003f 263e 2d46 9abe a8eb 11bc
000000a0: cdfd f83d 7568 40be 9109 c8be d0f7 55bd
000000b0: 4f96 3e3e 761e 543d 732c cbbd f61a 013e
000000c0: 5a69 ce3d 2026 3e3c 7738 233e 8d76 193e
000000d0: b6cb 453d 0ce1 93bc 4793 033e 694e 1a3e
000000e0: 72cc d1bc 250b 843d 2e16 743e 65ec d4bd
000000f0: 41a9 c3bc ae3b 08be dcac 673e 73c3 25bd
0.038768284 -0.011080091 0.17561308 0.066882096 0.11139644 0.15109323 -0.0279158 0.0857526
-0.036026847 0.1403825 -0.066625886 -0.0077687395 0.12088211 0.018306933 -0.055178378 -0.084826514
0.122490264 0.08138818 -0.22873951 0.06926777 -0.012075254 0.008242438 -0.038266707 -0.06267156
0.09492206 0.18772781 0.10525662 -0.045947373 0.100286 -0.053139422 0.14776064 0.17671801
0.026745588 0.122784145 0.29886493 0.08620261 0.11452831 0.1623497 -0.30131665 -0.0089062825
0.12157784 -0.18789847 -0.390698 -0.052238286 0.18612026 0.051786862 -0.099205874 0.12607941
0.10078688 0.011605769 0.15939508 0.1498663 0.048289977 -0.018051647 0.1284915 0.15068974
-0.025610182 0.06447438 0.23836586 -0.10396651 -0.023884417 -0.13304016 0.22624534 -0.040469598

running_mean f4 [64]
00000000: 1752 043d 809e 863d 67ec 9c3c 9917 6f3d
00000010: 071e e63c bd78 0c3d 4c54 6a3d a5de cc3c
00000020: cb3a cb3c 959a 773c f240 a53c 4c89 df3c
00000030: 2f8f 213c 37c3 e13d 01fa 503d f1a6 6d3d
00000040: f9e7 ea3c 7a89 8c3c 7e06 183d 483c cb3c
00000050: 2fb4 013d 2629 b63d 7516 ff3b f48a 913c
00000060: 365f 103c a6f1 723d 04c4 093d d7e3 553d
00000070: 04b3 9a3c c9f1 dd3c b44d 4f3c 36dc 6e3d
00000080: 340a 573d 745a 4d3d aefd 953d 7168 8f3c
00000090: 6f34 923c 9094 4f3c 35dc 263d d521 b23c
000000a0: 8704 973d 3f48 803d 533c a93c 42e4 703d
000000b0: 3a72 3d3d 99d6 883d bfea 8c3d 9460 a63c
000000c0: 03c6 253d ac82 923d 552e 593c febc 723c
000000d0: 4577 0b3d 97d4 f13c cb1f 3d3c 6666 113d
000000e0: 5261 113d 8aa8 b43c 3360 da3c 6689 1e3c
000000f0: 057c 603c 1c0e 143d 3b88 563c 30ee 8e3b
0.03230485 0.065732 0.019155694 0.058372114 0.02809049 0.034294832 0.057209298 0.025008509
0.024808308 0.015112539 0.02017257 0.027287148 0.009860798 0.110235624 0.051019672 0.058020536
0.028675066 0.017155398 0.037115566 0.024809018 0.031665977 0.08894567 0.0077846595 0.017766453
0.008811763 0.059312485 0.0336342 0.052219238 0.01888419 0.027092831 0.012652803 0.05831548
0.052499965 0.05013509 0.07323776 0.017505856 0.017847268 0.012669697 0.04073735 0.021744648
0.073739104 0.0626378 0.020658648 0.058811434 0.046251513 0.06681556 0.06880712 0.020309724
0.04047204 0.0715383 0.013255675 0.014815567 0.03404929 0.029520316 0.011543225 0.035498045
0.035493203 0.022053022 0.0266572 0.009676313 0.013701444 0.03614627 0.013094003 0.0043618903

running_var f4 [64]
00000000: 58a2 183c c766 b63c 61e3 a13b 7227 613c
00000010: 50cf 023c e87c f73b 3c32 9f3c a21d 8b3b
00000020: 6036 d43b bc75 523b b7c9 523b 4dae b43b
00000030: 5c53 3b3b 54c3 be3c f28f 9d3c 09db 2c3c
00000040: 7688 823b 52fb b93b 7568 f43b 4e6c 803b
00000050: 3861 9a3b 4443 c73c fbfa bb3a 4daa bf3b
00000060: c809 9f3a f62f 4a3c 21e5 e33b ea51 3f3c
00000070: 6fa4 a83b 0d59 e43b f62a 2d3b d937 373c
00000080: 85c2 813c d7b5 543c 9e1f 283c b657 703b
00000090: 485d a03b cd72 2b3b d76f 053c 60a4 863b
000000a0: 1270 c93c dd04 953c f7db 413b 5b1a 843c
000000b0: 014f dc3b fc7d 083c 60ff b63c 6be1 533b
000000c0: 5d54 4d3c 706d 8e3c a827 193b 9bd5 4f3b
000000d0: 761c f43b e5ee cf3b f24e 173b e9e7 b13b
000000e0: 3610 483c a8b4 a33b cf00 b43b 0cb8 393b
000000f0: 8c64 313b a925 093c 5774 4f3b 4c21 763a
0.0093160495 0.022265805 0.0049404358 0.013742315 0.007983997 0.007552732 0.019433133 0.004245476
0.0064762086 0.0032113632 0.0032163688 0.0055139423 0.0028583622 0.0232865 0.019233678 0.010550269
0.0039835526 0.0056757117 0.0074587413 0.003919161 0.0047112964 0.024324067 0.0014341766 0.005849159
0.0012133652 0.012340536 0.0069548045 0.011677245 0.005146555 0.0069686235 0.0026423312 0.011182749
0.015839824 0.012982807 0.010261444 0.0036673374 0.0048939325 0.0026160956 0.0081443405 0.0041089505
0.024589572 0.018190796 0.0029580572 0.016125849 0.006723285 0.008330818 0.02233857 0.0032330405
0.012532321 0.017386168 0.0023369584 0.0031713012 0.007449682 0.006345617 0.0023087827 0.005429257
0.012210896 0.004995901 0.0054932605 0.002833846 0.0027067987 0.008370795 0.0031655037 0.0009389117

weight f4 [128, 64, 5, 5]
00000000: 9c3b 0f3b 2d5d 5f3b 8dd4 163c 0d06 843a
00000010: 2708 82bb c559 683b eabe a83c 7021 8fbc
00000020: 867b 24bc f8a5 f33b beb7 e53c 9e1c 853c
00000030: 3b64 023c d7a3 483b 582a 2a3d f01e 0f3d
00000040: 851e 04bd ef23 583c af52 8ebb 6878 183c
00000050: faa4 b33b a6c4 ca3c 869a 87bc aabe 933c
00000060: 4948 ac3b 7a17 523c 7afd 75b7 0243 72bb
00000070: 6e94 d8bc 5dce 34bd 4cb6 12bc 8c91 183d
00000080: 550e 89bd 694e 20bd 5106 713d 75bb 1e3d
00000090: f40b b5bc ea75 83ba 9279 113d 0294 7b3d
000000a0: 2867 17bd 9bb1 04bd b696 a43c 90a4 1bbd
000000b0: 944a 56bd 7301 9cba 8d88 d8bc 81b8 fabb
000000c0: 109d 12bb d2fc 0a3d b59e 2cbd 902a 3bbd
000000d0: ce03 87bd b5a3 0a3c ab38 053d 1e29 b33c
000000e0: 201d 943c 4990 1bbc e7bf 52bd 87e0 2d3d
000000f0: 3997 a2bc 535d 363b e761 39bd 1ddb c5bb
00000100: 7df1 e5bb 6d8f 0bbd 5db1 4fbd 7066 1fbb
00000110: 3b45 f0bb 5e4c 0c3d 2bb8 453d 6d71 943c
00000120: efed c63b 30e7 4b3d 9ba1 e3bb 3a80 4fbc
00000130: 38f0 54bd 1706 a33b ddfb 88bb 9757 6dbb
00000140: bd37 32bd 6f95 0cb9 0321 9fbc ed02 84ba
00000150: 95ea d4bc 02ad 09bd db47 9fba 5d28 42bd
00000160: 9248 c1bc 407d cb3c 0a4d d6bc 86c6 5dbc
00000170: f1cc 6cbc f5eb 203d 5775 923a 1b1d 5fbb
00000180: 8576 32bd c97a a63c 308d 39ba 5886 773c
00000190: c5c4 ffbb 752c 953c a7bb 64bd 2072 87bd
000001a0: 306a fcbc 5fc5 c13c 19c5 163d 13fe 1d3c
000001b0: 3d02 40bd 8197 c0bc affe 26ba 32a8 cc3c
000001c0: 24bc 27bc b79f 00bc 013a 013d a4bf 0ebc
000001d0: 3688 873d ac3d c73a e137 833d c4b7 343d
000001e0: f8f1 55bd d940 22bd eee3 5bbc ecd5 2c3c
000001f0: 1ee8 21bc 36de 2fbc 6718 dfbb 8d51 d13b
00000200: f29d 0abd 20f4 373d 167a 9b3c caf2 2fbc
00000210: d275 e73c 5282 3938 ea36 dd3c 3d3f 67bd
00000220: b6bd 2abd c071 523a 7cef 813c 33c7 8a3c
00000230: 69e0 90bc d49d 2dbc 76f3 883b da36 e83a
00000240: 5a35 a23c 1618 4d3d f75d 6b3d fb60 bd3b
00000250: 6a8d 0f3d 5e6d 163d f223 e83c 7121 973c
00000260: 4c49 213d 5bf6 cc3c 6c59 9b3c 78bf 0d3d
00000270: ec73 813b 4e70 483c 9676 e2bc e7d9 aabc
00000280: 0e45 703b 6893 9c3c b7d1 dd3b e0ad 5abd
00000290: 38e9 f83b ab07 8c3c 1c77 2d3c 290e 37bc
000002a0: 50f4 293c 9113 1b3b f220 0ebd 9050 c2ba
000002b0: b3c1 a53a 19d7 11bd 30a9 5abc 905e d1bc
000002c0: 2087 1ebc 0604 dcbc 97f2 87bd ace7 c6bc
000002d0: 7ee1 063c 9e86 5abc 6ffa 40bb c8aa fa37
000002e0: 09b7 f2bc f741 6b3c 62c8 d83c 45a3 a03c
000002f0: c9ca e1bc 9168 cf3b 5577 c83c 25ab 0b3c
00000300: 7bdc fd3c 5286 8f3c f7cc d0bb 87f5 20bd
00000310: 1b84 40bd a7ca a0bc a18e 59bc bf33 693c
00000320: c322 1f3c a2cc 6f3c 53e0 00bd 06a7 b43c
00000330: 6cf5 123c 82d7 283c a8bd a3bb a8de f2bc
00000340: 4cd0 e13c 7f9b 063d e435 02bd 581d 5eba
00000350: 2c2a 17bb ff59 a53c 8323 93bc 548a b73c
00000360: e141 743d 94ef ca3c 84d8 b73c 0a9a 73bc
00000370: 4185 993c 5b1f 1d3d b88b b6bc 93e4 173d
00000380: add6 f43c 2a46 0abd d544 23bd 878f a6bb
00000390: d5e7 26bc de8b b2bc e769 16bd e277 b1bc
000003a0: 9822 64bc bfa1 d33c 9e46 09bd 5760 27bc
000003b0: 4c55 80ba ab7a 3c3d cece 90bb 9077 d4bc
000003c0: 44be 943c ae78 acba 2576 73bc f055 edbb
000003d0: 90b7 acbc e386 e03c f7a2 d13c cb6b f73c
000003e0: fa43 6d3c 8223 423c 0794 943c e743 593b
000003f0: f9e9 873b eaf8 e53a 116e 0d3d ff59 41bc
0.0021855598 0.0034082637 0.0092059495 0.0010072604 -0.003968257 0.0035453897 0.020598847 -0.017471999
-0.010039216 0.0074355565 0.028041717 0.016248997 0.007958467 0.0030615234 0.04154429 0.034941614
-0.03225567 0.013192161 -0.0043433527 0.009306051 0.005482313 0.024751972 -0.016553175 0.018035252
0.0052576405 0.01282298 -1.4662155e-05 -0.003696621 -0.026437964 -0.044142116 -0.008954596 0.03724818
-0.06692187 -0.039137278 0.058843914 0.03875299 -0.022100426 -0.0010029648 0.03551633 0.061420448
-0.03696361 -0.03239594 0.020091396 -0.037998736 -0.052317217 -0.0011902287 -0.0264323 -0.007651389
-0.0022371449 0.033932514 -0.042143542 -0.045694888 -0.065925226 0.008461882 0.032524746 0.021870192
0.018080294 -0.0094948495 -0.051452544 0.042450454 -0.0198475 0.0027826622 -0.045259383 -0.006038083
-0.007017313 -0.03407233 -0.050706256 -0.0024322532 -0.0073324717 0.034252517 0.04827134 0.018120492
0.0060708444 0.049781024 -0.006946755 -0.012664849 -0.051986903 0.004975091 -0.004180415 -0.0036215538
-0.043510187 -0.00013407109 -0.01942492 -0.0010071673 -0.025990764 -0.03361226 -0.0012152152 -0.047401775
-0.023594175 0.024839997 -0.026159782 -0.013536101 -0.014453159 0.039287526 0.0011173886 -0.0034044448
-0.04357006 0.02032222 -0.00070782285 0.015107714 -0.007805439 0.018209675 -0.05584302 -0.066135645
-0.030812353 0.023653684 0.03680906 0.009643096 -0.046877135 -0.023509743 -0.0006370348 0.024982546
-0.010237727 -0.007850579 0.031549457 -0.008712683 0.06617777 0.0015200875 0.064071424 0.044120565
-0.052232713 -0.039612625 -0.013421042 0.01054905 -0.009882001 -0.010734132 -0.006808329 0.0063878954
-0.033842035 0.04491055 0.018979114 -0.010739038 0.028254423 4.4228807e-05 0.027003724 -0.056456793
-0.04168483 0.00080278143 0.015861265 0.016940689 -0.017685132 -0.010596711 0.0041794134 0.0017716542
0.01980083 0.0500718 0.05746266 0.0057793832 0.035046972 0.036725394 0.028337453 0.018448563
0.039376542 0.025019815 0.018963538 0.034606427 0.0039505865 0.012233807 -0.027644437 -0.020855857
0.0036662254 0.019113258 0.0067693847 -0.053388476 0.007596161 0.0170935 0.01058748 -0.01117281
0.01037319 0.0023662786 -0.034699388 -0.0014825035 0.0012646228 -0.035605524 -0.0133460015 -0.025557786
-0.009675771 -0.026857387 -0.06638067 -0.024280392 0.008232472 -0.013337759 -0.0029446145 2.9881849e-05
-0.029628294 0.014358989 0.026462737 0.019609103 -0.027562516 0.006329604 0.024470964 0.008524691
0.030988922 0.017520104 -0.00637209 -0.039296653 -0.047000986 -0.019627882 -0.013278634 0.014233529
0.009712878 0.014636191 -0.031463932 0.0220523 0.008969646 0.010305287 -0.004996974 -0.029647186
0.027565144 0.032863136 -0.031789675 -0.00084730005 -0.0023065908 0.020184515 -0.01796127 0.022404827
0.05963314 0.024772443 0.02244211 -0.014868269 0.018740298 0.03835998 -0.02228342 0.03708322
0.029887522 -0.03375832 -0.039860565 -0.0050830278 -0.010187109 -0.02179521 -0.03672209 -0.02166361
-0.013924263 0.025833962 -0.03351461 -0.01021584 -0.0009791045 0.046015423 -0.0044191843 -0.025935918
0.018157132 -0.0013158524 -0.014859711 -0.0072429106 -0.021083623 0.027408069 0.025590403 0.030202767
0.014481539 0.011849286 0.018136991 0.0033152045 0.0041477648 0.0017545496 0.034528796 -0.011801242

bias f4 [128]
00000000: 28ff a63a 12cf fbbc bc8e 8a3b bf79 94bd
00000010: 8e71 8bbd ac3a 34bd 4529 243b bcc4 0bbd
00000020: b7d2 dabc 4052 683b ce81 15be 085c 60bd
00000030: 4c37 75bb 5a14 f73c ea34 79bd 275c 30bc
00000040: 44b3 2dbc d709 cd2d 0afd 5dbd 7ced c9bb
00000050: e6ae 04bd 3757 3ebd f6b2 22bc b5cb cfbd
00000060: ae9c 16bd ff39 5dbd 1a03 c9bd f1f7 32bd
00000070: c417 c6bd 9631 e8bc 01de dbbb e8c3 99bd
00000080: 671a aabc 33d1 e93b 00e5 b6bd e01f c93b
00000090: 43ab e9bb 9e5d 4cbd 4e5e 37bd 4fd3 42bd
000000a0: ef59 d1bc ddec 1fbd 8914 19bd b9dd b33b
000000b0: 244a 68bd 3516 65bd 06d1 80bd 1bd4 52bd
000000c0: c965 37bb 8853 0dbd 0528 45bd 492e 0abb
000000d0: 8ebd 4dbd 0a22 89bd a806 31bd 36c9 9dbd
000000e0: 81f3 b4bc 8151 88bd 6c0c e2bd db1d d1bd
000000f0: 8f9b d6bd 7fe1 98bd a9a6 d7bc 2181 00bd
00000100: c398 44bd 1957 8b3c f7f5 62bd 0eb2 27bd
00000110: 6263 53bc e11f a2bd 79b2 99bc d3b7 86bd
00000120: 1b4b b0bd 1fbe 10bb 6d58 8ebc 318e ba3a
00000130: 8cd5 e6bb 1b17 81bd 7d5b 17bd 037e f63a
00000140: d1b5 58bd fb12 00bc fef1 01bd d655 8bbd
00000150: 3059 7abd 9388 9dbc b652 9abd 4ec1 a6bc
00000160: 6d2b 60bd 3d2b 7cbd 5f2c 4abd f84d 5cbc
00000170: 05fc 82bc c5f5 d3bc f510 1ebd 9d8f b6bc
00000180: fab9 22bd 0088 31bc 2e60 adbd 392a abbd
00000190: a24c 0fbe 3cc8 aebc 6284 aebb f835 d0bc
000001a0: 883e fdba 4e50 56bd a8c5 64bd 17b9 f5bb
000001b0: d858 27bb 652d 16bd 1d19 6dbd a1b8 2fbd
000001c0: 29bf 7fbd 1167 63bc d120 99bc da63 e4bc
000001d0: 2d8f 4fbd e607 54bc 8ad4 96bd 129f 17bd
000001e0: 65dd 42bd 03c3 88bd 38f6 8abc 1a80 9abd
000001f0: 995d 8dbc 2794 3cbd d9b7 42bd 3031 fcbc
0.0012740837 -0.030738387 0.004228441 -0.07249784 -0.06808768 -0.044001266 0.0025049013 -0.034123167
-0.026711805 0.0035449415 -0.14600298 -0.054775268 -0.0037416993 0.030161072 -0.06084148 -0.010764158
-0.010601822 2.3310172e-11 -0.054196395 -0.0061623435 -0.03239336 -0.046469893 -0.009930363 -0.10146276
-0.036770515 -0.054010388 -0.09815045 -0.043693487 -0.09672502 -0.028343957 -0.0067098145 -0.07508069
-0.020764543 0.007135534 -0.08930397 0.006137833 -0.0071310117 -0.049893968 -0.04476767 -0.0475648
-0.025555579 -0.03904425 -0.0373731 0.005489078 -0.05671133 -0.05592938 -0.06289868 -0.05147181
-0.0027984253 -0.03450349 -0.04813387 -0.0021084717 -0.0502296 -0.066959456 -0.04321924 -0.077043936
-0.022088768 -0.06656171 -0.110375255 -0.102107726 -0.10478889 -0.07464885 -0.026324587 -0.031373147
-0.047997247 0.017009305 -0.05541035 -0.04094129 -0.012902113 -0.07916237 -0.01876186 -0.065780304
-0.08608075 -0.0022085977 -0.01737615 0.001423305 -0.0070444997 -0.06303235 -0.036952484 0.0018805865
-0.05290777 -0.007817025 -0.031724922 -0.06803481 -0.061120212 -0.019230163 -0.07535307 -0.020355847
-0.054728914 -0.061564673 -0.04935872 -0.013446324 -0.015989313 -0.025874028 -0.03859039 -0.022285277
-0.039728142 -0.010835648 -0.084656104 -0.08357663 -0.13994077 -0.021335714 -0.00532584 -0.02541636
-0.0019321004 -0.05232268 -0.055852562 -0.007498871 -0.0025535133 -0.036664385 -0.057885278 -0.042900685
-0.062438164 -0.013879553 -0.018692406 -0.027879644 -0.050673652 -0.012941336 -0.07364757 -0.037016936
-0.04757442 -0.066778205 -0.01696311 -0.07543965 -0.017256545 -0.046039727 -0.047538612 -0.030785173

weight f4 [128]
00000000: 6de8 1c3f 971c de3e 7092 183f 450a 643f
00000010: 3daf 633e 470a d63e bbd4 ae3b 558b 473f
00000020: d58f bb3e 0ee2 d43e 507a d33e 5324 093f
00000030: ae1c 143d c66d 5f3f 7d40 f93e 455e 3f3f
00000040: e366 dc3e 5bad 1e3a 874c ae3e fe90 cb3e
00000050: d4d8 ef3e cd28 1c3f aeb8 433f 7128 313f
00000060: 4b4d 1e3f c806 3b3f 835f a23e e82e 8d3e
00000070: b580 5a3f 7722 6e3e f632 643f 692c f63d
00000080: 06b3 c13d 0e0d 0f3d bb7f 383f 51a4 4f3e
00000090: 1629 91bb b908 603f e98f 5b3e 83a1 4c3f
000000a0: b8c5 643f c5fb 663e bfad cc3e 4c02 163f
000000b0: 4043 f43e 08a3 243f 7b4a 163e eccc 333f
000000c0: 5591 01bc e1ef e83e f0d2 063f 4091 d43e
000000d0: 2be8 b33e a7d7 de3e e402 553f 5adb 253f
000000e0: 9c79 c83e 8ee6 4d3f 66ff 673f 9caf 403f
000000f0: 11a1 bc3e 8fd6 5b3f 3387 d73e 8cd5 b43e
00000100: bda4 a53e 26ff 4c3f 0c81 053f 8a0a 3d3f
00000110: fb0b 903e b912 133f e900 233f 0a11 4e3f
00000120: 7ced a43e a57c 27bb c993 5c3f adf7 65bb
00000130: 0f4b f73d 0df9 ca3e 64b2 ba3e 191f 553e
00000140: 1b39 d93e 238b 513f 4b9e 613f 77a7 243f
00000150: 3768 703e 76b4 843e 761c f23e 3bcd 293f
00000160: 2eb0 c23e ac77 b93e efb3 193f 47a6 343f
00000170: 8509 e13e c7be 213f 916f 003f 4388 bd3e
00000180: a60f 1c3e e708 4e3f 4f0c 553e c9cf a03e
00000190: a94e 383f f7ec 963d 4006 b1b9 1a6b 1b3f
000001a0: 1afb 4c3f 5697 6b3f 5498 4b3e c12d 303f
000001b0: 905e c5ba 9ec0 4b3f 270e 563e 8afe 903e
000001c0: 20cc 9b3e 94fc a63d f4e2 243f 1ac7 113f
000001d0: 6a8b 7a3e 60f2 de3e 4802 013f 75b7 573e
000001e0: e6b2 613e fe54 5a3f 4d7c 3c3e eb94 243e
000001f0: 172f 453f 048d 2d3f a70d 213e 5c7e e43e
0.61292154 0.43381187 0.59598446 0.8907817 0.22234817 0.41804716 0.005335418 0.7794698
0.36633173 0.41578716 0.41304255 0.5357105 0.036160164 0.87276876 0.48682013 0.7475322
0.43047246 0.00060530537 0.3404276 0.39759058 0.46845114 0.6099976 0.76453674 0.69202334
0.6183669 0.7305722 0.31713495 0.2757485 0.8535264 0.23255335 0.8914026 0.12020189
0.09457974 0.03492456 0.720699 0.20277525 -0.0044299467 0.8751331 0.21441616 0.7993395
0.89364195 0.2255698 0.39976308 0.58597255 0.47707558 0.64311266 0.1467685 0.7023456
-0.007908185 0.45495513 0.52665615 0.41517067 0.35138068 0.43523905 0.83207536 0.6478783
0.3915528 0.80429924 0.9062408 0.7526796 0.36841634 0.85874265 0.42095336 0.35319173
0.32352248 0.80076826 0.52150035 0.73844206 0.2813414 0.57450444 0.63673264 0.8049475
0.32212436 -0.0025556472 0.86163 -0.0035090253 0.12074863 0.39643136 0.36464226 0.20812644
0.4242638 0.8185293 0.8813216 0.6431803 0.23477255 0.2591893 0.4728734 0.6632878
0.3802504 0.36224115 0.6004018 0.7056622 0.43952575 0.6318173 0.50170237 0.37018022
0.15240344 0.80482334 0.20805477 0.31408527 0.71995026 0.07369416 -0.00033764727 0.607103
0.8007065 0.92027795 0.19882327 0.68819815 -0.0015058089 0.79590786 0.20903836 0.28319198
0.30429173 0.08153644 0.64408803 0.5694443 0.24467245 0.43544292 0.50394106 0.21066077
0.220409 0.8528594 0.18406792 0.16072433 0.7702498 0.677933 0.15727864 0.44627655

bias f4 [128]
00000000: e168 ee3d 5032 f83d 32b5 e6bd 8dd3 febd
00000010: 8df6 03be daab 03be ab6b a83e ed91 e6bd
00000020: 41de 0b3e ab65 ddbd 4368 12be b02f 173e
00000030: c931 193e aeb4 e93d 4d91 f2bd ca27 ea3d
00000040: b0d6 ea3d 929e 59b3 0265 fbbd 6a2d cfbd
00000050: 3285 ff3d 4380 f53d e616 f33d ec0c 05be
00000060: 5377 ed3d 501b f73d ab9a fbbd 23e1 f8bd
00000070: cef8 04be 82b6 003e 6f4f e63d bfd8 2cbe
00000080: e532 2d3e f772 1bbe 60e8 01be aefb dabd
00000090: 6689 98be 563e 003e 21d7 173e a082 dcbd
000000a0: 11ee e63d 736a 063e 44f9 efbd ff41 e4bd
000000b0: 73a5 153e c77a f3bd 129c 163e 9d21 013e
000000c0: 089c 88be d160 f33d c23c 043e 4092 e8bd
000000d0: d11c 023e a608 0cbe d84d e7bd 9128 183e
000000e0: 3762 203e 86de 0a3e ac9f 55be b53e e2bd
000000f0: 6f7b 0abe 9ce0 f8bd ce18 ef3d 3a6e f73d
00000100: 99fd fd3d eeae ed3d 8a4b eebd eb4a 043e
00000110: 5e0e 033e 8361 18be 6adb e6bd 1dba e6bd
00000120: 8f31 113e 9bf1 80bd 7f3b ed3d 9dec 1abe
00000130: 32d9 1dbe 259d 123e 0b4e 023e e024 cb3d
00000140: b291 fa3d 6ebc ec3d 7ee7 efbd d5e9 02be
00000150: 6a37 803e 109a 09be ec5a 013e e1c1 e3bd
00000160: bffd 053e 9d42 093e a3e4 e7bd 2fba dfbd
00000170: 0f72 163e 5bf9 033e dbc3 f63d 77c8 d2bd
00000180: 84bd 023e be0f d7bd db68 04be 1510 293e
00000190: a605 24be 388e febd 61cb 1f3e 555b eb3d
000001a0: eb74 f63d f57e f63d 3fed 1bbe 104b e9bd
000001b0: b011 14be 2024 dcbd 69c0 efbd 4a94 173e
000001c0: 2077 123e 2cc4 44be 2fc2 ee3d d76b f1bd
000001d0: e5bd 243e f14e ef3d 7bfa 01be 824c f1bd
000001e0: 0d97 07be dd59 fbbd a138 033e 1d88 0ebe
000001f0: cd72 eb3d 0453 eebd a479 513e ffc1 0c3e
0.11641098 0.12118971 -0.11265029 -0.12442694 -0.1288702 -0.12858525 0.32894644 -0.11258302
0.13659002 -0.10810407 -0.14297585 0.14764285 0.14960398 0.11411415 -0.1184412 0.114333704
0.1146673 -5.066847e-08 -0.12275125 -0.10116084 0.12476577 0.119873546 0.11869602 -0.1299321
0.11595025 0.12065756 -0.1228536 -0.121523164 -0.12985536 0.12569621 0.112456195 -0.16879557
0.16913946 -0.15180574 -0.126863 -0.10692535 -0.29792327 0.1252378 0.14828159 -0.10767102
0.11275876 0.13126545 -0.117174655 -0.111454 0.14613895 -0.11888652 0.14707974 0.12610479
-0.26681542 0.11883701 0.12913802 -0.1135602 0.12706305 -0.13675174 -0.112941444 0.14859225
0.15662466 0.13561448 -0.20861691 -0.11047117 -0.13523649 -0.12152216 0.11674653 0.12081571
0.124018855 0.11605631 -0.11635502 0.12919204 0.1279845 -0.14880948 -0.11272319 -0.11265967
0.14179061 -0.062960826 0.115836136 -0.15129323 -0.15414885 0.14317758 0.12725084 0.09919143
0.122348204 0.115593776 -0.117140755 -0.12784512 0.25042278 -0.13437676 0.1263234 -0.11120964
0.13085078 0.13404317 -0.11322906 -0.109241836 0.14691947 0.1288809 0.12049075 -0.10292142
0.12767607 -0.105010495 -0.12930624 0.16510041 -0.1601778 -0.1242947 0.15604927 0.114920296
0.12034019 0.12035934 -0.15227221 -0.1139127 -0.14459872 -0.10749078 -0.11706621 0.14802662
0.14303255 -0.19215459 0.11658131 -0.11788147 0.16088064 0.11684979 -0.12693207 -0.11782171
-0.13241215 -0.122729994 0.12814571 -0.1391911 0.11496506 -0.11636928 0.20456558 0.13745879

running_mean f4 [128]
00000000: 460b d13e adf9 b13d 8d0a 013d b1f7 3d3d
00000010: d71b e83d a0a7 10bb dd92 713e b0f7 4c3e
00000020: fe2d d23d a577 413e c5b1 c3bc ef2c bd3d
00000030: c395 1b3e 8f34 163f 1276 85bc 4898 433e
00000040: 0eab 7e3e 7ace 7c30 85a7 433d 58f4 af3e
00000050: fc42 873d c296 d63c 58d9 973e 59d6 bebb
00000060: a31d 903e e140 2a3e c2ca 9bbc 258f 463c
00000070: 28f0 923c 3766 c43d 5bb9 803e daaf 6d3c
00000080: 8920 3b3e 4543 dd3e 5242 083b 829a 723e
00000090: a2d1 863d 2060 5e3d e42a 003e c562 db3b
000000a0: 5205 743e 2721 863d a311 813c 2bff 693e
000000b0: 545c b63d a8b9 533d 3d3a 8d3d a730 cc3d
000000c0: 6bd0 133e f39f 023e 9521 1d3d 07f7 3f3e
000000d0: 9697 803c bb04 b23d 282c ce3b fe2d 24bc
000000e0: 7d8b 123e 680e bc3d 2cc1 99b9 16d9 bb3b
000000f0: 3462 e4bc ed72 f03c fbd0 383e 684c d23d
00000100: 391f 173e cf90 a63e f458 973d 116e 623d
00000110: b972 983e b354 dfbb 5f2f 5c3c e035 a83d
00000120: 1517 85ba 5b35 143d f40a ab3d 39b2 383e
00000130: 6814 e93d da2f be3d 04a3 d13d e883 e63d
00000140: 06a8 26ba 93ff 353e ac52 0e3d 2382 aa3c
00000150: 356e 4d3d 0247 a73e 9341 513c 6454 a23d
00000160: a03d 003d 4358 0c3d d628 543e 69ba b43c
00000170: 446c c63e 600b 923d 858f f03d f1e1 a23d
00000180: c416 553e 39ba bc3e 0f7d a1bb 6764 583d
00000190: 2509 f1bc 00a5 8d3e 5f59 07b9 44bc a73e
000001a0: b7e2 c73d 4afe 2b3c ad79 8d3e 3cbe 993d
000001b0: 58cf c03c 22b4 aa3c db24 31bb 60fa ff3d
000001c0: 51f4 5f3d dea6 263e 0b01 873e b73a edbb
000001d0: 50ad ed3d a844 7a3e b602 96bc 6b8b 7c3d
000001e0: 20ce e33d 4b67 d83c 280e d93d 9e0d 963d
000001f0: e8d4 443e 44bb ea3c 9fda 8a3d 95a9 b43d
0.40828913 0.086902 0.031504203 0.046378795 0.11333435 -0.0022072569 0.2359118 0.2001636
0.102626786 0.18893297 -0.023888478 0.09237086 0.15193848 0.5867395 -0.016291652 0.1910106
0.2486994 9.1970487e-10 0.04776718 0.34366107 0.06604573 0.026194934 0.29658008 -0.005823892
0.2814761 0.16626312 -0.01901758 0.012119089 0.017936781 0.095898084 0.25141415 0.014507258
0.1827413 0.43215385 0.0020791483 0.23691753 0.06582953 0.05429089 0.12516361 0.006695124
0.23830155 0.06549292 0.01575548 0.22851245 0.08904329 0.051690727 0.06895874 0.09970217
0.14434974 0.12756328 0.038362104 0.18746577 0.015697282 0.086923085 0.006291885 -0.010020731
0.14311023 0.09182435 -0.00029326358 0.005732666 -0.027878858 0.029351676 0.1804847 0.102684796
0.14758004 0.32532355 0.07390013 0.05528075 0.29775026 -0.006815517 0.0134390285 0.08213401
-0.0010153974 0.036183696 0.083516985 0.18036737 0.11380845 0.09286471 0.10236171 0.11255628
-0.0006357435 0.17773275 0.03474681 0.020814007 0.05015393 0.32671362 0.012771982 0.079262525
0.03130877 0.03426386 0.20718703 0.022061544 0.38754475 0.07131076 0.11746124 0.07953251
0.20809466 0.36860827 -0.004928238 0.052830126 -0.029423306 0.27664948 -0.00012907897 0.32760823
0.09760039 0.010497639 0.27631894 0.075069875 0.02353637 0.020837847 -0.0027030024 0.12498927
0.054676358 0.16274592 0.26367983 -0.0072396654 0.11605322 0.24440253 -0.01831184 0.061656397
0.111232996 0.026416441 0.10598403 0.07326816 0.19221842 0.028653748 0.0677998 0.08821408

running_var f4 [128]
00000000: 914e 143f 287d d33d b146 9b3d 7161 e23d
00000010: d2ee b23e bfc6 c03c 9add 993d 3af7 b93e
00000020: ab7c ca3d e5d7 113e 2a43 803c 6488 0a3e
00000030: 370e bc3d ee07 203f 97a9 e73b a87d 843e
00000040: b66f a83e cc6b 7622 3c9f cd3d 0c3f 683e
00000050: 5839 a43d 6267 5a3d dc73 9f3e cd96 d13c
00000060: 9993 153f 9057 9e3e aa5f 673c 7c12 863d
00000070: 56f7 8a3d e2f9 9a3d a737 803e b668 093d
00000080: 8868 0f3e 1ea4 203f 2329 ee3c 7678 743e
00000090: 6f2b 9b3c 44e2 d03d 8657 3f3e 5f49 463d
000000a0: 8cd0 043f 7163 083e 3337 ba3d f4d6 bc3e
000000b0: 7601 d63d 4889 c83d 72cb f13d 91ab 2d3e
000000c0: f484 b13d f572 7b3e a783 813d 08ff 6c3e
000000d0: 75cd 1b3d 35bf 2d3e 5462 0e3d c3c5 f13b
000000e0: 0ee7 f83d b1aa 023e 7764 9b3d 9444 343d
000000f0: a1ba 5d3b a1b2 ed3d 3ff0 ae3e 10bb 003e
00000100: 1b3a 7b3e 1741 c83e f253 e43d 4ea3 8a3d
00000110: 8fa0 db3e 9d75 db3c 193b dd3c a533 8e3e
00000120: 0b60 493c 31df b63b e9e9 e53d f1b3 a13d
00000130: 2481 023d fe84 373e e704 f23d f4e3 7d3d
00000140: 3c85 373c f648 383e 8a02 da3d c0c4 8a3d
00000150: bbac 2b3d 5ab2 e43e 3672 c13c 395f 013e
00000160: 2fff 283d a86c 273d 28d2 c13e d36b bf3c
00000170: 0346 103f cf28 a93d 9892 1e3e bd3b 683d
00000180: 4ae4 843e e518 a73e 4a63 fd3c f47d b03d
00000190: 7dea 6d39 4f92 ff3e d61a 9138 8e1d 173f
000001a0: 5576 033e ef99 b13c df91 dd3e 4919 c23d
000001b0: 7268 8f3b 4c7d 543d cb00 7c3c 08e0 2d3e
000001c0: 122f a33d ada2 523d 9b30 0c3f 2e7d 973c
000001d0: 25ff 083e 818c a33e edec e63b f63c 6b3d
000001e0: be3a dc3d b96c bb3d d661 ae3d 1156 3d3e
000001f0: 3d1f 8d3e 733e b93d 31a0 8c3d b17d c83d
0.5793238 0.10326606 0.07581843 0.11053742 0.3494783 0.02353227 0.0751297 0.3632143
0.0988706 0.14242513 0.015657026 0.13528591 0.09182399 0.625121 0.007069777 0.25877118
0.3289773 3.3396284e-18 0.10040137 0.226803 0.0801875 0.05332125 0.3114308 0.025584603
0.5842834 0.3092618 0.014121929 0.06546494 0.06785457 0.075671926 0.2504246 0.033547126
0.1400472 0.6275042 0.02907235 0.23874077 0.01894161 0.10199407 0.18685731 0.048409816
0.5188072 0.13319184 0.0909256 0.36882746 0.104494974 0.09791809 0.11806382 0.16959979
0.08667937 0.24555571 0.06323939 0.23144162 0.038037736 0.16967471 0.03476174 0.0073783114
0.12153445 0.12760426 0.075875215 0.044010714 0.0033833163 0.116063364 0.34167668 0.12571359
0.24533884 0.3911216 0.11148824 0.06769429 0.42895934 0.02678948 0.027005719 0.27773777
0.012290965 0.0055808057 0.112262554 0.07895649 0.03186144 0.17921826 0.11817341 0.06198497
0.011201199 0.17996582 0.106450155 0.06775808 0.041912775 0.4466732 0.02361403 0.12633981
0.041258987 0.040875107 0.3785565 0.023366844 0.5635683 0.08259737 0.15485609 0.056697596
0.2595542 0.3263618 0.030931134 0.08617774 0.00022689435 0.49916312 6.9191374e-05 0.5902947
0.12838109 0.021679847 0.43275353 0.09477479 0.0043764645 0.051877305 0.015381048 0.16979992
0.07967962 0.05142467 0.54761666 0.018492308 0.1337858 0.31943133 0.0070472867 0.057431184
0.10753392 0.091515966 0.085147545 0.18489863 0.27562895 0.09045114 0.068664916 0.09789599

weight f4 [1, 128, 1, 1]
00000000: 7b9f a8be 4243 93be 8a0f 853e 0176 793e
00000010: 1d3b 5a3e 232c 8f3e 74f1 99be 1603 833e
00000020: cb0a 83be b425 e43d ac07 8f3e 6b9b 4cbe
00000030: f058 68bd eec0 6ebe a0f0 a73e 96f4 90be
00000040: c107 64be 5b18 d3ac a5b3 8f3e c7f6 5a3d
00000050: bdb8 74be 3f81 5fbe 913e 7cbe a242 b63e
00000060: e805 63be 446e 5bbe e0dd c33e 429f cb3e
00000070: 6d1d 913e ce28 67be adf4 35be 7a85 a23e
00000080: 2904 7cbe 3acb 543e 80ae 193e a25a ec3d
00000090: 3824 a73e 2206 92be 7cc5 60be 396f 073e
000000a0: aa1f 97be 315a 03be 50ab b03e 3476 9b3e
000000b0: a6b2 6dbe 9679 ab3e 6818 c1be 67b6 9bbe
000000c0: be34 863e d1d4 c8be 2c10 8dbe 098a 913e
000000d0: a834 aebe 3189 bc3d dffd 493e ae19 21be
000000e0: 3cf6 98bd 479a 2ebe 941e 383e 3529 033e
000000f0: f052 e23e 6f29 953e be05 83be 1310 93be
00000100: a62d d3be bfcd 37be b4aa 1e3e 0c46 4abe
00000110: 009c a2be 55e2 803e 73a5 9c3e 4f9d 923e
00000120: 00d4 91be 47ff e73c 61cb abbe 6dbd c83e
00000130: 69a7 383e e966 3abe b664 d5be 18b7 c0bc
00000140: bf32 18be c0df 3cbe cf9e b83e 9546 283e
00000150: cfc0 2ebe 6e4c 843d 4e24 81be 577f 5a3e
00000160: b8e5 4fbe c145 54be 6a77 563e 7b32 513e
00000170: 8698 aabd 88af cbbe 3c95 57be 3f36 3b3d
00000180: fbd7 bebe 6bad cc3d 6da8 c03e d418 94be
00000190: 55e0 d93d 701a 723e 976a bcbe f54a 6cbe
000001a0: 4ad8 a2be 5617 8abe 6cf5 833e 1e4c 813e
000001b0: c4c3 d83e ddb0 003e e318 733e 031d c5bd
000001c0: 0128 adbe b4bc fb3d 902a bcbe 79f7 a13e
000001d0: 88ca 95be 2f88 a9be 5d64 b13e 6103 b33e
000001e0: 5721 f43e a65f 543e f617 41be 1a8b 8f3e
000001f0: 5673 6ebe 04f4 583e 8fe4 90be dcc9 33be
-0.32934174 -0.2876225 0.25988418 0.24361421 0.21311612 0.2796336 -0.30067027 0.25588292
-0.25594172 0.11140004 0.2793554 -0.19981162 -0.056725442 -0.23315784 0.3280077 -0.28311604
-0.22268583 -5.9996847e-12 0.28066745 0.053458 -0.23898597 -0.21826647 -0.24633242 0.35597712
-0.22170222 -0.21428782 0.38255215 0.39769942 0.28342763 -0.2257416 -0.17769118 0.3174246
-0.24610962 0.2078065 0.15007973 0.11540724 0.3264482 -0.28520304 -0.21950334 0.13226022
-0.29516345 -0.12827374 0.345057 0.3036362 -0.2321268 0.334912 -0.37713933 -0.304126
0.26212114 -0.39224866 -0.275514 0.28425625 -0.3402455 0.09205855 0.1972575 -0.15732452
-0.074688405 -0.1705104 0.17980415 0.12808688 0.442039 0.29133174 -0.25590318 -0.287232
-0.41245764 -0.1794958 0.15494806 -0.19753283 -0.31759644 0.25172678 0.30594978 0.28635642
-0.28482056 0.028319968 -0.33553603 0.3920702 0.18032612 -0.1820332 -0.416784 -0.023524806
-0.14863108 -0.18444729 0.3605866 0.16433175 -0.17065738 0.0645989 -0.2522301 0.21337639
-0.20302474 -0.20729734 0.2094399 0.20429413 -0.08329873 -0.39782357 -0.21053022 0.04570603
-0.37274155 0.09994014 0.376285 -0.28925192 0.10638491 0.23642898 -0.36800072 -0.23075469
-0.3180564 -0.2697093 0.2577318 0.25253385 0.42336857 0.12567468 0.23739962 -0.09624674
-0.33819583 0.12291852 -0.36751223 0.3163412 -0.29256082 -0.33111712 0.34646884 0.34963515
0.47681686 0.20739612 -0.18856797 0.28035814 -0.23286185 0.21186835 -0.28299376 -0.17557472
