data/ball_data/model_5500.pth (torch_old, 853498 bytes, 13 tensors)

weight f4 [64, 1, 5, 5]
0	0xbdb4e763	-0.08833196
1	0x3c8d3206	0.017235767
2	0x3ca6f87c	0.020382158
3	0x3c636378	0.013878696
4	0x3d2b18e2	0.041771777
5	0xbddd6fb1	-0.10812319
6	0xbdbdfeab	-0.0927709
7	0x3df756fb	0.12077137
8	0x3d865c7d	0.065606095
9	0x3da126b5	0.07868711
10	0xbe1d673f	-0.15371417
11	0xbcbb32fd	-0.022851462
12	0xbda61b30	-0.08110654
13	0x3d806551	0.062693246
14	0x3d920586	0.0712996
15	0xbe3d745d	-0.1850142
16	0xbe0926d0	-0.13393712
17	0x3d1f70de	0.038925998
18	0xbd0dcf8d	-0.034621764
19	0x3d3eec28	0.046611935
20	0x3d27aa4c	0.040933892
21	0xbda685d9	-0.08130998
22	0xb9bfa630	-0.00036554178
23	0xbc30ba55	-0.0107866125
24	0x3c623998	0.013807677
25	0x3e335998	0.17514646
26	0xbdf37919	-0.11888332
27	0x3d02e765	0.031958956
28	0xbd4ff1a0	-0.05076754
29	0x3c021316	0.007939121
30	0x3df7d276	0.12100689
31	0x3d7515ef	0.05983537
32	0xbdb44c06	-0.08803563
33	0xbdf35ea4	-0.11883286
34	0x3d90ed85	0.07076553
35	0x3dbf9a9c	0.09355661
36	0x3cf88927	0.030338837
37	0xbdd4e407	-0.10395055
38	0xbd40c372	-0.04706139
39	0xbd3ea731	-0.046546165
40	0xbdc0523d	-0.09390686
41	0x3d15d1b4	0.03657694
42	0xbb714ae3	-0.0036818318
43	0xbd0345c5	-0.03204896
44	0x3dae379d	0.08506701
45	0x3c9a4ca3	0.018835371
46	0x3db94c60	0.090477705
47	0xbba7d160	-0.005121395
48	0xbd954bb1	-0.072898276
49	0x3ac52e2c	0.0015043668
50	0x3df7cdd7	0.12099808
51	0x3d480e0c	0.04884152
52	0xbb9b86ac	-0.0047462787
53	0xbdd0a0b2	-0.101869
54	0x3b1983d2	0.0023424518
55	0xbcc66004	-0.024215706
56	0x3e0dbd7f	0.13841818
57	0x3df04719	0.11732311
58	0xbdfcba73	-0.1234025
59	0xbd846b5d	-0.064657904
60	0x3d3d66df	0.046240684
61	0x3d9bb658	0.07603139
62	0x3d09a888	0.03360799
63	0xbdb9789d	-0.09056208
64	0x3bae4a85	0.005318942
65	0x3d0da261	0.034578685
66	0xbd99879b	-0.07496568
67	0xbd996f9a	-0.074919894
68	0x3d194b3b	0.03742526
69	0xbda72646	-0.08161597
70	0x3d557a8a	0.052118815
71	0x3d1c95e4	0.038228884
72	0x3e3339d5	0.1750253
73	0xbd26f375	-0.040759522
74	0x3d792b30	0.060832202
75	0xbda6cbd5	-0.081443466
76	0xbdda85e2	-0.10670067
77	0x3cfc7422	0.030817095
78	0xbd697481	-0.056995872
79	0xbe2412c3	-0.16022782
80	0x3d88a0e4	0.066713125
81	0xbd1bfb81	-0.03808165
82	0x3c325975	0.010885586
83	0xbd51c010	-0.051208556
84	0xbe04940c	-0.129471
85	0xbb1c28fb	-0.0023828137
86	0xbbbc6f90	-0.005750604
87	0xbd232121	-0.039826516
88	0xbcb7d778	-0.02244161
89	0x3d4dd04c	0.050247476
90	0x3c5af5c4	0.013364259
91	0xbdb6ad06	-0.0891972
92	0xbdbcb857	-0.092148475
93	0xbd27e0dc	-0.040985927
94	0xbd997a22	-0.07493998
95	0x3d7b7574	0.06139131
96	0xbd7df474	-0.062000707
97	0x3dc5f975	0.09666721
98	0x3d0eba46	0.034845613
99	0xbd60e560	-0.05490625
100	0xbd0c1da7	-0.034207966
101	0xbc7a5a1b	-0.015280272
102	0xbab80080	-0.0014038235
103	0x3d730f7d	0.059340943
104	0x3d1fac0f	0.038982447
105	0xbc97b651	-0.018519552
106	0x3c840d24	0.016119547
107	0x3d807e17	0.0627405
108	0xbdc61672	-0.0967225
109	0xbd5050ee	-0.05085843
110	0xbd53eacf	-0.051737603
111	0x3e5a8d61	0.21342994
112	0x3cb27322	0.021783415
113	0xbdd24f35	-0.10269014
114	0x3db3736f	0.087622516
115	0x3ceb4078	0.028717265
116	0x3de92667	0.11384278
117	0xbde40385	-0.11133484
118	0xbe19224a	-0.14954486
119	0xbd29e4da	-0.041478015
120	0xbd43b669	-0.04778138
121	0xbd3e10ab	-0.046402615
122	0xbdaf49b5	-0.085589804
123	0x3d369b6a	0.04458181
124	0x3e2fd03c	0.17169279
125	0x3d97852a	0.07398446
126	0xbc38add7	-0.011271915
127	0xbdc64658	-0.09681386
128	0x3cc556d8	0.024089262
129	0xbcbbd1ee	-0.02292725
130	0x3cfcfa52	0.03088108
131	0xbba89afe	-0.0051454296
132	0xbd6f3753	-0.05840237
133	0x3da870ee	0.08224665
134	0x3d56cf79	0.052443955
135	0xbd14e63b	-0.036352377
136	0xbc922ce4	-0.017843671
137	0x3e07bc7f	0.132555
138	0x3e1a850b	0.15089814
139	0x3d24076f	0.04004615
140	0xbd9cb382	-0.07651426
141	0xbe5ca3bc	-0.21546835
142	0xbe1c0e3d	-0.15239806
143	0xbd5b4e78	-0.05354163
144	0xbd5bad6a	-0.053632177
145	0x3da76bfd	0.08174894
146	0xbd6b3e93	-0.057432722
147	0x3d71db40	0.059046984
148	0x3df34fe0	0.11880469
149	0xbd32efea	-0.04368583
150	0xbdba41b3	-0.090945624
151	0x3a5bc0c9	0.0008382914
152	0xbbb4a3a3	-0.005512671
153	0xbd557f4f	-0.052123364
154	0x3c1b7b68	0.009489872
155	0xbca15da2	-0.019697968
156	0x3d611de8	0.05496016
157	0x3cf60c32	0.030035112
158	0x3da06863	0.0783241
159	0x3dcd2946	0.10017638
160	0x3c3dd0b3	0.011585402
161	0xbd429416	-0.047504507
162	0xbcf67ded	-0.030089343
163	0x3daaa762	0.08332707
164	0xbab6d587	-0.0013949134
165	0xbc91358b	-0.017725727
166	0x3bbf34b1	0.0058351387
167	0x3c7fd7e9	0.015615442
168	0x3d30f3fc	0.04320143
169	0x3cc54f73	0.024085736
170	0xbdfadcd7	-0.12249153
171	0xbe218c31	-0.15776135
172	0xbda19cc9	-0.078912325
173	0xbd262e89	-0.040571723
174	0x3cba0bff	0.022710798
175	0xbd9bfd59	-0.076166816
176	0x3d82914c	0.063753694
177	0xbde7af62	-0.113127485
178	0xbdbc0772	-0.091811076
179	0xbdde1c83	-0.10845282
180	0xbdbde9b9	-0.09273095
181	0xbd2b114f	-0.041764554
182	0x3cad19a8	0.021130398
183	0xbc39d106	-0.011341339
184	0x3dc8dde1	0.09807945
185	0x3ddbfe76	0.10741894
186	0x3e113bdc	0.14182991
187	0x3d479556	0.048726402
188	0x3e06152d	0.13094015
189	0xbbdd0860	-0.006745383
190	0x3c58c203	0.01322985
191	0x3da6ccd3	0.08144536
192	0x3d4d78fa	0.0501642
193	0xbca0b71d	-0.019618565
194	0x3cc7946b	0.024362763
195	0xbdedc1ae	-0.11609207
196	0xbb56d222	-0.0032779058
197	0xbdeb8509	-0.11499984
198	0x3cfbe71f	0.030749856
199	0x3d8b9f17	0.06817453
200	0x3d42830a	0.04748825
201	0x3dc566a0	0.09638715
202	0x3ddfb23b	0.10922667
203	0x3d67d50d	0.056599665
204	0x3dffbf96	0.12487714
205	0xbb374de1	-0.0027970003
206	0xbd8b4732	-0.06800689
207	0xbd64fe8d	-0.05590682
208	0xbd8a29a8	-0.067462265
209	0x3d9008df	0.07032942
210	0xbda40b30	-0.08009946
211	0xbc7c7be8	-0.015410401
212	0xbda5b793	-0.08091655
213	0xbdefe4ae	-0.11713539
214	0xbd5c0925	-0.05371966
215	0xbe18315d	-0.1486258
216	0xbdc69b7e	-0.096976265
217	0xbd337a37	-0.043817725
218	0x3d02cb38	0.031932086
219	0xbb827598	-0.0039813034
220	0x3d5789d2	0.05262167
221	0x3e044f48	0.12920868
222	0x3d2dbccc	0.04241638
223	0x3d4bad99	0.049726103
224	0x3db08479	0.08619017
225	0x3df119d1	0.11772502
226	0xbd359066	-0.044327162
227	0x3e0c97db	0.13729803
228	0x3e342a94	0.17594367
229	0x3d1d904a	0.038467683
230	0x3d4700d8	0.04858479
231	0xbe3f8171	-0.18701722
232	0xbdbc9ba1	-0.09209371
233	0xbd261beb	-0.04055397
234	0xbd92ca88	-0.07167536
235	0xbc4fcdee	-0.012683375
236	0xbe0d44c0	-0.13795757
237	0x3a7e5952	0.0009702641
238	0x3cd7ef61	0.026359262
239	0x3c727ef3	0.014800775
240	0x3e09274c	0.13393897
241	0xbe06711b	-0.13129084
242	0xbd9000b9	-0.07031388
243	0x3d83e55a	0.0644023
244	0x3d04b8fc	0.032402977
245	0x3d58e501	0.05295277
246	0xbd7a4c39	-0.061107848
247	0x3ca27f72	0.019836161
248	0xbd0c49f3	-0.03425021
249	0xbc83469d	-0.016024882
250	0xbd99334e	-0.07480489
251	0xbd6abc2a	-0.057308353
252	0x3cece92e	0.028919782
253	0xbc26801d	-0.0101623805
254	0xbd3c591d	-0.045983423
255	0x3ce4878c	0.027896665

bias f4 [64]
0	0xbe04b732	-0.12960508
1	0xbc8ef9af	-0.017453043
2	0xbd97cf8c	-0.07412633
3	0xbe1a2a9e	-0.1505532
4	0xbdb1086d	-0.08644185
5	0xbd3b727a	-0.04576347
6	0xbdbffb85	-0.093741454
7	0x3ccdaca6	0.02510674
8	0xbd9b104d	-0.075714685
9	0xbd1c9c46	-0.03823497
10	0xbda7b428	-0.08188659
11	0xbddec17b	-0.10876747
12	0xbe121ee4	-0.14269596
13	0xbde98c30	-0.11403692
14	0xbe194b57	-0.14970146
15	0xbd396556	-0.045262657
16	0xbdfd2df2	-0.12362279
17	0xbcf04f4b	-0.029334685
18	0xbdff5423	-0.1246722
19	0xbdcde00f	-0.100525014
20	0xbcef8fdd	-0.029243404
21	0xbd2b6bdb	-0.041850906
22	0xbdfa05d1	-0.12208141
23	0xbca1bf4e	-0.019744541
24	0xbdaf08ff	-0.08546638
25	0x3d0a46c2	0.033758886
26	0xbdd29892	-0.10283007
27	0xbded1b62	-0.115774885
28	0xbd18b4b3	-0.037281703
29	0xbe35559a	-0.17708436
30	0xbd7daa33	-0.061929893
31	0x3cae4648	0.021273747
32	0x3c3e8b10	0.011629835
33	0xbd906d1a	-0.070520595
34	0xbe03ca8c	-0.12870234
35	0xbc4c7922	-0.012480052
36	0xbe35470b	-0.17702882
37	0xbdb811eb	-0.089877926
38	0xbe32fb31	-0.17478634
39	0xbd43f56b	-0.04784147
40	0x3c5517e7	0.013006187
41	0xbdb3c9f9	-0.087787576
42	0x3bae8a06	0.0053265123
43	0xbdb266c6	-0.08711009
44	0xbd9d7ca2	-0.076897874
45	0xbc9dc201	-0.019257547
46	0xbe7005e1	-0.23439743
47	0xbd461f02	-0.048369415
48	0xbdcf1189	-0.101107664
49	0xbdf4a3e9	-0.11945326
50	0x3d4d2990	0.050088465
51	0xbc69bd92	-0.0142663885
52	0xbe8100d6	-0.2519595
53	0x3c6e6296	0.014549872
54	0xbdfbf4bb	-0.12302538
55	0xbd678396	-0.056521975
56	0xbd8106a8	-0.06300098
57	0xbdf82fda	-0.12118502
58	0xbc34a0a0	-0.011024624
59	0xbdd2e3a6	-0.10297327
60	0xbe541ae5	-0.20713384
61	0x3c621f17	0.013801358
62	0xbdea3b5f	-0.114371054
63	0xbc4562ac	-0.012047451

weight f4 [64]
0	0x3ee06542	0.43827254
1	0x3eed6f5c	0.46374023
2	0x3e8365c8	0.2566359
3	0x3f06141b	0.5237443
4	0x3ef93b60	0.48678112
5	0x3ef42934	0.47687685
6	0x3db97b50	0.09056723
7	0x3f130272	0.57425606
8	0x3f31f26e	0.69510543
9	0x3f10ac3b	0.565128
10	0x3f0e0759	0.5547996
11	0x3f2b98d9	0.670301
12	0x3ed2a842	0.41143996
13	0x3f20cddf	0.62814134
14	0x3e418331	0.18897702
15	0x3ee42059	0.4455593
16	0x3f03274d	0.51231843
17	0x37974df0	1.8036895e-05
18	0x3f41b3ac	0.7566478
19	0x3db1cd71	0.08681763
20	0x3f08ba66	0.5340942
21	0x3f1ad655	0.60483295
22	0xbba9bfe3	-0.0051803454
23	0x3f2a746c	0.66583896
24	0x3f56be08	0.83883715
25	0x3eb1b524	0.34708512
26	0x3ea115a9	0.31461838
27	0x3c1737fc	0.009229656
28	0x3f26a233	0.65091246
29	0x3f5022dd	0.813032
30	0x3d2d13b9	0.042255137
31	0x3a6881a5	0.0008869416
32	0x3dbdeec1	0.09274054
33	0x3f1d9d1a	0.6156784
34	0x3ef303e2	0.474639
35	0x3f3775e6	0.71664274
36	0x3e915492	0.28384835
37	0x3e81d5e2	0.25358492
38	0x3d1800b4	0.037110046
39	0x3f40168a	0.7503439
40	0x3ef6566c	0.4811281
41	0x3e81b1e9	0.25331047
42	0x3e933a0b	0.2875522
43	0x3e4cf1bd	0.20014091
44	0x3ecd90fa	0.4014967
45	0x3f2b524d	0.66922456
46	0xbde605f3	-0.112316035
47	0x3f3a0e00	0.7267761
48	0x3e7c5e3c	0.24645323
49	0x3f1b023d	0.6055029
50	0x3ed8498f	0.4224362
51	0x3e9e5721	0.3092585
52	0x3ec4b99b	0.38422856
53	0x3d2eb979	0.04265735
54	0x3efb0e73	0.4903446
55	0x3f0c7657	0.5486807
56	0x3efcaedc	0.49352157
57	0x3e8763d9	0.26443365
58	0x3f22fe34	0.63669133
59	0x3e9d079f	0.30669877
60	0x3f10fdda	0.56637347
61	0x3f1f3e2a	0.6220423
62	0x3f18d93a	0.5970646
63	0x3f4da759	0.8033348

bias f4 [64]
0	0x3d140438	0.036136836
1	0x3d5df33d	0.05418705
2	0x3c0becbc	0.008540329
3	0x3e8853a4	0.26626313
4	0x3e2ac7a7	0.16677724
5	0x3e15c0c3	0.14624314
6	0x3d1d3b6b	0.038386744
7	0x3df27e29	0.118404694
8	0x3e5d4b76	0.21610817
9	0x3e39fbc7	0.18162452
10	0x3e32aeba	0.17449465
11	0x3e945003	0.28967294
12	0x3c2c3c87	0.010512478
13	0x3df7ce7a	0.12099929
14	0x3e953025	0.29138294
15	0x3db7a92d	0.089678146
16	0x3e651b63	0.22373728
17	0xb99d1361	-0.00029959812
18	0x3e32e9d7	0.17472015
19	0x3c4dc004	0.012557987
20	0xbcd5a09f	-0.026077567
21	0x3e631696	0.22176585
22	0xbe2e796a	-0.17038503
23	0x3e0752b7	0.13215147
24	0x3e40ea7d	0.1883945
25	0xbe1b3508	-0.15156949
26	0x3ddce21c	0.107853144
27	0x3a5a2fc8	0.000832316
28	0xbdfb1b1a	-0.122610286
29	0x3e0c4dde	0.13701579
30	0x3ba1244b	0.0049176565
31	0xb9d77cd7	-0.00041101009
32	0xbc5e37be	-0.013563095
33	0x3d774e2f	0.060377296
34	0x3c649be1	0.01395318
35	0x3e01adfa	0.12664023
36	0x3e3f135d	0.1865973
37	0xbc247e29	-0.010039845
38	0xbe77e2fc	-0.24207681
39	0x3dae4a86	0.08510308
40	0xbcfa28ca	-0.030537028
41	0xbdf75c6f	-0.12078177
42	0x3e069f48	0.13146698
43	0xbd87ce19	-0.06631107
44	0x3e49fcd0	0.19725347
45	0xbd9858b7	-0.07438796
46	0xbec31496	-0.38101643
47	0x3e9de118	0.30835795
48	0xbd0f797f	-0.035027977
49	0x3d93a974	0.07210055
50	0x3e157149	0.14593996
51	0x3d149cc6	0.036282323
52	0x3e166f07	0.14690791
53	0x3ba29b7f	0.0049623842
54	0x3e47e442	0.19520667
55	0x3d95aab5	0.073079504
56	0x3d45b85c	0.048271522
57	0x3d49b900	0.049248695
58	0x3e6a27fe	0.22866818
59	0x3b97d3ed	0.004633418
60	0xbe11e583	-0.14247708
61	0x3e083b7d	0.13303943
62	0x3d95afd5	0.07308928
63	0x3d7d04f6	0.06177231

running_mean f4 [64]
0	0x3d208bf8	0.039195985
1	0x3cbd3f99	0.023101615
2	0x3ccbc488	0.024873987
3	0x3d7712a5	0.060320515
4	0x3b9b482b	0.0047388277
5	0x3c953e59	0.018218206
6	0x3ca3428d	0.019929195
7	0x3d38f36d	0.045154024
8	0x3ca2d2d3	0.01987592
9	0x3c97dc3d	0.018537635
10	0x3bf17d77	0.007369693
11	0x3bc37350	0.005964674
12	0x3b493f49	0.0030707887
13	0x3cd0dd11	0.025496038
14	0xb9195f44	-0.00014626706
15	0x3cbda29e	0.023148831
16	0x3bb1fab4	0.0054314975
17	0x3b232751	0.002489526
18	0x3c605fc4	0.013694707
19	0x3a376b62	0.0006996897
20	0x3d029d8a	0.031888522
21	0x3c8dc88d	0.017307544
22	0xb9b14c69	-0.00033817
23	0x3d78500b	0.06062321
24	0x3c827d7c	0.015928976
25	0x3d94560f	0.07242977
26	0x3aea2691	0.0017864277
27	0xba7495fc	-0.0009330211
28	0x3d22c1e3	0.039735686
29	0x3ca540c5	0.020172486
30	0x3bb57a6d	0.005538276
31	0x3cc99515	0.02460722
32	0x3cee45ef	0.029086081
33	0x3cb64e46	0.02225412
34	0x3c2e49dc	0.010637727
35	0x3dbe6ecc	0.092984766
36	0x3c93cb51	0.018041285
37	0x3b4fe2a5	0.0031720784
38	0x3ccc3e9f	0.024932204
39	0x3cd3aa30	0.025837988
40	0x3cf0c306	0.02938987
41	0x3bef8a0a	0.0073101567
42	0x3d9002be	0.07031773
43	0x3c4e12ee	0.012577755
44	0x3b75e0af	0.0037517955
45	0x3cfb65fa	0.030688275
46	0x3ab669c4	0.0013917019
47	0x3c2501c5	0.010071223
48	0x3caa5529	0.02079256
49	0x3c9e03c3	0.019288903
50	0x3d99918c	0.07498464
51	0x3ce94ed4	0.028479971
52	0x3c434774	0.011918891
53	0x3cf9cedb	0.030494144
54	0x3bb10d7a	0.005403218
55	0x3cdf3938	0.027248964
56	0x3caa78a7	0.020809485
57	0x3c814307	0.015779031
58	0x3d2c7aea	0.042109407
59	0x3c8e91c4	0.01740349
60	0x3c87479d	0.01651364
61	0x3d388da1	0.045056943
62	0x3b49e9e5	0.0030809578
63	0x3d132783	0.035926353

running_var f4 [64]
0	0x3c22c50e	0.009934677
1	0x3b6d6ef1	0.0036229456
2	0x3b9cffc3	0.0047912314
3	0x3c683be3	0.014174434
4	0x3a2b9670	0.0006545549
5	0x3b2e5b6d	0.0026604787
6	0x3b5766ac	0.0032867594
7	0x3bc0505d	0.005868955
8	0x3b87b7ae	0.0041417694
9	0x3b462a67	0.0030237676
10	0x3a8eaf33	0.0010885954
11	0x3a961b0f	0.0011452156
12	0x3a2ec000	0.00066661835
13	0x3bb57442	0.0055375407
14	0x39181634	0.00014504121
15	0x3b401c0d	0.0029313595
16	0x3a93a577	0.0011264522
17	0x38cded8f	9.8194105e-05
18	0x3b591342	0.003312305
19	0x391156ac	0.00013860565
20	0x3b42845f	0.002968095
21	0x3ae70585	0.0017625546
22	0x3800577e	3.059906e-05
23	0x3c3ecdbc	0.011645731
24	0x3b2a9057	0.0026025975
25	0x3c8c6d37	0.017141921
26	0x39b1f63d	0.00033943533
27	0x36af5912	5.2257756e-06
28	0x3c31036c	0.0108040385
29	0x3b80f2bf	0.0039351876
30	0x39c7ce3e	0.000381099
31	0x3a4bda66	0.00077763794
32	0x3b2f2b36	0.0026728637
33	0x3b81f43a	0.0039658817
34	0x3ace2bf4	0.0015729652
35	0x3c6f4c3d	0.014605579
36	0x3b64aa71	0.003489163
37	0x3a229ce8	0.00062031904
38	0x3bc13151	0.0058957716
39	0x3b909aef	0.004413001
40	0x3b5f288b	0.0034051265
41	0x3a944145	0.0011310956
42	0x3c387a6f	0.011259659
43	0x3b2e4eac	0.0026597185
44	0x39f70484	0.00047114876
45	0x3bb998f4	0.0056639854
46	0x3a215265	0.00061539403
47	0x3ab687d9	0.0013925984
48	0x3b8b52df	0.0042518224
49	0x3b8271b4	0.0039808396
50	0x3c149a10	0.0090699345
51	0x3b815110	0.003946431
52	0x3b2041ce	0.0024453285
53	0x3aae1e37	0.0013284151
54	0x3a63176e	0.0008662854
55	0x3b95e183	0.004574002
56	0x3b63bd52	0.0034750295
57	0x3b0c725a	0.0021430464
58	0x3b9913e2	0.0046715597
59	0x3b35b3dd	0.0027725615
60	0x3b63d828	0.003476629
61	0x3bf0d19d	0.0073492066
62	0x3a134b5f	0.0005618836
63	0x3c0126d4	0.0078827925

weight f4 [128, 64, 5, 5]
0	0x3b240b22	0.002503105
1	0x3b2f8009	0.0026779196
2	0x3abce488	0.0014411369
3	0xb9fc2c70	-0.00048098294
4	0xba3c9c3f	-0.00071949133
5	0x3b193ea7	0.002338329
6	0x3a86d028	0.0010285424
7	0x3a34ad52	0.0006892282
8	0xbb1d0f9c	-0.0023965603
9	0xbaa70bfd	-0.0012744662
10	0x3ab77e4e	0.0013999434
11	0x3a2b4a9d	0.00065342506
12	0xbb66eb03	-0.0035235293
13	0xbafe698b	-0.0019410116
14	0xbaefefdd	-0.0018305738
15	0x3b7998dd	0.0038085498
16	0x3a52e237	0.0008044573
17	0xbba529c2	-0.0050403783
18	0xbab437b7	-0.0013749514
19	0xbb141fd6	-0.0022601984
20	0x3afb63de	0.0019179543
21	0xbb221be3	-0.002473586
22	0xbb935fbb	-0.004497496
23	0xbb3e7991	-0.0029064158
24	0xbae0745e	-0.0017124524
25	0x389946e0	7.30881e-05
26	0xba8fbd6a	-0.0010966484
27	0xb92af4db	-0.00016303679
28	0x3affda8e	0.001952009
29	0x3a643758	0.00087057566
30	0x3aba3b4a	0.0014208343
31	0xba1e442a	-0.0006037379
32	0xba945210	-0.001131596
33	0x3a8b5eab	0.0010633072
34	0x3b2d6f89	0.0026464185
35	0x3a1bc377	0.00059419073
36	0x3a0f2de4	0.00054618553
37	0x3a5d3099	0.00084377226
38	0xba68be8d	-0.0008878492
39	0xba14a0ff	-0.0005669742
40	0x3a0aec1a	0.0005299464
41	0xbb236e11	-0.002493743
42	0xba610359	-0.00085835677
43	0xb92e8183	-0.0001664218
44	0xbb10d387	-0.0022098736
45	0x397cddbf	0.000241152
46	0xbb47d2ad	-0.0030490563
47	0xba83230f	-0.0010004955
48	0x3b0855c4	0.0020803073
49	0xb934da20	-0.00017247396
50	0xb986e98c	-0.00025732478
51	0x3a769f26	0.000940787
52	0x3a7b1f8e	0.0009579592
53	0x3ad409f6	0.0016177285
54	0x3a959ade	0.0011413952
55	0x3a446dc3	0.00074931624
56	0x39ab8795	0.00032716678
57	0xb95b5640	-0.00020917598
58	0x3ad79080	0.0016446263
59	0x3b360c35	0.0027778272
60	0x3ac3f43c	0.0014950107
61	0x3a697ec2	0.0008907133
62	0x3a176646	0.0005775433
63	0x3ad1b5f1	0.0015999657
64	0x3b326a38	0.0027223956
65	0x3a433717	0.00074468687
66	0x3ab9fb9a	0.0014189363
67	0x3a7fca10	0.00097575877
68	0x38d8e06a	0.00010341483
69	0x399313a9	0.00028052673
70	0xbb2f5406	-0.0026752963
71	0x3b0ff403	0.002196551
72	0x3aa24284	0.0012379442
73	0x39d3a847	0.00040370433
74	0xb91b1504	-0.00014789781
75	0x3a67d6c3	0.00088439527
76	0x3757f9c8	1.2873155e-05
77	0xbaddf311	-0.0016933401
78	0xba3b047d	-0.00071341527
79	0xba85b40f	-0.0010200756
80	0xb9096689	-0.00013103535
81	0xba98a3d4	-0.0011645504
82	0xbb1f9cdc	-0.002435497
83	0xbb17618b	-0.0023098912
84	0xbb7908ed	-0.0037999705
85	0x3a264525	0.0006342701
86	0xb9f8241a	-0.00047329144
87	0xba047176	-0.00050523074
88	0xba387356	-0.00070362294
89	0xbaa1db70	-0.0012348723
90	0xb9cca6f2	-0.00039034296
91	0xbb182204	-0.0023213634
92	0xba84ee29	-0.0010141778
93	0xba8d3699	-0.0010773718
94	0xbb025459	-0.00198867
95	0xbb17badf	-0.0023152155
96	0xbb223ca3	-0.002475538
97	0xba5a5d0f	-0.0008329907
98	0xba989d7e	-0.0011643616
99	0xbb074614	-0.0020641135
100	0x3b102517	0.0021994764
101	0x3b992efe	0.0046747914
102	0xbabbfe9a	-0.0014342845
103	0x3ab378d0	0.0013692621
104	0x3a24a200	0.00062802434
105	0x3aaa1399	0.0012975811
106	0xba802919	-0.0009777873
107	0x3a989589	0.0011641245
108	0x3adbb343	0.0016761798
109	0xbb14a12e	-0.0022679078
110	0x3a89e33b	0.001051999
111	0xbb597b3a	-0.003318502
112	0xba83d3f4	-0.0010057674
113	0xbb9add8a	-0.0047261165
114	0xbab5503d	-0.0013833117
115	0xbadd528d	-0.0016885564
116	0xbaa2b4b8	-0.0012413478
117	0xba9a90ba	-0.00117924
118	0x3a51c227	0.0008001648
119	0x3bcb9ed3	0.0062140017
120	0xbb2ae67d	-0.0026077323
121	0x3b04f076	0.0020284927
122	0xb9f1b676	-0.00046103046
123	0xbac089fe	-0.0014689562
124	0x3a8811b8	0.0010381257
125	0x3bbafde7	0.005706537
126	0x3894539c	7.0727634e-05
127	0xba6e0118	-0.00090791425
128	0x3945ce5a	0.00018864256
129	0xbb0fdd73	-0.0021952062
130	0x3acd58d3	0.001566673
131	0x39aadc72	0.0003258917
132	0x3a0aa3fb	0.0005288717
133	0xb9b1336c	-0.00033798383
134	0xbb3a225c	-0.0028401827
135	0xba4b3e39	-0.00077531073
136	0x398ece1b	0.0002723791
137	0xbb514144	-0.003192977
138	0xbaa33377	-0.0012451251
139	0xbaf59e7c	-0.0018739249
140	0x3bd657f3	0.006541246
141	0x3b8c362e	0.0042789197
142	0xbb69939e	-0.0035640965
143	0x3895180d	7.1093535e-05
144	0xba9b263b	-0.0011836955
145	0x3b93971f	0.004504099
146	0xbaafcb4d	-0.0013412029
147	0xbb352e50	-0.0027646013
148	0x3a8ba9a2	0.0010655413
149	0x3b9a766d	0.0047138245
150	0x3861c78b	5.383002e-05
151	0xb8ae295d	-8.304671e-05
152	0x3987ecfe	0.0002592578
153	0xb8add8af	-8.289643e-05
154	0xb99e0e9f	-0.00030147002
155	0xb9f3cb69	-0.00046500124
156	0xba14093f	-0.000564713
157	0x390d9e57	0.00013505794
158	0xb98a18de	-0.0002633994
159	0xb95f6f15	-0.00021308319
160	0x3a340f3c	0.0006868725
161	0xb9b353da	-0.00034204015
162	0xba02a34b	-0.0004983439
163	0x3a6eeef6	0.00091145874
164	0x391adc0d	0.0001476856
165	0x3a47d729	0.0007623309
166	0xba90674e	-0.0011017115
167	0xb9d3d3bc	-0.0004040281
168	0x3a8b5c00	0.0010632277
169	0x3ab79a44	0.0014007767
170	0x39f803f4	0.0004730519
171	0xba35e095	-0.00069380674
172	0xb8d8d3e5	-0.00010339151
173	0xba1e3575	-0.00060351874
174	0xb90d4a23	-0.00013474426
175	0x3ad1259a	0.0015956641
176	0x3b18acd4	0.0023296373
177	0x3bb2f2ee	0.0054610884
178	0x3c01388d	0.007887018
179	0x3b9f9e33	0.0048711537
180	0xba90d226	-0.0011048957
181	0xbad44f61	-0.0016197973
182	0xbb774840	-0.0037732273
183	0xba6752cf	-0.000882429
184	0xba23a853	-0.0006243039
185	0x3bb92cf8	0.0056511126
186	0x3bce8666	0.0063026426
187	0x3b4dec21	0.0031421261
188	0xb9447f0d	-0.00018739347
189	0x3b82982a	0.0039854245
190	0x3b093716	0.0020937375
191	0x39a753cd	0.0003191516
192	0xbb11ff87	-0.002227755
193	0xbbb4a25d	-0.0055125193
194	0xbb6ae13d	-0.003583982
195	0xbaaba4a0	-0.0013095327
196	0xbadec6c5	-0.0016996494
197	0xbba65d52	-0.0050770426
198	0xbb4c30e3	-0.0031157068
199	0xbbb737aa	-0.0055913525
200	0x3b94f7c5	0.004546138
201	0x3b36395e	0.002780519
202	0x3ae7a064	0.0017671701
203	0xb9ef52d5	-0.00045647347
204	0x39ee6d38	0.00045476272
205	0x3b7b8a30	0.0038381927
206	0xb9ed59d4	-0.0004527109
207	0xbab4e2fa	-0.0013800554
208	0xb9b5f0a6	-0.00034702307
209	0xbb00f86f	-0.0019679328
210	0xba98bd7c	-0.001165315
211	0x3ae03ef4	0.0017108605
212	0xba322ee0	-0.0006797146
213	0xbb7b4b56	-0.0038344464
214	0xbb5bdedb	-0.003354958
215	0x3b8b685b	0.0042543835
216	0xbb078638	-0.0020679366
217	0xbb8b4d78	-0.0042511784
218	0xbb94474a	-0.0045251
219	0xbaae63ee	-0.0013304928
220	0x3b0695d6	0.0020536087
221	0xbb2d2d3f	-0.0026424674
222	0xbadab8c2	-0.0016687142
223	0xb96ca691	-0.00022568765
224	0x3b3c9238	0.0028773677
225	0x3b573ead	0.0032843754
226	0x3ad344a1	0.0016118475
227	0x38a460b7	7.838144e-05
228	0xbac917fc	-0.0015342231
229	0x3a5ec7b2	0.0008498385
230	0x3b3323fa	0.0027334676
231	0x3b4292aa	0.002968947
232	0x3abd0442	0.0014420825
233	0x3a21970d	0.0006164171
234	0xba1a272a	-0.00058804697
235	0x3b71e31f	0.0036909056
236	0x3ad43473	0.0016189947
237	0x3b1a9014	0.0023584412
238	0x3b11cf0f	0.002224866
239	0xbb359b29	-0.002771089
240	0x3ba7e38c	0.0051235612
241	0xbadc4de8	-0.0016807886
242	0xbb2ddc84	-0.0026529143
243	0xbb1d5744	-0.0024008313
244	0xba9db110	-0.0012030918
245	0x3b7543c6	0.003742443
246	0x3a727726	0.0009249322
247	0xba72ffd0	-0.00092696864
248	0x3b819868	0.003954936
249	0x3a98b8ed	0.0011651792
250	0x3ab17fac	0.0013542078
251	0x3b237e0f	0.0024946963
252	0xbb3987da	-0.0028309734
253	0x3af2ac28	0.0018514441
254	0x39db7d79	0.0004186442
255	0x3b6b6297	0.0035916918

bias f4 [128]
0	0x3bb227e9	0.0054368866
1	0xbd23db73	-0.040004205
2	0xbd62c553	-0.055363964
3	0x3a4769b8	0.0007607001
4	0xbdc5b358	-0.09653348
5	0xbdd9aa6a	-0.10628207
6	0xbdd10330	-0.10205686
7	0xbd107464	-0.03526725
8	0xbd00e03b	-0.031463843
9	0xbb161aa2	-0.0022904058
10	0xb753dc67	-1.26278965e-05
11	0xbd2e8c02	-0.04261399
12	0xbdd0fea1	-0.102048166
13	0xbd89da91	-0.06731141
14	0xbab904fb	-0.0014115864
15	0xbdb3a82a	-0.08772309
16	0xbd782570	-0.06058258
17	0x37365054	1.0866748e-05
18	0xbd8add72	-0.067805186
19	0xbbb3986d	-0.005480817
20	0xbe1cfa6f	-0.15329908
21	0xbd7f01e0	-0.062257648
22	0xbd2abe8d	-0.04168563
23	0xbbb020b5	-0.0053749927
24	0x0eeec8d6	5.8864928e-30
25	0xbb384f1c	-0.0028123325
26	0xbd3f5790	-0.046714365
27	0xbcef34d8	-0.029200003
28	0x3bb445aa	0.0055014687
29	0xbdc5ff14	-0.09667793
30	0xbe164d48	-0.14677918
31	0xba63269b	-0.00086651155
32	0xbbca9ba3	-0.006183104
33	0xbc8f8bab	-0.017522654
34	0xbcbdafd3	-0.023155129
35	0xb9fdebc6	-0.00048431585
36	0xbd8f46ea	-0.06995948
37	0xbb830e01	-0.003999472
38	0xbcd99374	-0.026559569
39	0xbdab4b0b	-0.08363923
40	0xbbeb04aa	-0.007172187
41	0xbdf484ba	-0.11939378
42	0xbcb47343	-0.022027617
43	0x3c0e2f8c	0.008678328
44	0xbdc70da2	-0.09719397
45	0xbc1ce15c	-0.009575214
46	0xbd9350f0	-0.07193172
47	0xbe0ecc07	-0.13945018
48	0xbe125eb8	-0.14293945
49	0xbd371ee0	-0.04470718
50	0xbcaf16aa	-0.021373112
51	0xbd97c48c	-0.07410535
52	0xbe177938	-0.14792335
53	0x3c5c97f1	0.01346396
54	0x3caded36	0.021231275
55	0xb8ddfd36	-0.000105852654
56	0xbdae96c4	-0.0852485
57	0x3b65c533	0.0035060167
58	0xbdfc364b	-0.12315043
59	0xbd84218e	-0.064517125
60	0xbddf703e	-0.109100804
61	0xbc9bdad8	-0.019025251
62	0xbd18219f	-0.03714144
63	0xbbb1e899	-0.005429339
64	0xbe0fcb07	-0.14042293
65	0xbcc07df4	-0.02349756
66	0xbcf76fdb	-0.030204704
67	0xbbe070b9	-0.006849375
68	0xbd543547	-0.05180862
69	0xb9378306	-0.0001750105
70	0x3ca8e3e0	0.020616472
71	0xbdbfeb58	-0.0937106
72	0x9c697dd1	-7.7255847e-22
73	0xbc8981e6	-0.016785573
74	0xb89dc5a7	-7.523159e-05
75	0xbd26113b	-0.040543776
76	0xbdac6b95	-0.08418957
77	0xbd93c004	-0.072143584
78	0xbcc2d1af	-0.023781626
79	0x39211ae1	0.0001536417
80	0xbd6301f0	-0.05542177
81	0xbd93c5b4	-0.07215443
82	0xbc12ac57	-0.008952222
83	0x3c5cf18a	0.013485322
84	0xbdfbbc77	-0.12291806
85	0xbd7051b0	-0.058671653
86	0xbcb9606f	-0.022628991
87	0xbd9e4e3a	-0.07729764
88	0xbc44ed77	-0.012019507
89	0xbd27dc56	-0.040981613
90	0x3b1151b9	0.0022173955
91	0xbe42b433	-0.19014053
92	0xbc58fc60	-0.013243765
93	0xbd8858f2	-0.0665759
94	0xbc042e56	-0.008067688
95	0xbac01d99	-0.0014657258
96	0xbdb5ed20	-0.08883119
97	0xbd9b3464	-0.07578352
98	0xbae44bd8	-0.0017417623
99	0xbd33131a	-0.04371939
100	0xbc4a39fa	-0.012342924
101	0xbd1a3fec	-0.037658617
102	0xbcaacfe8	-0.02085109
103	0xbda5d192	-0.08096613
104	0xbdeffd1d	-0.117181994
105	0xbdbd91e1	-0.0925634
106	0xbcf7a586	-0.030230295
107	0xbcb5adf2	-0.02217767
108	0xba507a69	-0.0007952811
109	0x2e148e73	3.3777824e-11
110	0xbb65db85	-0.003507347
111	0xbb837bdc	-0.004012568
112	0xbb00b218	-0.0019637402
113	0xb8c8457a	-9.549684e-05
114	0xbda474ee	-0.08030115
115	0xbccc1384	-0.02491165
116	0x3cb21273	0.021737313
117	0xbd1280e0	-0.035767436
118	0xbd0881f6	-0.033327065
119	0xbd1dfbae	-0.0385701
120	0x3c049f96	0.008094689
121	0xbdbd7422	-0.09250666
122	0xbd5777a1	-0.05260432
123	0xbcba2945	-0.022724757
124	0xbdcb47b3	-0.09925785
125	0xbdb6b8cb	-0.08921965
126	0xbd2ea1d8	-0.042634815
127	0x3c7da920	0.015482217

weight f4 [128]
0	0x3e34838c	0.17628306
1	0x3e21fa20	0.15818071
2	0x3f42b742	0.7606088
3	0x3d53cc26	0.051708363
4	0x3f025792	0.5091487
5	0x3ee3cbd2	0.4449144
6	0x3f156512	0.58357346
7	0x3ef550a3	0.47913083
8	0x3e961d3b	0.29319176
9	0x36f65048	7.3407173e-06
10	0x3829951c	4.043161e-05
11	0x3e154f1a	0.14580956
12	0x3e2d211f	0.16907166
13	0x3e9dc4e4	0.30814278
14	0x3cc927da	0.024555136
15	0x3f2554de	0.6458262
16	0x3f723603	0.94613665
17	0xbb29d33a	-0.0025913254
18	0x3f082d4d	0.53194124
19	0xbaf12189	-0.0018396835
20	0x3f08f484	0.534981
21	0x3e744ae4	0.23856694
22	0x3ea7f457	0.32803604
23	0x3933f197	0.0001716077
24	0x116af72f	1.8535515e-28
25	0x3cb6d6c8	0.022319213
26	0x3e9ac5ff	0.30229184
27	0x3ea93c8b	0.33054003
28	0x39196b86	0.00014631273
29	0x3ec519a7	0.38496134
30	0x3ed47a35	0.41499487
31	0xba0b3fba	-0.0005311925
32	0x3ad19629	0.0015990186
33	0x3e3f6b45	0.18693264
34	0x3f1b3835	0.6063264
35	0x3dd8d742	0.10587932
36	0x3f25b7c6	0.6473354
37	0x3d9d8ff2	0.07693471
38	0x3e11a5a4	0.14223343
39	0x3f35d910	0.71034336
40	0x3add65e8	0.0016891332
41	0x3f3b21b8	0.73098326
42	0x3de98120	0.11401582
43	0x3d8a8364	0.06763342
44	0x3f08d89e	0.5345553
45	0x3e689a26	0.22715053
46	0x3ef7890b	0.48346743
47	0x3f5dbd47	0.8661694
48	0x3f6037dc	0.87585235
49	0x3ea673c4	0.32510197
50	0x3ea3c416	0.3198554
51	0x3f324850	0.6964159
52	0x3f20bd05	0.6278842
53	0x3e4d3b67	0.20042191
54	0x3ec8ab8c	0.3919338
55	0x3d7169a9	0.058938656
56	0x3f1a7d10	0.6034708
57	0x3ba2e1f6	0.0049707843
58	0x3f00ac5b	0.50262994
59	0x3f5044f5	0.8135522
60	0x3f72e76d	0.9488438
61	0x3ec4767c	0.38371646
62	0x3f5b15f4	0.8558037
63	0x3e225bf2	0.15855387
64	0x3f5b6bee	0.8571156
65	0x3e168bab	0.14701717
66	0x3ed51572	0.41617924
67	0x3cecae90	0.028891832
68	0x3f206148	0.6264844
69	0x3cba7dea	0.022765119
70	0x3f2c37ab	0.6727244
71	0x3ee6fb2b	0.451135
72	0x9f052050	-2.8190574e-20
73	0x3d943eb0	0.07238519
74	0x3b6f4d88	0.0036514718
75	0x3eecf6e0	0.462821
76	0x3f3bc84c	0.73352504
77	0x3f63dfd1	0.8901339
78	0x3de2bf0d	0.11071596
79	0x3b826466	0.0039792536
80	0x3f03bb12	0.5145732
81	0x3f6b93f1	0.92022616
82	0x3d477168	0.048692137
83	0x3e364b98	0.17802274
84	0x3f5d64a8	0.86481714
85	0x3f14a82e	0.5806912
86	0x3e6ee5f6	0.2332991
87	0x3f33bbd2	0.70208466
88	0x3e97ca24	0.2964641
89	0x3f2be2ef	0.6714315
90	0x3f4b3a35	0.7938569
91	0x3f6feeab	0.93723553
92	0x3dc44543	0.09583523
93	0x3f32b116	0.6980146
94	0x3f486c96	0.7829069
95	0x3ed392dd	0.41322985
96	0x3f2ce204	0.6753237
97	0x3efedfc3	0.49780092
98	0x3c221629	0.009892979
99	0x3dc0eb61	0.09419895
100	0x3e9256c2	0.28581816
101	0x3f239b98	0.6390929
102	0x3f389162	0.72096837
103	0x3f448b7f	0.76775354
104	0x3f41d5e0	0.7571697
105	0x3f591a57	0.84805816
106	0x3f2b97d0	0.6702852
107	0x3f231894	0.6370938
108	0x3b56c0d6	0.0032768748
109	0x30b55fc9	1.3196707e-09
110	0xba344025	-0.00068760134
111	0xbb3f0b09	-0.0029150865
112	0x3bed5a27	0.007243413
113	0xbaf1468b	-0.0018407864
114	0x3ea4a721	0.3215876
115	0x3e2592e2	0.16169313
116	0x3e2f74a6	0.17134342
117	0x3f2c0519	0.6719528
118	0x3e8bfa13	0.2733923
119	0x3f1c7a7b	0.6112439
120	0x3eade870	0.33966398
121	0x3f1296f2	0.57261574
122	0x3ef993d7	0.48745605
123	0x3dce246d	0.100655414
124	0x3ed32935	0.41242376
125	0x3f306bff	0.6891479
126	0x3f0f627e	0.5600966
127	0x3f1c888f	0.6114587

bias f4 [128]
0	0x3d3880e2	0.045044787
1	0x3e2610f6	0.16217408
2	0xbe1164b0	-0.14198565
3	0x3c96de50	0.018416554
4	0xbe2c9f0d	-0.16857548
5	0xbe30fd7c	-0.17284197
6	0xbe3767bc	-0.17910665
7	0x3e2aa3af	0.16664003
8	0x3e3dad0b	0.18523042
9	0xbd82a1c8	-0.063785136
10	0x3a0383e2	0.00050169055
11	0xbe2d598d	-0.16928692
12	0xbe4c0ab7	-0.19925962
13	0x3e3f93b7	0.18708692
14	0xbccdc6e2	-0.025119249
15	0xbe0e3ba0	-0.13889933
16	0x3e3d9c48	0.18516648
17	0x3e272754	0.16323596
18	0xbe1df63b	-0.1542596
19	0x3de486a6	0.11158495
20	0xbe394993	-0.18094473
21	0xbe2d1295	-0.1690162
22	0x3e2acb94	0.16679221
23	0xbe191f81	-0.14953424
24	0xb7e6413e	-2.7448517e-05
25	0x3e0926a0	0.1339364
26	0x3e40dfb6	0.18835339
27	0x3e336e52	0.17522553
28	0x3e6a6993	0.22891836
29	0xbe34b6af	-0.17647813
30	0xbe62004b	-0.22070424
31	0xbe080cc1	-0.13286115
32	0xbe4f0dfe	-0.20220181
33	0x3de40a22	0.11134745
34	0x3e2eb748	0.17062104
35	0xbcd7d0ee	-0.026344743
36	0x3e35090c	0.17679232
37	0xbda3a279	-0.079899736
38	0x3e20206e	0.15637371
39	0xbe18e88a	-0.14932457
40	0x3e1440a8	0.1447779
41	0xbe2a7a4c	-0.16648215
42	0x3e3796ce	0.17928621
43	0x3e35488d	0.17703457
44	0xbe07c77f	-0.13259695
45	0x3e1ec243	0.15503792
46	0xbe01c427	-0.12672482
47	0xbe1fd272	-0.15607622
48	0xbe29efef	-0.16595434
49	0xbe22dc63	-0.15904383
50	0xbdeea1d4	-0.1165196
51	0xbe2aa48f	-0.16664337
52	0xbe2e5504	-0.17024618
53	0x3e1f5cb0	0.15562701
54	0x3e1fa00a	0.15588394
55	0x3d3e0cdf	0.046398994
56	0xbe33c6c3	-0.1755629
57	0x3e0fbaac	0.14036053
58	0xbe36154f	-0.17781566
59	0x3e23de1d	0.16002698
60	0xbe2a192f	-0.1661117
61	0x3e11a159	0.14221705
62	0x3e2dd502	0.16975787
63	0x3e25cca9	0.16191353
64	0xbe3312b6	-0.17487606
65	0x3e2694d2	0.16267708
66	0x3e20dc6a	0.15709081
67	0x3d9d5b3e	0.07683419
68	0x3e2d3c18	0.16917455
69	0x3a8e6d9a	0.0010866404
70	0xbe1f4d81	-0.15556909
71	0xbdded906	-0.10881238
72	0xb90a5640	-0.00013192836
73	0x3e2ee5b8	0.17079818
74	0x375f6a3e	1.3316572e-05
75	0x3e2eb570	0.170614
76	0xbe0795fc	-0.13240808
77	0xbe1981c5	-0.1499091
78	0x3e4156eb	0.18880813
79	0x3e28f5de	0.16500041
80	0xbdf5fa10	-0.12010586
81	0xbe30b6c6	-0.17257223
82	0x3e31b278	0.17353237
83	0x3e16f2af	0.14741014
84	0xbe270c74	-0.16313344
85	0x3e2fb557	0.1715902
86	0x3e32f6e1	0.1747699
87	0x3e32b0a5	0.17450197
88	0x3e136563	0.14394145
89	0xbddd3877	-0.108017854
90	0xbe256cdf	-0.16154812
91	0xbe452986	-0.19254121
92	0x3d9f1abd	0.07768772
93	0xbdfd2ca8	-0.12362033
94	0xbe28f87f	-0.16501044
95	0x3dddd3ba	0.10831399
96	0xbe191d36	-0.1495255
97	0xbe31460b	-0.17311876
98	0x3e398eea	0.18120924
99	0x3e392b59	0.18082942
100	0xbd8a1d72	-0.067438975
101	0x3e3677a1	0.17819072
102	0x3e22cb0c	0.15897769
103	0x3e3c41ee	0.18384525
104	0xbe218494	-0.15773231
105	0x3e36f70e	0.17867681
106	0x3e3e340a	0.18574539
107	0x3e25cb0f	0.16190742
108	0xbe7c0a31	-0.24613263
109	0xb8d46c79	-0.00010129152
110	0xbdf1c589	-0.11805255
111	0xbe3f0c8e	-0.18657133
112	0xbda60a91	-0.08107484
113	0xbc661ba2	-0.014044674
114	0x3e38c0b2	0.18042257
115	0x3e4477c6	0.19186315
116	0x3e0f2709	0.13979734
117	0xbe1fb7aa	-0.15597406
118	0xbe013378	-0.1261729
119	0xbde8e02c	-0.113708824
120	0x3e19b81a	0.15011635
121	0xbe16d653	-0.14730196
122	0x3e13d10e	0.14435217
123	0x3e03190e	0.12802526
124	0xbe3a21bb	-0.1817693
125	0xbe17202a	-0.14758363
126	0xbe181dea	-0.14855161
127	0x3e169924	0.14706856

running_mean f4 [128]
0	0x3e1703bc	0.14747518
1	0x3d14134c	0.036151215
2	0xbc9edec4	-0.019393332
3	0x3da18132	0.0788597
4	0xbaa27bf9	-0.0012396566
5	0x3d41d7d6	0.047324978
6	0x3a836d50	0.0010027084
7	0x3db5d586	0.08878617
8	0x3d9547f7	0.07289117
9	0x3c6d48ac	0.014482658
10	0x399d47e7	0.00029998945
11	0x3da11aca	0.07866438
12	0x3b13f9b3	0.0022579252
13	0x3c6bff95	0.014404197
14	0xb7e40664	-2.7182694e-05
15	0x3d5b323c	0.053514704
16	0x3d89e0b4	0.06732312
17	0x3e11f893	0.1425498
18	0x3dd66fcf	0.104705445
19	0xb9bf1884	-0.00036448624
20	0xbbd35901	-0.006449819
21	0x3a28fe3d	0.0006446576
22	0x3cafe4b8	0.021471366
23	0x3c90372c	0.017604433
24	0x119ef871	2.5081118e-28
25	0x3da4a2ba	0.0803885
26	0x3c298220	0.010345966
27	0x3c35ed9b	0.011104013
28	0x3e9101d2	0.283217
29	0xbd111ce7	-0.035427954
30	0xbca0b153	-0.019615805
31	0x3da566ad	0.080762245
32	0x3dd14dbc	0.10219905
33	0x3dba6b33	0.09102478
34	0x3e137c62	0.14402917
35	0x3d6927d0	0.056922734
36	0x3def9271	0.11697853
37	0x3de9a34b	0.11408099
38	0x3e903be8	0.28170705
39	0x3d4f0039	0.05053732
40	0x3dd44d50	0.10366309
41	0xbcec3d40	-0.0288378
42	0x3dadddb1	0.0848955
43	0x3e9b7c15	0.30368105
44	0x3c4281af	0.011871739
45	0x3e4a0beb	0.19731109
46	0x3d81949f	0.06327175
47	0xbbe1bfc3	-0.006889315
48	0x3b9805be	0.0046393564
49	0x3de46e44	0.11153844
50	0x3dd1fca8	0.102532685
51	0x3dae8544	0.08521512
52	0xbc032c51	-0.008006171
53	0x3f0be1b7	0.5464129
54	0x3f048a3c	0.5177343
55	0x3d2cfb8d	0.042232085
56	0xbb44bfb2	-0.0030021486
57	0x3e675a91	0.22593142
58	0xbd08cc18	-0.033397764
59	0xbcf6cbab	-0.030126413
60	0x3d59a225	0.05313315
61	0x3ea3551d	0.31900874
62	0x3e2bcf2f	0.16778253
63	0x3df0723d	0.11740539
64	0xbcd7e9ff	-0.026356695
65	0x3e2a7049	0.16644396
66	0x3d9dcfc6	0.07705645
67	0x3dd5e9d9	0.104449935
68	0x3dc0e6a6	0.09418993
69	0x395048e3	0.00019863578
70	0x3ef1b808	0.47210717
71	0x3da41627	0.08012038
72	0x212aea7d	5.7908583e-19
73	0x3e6c43cc	0.23072737
74	0xb74238e6	-1.1576549e-05
75	0x3dc8e01b	0.0980837
76	0xbb94b20d	-0.004537827
77	0x3c81c6ca	0.01584186
78	0x3e668fe8	0.22515833
79	0x3dc1b0e9	0.09457571
80	0x3e4dd99b	0.20102541
81	0x3d1018a9	0.035179768
82	0x3e3ea9f9	0.18619527
83	0x3eebecfc	0.46079242
84	0x3c3c335b	0.0114868535
85	0x3c9a7060	0.018852413
86	0x3dbb38c9	0.0914169
87	0x3d56f71b	0.052481752
88	0x3df77224	0.120823175
89	0x3d9381f4	0.07202521
90	0x3ded28ca	0.115800455
91	0xbcfade8c	-0.030623697
92	0x3d1cc964	0.038278
93	0x3e08d02d	0.13360663
94	0x3ebae8aa	0.36505634
95	0x3e33c355	0.17554982
96	0xbc12e5a3	-0.0089658825
97	0xbcf873c6	-0.030328643
98	0x3e183463	0.14863734
99	0xbb7604d5	-0.0037539501
100	0x3eb4ac1f	0.35287568
101	0x3da45bc8	0.080253184
102	0x3db1246f	0.08649527
103	0x3d03b7f9	0.032157872
104	0x3d008c6e	0.031383924
105	0x3ba6066d	0.005066684
106	0xbb0bcd24	-0.002133199
107	0x3d9aa9af	0.07551896
108	0x3d8626c7	0.06550365
109	0x318946f8	3.995293e-09
110	0x3c91f67a	0.017817724
111	0x3d66d43f	0.056354757
112	0x3d2421ec	0.040071413
113	0x3c776524	0.015099797
114	0xbd10349e	-0.03520643
115	0x3ee4bde6	0.4467613
116	0x3ed71c80	0.4201393
117	0x3d778d07	0.06043723
118	0x3d59ddd5	0.05319007
119	0x3ea5bae3	0.32369146
120	0x3f244a9f	0.6417636
121	0x3ca1a075	0.019729832
122	0x3c314515	0.010819693
123	0x3d0e34d3	0.034718346
124	0xbca944c9	-0.020662682
125	0x3cd8e9a2	0.026478592
126	0x3e6c7012	0.23089626
127	0x3f1c0075	0.609382

running_var f4 [128]
0	0x3da8ac26	0.0823596
1	0x3d2ee62b	0.042699974
2	0x3c83f2c5	0.016106972
3	0x3c225402	0.009907724
4	0x3d4944e5	0.04913797
5	0x3e0d856b	0.13820426
6	0x3d70ffc6	0.058837675
7	0x3e10b066	0.1412979
8	0x3de0b646	0.10972266
9	0x3af98b3c	0.0019038687
10	0x34aa153c	3.1680418e-07
11	0x3da66f95	0.08126751
12	0x3cfe7713	0.031062638
13	0x3d1f9f7e	0.038970463
14	0x37168dac	8.973682e-06
15	0x3e241909	0.16025175
16	0x3e4b10c8	0.1983062
17	0x3d90a247	0.07062202
18	0x3e8a8d34	0.27060854
19	0x37a871c8	2.0080144e-05
20	0x3cd13566	0.025538158
21	0x3cd6cc56	0.026220482
22	0x3d10134d	0.035174657
23	0x3b9806b1	0.0046394696
24	0x00000004	6e-45
25	0x3d4a8629	0.04944435
26	0x3d33ed1c	0.043927297
27	0x3cf35145	0.029701838
28	0x3e2e623f	0.17029665
29	0x3b194d0e	0.0023391875
30	0x3c8159c1	0.015789868
31	0x3ce8d250	0.028420597
32	0x3d3b33f8	0.045703858
33	0x3dcb4ca3	0.09926727
34	0x3eaa3e99	0.33250883
35	0x3c2bd0a9	0.01048676
36	0x3e811e47	0.25218412
37	0x3d9535ee	0.07285677
38	0x3ee1bdd8	0.44090152
39	0x3e15df30	0.1463592
40	0x3d4330b2	0.04765386
41	0x3c16ce16	0.009204408
42	0x3e0bce63	0.13652949
43	0x3eb15dc8	0.34641862
44	0x3d3e955e	0.046529166
45	0x3e8cf303	0.27529153
46	0x3de01ff1	0.10943592
47	0x3d13aeeb	0.036055487
48	0x3d2832bc	0.04106401
49	0x3da667de	0.0812528
50	0x3e277e7b	0.16356842
51	0x3df65558	0.12027997
52	0x3d54b03d	0.051925886
53	0x3f7212a6	0.94559705
54	0x3f874f95	1.0571162
55	0x3c3f044c	0.011658739
56	0x3d77d78d	0.0605083
57	0x3d55ea69	0.052225504
58	0x3bad4851	0.005288162
59	0x3b222074	0.0024738582
60	0x3e288b16	0.16459307
61	0x3ea370aa	0.31921893
62	0x3eb7854a	0.3584388
63	0x3e2e62d5	0.17029889
64	0x3c2137b7	0.009839944
65	0x3e63151e	0.22176024
66	0x3de0d89d	0.10978816
67	0x3d691678	0.056906193
68	0x3e4e38db	0.20138876
69	0x34c1fc3e	3.6132582e-07
70	0x3ecd6438	0.40115523
71	0x3dcceb67	0.10005837
72	0x035e0c6a	6.5254187e-37
73	0x3e95fbb6	0.29293603
74	0x310ac6ff	2.019476e-09
75	0x3e46866f	0.1938722
76	0x3cac76c4	0.021052726
77	0x3dbeed0e	0.09322558
78	0x3e9d0fc5	0.30676094
79	0x3cc55ae5	0.024091193
80	0x3ee028cb	0.43781123
81	0x3dc62850	0.09675658
82	0x3e2dac33	0.1696022
83	0x3f476165	0.7788299
84	0x3d7dcfdd	0.061965812
85	0x3d546323	0.051852357
86	0x3e02d401	0.12776186
87	0x3dfcf4e0	0.12351394
88	0x3e2a86a5	0.16652925
89	0x3e21910f	0.15777992
90	0x3dd57c08	0.10424048
91	0x3b9a6546	0.0047117798
92	0x3cb074a6	0.021539997
93	0x3e900963	0.28132161
94	0x3e9f71d4	0.3114153
95	0x3e21a60d	0.15786
96	0x3cf40f38	0.029792413
97	0x3b9581c1	0.004562587
98	0x3d70353e	0.058644526
99	0x3c994ee2	0.018714372
100	0x3ed0fb5f	0.4081678
101	0x3e331577	0.17488657
102	0x3e4c7adc	0.19968742
103	0x3dfc426e	0.12317358
104	0x3db7fd03	0.08983805
105	0x3da02501	0.07819558
106	0x3d08c96e	0.033395223
107	0x3e0fc782	0.1404095
108	0x3cb313b0	0.021859974
109	0x23a4a148	1.7849221e-17
110	0x3b722520	0.0036948398
111	0x3c8524de	0.016252931
112	0x3c3943f8	0.011307709
113	0x3aafebe0	0.0013421737
114	0x3a7edfab	0.000972266
115	0x3f6129b7	0.87954277
116	0x3f0c185e	0.5472468
117	0x3e1bb121	0.15204288
118	0x3dc87e96	0.09789769
119	0x3f397444	0.7244303
120	0x3f9b5960	1.213665
121	0x3da778b3	0.081773184
122	0x3d07a205	0.0331135
123	0x3d13b8d9	0.036064956
124	0x3c37d1a4	0.011219416
125	0x3e052588	0.13002598
126	0x3f0d899a	0.5528809
127	0x3f8ed64d	1.115915

weight f4 [1, 128, 1, 1]
0	0xbc13978a	-0.009008298
1	0xbe8986fa	-0.2686079
2	0x3e7a4d49	0.24443544
3	0xba876a9d	-0.0010331456
4	0x3ed6e91f	0.41974732
5	0x3ed3646c	0.41287553
6	0x3f04092f	0.51576513
7	0xbe8e1ee3	-0.2775794
8	0xbed68600	-0.4189911
9	0x3d30bc22	0.043148167
10	0xb9c5691a	-0.00037653075
11	0x3e5f8d03	0.21831135
12	0x3f0510bf	0.5197868
13	0xbed53c2a	-0.41647464
14	0x3a6986ce	0.0008908332
15	0x3e3e77ad	0.1860034
16	0xbf0f2020	-0.55908394
17	0xbe2a0a06	-0.16605386
18	0x3e88733e	0.26650423
19	0xbda4f231	-0.08054007
20	0x3ed090d2	0.4073549
21	0x3ecb0ab6	0.3965661
22	0xbe73829d	-0.23780294
23	0x3e44861f	0.19191788
24	0x37907c89	1.7224129e-05
25	0xbdecb3dc	-0.11557743
26	0xbebd7f90	-0.37011385
27	0xbe862147	-0.26197264
28	0xbe5dac0e	-0.21647665
29	0x3ed36474	0.41287577
30	0x3ebe07aa	0.37115222
31	0x3e0a3ff4	0.13500959
32	0x3e4a5c65	0.19761808
33	0xbdb97382	-0.090552345
34	0xbec6909c	-0.38782203
35	0x3ab9b1cc	0.0014167367
36	0xbe6e160b	-0.23250596
37	0x3d0474c6	0.032337926
38	0xbe723f17	-0.2365688
39	0x3e9138d6	0.28363675
40	0xbde23772	-0.110457316
41	0x3ebc7698	0.3680923
42	0xbe99d29c	-0.30043495
43	0xbea278c4	-0.31732762
44	0x3e2c67b2	0.16836432
45	0xbe801e3b	-0.25023064
46	0x3e184bb5	0.1487263
47	0x3e6496a9	0.22323097
48	0x3e9398d4	0.28827536
49	0x3e90b02e	0.28259414
50	0x3deae9bc	0.114703625
51	0x3ed5697d	0.41682044
52	0x3ef3e422	0.4763499
53	0xbe76537e	-0.24055287
54	0xbe8a3ff4	-0.27001917
55	0xbbca6bcc	-0.006177401
56	0x3ee6ef2e	0.45104355
57	0xbe08370b	-0.13302247
58	0x3ed961c5	0.42457405
59	0xbeb3b32d	-0.35097638
60	0x3edfbccf	0.43698737
61	0xbe387dba	-0.18016711
62	0xbed69232	-0.41908413
63	0xbe96a982	-0.294262
64	0x3e9c5ef9	0.30541208
65	0xbe410584	-0.1884976
66	0xbe80580b	-0.2506717
67	0xbd5ff0e9	-0.05467311
68	0xbebc2cb3	-0.36752853
69	0x38148a92	3.5415003e-05
70	0x3e91a594	0.2844664
71	0x3ddd9dd3	0.10821118
72	0x38f96be5	0.00011893342
73	0xbe547981	-0.20749475
74	0x38df74b2	0.00010655205
75	0xbec1f08b	-0.37878832
76	0x3e586736	0.21133122
77	0x3e926798	0.2859466
78	0xbebc9cf1	-0.36838487
79	0xbe879449	-0.2648032
80	0x3e076b3d	0.13224502
81	0x3ee3c779	0.44488123
82	0xbe4a8356	-0.19776663
83	0xbe6200d0	-0.22070622
84	0x3ea59434	0.32339633
85	0xbed54d94	-0.4166075
86	0xbe914ce4	-0.28378975
87	0xbe9135f9	-0.2836149
88	0xbe440de8	-0.1914593
89	0x3dd8b938	0.10582203
90	0x3ebcb770	0.36858702
91	0x3ea92ea0	0.33043385
92	0xbd32ee8d	-0.04368453
93	0x3e1b0f3a	0.15142527
94	0x3ec7283d	0.38897887
95	0xbdbfdbc5	-0.093680896
96	0x3e90fb31	0.28316644
97	0x3ebff975	0.37495008
98	0xbe103b84	-0.14085203
99	0xbe8c055e	-0.27347845
100	0x3d10ae00	0.03532219
101	0xbee67dd1	-0.45017865
102	0xbeb14ee5	-0.34630504
103	0xbeff7f69	-0.49901894
104	0x3e433c82	0.1906605
105	0xbee92538	-0.45536208
106	0xbef549a2	-0.4790774
107	0xbeb3d92d	-0.3512663
108	0x3e7815a8	0.24227011
109	0x38c7b123	9.522054e-05
110	0x3de8c2a3	0.11365249
111	0x3e8a17fd	0.26971427
112	0x3d41b63f	0.047292944
113	0x3c1da71e	0.009622363
114	0xbee3e944	-0.44513905
115	0xbec1d484	-0.3785745
116	0xbe1771be	-0.14789483
117	0x3e996f05	0.29967514
118	0x3e125c67	0.14293061
119	0x3ddfd8c6	0.10930018
120	0xbe7061ec	-0.23474854
121	0x3e87a13d	0.26490203
122	0xbe3f681b	-0.18692057
123	0xbdcc6cfa	-0.09981723
124	0x3ec97677	0.39348194
125	0x3e83322d	0.2562422
126	0x3e85cd23	0.2613307
127	0xbe703318	-0.2345699
