data/ball_data/model_7500.pth (torch_old, 853498 bytes, 13 tensors)

weight f4 [64, 1, 5, 5]
-0.07632819 0.025783323 0.02833179 0.026907757 0.04632532 -0.09236518 -0.079888895 0.14299935
0.0701688 0.08950961 -0.15712056 -0.016528254 -0.06370904 0.06986627 0.07300779 -0.21268101
-0.14580296 0.054945976 -0.027632223 0.053641368 0.037327312 -0.081430994 0.01411983 0.008659539
0.01681775 0.19009458 -0.12718101 0.034569543 -0.05082359 0.007304541 0.13658687 0.055371214
-0.10024819 -0.13363653 0.08143541 0.101225644 0.046637677 -0.11058479 -0.060699947 -0.052097145
-0.105516195 0.04123508 -0.009942197 -0.03077655 0.11474227 0.0068661924 0.10167256 0.00059069623
-0.05612131 0.023529328 0.11698952 0.059853703 -0.0013394952 -0.09720434 0.006331749 -0.028677003
0.14094925 0.11827808 -0.12417912 -0.06487743 0.050249964 0.0779323 0.034697454 -0.089594536
0.01720389 0.034558848 -0.081732556 -0.07253714 0.026904827 -0.08248384 0.044556744 0.045928188
0.18737327 -0.029758304 0.07278328 -0.08282765 -0.09678973 0.034238655 -0.069736436 -0.16678345
0.053028077 -0.036972277 0.01731387 -0.067277454 -0.13580471 -0.016757501 0.008628052 -0.020829603
-0.010630656 0.06870531 0.032593813 -0.08059838 -0.065695606 -0.048144367 -0.06919192 0.0748703
-0.043007012 0.11462847 0.050183836 -0.037391018 -0.040561434 -0.024587052 0.0026982976 0.06948179
0.018710146 -0.0467469 -0.00033667698 0.06909024 -0.10641019 -0.05832974 -0.059818536 0.22469668
0.019893134 -0.115701064 0.094916664 0.03323431 0.124974206 -0.129874 -0.17622028 -0.048124537
-0.051556513 -0.037049152 -0.1117673 0.039835993 0.17829798 0.08037031 -0.012954772 -0.100228585
0.029763607 -0.029628856 0.03475996 0.00012190164 -0.0505872 0.0910575 0.047353923 -0.049510818
-0.017620703 0.15054837 0.15493959 0.036408957 -0.10203947 -0.24018459 -0.1550084 -0.06127607
-0.056739546 0.07544094 -0.05784664 0.06302948 0.12647295 -0.051893942 -0.07932543 -0.0006775324
-0.0018490497 -0.03885562 0.0039251256 -0.018159524 0.04490597 0.027483348 0.06587452 0.08601192
0.0022191936 -0.035088323 -0.024824988 0.0650236 0.0049514747 -0.0055291182 0.007089596 0.017763427
0.025435764 0.019608844 -0.08249114 -0.114867434 -0.048743345 -0.024957102 0.014403528 -0.06483482
0.06648775 -0.13357745 -0.10765407 -0.124215156 -0.10445271 -0.051575683 -0.00071907416 -0.02172228
0.104935005 0.1079939 0.15459834 0.035753474 0.12594673 -0.021622432 0.002137736 0.083098754
0.027185487 -0.039680827 0.017367125 -0.13779663 -0.013110663 -0.14230826 0.021104729 0.076924644
0.040590364 0.10776778 0.11440434 0.08040866 0.13218006 -0.02786471 -0.070241995 -0.052831564
-0.09382525 0.06239275 -0.1005577 -0.023164826 -0.087839656 -0.124656394 -0.054532655 -0.1655904
-0.10305277 -0.04488949 0.0364896 -0.00400774 0.05178004 0.13429172 0.043317508 0.05058591
0.10723311 0.12280744 -0.05584693 0.14328998 0.2019581 0.027437799 0.05236836 -0.20184721
-0.099232785 -0.04879314 -0.07720631 0.005767474 -0.13760148 0.0171967 0.021880854 0.004293347
0.15626618 -0.14065889 -0.061725035 0.073392905 0.036680546 0.045490142 -0.06396716 0.008069762
-0.04356599 -0.0092921285 -0.106054544 -0.06571699 0.023327114 -0.02320883 -0.06028187 0.02051956
00000000: f451 9cbd 8c37 d33c 1218 e83c a86d dc3c
00000010: 9ebf 3d3d f529 bdbd ca9c a3bd 6c6e 123e
00000020: a9b4 8f3d d050 b73d 36e4 20be 4366 87bc
00000030: e379 82bd 0c16 8f3d 1c85 953d 0dc9 59be
00000040: 5f4d 15be 080f 613d f95c e2bc 0db7 5b3d
00000050: 86e4 183d 4bc5 a6bd dc56 673c bde0 0d3c
00000060: 61c5 893c 27a8 423e bd3b 02be cb98 0d3d
00000070: 662c 50bd ee5a ef3b 6edd 0b3e edcc 623d
00000080: ec4e cdbd 04d8 08be 9cc7 a63d 644f cf3d
00000090: 2607 3f3d 477a e2bd 82a0 78bd d163 55bd
000000a0: e018 d8bd 1ee6 283d 99e4 22bc 1a1f fcbc
000000b0: fffd ea3d ccfd e03b b439 d03d f4d8 1a3a
000000c0: 75df 65bd 94c0 c03c 3498 ef3d 2829 753d
000000d0: 0092 afba 1213 c7bd 8f7a cf3b 09ec eabc
000000e0: 0055 103e c73b f23d 9f51 febd 75de 84bd
000000f0: e8d2 4d3d f89a 9f3d eb1e 0e3d 577d b7bd
00000100: 2cef 8c3c 948d 0d3d 6663 a7bd 5a8e 94bd
00000110: 8367 dc3c 4aed a8bd 2281 363d 321f 3c3d
00000120: c7de 3f3e b0c7 f3bc 660f 953d 8ba1 a9bd
00000130: b239 c6bd d53d 0c3d fad1 8ebd 48c9 2abe
00000140: f833 593d 3e70 17bd d1d5 8d3c c3c8 89bd
00000150: 6410 0bbe 0747 89bc ac5c 0d3c d8a2 aabc
00000160: 342c 2ebc 5fb5 8c3d 1781 053d c310 a5bd
00000170: 6b8b 86bd 0733 45bd 7eb4 8dbd 9a55 993d
00000180: 1f28 30bd 55c2 ea3d 918d 4d3d 5327 19bd
00000190: bf23 26bd c96a c9bc ecd5 303b 784c 8e3d
000001a0: 0546 993c ad79 3fbd 0584 b0b9 2f7f 8d3d
000001b0: 96ed d9bd 2aeb 6ebd 4804 75bd e316 663e
000001c0: edf6 a23c aef4 ecbd ab63 c23d b320 083d
000001d0: 7af2 ff3d b1fd 04be 1773 34be 3c1e 45bd
000001e0: ec2c 53bd dac0 17bd 41e6 e4bd 112b 233d
000001f0: bf93 363e 3099 a43d 4140 54bc a544 cdbd
00000200: cfd2 f33c 37b8 f2bc 7660 0e3d 72a5 ff38
00000210: 8634 4fbd 5b7c ba3d 30f6 413d dbcb 4abd
00000220: 4b59 90bc 5a29 1a3e 7ca8 1e3e 8f21 153d
00000230: 12fa d0bd f3f2 75be 86ba 1ebe 9efc 7abd
00000240: ba67 68bd c880 9a3d 99f0 6cbd 9a15 813d
00000250: 2082 013e be8e 54bd 5f75 a2bd 6e9c 31ba
00000260: d05b f2ba 1227 1fbd 579e 803b 48c3 94bc
00000270: 53ef 373d c224 e13c 38e9 863d 0427 b03d
00000280: e46f 113b c6b8 0fbd c65d cbbc 182b 853d
00000290: fb3f a23b 9b2d b5bb d74f e83b 9b84 913c
000002a0: aa5e d03c baa2 a03c 1df1 a8bd 9e3f ebbd
000002b0: 1aa7 47bd d672 ccbc c6fc 6b3c 1ec8 84bd
000002c0: bb2a 883d 87c8 08be bd79 dcbd 8464 febd
000002d0: 4deb d5bd 0641 53bd 4080 3cba ecf2 b1bc
000002e0: 2ae8 d63d e82b dd3d 074f 1e3e 3c72 123d
000002f0: 2ef8 003e 8721 b1bc 4219 0c3b ae2f aa3d
00000300: 19b4 de3c 5d88 22bd 8045 8e3c 8f1a 0dbe
00000310: 1bce 56bc 42b9 11be d3e3 ac3c ab8a 9d3d
00000320: 1542 263d 5bb5 dc3d d34c ea3d 4cad a43d
00000330: 365a 073e 8844 e4bc 09db 8fbd e965 58bd
00000340: 7427 c0bd 8a8f 7f3d 32f1 cdbd 29c4 bdbc
00000350: 47e5 b3bd da4b ffbd a25d 5fbd 8890 29be
00000360: 550d d3bd 0bde 37bd 1e76 153d 5c53 83bb
00000370: 4f17 543d c583 093e b36d 313d 2c33 4f3d
00000380: 089d db3d 7882 fb3d c0bf 64bd 9cba 123e
00000390: 1bce 4e3e 3cc5 e03c 3580 563d 09b1 4ebe
000003a0: 8f3a cbbd 51db 47bd 581e 9ebd 14fd bc3b
000003b0: 67e7 0cbe 18e0 8c3c 7a3f b33c 34af 8c3b
000003c0: 3e04 203e e208 10be 64d3 7cbd 054f 963d
000003d0: 573e 163d df53 3a3d 3701 83bd 0937 043c
000003e0: 4072 32bd 033e 18bc 2033 d9bd a196 86bd
000003f0: 8118 bf3c 7220 bebc 1fea 76bd a318 a83c

bias f4 [64]
-0.1386917 -0.011818572 -0.09042058 -0.18422094 -0.0705331 -0.05272065 -0.07678495 0.04892575
-0.09187635 -0.030241933 -0.09154245 -0.113999985 -0.12830928 -0.12030547 -0.13473435 -0.048756525
-0.15345967 -0.008729462 -0.13556467 -0.12423988 -0.029081434 -0.035113312 -0.053727865 -0.008032083
-0.097859964 0.037998468 -0.08222595 -0.037307523 -0.04438534 -0.20191292 -0.0813624 -0.013619614
0.010593162 -0.07364526 -0.13290389 -0.021990323 -0.19914329 -0.11408777 -0.17595182 -0.04712054
0.016930426 -0.10763349 -0.009224906 -0.07934654 -0.07804773 -0.041415107 -0.2615913 -0.04158934
-0.12712036 -0.12131523 0.04756286 -0.0012728239 -0.28264698 0.008490783 -0.11634657 -0.08856205
-0.07105833 -0.14974736 0.0027821448 -0.09241977 -0.24240775 0.011570788 -0.13496271 -0.017564734
00000000: 3205 0ebe afa2 41bc 6d2e b9bd 6aa4 3cbe
00000010: a873 90bd 9cf1 57bd 6e41 9dbd 5e66 483d
00000020: ab29 bcbd eebd f7bc 9c7a bbbd d378 e9bd
00000030: 8263 03be b762 f6bd cdf7 09be ecb4 47bd
00000040: 8824 1dbe 0406 0fbc 77d1 0abe 7a71 febd
00000050: 303c eebc fad2 0fbd c011 5cbd ff98 03bc
00000060: ce6a c8bd 48a4 1b3d 1466 a8bd c6cf 18bd
00000070: 67cd 35bd 43c2 4ebe 54a1 a6bd cd24 5fbc
00000080: f18e 2d3c 53d3 96bd f517 08be 0d25 b4bc
00000090: 38ec 4bbe d9a6 e9bd b72c 34be 7801 41bd
000000a0: adb1 8a3c f26e dcbd 0f24 17bc 7080 a2bd
000000b0: 7dd7 9fbd e3a2 29bd 4bef 85be 9559 2abd
000000c0: d72b 02be 1f74 f8bd 46d1 423d e2d4 a6ba
000000d0: 1bb7 90be ed1c 0b3c 1c47 eebd 0560 b5bd
000000e0: 0887 91bd 5f57 19be a554 363b 9446 bdbd
000000f0: bd39 78be 6793 3d3c aa33 0abe ebe3 8fbc

weight f4 [64]
0.41993082 0.41695702 0.17790945 0.47699273 0.5131235 0.4763226 0.028553342 0.5200729
0.6688523 0.53040314 0.5940243 0.66355723 0.40540656 0.5785817 0.21778078 0.38285398
0.5238605 -0.0008718645 0.71733016 0.031768527 0.47997075 0.5769304 -0.0013270295 0.62391365
0.79092944 0.2746735 0.32888862 0.0038714863 0.59230864 0.8099613 0.02918611 -0.0074220514
0.016153889 0.5815063 0.40098217 0.67484206 0.32850283 0.24551837 0.022655398 0.71364075
0.44334203 0.23260295 0.22288896 0.1647188 0.41819733 0.64136237 -0.12640186 0.71723545
0.22100915 0.54941475 0.38040164 0.25788516 0.40897205 0.0055519333 0.50148886 0.5019122
0.46253783 0.22246893 0.5430903 0.26919967 0.5293662 0.5917262 0.5727566 0.7517349
00000000: 2c01 d73e 647b d53e e52d 363e 6438 f43e
00000010: 105c 033f 8ee0 f33e b3e8 e93c 7f23 053f
00000020: e839 2b3f 80c8 073f fa11 183f e3de 293f
00000030: 7391 cf3e ee1d 143f ed01 5f3e 7005 c43e
00000040: b91b 063f d68d 64ba f3a2 373f b71f 023d
00000050: babe f53e b6b1 133f b9ef adba ceb8 1f3f
00000060: 5a7a 4a3f 01a2 8c3e 1764 a83e c3b8 7d3b
00000070: 8aa1 173f a059 4f3f b517 ef3c ae34 f3bb
00000080: 2955 843c 99dd 143f 894d cd3e 73c2 2c3f
00000090: 8631 a83e 2b69 7b3e d097 b93c 29b1 363f
000000a0: bafd e23e 782f 6e3e 013d 643e 0cac 283e
000000b0: f61d d63e 5330 243f 7d6f 01be be9c 373f
000000c0: 3950 623e 72a6 0c3f 01c4 c23e 8609 843e
000000d0: c964 d13e feec b53b 9361 003f 517d 003f
000000e0: c2d1 ec3e e5ce 633e f707 0b3f 8ad4 893e
000000f0: 8b84 073f 5e7b 173f 2da0 123f b371 403f

bias f4 [64]
0.054272894 0.07847944 0.004921448 0.2482543 0.16516703 0.15017319 0.006533001 0.12175711
0.20799075 0.18750525 0.17310816 0.27572992 0.031952463 0.16333923 0.26142085 0.090461634
0.22021468 0.002739275 0.20021413 0.002259692 0.017035633 0.2385571 -0.07273414 0.13612244
0.20513345 -0.14028677 0.11724446 0.00060968526 -0.09624363 0.1776711 -0.0017169972 0.0020195153
0.00093074905 0.06452421 0.00685842 0.17570344 0.15688768 0.01883779 -0.16901541 0.09420658
-0.020364417 -0.076455645 0.1261193 -0.03565397 0.19902934 -0.077012144 -0.36280972 0.3275512
-0.021083351 0.10209283 0.13706793 0.029078687 0.13339674 6.6258544e-05 0.20316857 0.08359897
0.09893461 0.06315866 0.24594925 0.016338434 -0.14676805 0.13340414 0.061173834 0.08432718
00000000: 414d 5e3d d4b9 a03d 1944 a13b 6036 7e3e
00000010: 8c21 293e 00c7 193e c912 d63b cb5b f93d
00000020: 87fb 543e 6001 403e 4443 313e 792c 8d3e
00000030: 96e0 023d 6642 273e f4d8 853e f343 b93d
00000040: f57f 613e 6985 333b ef04 4d3e 5717 143b
00000050: 508e 8b3c 5048 743e a3f5 94bd ae63 0b3e
00000060: 810e 523e 56a7 0fbe dd1d f03d 49d3 1f3a
00000070: 611b c5bd 6aef 353e de0c e1ba d859 043b
00000080: 83fd 733a 4525 843d 99bc e03b 9aeb 333e
00000090: 2aa7 203e b551 9a3c 6012 2dbe 61ef c03d
000000a0: 47d3 a6bc c794 9cbd 6b25 013e e609 12bd
000000b0: 59ce 4b3e 8bb8 9dbd 32c2 b9be cab4 a73e
000000c0: feb6 acbc 0c16 d13d 895b 0c3e 6d36 ee3c
000000d0: 2899 083e 49f4 8a38 6c0b 503e f035 ab3d
000000e0: 3b9e ca3d 5459 813d 1fda 7b3e 2ed8 853c
000000f0: 5d4a 16be 189b 083e 6a91 7a3d bbb3 ac3d

running_mean f4 [64]
0.030478979 0.025835091 0.016744886 0.03305415 0.011615425 0.019705655 0.010143227 0.07858572
0.021593448 0.017161863 0.011795445 0.007108024 0.0058601345 0.02688158 0.0022619704 0.017167762
0.0059322966 0.00013469327 0.013481711 -0.00079496874 0.015198203 0.013150668 -0.00051391317 0.066302866
0.018063307 0.06676965 0.003981094 -0.000357371 0.042532478 0.0149708865 -0.00043243731 0.03395881
0.030256318 0.015583523 0.013668344 0.0830451 0.0092989355 0.0027148789 0.009578441 0.027708976
0.036080625 0.0051627513 0.09094364 0.020254565 0.0051167207 0.02196415 0.001228307 0.012256512
0.011930237 0.02347973 0.07246049 0.033495132 0.008085423 0.015476038 0.007338278 0.018540965
0.019121533 0.00475864 0.047139764 0.017343232 0.012785276 0.045496646 0.0034819273 0.04081561
00000000: 0daf f93c 1da4 d33c 922c 893c ca63 073d
00000010: a04e 3e3c c16d a13c c72f 263c 8df1 a03d
00000020: bee4 b03c 0997 8c3c af41 413c 6dea e83b
00000030: 5f06 c03b c236 dc3c 913d 143b 68a3 8c3c
00000040: b663 c23b 733c 0d39 65e2 5c3c 7365 50ba
00000050: e201 793c e675 573c 21b8 06ba ccc9 873d
00000060: 80f9 933c 87be 883d d673 823b 865d bbb9
00000070: 8936 2e3d 7348 753c c1b8 e2b9 6518 0b3d
00000080: 19dc f73c 0852 7f3c 31f1 5f3c 8d13 aa3d
00000090: 905a 183c 1cec 313b e5ee 1c3c effd e23c
000000a0: 47c9 133d 4c2c a93b a940 ba3d e7ec a53c
000000b0: 2aaa a73b 29ee b33c 25ff a03a 8acf 483c
000000c0: 0a77 433c 9058 c03c 2a66 943d 3132 093d
000000d0: b978 043c 358f 7d3c f075 f03b 39e3 973c
000000e0: c3a4 9c3c 5eee 9b3b a015 413d 6513 8e3c
000000f0: 5679 513c b15a 3a3d 0c31 643b 452e 273d

running_var f4 [64]
0.00828865 0.0038300774 0.0030920873 0.007130362 0.0014389494 0.003093541 0.0012661444 0.0067144404
0.0048400736 0.002636301 0.0018665732 0.0013988055 0.0010180315 0.006465544 0.00043044775 0.002321122
0.0014583498 1.6221887e-06 0.003451685 3.810827e-05 0.0018212477 0.0017610874 1.2024063e-08 0.013913852
0.0030778092 0.014564682 0.000659112 1.491535e-08 0.011998206 0.0029826318 2.1158448e-05 0.0017558724
0.0018428083 0.0028959857 0.0022159847 0.012958573 0.0018817831 0.00057863287 0.0015108085 0.004868706
0.003957103 0.00096939004 0.015603143 0.004094055 0.00068257377 0.0045484384 0.0006060516 0.0016271822
0.0027245942 0.0049779206 0.009463389 0.0043200892 0.0016925288 0.00048666188 0.0012215452 0.003291366
0.0035318383 0.00060012785 0.0053554703 0.0027200002 0.0026971267 0.008355166 0.0006598855 0.010036676
00000000: 1ecd 073c 0902 7b3b 9ea4 4a3b d0a5 e93b
00000010: 219b bc3a 01bd 4a3b c2f4 a53a cf04 dc3b
00000020: 7b99 9e3b cbc5 2c3b cea7 f43a 2058 b73a
00000030: 786f 853a eadc d33b b8ad e139 f71d 183b
00000040: 1926 bf3a fbb9 d935 aa35 623b 71d6 1f38
00000050: efb6 ee3a 4ad4 e63a 6392 4e32 edf6 633c
00000060: 12b5 493b b4a0 6e3c 42c8 2c3a 341f 8032
00000070: 2094 443c 4278 433b 6c7d b137 4d25 e63a
00000080: 638a f13a 94ca 3d3b 0e3a 113b 3250 543c
00000090: 2aa6 f63a 65af 173a 5206 c63a ab89 9f3b
000000a0: 96aa 813b aa1e 7e3a 53a4 7f3c 6c27 863b
000000b0: c0ee 323a 110b 953b 6fdf 1e3a 2d47 d53a
000000c0: 1b8f 323b d31d a33b 550c 1b3c 898f 8d3b
000000d0: d8d7 dd3a a726 ff39 411c a03a f5b3 573b
000000e0: 6a76 673b e651 1d3a f17c af3b 0842 323b
000000f0: 47c2 303b 1be4 083c 2bfc 2c3a df70 243c

weight f4 [128, 64, 5, 5]
-1.6994967e-05 -0.00075279106 -6.128627e-05 -0.00014166046 0.0003299591 -0.00011167354 -0.00033871186 -0.00048444665
6.5464315e-05 0.00041076003 0.00024679833 -0.0004661268 -0.00073344255 -0.00033114944 0.00030863646 0.00043789137
-0.00030611773 0.00012252321 0.0010341053 0.00040715645 0.00031116992 -0.0001357043 0.000989188 0.0015677083
0.00029423303 -0.00047212353 -6.303002e-05 -0.00019380027 0.0011989048 0.0004409257 -8.1148566e-05 -0.00018189558
-0.00023019512 0.00057707983 0.00018582174 -0.00017232385 -0.00015708254 -0.00014970348 -8.9048706e-05 -0.00011406358
-0.00032463102 -0.0003388644 0.00016088504 0.0003834988 -0.000117137664 0.00017898873 0.00015037785 0.00039466924
8.197652e-05 6.240518e-05 -2.942382e-05 -1.820251e-05 0.0002054037 0.0003928119 0.00011848784 -4.8428324e-06
-3.8506216e-05 7.3598544e-06 0.0002000139 3.8291382e-05 3.2842407e-05 -0.00015084853 0.00011315889 -2.9630606e-05
-0.00017365176 -0.00013219184 -5.0500505e-05 0.00011450647 -6.2866755e-05 -0.000670371 2.4048328e-05 4.0835523e-05
4.2529857e-05 3.5734151e-06 -0.00029704146 0.00017539223 2.5082227e-05 -0.00016025013 3.563856e-05 -2.1534916e-05
-0.00010529606 -4.2083637e-05 0.00016431954 0.00013893352 -0.00043944773 -3.191013e-05 0.00040750985 0.00021099429
2.8494758e-05 -0.00048204904 4.7990932e-05 -6.585964e-05 -2.2157155e-05 -0.00037908767 -0.0006132284 0.00046638993
0.0006406311 0.00028170308 -0.00072793884 -0.0003013701 0.00022730778 -3.149608e-05 -0.00014826994 0.0014352535
4.7269918e-05 0.00026744918 0.00045208764 -0.00046590625 0.0014088987 0.00024676538 0.00016577385 7.280854e-05
-4.3284537e-05 0.0016592694 -9.728407e-05 -0.00030053777 0.0002508895 0.0026890056 0.00033259456 -7.555874e-05
0.00044396135 0.0022836565 -0.00017082453 0.0010089052 0.0010816314 -0.00014443709 0.0002454534 0.00018348683
-0.0001254891 0.0005061039 0.00014680732 -0.00042726286 -8.2981365e-05 -0.00014717948 0.0006857029 0.0004392685
-0.0004748053 -0.00058470375 0.00035691948 0.0007286787 0.0003244443 3.349694e-05 0.00050076266 0.0019710602
0.0002596059 0.0004199167 -0.00021109046 0.0014271067 0.0009868158 0.00034556372 1.484196e-05 -8.0922255e-05
8.153833e-06 1.676727e-05 2.0276586e-05 4.963547e-06 -4.418283e-05 -0.000114687384 2.1409698e-05 6.4754495e-05
5.439673e-05 -5.6069304e-05 -7.974079e-05 3.889897e-05 2.781257e-05 3.0945863e-05 -3.746135e-05 7.121853e-05
0.0002073265 0.000100954734 4.664453e-05 2.487808e-06 2.8187302e-05 -3.0776926e-06 7.299329e-05 0.00023443041
0.00027657003 0.00043654095 0.00027084717 0.00021995316 -0.0002942561 -0.00038473873 -0.00042229253 0.00036669787
0.0006245489 0.0003310744 0.00013833733 -9.6702766e-05 0.0004628718 0.00063714926 -0.00012137375 -0.0001258029
0.00020841089 0.00045621538 0.00074289896 -0.00065423176 -0.00078945403 -0.00079910987 -0.00020818274 -0.00029497154
-0.0003618615 -0.00020387454 -0.00025564304 -1.655653e-05 0.00058602664 8.716168e-05 0.00046387903 0.00038990795
-0.00024354475 0.00017949668 6.641591e-05 0.00011591517 -0.00053658686 -0.0003283489 0.0007615289 2.0733954e-05
-0.000515805 -0.0005203461 0.0010194947 0.00081820204 0.00032654524 0.00030375316 0.0014100025 0.0011050671
0.00038009314 0.0005409703 -0.00084589614 0.00022368877 9.778518e-05 0.00018028823 0.00068035803 0.00033681054
0.00053132337 0.00024114619 3.4713834e-05 0.0006293749 0.00015855586 -0.00052392035 9.022616e-05 0.00019016041
0.0008740602 -0.0001752853 5.8192276e-05 0.0011280081 0.0003863311 0.00057177205 0.000103382474 0.0012366512
0.0008731216 0.0011345963 0.00064120255 0.0004896897 0.00027206654 0.0007798953 -0.00025997858 0.00022132952
00000000: 6a90 8eb7 f456 45ba d186 80b8 b18a 14b9
00000010: 5cfe ac39 4632 eab8 2395 b1b9 54fd fdb9
00000020: e349 8938 475b d739 b664 8139 7b62 f4b9
00000030: 7f44 40ba 209e adb9 7cd0 a139 c994 e539
00000040: 6d7e a0b9 9379 0039 d18a 873a 9d77 d539
00000050: 8524 a339 d84b 0eb9 a4a7 813a 907b cd3a
00000060: 4a43 9a39 5987 f7b9 fc2e 84b8 dd36 4bb9
00000070: 9224 9d3a 0c2c e739 4e2e aab8 39bb 3eb9
00000080: 8860 71b9 2c47 173a 25d9 4239 d5b1 34b9
00000090: 86b6 24b9 b9f9 1cb9 a9bf bab8 6b35 efb8
000000a0: 3d33 aab9 9ca9 b1b9 40b3 2839 5610 c939
000000b0: cea7 f5b8 ecae 3b39 bfae 1d39 9ceb ce39
000000c0: cfea ab38 87df 8238 2cd3 f6b7 98b1 98b7
000000d0: a361 5739 52f2 cd39 ad7c f838 9d7f a2b6
000000e0: bc81 21b8 abf4 f636 d3ba 5139 0f9b 2038
000000f0: 44c0 0938 182d 1eb9 b74f ed38 3e8f f8b7
00000100: 4a16 36b9 fa9c 0ab9 81d0 53b8 3123 f038
00000110: 55d7 83b8 d6bb 2fba 64bb c937 cf46 2b38
00000120: 1662 3238 cece 6f36 3bbc 9bb9 7ee9 3739
00000130: ac67 d237 d108 28b9 9d7a 1538 e1a5 b4b7
00000140: 64d2 dcb8 f682 30b8 314d 2c39 afae 1139
00000150: ad65 e6b9 3ed7 05b8 0ca7 d539 593e 5d39
00000160: 0708 ef37 87bb fcb9 df49 4938 201e 8ab8
00000170: 21de b9b7 49c0 c6b9 10c1 20ba cc85 f439
00000180: 06f0 273a 8cb1 9339 26d3 3eba 3601 9eb9
00000190: 7859 6e39 a91a 04b8 e978 1bb9 1e1f bc3a
000001a0: b043 4638 6c38 8c39 2d06 ed39 e144 f4b9
000001b0: ccaa b83a 4a60 8139 94d3 2d39 cab0 9838
000001c0: 6b8c 35b8 d87b d93a fd04 ccb8 7f91 9db9
000001d0: d289 8339 073a 303b 1660 ae39 4a75 9eb8
000001e0: 7cc3 e839 66a9 153b 5c1f 33b9 3e3d 843a
000001f0: 87c5 8d3a 0974 17b9 33b0 8039 5f66 4039
00000200: b995 03b9 0fac 043a 4af0 1939 4002 e0b9
00000210: 4806 aeb8 3154 1ab9 bec0 333a 9f4d e639
00000220: 4aef f8b9 ce46 19ba ec20 bb39 cd04 3f3a
00000230: 2d1a aa39 117f 0c38 9d45 033a e72c 013b
00000240: b71b 8839 4428 dc39 2a58 5db9 c10d bb3a
00000250: 0b58 813a c72c b539 bc01 7937 ceb4 a9b8
00000260: 72cc 0837 70a7 8c37 a317 aa37 8b8c a636
00000270: f450 39b8 5284 f0b8 fa98 b337 cecc 8738
00000280: 0b28 6438 f52b 6bb8 833a a7b8 7327 2338
00000290: 0a4f e937 decb 0138 d11f 1db8 285b 9538
000002a0: c965 5939 a9b7 d338 2fa4 4338 37f4 2636
000002b0: c573 ec37 5b8a 4eb6 f913 9938 6fd1 7539
000002c0: 9a00 9139 89df e439 7e00 8e39 3aa3 6639
000002d0: 6346 9ab9 c2b6 c9b9 2567 ddb9 5b41 c039
000002e0: c4b8 233a 0e94 ad39 a50e 1139 e7cc cab8
000002f0: 9aad f239 5d06 273a 098a feb8 f5e9 03b9
00000300: df88 5a39 3130 ef39 1bbf 423a c080 2bba
00000310: 5df3 4eba 5b7b 51ba a14b 5ab9 69a6 9ab9
00000320: 3ab8 bdb9 28c7 55b9 d407 86b9 e1e2 8ab7
00000330: 959f 193a 92ca b638 ca34 f339 8f6c cc39
00000340: 0c60 7fb9 4637 3c39 c548 8b38 7c17 f338
00000350: bca9 0cba 3e26 acb9 57a1 473a d4ed ad37
00000360: 1637 07ba d667 08ba 91a0 853a 9c7c 563a
00000370: 2934 ab39 0f41 9f39 d5cf b83a e6d7 903a
00000380: 3d47 c739 e7cf 0d3a 21bf 5dba ff8d 6a39
00000390: 0512 cd38 c10b 3d39 0e5a 323a f295 b039
000003a0: 8248 0b3a 30dc 7c39 b299 1138 a2fc 243a
000003b0: 0442 2639 b357 09ba cd37 bd38 cc65 4739
000003c0: 3021 653a cacc 37b9 7b13 7438 acd9 933a
000003d0: 7c8c ca39 f9e2 153a 0bcf d838 2117 a23a
000003e0: 33e2 643a bcb6 943a 6016 283a 855e 003a
000003f0: 27a4 8e39 e371 4c3a bc4d 88b9 b114 6839

bias f4 [128]
-0.00045129447 -0.016314987 -0.057969652 -1.6788036e-06 -0.105818465 -0.1272201 -0.14597876 -0.03172971
-0.02430091 -0.00071826763 1.694928e-27 -0.008468108 -0.06399885 -0.051316705 -5.522766e-06 -0.10368896
-0.06339784 -0.0031332902 -0.0902161 -0.006772905 -0.16271366 -0.06754424 -0.01747793 -0.008279894
-5.59e-43 -0.008092518 -0.028210597 -0.011102776 0.0030729384 -0.09603739 -0.14298378 -0.0003480686
-0.0061013624 -0.007399323 -0.058840554 -0.00038835144 -0.033951554 -8.574407e-05 -0.012373892 -0.102460906
-0.0073794597 -0.12863764 -0.008827919 0.0039906004 -0.09516626 -0.018251192 -0.06646759 -0.12742084
-0.16819178 -0.06726071 -0.016480744 -0.08915054 -0.18000983 0.017168188 0.02802614 -0.00017947367
-0.08035563 -0.0003772438 -0.12771825 -0.058966473 -0.13780594 -0.019134106 -0.044033725 -0.0035446635
-0.15251924 -0.006966628 -0.025970243 0.0008815535 -0.044195022 -9.8885815e-09 0.008989512 -0.025950065
-6.85e-43 -7.600954e-05 -1.3010167e-09 -0.04430018 -0.09216027 -0.07296684 -0.007831077 -0.009804497
-0.029154254 -0.094204076 -0.0025039066 -0.020302685 -0.13141933 -0.065495014 -0.016076744 -0.07248624
-0.01071413 -0.0355683 -0.014866386 -0.18904193 -4.1724135e-05 -0.07953073 -0.03205652 0.0014727585
-0.0950427 -0.08653641 -0.013844304 -0.0035600692 0.00059070153 -0.052818038 -0.015172619 -0.08608397
-0.11402821 -0.08596824 -0.024632365 -0.013952681 0.003987591 6.351442e-30 -0.012302732 -0.0022665416
3.4000306e-05 -0.0004027036 -0.04540254 -0.017709402 0.003848043 -0.07169974 -0.04929578 -0.013729639
-0.017298305 -0.08275058 -0.038096897 -0.0014702448 -0.08850735 -0.10505676 -0.048593145 0.011866859
00000000: b89b ecb9 02a7 85bc 9671 6dbd 4153 e1b5
00000010: 5ab7 d8bd fc45 02be 757b 15be 03f7 01bd
00000020: b412 c7bc 204a 3cba 3949 0613 d2bd 0abc
00000030: d411 83bd 7731 52bd 3350 b9b6 e15a d4bd
00000040: bad6 81bd e357 4dbb 38c3 b8bd 3fef ddbb
00000050: 699e 26be a254 8abd e02d 8fbc 64a8 07bc
00000060: 8f01 0080 7b96 04bc e919 e7bc 6be8 35bc
00000070: 5a63 493b 40af c4bd 576a 12be fa7c b6b9
00000080: f0ed c7bb 0576 f2bb cb02 71bd a69b cbb9
00000090: c910 0bbd 7fd1 b3b8 ddbb 4abc 06d7 d1bd
000000a0: 65cf f1bb 96b9 03be faa2 10bc 95c3 823b
000000b0: 87e6 c2bd 8683 95bc 2920 88bd 9c7a 02be
000000c0: 773a 2cbe fcbf 89bd a002 87bc 8f94 b6bd
000000d0: 7f54 38be 4da4 8c3c 1397 e53c 1931 3cb9
000000e0: 7e91 a4bd cec8 c5b9 93c8 02be d486 71bd
000000f0: 001d 0dbe 21bf 9cbc b55c 34bd 964d 68bb
00000100: 012e 1cbe 5048 e4bb 8cbf d4bc 0e18 673a
00000110: d705 35bd 71e2 29b2 bf48 133c 3b95 d4bc
00000120: e901 0080 5067 9fb8 75cf b2b0 1b74 35bd
00000130: 86be bcbd a36f 95bd eb4d 00bc 0aa3 20bc
00000140: e7d4 eebc 11ee c0bd 9518 24bb d151 a6bc
00000150: ca92 06be 4022 86bd 60b3 83bc aa73 94bd
00000160: 518a 2fbc 11b0 11bd 2492 73bc 3594 41be
00000170: f300 2fb8 02e1 a2bd b34d 03bd 9309 c13a
00000180: bfa5 c2bd 003a b1bd 38d3 62bc 0d50 69bb
00000190: 4fd9 1a3a ba57 58bd 9496 78bc cb4c b0bd
000001a0: 9f87 e9bd 1e10 b0bd d0c9 c9bc c999 64bc
000001b0: 56aa 823b 93d2 000f 6691 49bc 428a 14bb
000001c0: 8d9b 0e38 f621 d3b9 04f8 39bd 4f13 91bc
000001d0: 732f 7c3b 50d7 92bd 5fea 49bd 48f2 60bc
000001e0: 2db5 8dbc 2379 a9bd 7e0b 1cbd 3bb5 c0ba
000001f0: 5743 b5bd 0028 d7bd 9b09 47bd 376d 423c

weight f4 [128]
0.020644259 0.0823401 0.73427504 0.0012630436 0.5234244 0.44007882 0.6102565 0.42256418
0.3031888 -0.00039136846 -4.091802e-25 0.06031162 0.1761121 0.31096923 0.0015406471 0.5749771
0.9237855 0.004110613 0.46992204 -0.003183957 0.54289347 0.24625726 0.26627368 0.0036986205
-3.01e-43 -0.0077456776 0.26846653 0.23630464 -0.008161796 0.40553224 0.43630323 6.650867e-05
0.01563064 0.046581857 0.54997504 0.010700655 0.4850827 0.000998256 0.0492951 0.6786279
-0.0073012128 0.74336296 0.056912374 0.0077193514 0.51570565 0.1555597 0.40814203 0.8395161
0.8815164 0.28696403 0.19985873 0.68419755 0.66741437 0.12126683 0.31076083 0.006363591
0.6301848 -0.0024962532 0.505753 0.7244574 0.9641856 0.25494704 0.76433206 0.09400583
0.85862404 0.020870363 0.332156 -0.0075657065 0.5892995 3.5864363e-05 0.5871385 0.25163186
-4e-44 -0.00012671738 7.755272e-07 0.43731967 0.6897402 0.8650409 0.017580599 -0.009875936
0.36658677 0.91057795 -0.0012540569 0.085554354 0.8484972 0.52263385 0.14166911 0.6207516
0.20477262 0.51909095 0.7714298 0.96158457 3.1649786e-05 0.5575176 0.7217372 0.17863047
0.6670146 0.5279479 -0.004678236 0.011913425 0.06970348 0.612178 0.5882385 0.766937
0.6926524 0.8062346 0.61859816 0.5647565 -0.0029649497 -2.6496913e-28 0.010802864 -0.003511452
0.0009705998 0.002124575 0.33412713 0.08207445 0.06283516 0.6361111 0.19195 0.4122857
0.21560271 0.53074765 0.37298214 0.0011500015 0.4322851 0.6429392 0.48979682 0.49084654
00000000: 261e a93c eda1 a83d 73f9 3b3f b68c a53a
00000010: 24ff 053f 0352 e13e c539 1c3f 555a d83e
00000020: 903b 9b3e 9630 cdb9 3145 fd96 5109 773d
00000030: bb56 343e 5c37 9f3e 8aef c93a b331 133f
00000040: 357d 6c3f 52b2 863b 9f99 f03e efa9 50bb
00000050: 11fb 0a3f dd2a 7c3e 0655 883e 8e64 723b
00000060: d700 0080 74cf fdbb 7274 893e d8f9 713e
00000070: 0eb9 05bc eca1 cf3e 2363 df3e 927a 8b38
00000080: d40b 803c 9ecc 3e3d 2acb 0c3f cd51 2f3c
00000090: c25c f83e ead7 823a a9e9 493d 8fba 2d3f
000000a0: 033f efbb 094d 3e3f f31c 693d 9df2 fc3b
000000b0: 4905 043f 0b4b 1f3e fef7 d03e 87ea 563f
000000c0: 0fab 613f f3ec 923e c4a7 4c3e 9227 2f3f
000000d0: abdb 2a3f be5a f83d 0b1c 9f3e ac85 d03b
000000e0: cb53 213f 2e98 23bb 0779 013f 0a76 393f
000000f0: ded4 763f 6b88 823e 44ab 433f 2186 c03d
00000100: c9ce 5b3f 53f8 aa3c 5a10 aa3e bfe9 f7bb
00000110: 55dc 163f 116d 1638 b54e 163f e4d5 803e
00000120: 1d00 0080 70df 04b9 d32d 5035 5de8 df3e
00000130: d092 303f 5273 5d3f 3005 903c aece 21bc
00000140: 43b1 bb3e a31b 693f 2b5f a4ba 1f37 af3d
00000150: 1d37 593f 55cb 053f b511 113e 94e9 1e3f
00000160: eaaf 513e 25e3 043f 6c7c 453f 682a 763f
00000170: b3bf 0438 79b9 0e3f c5c3 383f e8ea 363e
00000180: 78c1 2a3f 9827 073f e34b 99bb 8730 433c
00000190: b3c0 8e3d b3b7 1c3f cc96 163f fc55 443f
000001a0: ab51 313f 6465 4e3f 735c 1e3f e293 103f
000001b0: 9a4f 42bb b3f1 a791 7ffe 303c 6420 66bb
000001c0: da6f 7e3a 743c 0b3b b612 ab3e a616 a83d
000001d0: b8af 803d 2dd8 223f 8a8e 443e 1c17 d33e
000001e0: f5c6 5c3e 14df 073f 84f7 be3e a6bb 963a
000001f0: 7954 dd3e aa97 243f a6c6 fa3e 3d50 fb3e

bias f4 [128]
0.0026679102 0.15514621 -0.1461342 0.0001640561 -0.18269636 -0.18488058 -0.19779685 0.16770239
0.19425303 -0.026544362 -2.5481704e-06 -0.15095094 -0.21092899 0.19493145 -0.00023667073 -0.13489324
0.20412028 0.1347946 -0.15584281 0.068539746 -0.19325806 -0.18022066 0.15721436 -0.13311745
2.2862818e-09 0.10087611 0.19153193 0.16877382 0.19645429 -0.18917164 -0.22343335 -0.10783679
-0.17135622 0.07049766 0.18143603 -0.0004338892 0.16736235 -0.020502076 0.14541346 -0.15623201
0.10207216 -0.17798916 0.17229846 0.17318146 -0.12773079 0.1491754 -0.11342716 -0.15502304
-0.17216036 -0.15985598 -0.08886451 -0.18118694 -0.18830767 0.14715381 0.1545707 0.0028194427
-0.1919972 0.10897462 -0.19038394 0.17074436 -0.18301074 0.12882666 0.18285322 0.15941438
-0.18067017 0.1399323 0.15421914 0.040125128 0.17910789 1.1910653e-07 -0.15978576 -0.082436286
4.1989108e-07 0.15039062 -2.4239907e-07 0.1799224 -0.13504145 -0.15786065 0.18666394 0.15713313
-0.10214725 -0.1886123 0.15125999 0.13715622 -0.17391889 0.183843 0.16701785 0.1742835
0.13277681 -0.08758078 -0.17369737 -0.19904698 0.03076879 -0.11118159 -0.1760176 0.07291155
-0.15690146 -0.18490843 0.13652188 0.17010291 -0.020537611 0.19169383 0.16750199 0.20076476
-0.14917774 0.19400044 0.19950834 0.17133082 -0.21603906 4.365546e-07 -0.08682636 -0.1748014
-0.03631944 -0.00158349 0.19170652 0.19008023 0.11343304 -0.16268823 -0.108574316 -0.08893423
0.14275222 -0.15128298 0.13627279 0.08648531 -0.19288565 -0.15166937 -0.14969277 0.14433053
00000000: 1bd8 2e3b a6de 1e3e 34a4 15be 7906 2c39
00000010: c114 3bbe 5651 3dbe 428b 4abe 2dba 2b3e
00000020: 44ea 463e 9073 d9bc 3c01 2bb6 e292 1abe
00000030: c5fd 57be 1c9c 473e d12a 78b9 7421 0abe
00000040: e804 513e 9807 0a3e 4295 1fbe 915e 8c3d
00000050: 71e5 45be c48b 38be cdfc 203e f14f 08be
00000060: b21c 1d31 2298 ce3d f220 443e 0bd3 2c3e
00000070: 502b 493e 36b6 41be b6cb 64be 89d9 dcbd
00000080: 0178 2fbe 1461 903d 5eca 393e 9f7b e3b9
00000090: 0961 2b3e f8f3 a7bc 44e7 143e 49fb 1fbe
000000a0: 350b d13d ca42 36be 026f 303e 7b56 313e
000000b0: dccb 02be 70c1 183e 804c e8bd 5cbe 1ebe
000000c0: ce4a 30be 49b1 23be 99fe b5bd 1289 39be
000000d0: bad3 40be 7daf 163e c847 1e3e 66c6 383b
000000e0: ea9a 44be 162e df3d 02f4 42be 9cd7 2e3e
000000f0: 2b67 3bbe 23eb 033e e03d 3b3e 863d 233e
00000100: 9a01 39be 6a4a 0f3e 9feb 1d3e 3f5a 243d
00000110: 0f68 373e 82c7 ff33 e19e 23be 5bd4 a8bd
00000120: 646d e134 0000 1a3e 1323 82b4 943d 383e
00000130: 4e48 0abe 39a6 21be d524 3f3e 82e7 203e
00000140: 9432 d1bd 9523 41be e6e3 1a3e ae72 0c3e
00000150: cb17 32be 5741 3c3e ba06 2b3e 6077 323e
00000160: a5f6 073e 8d5d b3bd b9dd 31be f9d2 4bbe
00000170: d40e fc3c 2cb3 e3bd f53d 34be a752 953d
00000180: c7aa 20be a358 3dbe 64cc 0b3e 752f 2e3e
00000190: 7e3e a8bc 634b 443e a485 2b3e 4795 4d3e
000001a0: 0dc2 18be 0da8 463e ea4b 4c3e 5971 2f3e
000001b0: 5839 5dbe 9b5f ea34 05d2 b1bd 23ff 32be
000001c0: b1c3 14bd 1c8d cfba b74e 443e 64a4 423e
000001d0: 954f e83d be97 26be 365c debd 2623 b6bd
000001e0: a32d 123e ede9 1abe 188b 0b3e 361f b13d
000001f0: d183 45be 374f 1bbe 1049 19be 62cb 133e

running_mean f4 [128]
0.011942847 0.13916384 -0.0022733288 2.168297e-05 0.00054328557 0.04304644 -0.010860829 0.098472394
0.15852514 0.024910115 7.127728e-26 0.3940371 0.07176008 0.020010034 -9.306506e-07 0.0019669847
0.03799329 0.020086389 0.06641527 0.0055196546 -0.0072187255 0.002027241 0.16704378 0.005934608
4.259e-42 -0.002372479 0.011307031 0.074591964 0.11685723 -0.03139847 -0.015509553 -0.000101563084
0.07735675 0.001670978 -0.008919858 0.0030091573 0.26340523 0.009564177 0.0043180785 0.0025486532
0.01697193 -0.02519074 0.08581898 0.08213221 0.0007515641 0.093491055 0.038883977 -0.0040442147
0.009876158 0.062481537 0.1193619 0.07399482 -0.018120898 0.30435318 0.26315475 -1.3795209e-05
0.0047043012 0.043136008 -0.030652406 -0.0017658196 0.03160376 0.08188551 0.13361616 0.06451476
-0.024286004 0.14590418 0.07527372 0.055875372 0.068937115 9.811011e-08 0.37182727 0.37773398
5.347e-42 0.11124417 6.4681354e-09 0.028767731 0.0070386115 0.006995707 0.14835708 0.0016763347
0.24266002 -0.00040785345 0.055203795 0.03944282 0.05581909 0.017504396 0.1089723 0.043793652
0.06337247 0.106200345 0.04644638 -0.014640129 -4.5624392e-06 0.106672734 0.121169366 0.06632755
0.0051066447 -0.027665362 0.009110131 0.05540104 0.1624573 0.1163297 0.119951114 0.029096447
0.0050017517 -0.009634272 0.0111291725 0.060941253 0.124423556 1.8175614e-28 0.0147349965 0.22587153
0.034561794 0.010678499 0.02273439 0.1176217 0.14154099 0.04495872 -0.012104809 0.47447285
0.06532733 0.043285493 0.08364433 0.013947057 -0.018728623 0.035883926 0.20352982 0.33024386
00000000: eeab 433c f780 0e3e 21fc 14bb d3e3 b537
00000010: 476b 0e3a 7751 303d 9ef1 31bc e5ab c93d
00000020: 6a54 223e 4c10 cc3c 5879 b015 3bbf c93e
00000030: f3f6 923d 15ec a33c d2d1 79b5 87e8 003b
00000040: da9e 1b3d 368c a43c bb04 883d 38de b43b
00000050: 0f8b ecbb 76db 043b 860d 2b3e 1a77 c23b
00000060: df0b 0000 987b 1bbb 2041 393c acc3 983d
00000070: d852 ef3d af9b 00bd c81b 7ebc 44fe d4b8
00000080: 376d 9e3d b804 db3a 9924 12bc 4835 453b
00000090: 0ddd 863e 11b3 1c3c ab7e 8d3b 4e07 273b
000000a0: b808 8b3c d05c cebc ddc1 af3d ef34 a83d
000000b0: 9d04 453a 3d78 bf3d ce44 1f3d 5585 84bb
000000c0: 9ccf 213c a4ec 7f3d 0374 f43d 998a 973d
000000d0: 4772 94bc 2ed4 9b3e 38bc 863e f971 67b7
000000e0: 8a26 9a3b 62af 303d c11a fbbc 1373 e7ba
000000f0: f272 013d 97b3 a73d add2 083e 5120 843d
00000100: 71f3 c6bc e867 153e 1c29 9a3d 93dd 643d
00000110: e72e 8d3d 9ab0 d233 2560 be3e 5966 c13e
00000120: e80e 0000 fcd3 e33d 523e de31 4eaa eb3c
00000130: 27a4 e63b 3e3c e53b ebea 173e 75b8 db3a
00000140: de7b 783e 2ad5 d5b9 601d 623d cb8e 213d
00000150: 8fa2 643d 6165 8f3c df2c df3d f960 333d
00000160: 6dc9 813d 917f d93d 8f3e 3e3d 27dd 6fbc
00000170: 0e17 99b6 3c77 da3d a527 f83d bdd6 873d
00000180: a455 a73b 78a2 e2bc a942 153c 33ec 623d
00000190: 355b 263e 443e ee3d eea8 f53d ac5b ee3c
000001a0: bce5 a33b 11d9 1dbc 2257 363c 899d 793d
000001b0: c7d1 fe3d 3d67 6611 0e6b 713c de4a 673e
000001c0: ab90 0d3d dff4 2e3c 793d ba3c a5e3 f03d
000001d0: 1ff0 103e a326 383d 4053 46bc 1bee f23e
000001e0: 56ca 853d 214c 313d b84d ab3d 3282 643c
000001f0: c56c 99bc 06fb 123d 1f6a 503e b915 a93e

running_var f4 [128]
0.0005753811 0.1555445 0.037077032 2.8752678e-09 0.04513946 0.108797975 0.027358728 0.082507834
0.2048687 0.0022166169 6e-45 0.31065962 0.042108882 0.047208298 3.0939884e-12 0.05190551
0.116175294 0.0029352081 0.1738672 0.00086628395 0.020329565 0.021507775 0.23566338 0.0013444832
6e-45 4.368215e-05 0.02236843 0.08415761 0.07538257 0.0030371645 0.019344773 1.2194325e-08
0.058004096 0.0010581779 0.018259553 5.51979e-05 0.47218117 0.00023685285 0.0021015853 0.043525055
0.0043314067 0.005588619 0.06744901 0.031704314 0.028414182 0.100725144 0.032944776 0.035574302
0.066616625 0.12988573 0.121861756 0.10838286 0.020715572 0.26636088 0.3241121 7.344848e-08
0.08415673 0.0141973635 0.0022789158 0.02976864 0.11600006 0.08001493 0.28300163 0.06248634
0.00572218 0.08037989 0.09965299 0.009140809 0.13168828 5.0532725e-14 0.349562 0.40516984
6e-45 0.023317633 3.703056e-16 0.0662722 0.04305186 0.054307003 0.10161698 0.00096622424
0.3966931 0.049078617 0.01201115 0.032926526 0.12269566 0.049707517 0.1404271 0.109087475
0.07211306 0.19535576 0.10527176 0.02132511 7.2847184e-10 0.20766297 0.081829056 0.045117196
0.052853264 0.0052466127 0.0039650807 0.024964552 0.039590303 0.23705368 0.22640988 0.11088588
0.040744197 0.03672834 0.04707181 0.09574555 0.024700543 6e-45 0.0062409006 0.14468332
0.003926396 0.00040771824 0.044141576 0.12909059 0.10498151 0.12330047 0.0014160703 0.6856626
0.08745709 0.13722077 0.1273285 0.0017106184 0.009128164 0.13602728 0.46198988 0.44500673
00000000: 2cd5 163a 0f47 1f3e 16de 173d 3f96 4531
00000010: 28e4 383d 79d1 de3d 691f e03c def9 a83d
00000020: 1ac9 513e a944 113b 0400 0000 c70e 9f3e
00000030: 5d7a 2c3d 7d5d 413d 57b8 592c df9a 543d
00000040: 50ed ed3d 9f5c 403b 3e0a 323e 5517 633a
00000050: 308a a63c 1331 b03c be51 713e 5f39 b03a
00000060: 0400 0000 5a37 3738 ff3d b73c d35a ac3d
00000070: 2d62 9a3d 2a0b 473b ee78 9e3c 357f 5132
00000080: b495 6d3d 8fb2 8a3a 0f95 953c 4b84 6738
00000090: bbc1 f13e b45b 7839 c0ba 093b 5447 323d
000000a0: 79ee 8d3b bc20 b73b b522 8a3d 62dc 013d
000000b0: dcc4 e83c fc48 ce3d 1af1 063d 5cb6 113d
000000c0: 4c6e 883d c400 053e a892 f93d d5f7 dd3d
000000d0: b4b3 a93c 7460 883e 05f2 a53e bbba 9d33
000000e0: 5d5a ac3d 0f9c 683c dd59 153b 5ddd f33c
000000f0: 7191 ed3d dede a33d 97e5 903e adf1 7f3d
00000100: 2081 bb3b 369e a43d de16 cc3d 55c3 153c
00000110: 4bd9 063e 4494 6329 caf9 b23e 6c72 cf3e
00000120: 0400 0000 9f04 bf3c 7677 d525 b8b9 873d
00000130: 2657 303d 0571 5e3d 901c d03d 364a 7d3a
00000140: 5c1b cb3e a906 493d 6aca 443c f7dd 063d
00000150: dd47 fb3d 1c9a 4b3d 1fcc 0f3e 4169 df3d
00000160: 03b0 933d 570b 483e b898 d73d ffb1 ae3c
00000170: a63d 4830 9aa5 543e fe95 a73d cfcc 383d
00000180: aa7c 583d c7eb ab3b 82ed 813b 7682 cc3c
00000190: 7129 223d 33be 723e fed7 673e 2318 e33d
000001a0: 63e3 263d 7570 163d 5fce 403d 3e16 c43d
000001b0: cb58 ca3c 0400 0000 7880 cc3b dd27 143e
000001c0: ffa8 803b 04c3 d539 cccd 343d 5330 043e
000001d0: 8c00 d73d f584 fc3d 6f9b b93a 9687 2f3f
000001e0: b41c b33d 9a83 0c3e 6762 023e d436 e03a
000001f0: 4b8e 153c bc4a 0b3e f089 ec3e ecd7 e33e

weight f4 [1, 128, 1, 1]
0.00062790595 -0.19398196 0.27532744 -3.9925355e-05 0.44993585 0.41839316 0.55379367 -0.30020383
-0.4091476 0.025057945 -4.3783875e-06 0.15307449 0.4696201 -0.40520284 2.4181825e-05 0.20603178
-0.61014426 -0.13055508 0.25517562 -0.061324008 0.43466657 0.38696763 -0.2145491 0.14632156
2.170973e-09 -0.09253103 -0.33758795 -0.22810777 -0.18557115 0.43583256 0.4050422 0.1049394
0.16446818 -0.05462217 -0.40714356 0.00021515321 -0.22552438 0.008282073 -0.16617553 0.29693082
-0.08852883 0.40856826 -0.2233654 -0.24242409 0.21724576 -0.20326495 0.16155858 0.2716231
0.35609356 0.261869 0.075631805 0.44238406 0.5343097 -0.18465212 -0.24475321 5.3084514e-05
0.4979376 -0.10309989 0.43472105 -0.3581925 0.49228796 -0.16320218 -0.43488023 -0.22852507
0.35094944 -0.133272 -0.24480572 -0.038387433 -0.39395478 -3.4329935e-07 0.27682805 0.07721206
2.576385e-06 -0.15610684 1.8330253e-06 -0.3906247 0.24261692 0.3186311 -0.2650676 -0.20301256
0.105273 0.48437056 -0.15545481 -0.16062325 0.37281418 -0.41949472 -0.21483615 -0.30769464
-0.17394766 0.089788795 0.39847925 0.41732365 -0.027454233 0.1397779 0.40076065 -0.05418951
0.30416724 0.41521364 -0.11669494 -0.20305938 0.0047361166 -0.48003092 -0.35778782 -0.549869
0.23045711 -0.49263567 -0.4904946 -0.37624285 0.20923948 1.2924694e-05 0.079476826 0.21226461
0.032435905 0.0011444112 -0.44388226 -0.27986452 -0.09896934 0.31787363 0.114924654 0.075491585
-0.18401535 0.2688112 -0.19964018 -0.07459668 0.4192752 0.27507934 0.24034226 -0.22914971
00000000: 0e9a 243a 35a3 46be b8f7 8c3e 8675 27b8
00000010: fe5d e63e a137 d63e 6cc5 0d3f 51b4 99be
00000020: cb7b d1be 5246 cd3c 10ea 92b6 8fbf 1c3e
00000030: 0c72 f03e bf76 cfbe 13da ca37 fff9 523e
00000040: 6a32 1cbf 3bb0 05be 61a6 823e e22e 7bbd
00000050: 9e8c de3e 9f20 c63e c2b2 5bbe 52d5 153e
00000060: 2930 1531 e980 bdbd 54d8 acbe 1595 69be
00000070: 5d06 3ebe 7225 df3e b161 cf3e 78ea d63d
00000080: 596a 283e 7fbb 5fbd 1f75 d0be c09a 6139
00000090: ddef 66be 88b1 073c eb29 2abe 5107 983e
000000a0: 9a4e b5bd dc2f d13e e6b9 64be 053e 78be
000000b0: ac75 5e3e b024 50be 9d6f 253e 2f12 8b3e
000000c0: e551 b63e b213 863e d9e4 9a3d 2a80 e23e
000000d0: 85c8 083f 7215 3dbe 96a0 7abe 10a7 5e38
000000e0: adf1 fe3e 0926 d3bd c293 de3e 0265 b7be
000000f0: 2b0d fc3e 791e 27be 9fa8 debe 7a02 6abe
00000100: a5af b33e 7578 08be 5aae 7abe 243c 1dbd
00000110: 71b4 c9be b44e b8b4 68bc 8d3e 5b21 9e3d
00000120: f5e5 2c36 79da 1fbe 4506 f635 f6ff c7be
00000130: 9270 783e 9e23 a33e f1b6 87be 86e2 4fbe
00000140: 5f99 d73d 6bff f73e 8c2f 1fbe 6c7a 24be
00000150: 80e1 be3e 03c8 d6be 02fe 5bbe 278a 9dbe
00000160: 561f 32be 30e3 b73d 7905 cc3e 72ab d53e
00000170: b3e7 e0bc f021 0f3e 8030 cd3e d2f5 5dbd
00000180: cfbb 9b3e e296 d43e c2fd eebd ccee 4fbe
00000190: 6d31 9b3b 9dc6 f5be f72f b7be 37c4 0cbf
000001a0: f3fc 6b3e be3a fcbe 1c22 fbbe e7a2 c0be
000001b0: e042 563e 23d7 5837 bfc4 a23d e55b 593e
000001c0: 83db 043d 1100 963a 8944 e3be 674a 8fbe
000001d0: 70b0 cabd 55c0 a23e 9e5d eb3d 559b 9a3d
000001e0: 856e 3cbe 9fa1 893e 7a6e 4cbe 25c6 98bd
000001f0: 3dab d63e 33d7 8c3e 481c 763e 39a6 6abe
