data/ball_data/model_0.pth (torch_old, 853498 bytes, 13 tensors)

weight f4 [64, 1, 5, 5]
-0.06477932 0.011773494 -0.00020380682 -0.037816867 0.04331053 -0.034312576 -0.057597242 0.08709736
0.05600886 0.033355035 -0.06797406 0.05567091 -0.076978035 0.040536195 0.035006754 -0.085810445
-0.08652658 0.050986014 -0.086923644 0.017040184 0.05048541 -0.061017897 0.00013310548 -0.043480344
-0.03964918 0.08320509 -0.07925113 0.0479307 -0.02039387 0.002681851 0.029984135 0.051858556
-0.06065248 -0.04154234 0.049613785 0.049928464 0.015251561 -0.05366381 -0.01818379 -0.040592335
-0.055960692 0.04630625 0.03316125 0.012981641 0.041276764 0.05510034 0.077518575 -0.004743495
-0.0803222 -0.028322097 0.08323629 0.003517822 -0.00210386 -0.053936467 0.015988944 -0.02041701
0.08571013 0.08532401 -0.07321331 -0.07419992 0.05724643 0.058669467 0.034521595 -0.046823617
0.024348475 0.050024677 -0.055627298 -0.06933546 0.0741748 -0.07201952 0.06298884 0.027296726
0.09085036 -0.07177989 0.037255414 -0.08773305 -0.08903975 -0.03169726 0.052622076 -0.085318305
0.073487274 -0.013729847 0.0301223 -0.03332529 -0.086007655 -0.07510118 0.021805797 -0.063622095
-0.05312303 0.013723468 0.0065536904 -0.005772481 -0.05935665 -0.014844545 -0.07853018 0.06833125
-0.07883635 0.04011143 0.013284615 -0.037582777 -0.045980074 0.0093902415 0.023234146 0.06448467
0.049956407 -0.040736023 -0.049109004 0.030255517 -0.07825388 -0.044904165 -0.08664945 0.085242644
-0.04044859 -0.07844274 0.053338107 0.029893396 0.058148973 -0.015805556 -0.054923322 -0.04644035
-0.056080356 -0.06318002 -0.04510962 -0.031531934 0.059105095 0.082168475 0.03262739 -0.08030845
0.0067090504 0.0024764866 0.024374573 0.015435535 -0.07970271 0.04376639 0.057315934 -0.06644169
-0.0074642366 0.071639255 0.08321306 -0.0184203 -0.04673043 -0.051285982 -0.08129848 -0.03482439
-0.018166514 0.029465675 -0.07502029 0.08423839 0.08565141 -0.08050898 -0.010853815 0.056897104
-0.01716426 -0.07905721 0.0034732132 0.044215403 0.0796088 -0.042403974 0.071134366 0.051140424
0.03527988 -0.07144936 -0.06560268 0.07343723 -0.05776902 -0.062082116 -0.024651239 -0.020710578
0.024175258 0.062401775 -0.058257412 -0.073438555 -0.04642313 -0.052942418 0.054009844 -0.07286099
0.08202653 -0.06665559 -0.04551802 -0.083354644 -0.07922995 -0.060092688 0.043578614 -0.043905396
0.039056886 0.055686057 0.04999806 -0.018222393 0.073588476 -0.017562032 0.01658809 0.018466804
0.031044636 0.0024035638 0.040144328 -0.06902361 0.004519818 -0.04784105 0.0012544594 0.016403116
0.0391212 0.026622426 0.07866831 -0.014328285 0.08236917 0.012592989 -0.07164364 -0.014037663
-0.021419551 0.08422445 -0.0780677 0.0068999687 -0.006335049 -0.08347707 -0.031695258 -0.089646935
-0.0758934 -0.05125533 0.01385628 -0.0076374705 0.042217672 0.058002245 -0.0050643594 0.030407695
0.050727934 0.07807001 0.02445564 0.07314765 0.08614626 0.027999494 0.021989483 -0.08749254
-0.07511034 0.007359645 -0.024174942 -0.083464175 -0.085346594 0.014438973 0.008790481 0.024770057
0.025731817 -0.08489444 -0.09132016 0.04779329 -0.008831156 0.036550872 -0.07123536 0.025367768
-0.053458516 -0.09159811 -0.07035274 -0.0019597556 0.07617008 0.032115497 -0.037952866 0.038569048
00000000: 05ab 84bd 9de5 403c fab4 55b9 dce5 1abd
00000010: 6266 313d 588b 0cbd 16eb 6bbd 1a60 b23d
00000020: 8c69 653d 4a9f 083d fc35 8bbd 2e07 643d
00000030: a9a6 9dbd 4809 263d 3e63 0f3d 63bd afbd
00000040: d934 b1bd b6d6 503d 0605 b2bd db97 8b3c
00000050: cac9 4e3d e7ed 79bd 3b92 0b39 7218 32bd
00000060: 2e67 22bd 6e67 aa3d 6b4e a2bd fb52 443d
00000070: 0c11 a7bc fec1 2f3b 4aa1 f53c a369 543d
00000080: bc6e 78bd 4d28 2abd d337 4b3d ca81 4c3d
00000090: afe1 793c 95ce 5bbd 2cf6 94bc 2644 26bd
000000a0: 0a37 65bd 9fab 3d3d 17d4 073d f3b0 543c
000000b0: d311 293d e5b0 613d 0fc2 9e3d 526f 9bbb
000000c0: f77f a4bd be03 e8bc ca77 aa3d 428b 663b
000000d0: eae0 09bb 7cec 5cbd 3ffb 823c 9341 a7bc
000000e0: cb88 af3d 5bbe ae3d dcf0 95bd 21f6 97bd
000000f0: 3c7b 6a3d 654f 703d 8466 0d3d 1fca 3fbd
00000100: 7476 c73c ade6 4c3d 73d9 63bd c0ff 8dbd
00000110: f5e8 973d f87e 93bd 4b00 813d 629d df3c
00000120: c10f ba3d 5601 93bd 2299 183d 63ad b3bd
00000130: 795a b6bd fcd4 01bd 3f8a 573d 5dbb aebd
00000140: 7f80 963d 27f3 60bc 0bc3 f63c 1980 08bd
00000150: c824 b0bd a6ce 99bd 12a2 b23c 4d4c 82bd
00000160: 8997 59bd 66d8 603c 57c0 d63b 1527 bdbb
00000170: f51f 73bd 8936 73bc 6ed4 a0bd 41f1 8b3d
00000180: f474 a1bd e24b 243d b7a7 593c 66f0 19bd
00000190: 9a55 3cbd 87d9 193c 8955 be3c 8a10 843d
000001a0: 179f 4c3d d1da 26bd 8626 49bd 6bda f73c
000001b0: 9243 a0bd 6eed 37bd 4475 b1bd b293 ae3d
000001c0: 6cad 25bd 96a6 a0bd 0f79 5a3d ffe2 f43c
000001d0: 9e2d 6e3d a77a 81bc 47f7 60bd 3d38 3ebd
000001e0: 84b4 65bd 8764 81bd ddc4 38bd a127 01bd
000001f0: 2f18 723d f247 a83d 4ca4 053d c278 a4bd
00000200: 98d7 db3b 8d4c 223b 2fad c73c 54e5 7c3c
00000210: 2d3b a3bd 6344 333d 1dc4 6a3d 9512 88bd
00000220: 8e96 f4bb 9ab7 923d 9c6b aa3d 2be6 96bc
00000230: 6868 3fbd 4011 52bd d17f a6bd 05a4 0ebd
00000240: f1d1 94bc 0062 f13c 3da4 99bd 2d85 ac3d
00000250: 026a af3d e4e1 a4bd 33d4 31bc f00c 693d
00000260: 109c 8cbc bfe8 a1bd d99e 633b 361b 353d
00000270: f009 a33d caaf 2dbd e5ae 913d 9f78 513d
00000280: a381 103d 0b54 92bd b35a 86bd 4266 963d
00000290: 359f 6cbd d149 7ebd 65f1 c9bc 3ba9 a9bc
000002a0: 310b c63c 0199 7f3d 539f 6ebd f466 96bd
000002b0: 2e26 3ebd 26da 58bd 6d39 5d3d 2538 95bd
000002c0: 86fd a73d ba82 88bd 1a71 3abd d7b5 aabd
000002d0: 5043 a2bd c023 76bd 7d7f 323d 25d6 33bd
000002e0: 1dfa 1f3d 1017 643d c4ca 4c3d 2147 95bc
000002f0: 8eb5 963d 40de 8fbc bfe3 873c b247 973c
00000300: 5251 fe3c 1c85 1d3b 616e 243d 405c 8dbd
00000310: fb1a 943b faf4 43bd ac6c a43a d45f 863c
00000320: 8d3d 203d 4617 da3c da1c a13d 2fc1 6abc
00000330: 2bb1 a83d d352 4e3c e7b9 92bd 3afe 65bc
00000340: 0e78 afbc de7d ac3d f5e1 9fbd 2219 e23b
00000350: 3e96 cfbb 07f6 aabd e3d2 01bd d098 b7bd
00000360: 006e 9bbd 1cf1 51bd 7305 633c bf43 fabb
00000370: 70ec 2c3d c393 6d3d edf2 a5bb 8f19 f93c
00000380: 18c8 4f3d 2be3 9f3d 3257 c83c 6fce 953d
00000390: 736d b03d 325f e53c 4a23 b43c 4a2f b3bd
000003a0: 73d3 99bd 2d29 f13b 870a c6bc 44ef aabd
000003b0: 32ca aebd 7191 6c3c f305 103c 93ea ca3c
000003c0: 88cb d23c 23dd adbd 1006 bbbd e6c2 433d
000003d0: 8eb0 10bc 5eb6 153d d8e3 91bd 11d0 cf3c
000003e0: 51f7 5abd ca97 bbbd 1915 90bd 3e6f 00bb
000003f0: 0fff 9b3d 8a8b 033d 7774 1bbd 94fa 1d3d

bias f4 [64]
0.019 0.019 0.019 0.019 0.021 0.021 0.019000001 0.021
0.019 0.021 0.021 0.021 0.021 0.021 0.019 0.019
0.021 0.021 0.019 0.01900003 0.021 0.021 0.020999985 0.019
0.019 0.019 0.020999994 0.019 0.019 0.019000001 0.021 0.021
0.019 0.019 0.021 0.019 0.020999996 0.019 0.020999996 0.019
0.021 0.019000001 0.019000001 0.021 0.019000001 0.019 0.020999994 0.019
0.019000001 0.021 0.020999996 0.019 0.019000005 0.019 0.019 0.021
0.019 0.019 0.021 0.019000001 0.020999998 0.019 0.019000001 0.021
00000000: e3a5 9b3c e3a5 9b3c e3a5 9b3c e3a5 9b3c
00000010: 3108 ac3c 3108 ac3c e4a5 9b3c 3108 ac3c
00000020: e3a5 9b3c 3108 ac3c 3108 ac3c 3108 ac3c
00000030: 3108 ac3c 3108 ac3c e3a5 9b3c e3a5 9b3c
00000040: 3108 ac3c 3108 ac3c e3a5 9b3c f3a5 9b3c
00000050: 3108 ac3c 3108 ac3c 2908 ac3c e3a5 9b3c
00000060: e3a5 9b3c e3a5 9b3c 2e08 ac3c e3a5 9b3c
00000070: e3a5 9b3c e4a5 9b3c 3108 ac3c 3108 ac3c
00000080: e3a5 9b3c e3a5 9b3c 3108 ac3c e3a5 9b3c
00000090: 2f08 ac3c e3a5 9b3c 2f08 ac3c e3a5 9b3c
000000a0: 3108 ac3c e4a5 9b3c e4a5 9b3c 3108 ac3c
000000b0: e4a5 9b3c e3a5 9b3c 2e08 ac3c e3a5 9b3c
000000c0: e4a5 9b3c 3108 ac3c 2f08 ac3c e3a5 9b3c
000000d0: e6a5 9b3c e3a5 9b3c e3a5 9b3c 3108 ac3c
000000e0: e3a5 9b3c e3a5 9b3c 3108 ac3c e4a5 9b3c
000000f0: 3008 ac3c e3a5 9b3c e4a5 9b3c 3108 ac3c

weight f4 [64]
0.42119938 0.66922545 0.64958316 0.63703287 0.3237151 0.3810897 0.10768072 0.93780756
0.6117672 0.47867727 0.46385986 0.8045852 0.6421279 0.7946033 0.04172237 0.60321987
0.30242336 0.19737475 0.7943314 0.10283451 0.7156212 0.60908526 0.11372591 0.8851793
0.92351115 0.84697986 0.33037174 0.15298466 0.88051116 0.8975671 0.1411751 0.20183249
0.3140229 0.89368665 0.9607176 0.9515733 0.10152279 0.21818079 0.035436343 0.8259256
0.53459555 0.16379903 0.40086663 0.35070002 0.22006643 0.885927 0.014184701 0.5119048
0.46050334 0.8446164 0.5968676 0.4023978 0.1718011 0.24880023 0.16736896 0.91625506
0.63058573 0.51801634 0.99531084 0.40312213 0.8311711 0.80006313 0.6645286 0.9558559
00000000: 72a7 d73e 5c52 2b3f 154b 263f 9614 233f
00000010: fcbd a53e 301e c33e b687 dc3d 2814 703f
00000020: c69c 1c3f 3015 f53e 0a7f ed3e 4cf9 4d3f
00000030: 7e62 243f 1f6b 4b3f 13e5 2a3d 9e6c 1a3f
00000040: 3cd7 9a3e 9b1c 4a3e 4d59 4b3f e69a d23d
00000050: f332 373f 03ed 1b3f 21e9 e83d 1c9b 623f
00000060: 3a6b 6c3f acd3 583f 7c26 a93e 03a8 1c3e
00000070: 2e69 613f f5c6 653f 3590 103e 2dad 4e3e
00000080: 9cc7 a03e a6c8 643f 97f1 753f 4f9a 733f
00000090: 2eeb cf3d c96a 5f3e b325 113d dc6f 533f
000000a0: 41db 083f efba 273e 643e cd3e f48e b33e
000000b0: 1859 613e 1dcc 623f f366 683c 310c 033f
000000c0: 18c7 eb3e c838 583f 51cc 183f 1607 ce3e
000000d0: a1ec 2f3e 7dc5 7e3e c562 2b3e b18f 6a3f
000000e0: 116e 213f b89c 043f b1cc 7e3f 0666 ce3e
000000f0: a1c7 543f f0d0 4c3f 8c1e 2a3f f9b2 743f

bias f4 [64]
-0.0009999998 -0.0009999996 0.0009999991 0.0009999997 0.0009999991 0.0009999998 0.0009999996 -0.0009999976
0.0009999991 0.0009999989 -0.0009999997 -0.0009999971 -0.0009999988 0.0009999996 0.0009999983 0.0009999985
0.0009999998 -0.0009999955 0.0009999997 -0.0009999997 0.0009999997 0.0009999996 -0.0009999987 -0.0009999995
0.0009999984 -0.0009999996 -0.0009999996 -0.0009999996 -0.0009999992 -0.0009999987 -0.0009999989 -0.0009999997
0.0009999996 0.0009999989 0.0009999775 -0.0009999995 -0.0009999991 0.0009999961 -0.0009999992 -0.0009999998
0.0009999992 -0.000999999 -0.0009999997 -0.0009999973 0.0009999987 0.0009999998 0.0009999996 0.0009999997
0.0009999987 0.0009999991 -0.0009999983 -0.0009999996 0.0009999997 0.0009999991 -0.0009999991 -0.0009999997
-0.000999993 0.0009999996 0.0009999998 0.0009999997 0.0009999993 -0.0009999996 -0.0009999997 -0.0009999991
00000000: 6d12 83ba 6b12 83ba 6712 833a 6c12 833a
00000010: 6712 833a 6d12 833a 6b12 833a 5a12 83ba
00000020: 6712 833a 6512 833a 6c12 83ba 5612 83ba
00000030: 6412 83ba 6b12 833a 6012 833a 6212 833a
00000040: 6d12 833a 4812 83ba 6c12 833a 6c12 83ba
00000050: 6c12 833a 6b12 833a 6312 83ba 6a12 83ba
00000060: 6112 833a 6b12 83ba 6b12 83ba 6b12 83ba
00000070: 6812 83ba 6312 83ba 6512 83ba 6c12 83ba
00000080: 6b12 833a 6512 833a ad11 833a 6a12 83ba
00000090: 6712 83ba 4d12 833a 6812 83ba 6d12 83ba
000000a0: 6812 833a 6612 83ba 6c12 83ba 5712 83ba
000000b0: 6312 833a 6d12 833a 6b12 833a 6c12 833a
000000c0: 6312 833a 6712 833a 6012 83ba 6b12 83ba
000000d0: 6c12 833a 6712 833a 6712 83ba 6c12 83ba
000000e0: 3212 83ba 6b12 833a 6d12 833a 6c12 833a
000000f0: 6912 833a 6b12 83ba 6c12 83ba 6712 83ba

running_mean f4 [64]
0.007796403 0.004427546 0.0069012167 0.012195548 0.0077792318 0.0036734648 0.005499502 0.00468482
0.0051189135 0.007607244 0.008526675 0.00376691 0.0059173466 0.0048621357 0.0041212365 0.0043496895
0.0032653005 0.0044465023 0.005216331 0.004142478 0.0032554984 0.0037973567 0.011756899 0.0050234734
0.0069821193 0.007144437 0.0033850134 0.005803675 0.0056811846 0.004065975 0.0038953887 0.0052261585
0.0037678608 0.0062452764 0.0038179946 0.005662093 0.007969744 0.0036022202 0.006814062 0.0051533403
0.0037451112 0.003440325 0.0067656706 0.0052838693 0.003850796 0.0064068483 0.004689493 0.00352837
0.009817048 0.0063043656 0.0063676373 0.008929493 0.0062672473 0.0032351587 0.0052593215 0.0055963057
0.00489843 0.0031458251 0.0041145473 0.007220288 0.0145499185 0.004276548 0.0037006238 0.0045345016
00000000: f878 ff3b f314 913b 9a23 e23b d6cf 473c
00000010: ede8 fe3b 83be 703b 2b35 b43b 1e83 993b
00000020: 8fbc a73b 3046 f93b 78b3 0b3c 43de 763b
00000030: 4de6 c13b 8d52 9f3b 700b 873b d787 8e3b
00000040: a7fe 553b f7b3 913b c2ed aa3b a0bd 873b
00000050: 335a 553b 13dd 783b 02a0 403c f39b a43b
00000060: 43ca e43b e21b ea3b 1ad7 5d3b c12c be3b
00000070: 3b29 ba3b df3b 853b c749 7f3b 3240 ab3b
00000080: 37ee 763b 2da5 cc3b 5237 7a3b 1489 b93b
00000090: 8793 023c 3a13 6c3b 7f48 df3b 5add a83b
000000a0: 8a70 753b 1377 613b 8fb2 dd3b 4f24 ad3b
000000b0: a35d 7c3b 8af0 d13b 52aa 993b 3a3c 673b
000000c0: afd7 203c da94 ce3b 9da7 d03b 024d 123c
000000d0: 7b5d cd3b f504 543b 6356 ac3b 3761 b73b
000000e0: 0283 a03b 302a 4e3b 53d3 863b 2a98 ec3b
000000f0: c862 6e3c 4922 8c3b 2a86 723b 2896 943b

running_var f4 [64]
0.90106845 0.90041816 0.9012297 0.9026418 0.9009963 0.9002621 0.90061796 0.9004059
0.9006305 0.9011572 0.90191174 0.9003279 0.90085316 0.90036273 0.9003267 0.9004721
0.90021735 0.90044767 0.9006229 0.9002695 0.90017915 0.9002613 0.9037733 0.9005412
0.90088093 0.9012677 0.90022403 0.90080595 0.9006235 0.9002759 0.9002856 0.90062374
0.9003105 0.9009445 0.90025985 0.9005478 0.9014019 0.900262 0.90120107 0.9006606
0.9003012 0.90025 0.9010933 0.90062344 0.90028423 0.90108186 0.9004541 0.9002613
0.9025422 0.90077335 0.90103424 0.9013453 0.9006435 0.90016013 0.90051574 0.9006917
0.9004878 0.90014666 0.900284 0.90136915 0.90594786 0.9005176 0.90026146 0.9005351
00000000: 6cac 663f ce81 663f fdb6 663f 8813 673f
00000010: b2a7 663f 9477 663f e68e 663f 0081 663f
00000020: b88f 663f 3db2 663f b0e3 663f e47b 663f
00000030: 509e 663f 2c7e 663f d07b 663f 5785 663f
00000040: a574 663f bd83 663f 398f 663f 1078 663f
00000050: 2472 663f 8677 663f b05d 673f de89 663f
00000060: 22a0 663f 7bb9 663f 1575 663f 389b 663f
00000070: 438f 663f 7b78 663f 1e79 663f 478f 663f
00000080: c07a 663f 4ca4 663f 6e77 663f 4d8a 663f
00000090: 46c2 663f 9277 663f 1db5 663f b191 663f
000000a0: 247a 663f c976 663f 0dae 663f 428f 663f
000000b0: 0779 663f 4dad 663f 2984 663f 8677 663f
000000c0: 010d 673f 1599 663f 2eaa 663f 91be 663f
000000d0: 9390 663f e570 663f 3388 663f bb93 663f
000000e0: 5e86 663f 0370 663f 0379 663f 21c0 663f
000000f0: 33ec 673f 5288 663f 8977 663f 7889 663f

weight f4 [128, 64, 5, 5]
0.03377055 0.03353184 -0.01844796 0.04244997 0.025529848 0.037511982 -0.050228078 -0.017903905
-0.019697012 0.021579642 0.010462502 -0.011362951 -0.004948605 -0.04831743 0.019929493 0.036263652
-0.029788075 0.008807318 0.0303592 -0.02647832 -0.053245924 0.008749868 -0.018250173 -0.034072127
0.015723355 0.039743036 0.013355877 0.03731209 -0.04085368 -0.018169133 0.04442855 0.03914715
0.042750843 0.017949387 0.04298127 0.039636537 0.027390843 0.017062495 -0.048792813 -0.024369087
-0.03068636 -0.05279464 0.0074169617 0.017989099 -0.035722815 -0.04690181 0.00062462833 0.030330192
-0.03901068 -0.02685747 -0.03912393 -0.052122515 0.016325573 -0.03030833 -0.05199403 0.05066071
-0.034165267 0.04690739 0.007456349 -0.03960623 -0.02915318 -0.017216781 0.0033897117 -0.011728821
-0.0035488333 -0.030572075 0.013140069 0.02648098 -0.017930327 0.0174458 -0.027922314 -0.009971301
-0.0063652843 -0.0031823653 -0.00016459374 -0.04725833 0.021262804 -0.021669488 -0.020639408 0.039754055
-0.029356042 -0.03734174 0.01943821 0.013218912 -0.017301468 0.023930443 0.0050991266 0.025222441
0.01382016 0.03605051 -0.050791908 -0.006107888 -0.032829996 0.021323854 0.007518738 0.0072668106
0.0015197478 0.032134246 -0.02784098 -0.0102444375 0.030876098 -0.034994617 -0.014961227 -0.026889991
-0.023178987 -0.028378258 -0.05106781 -0.005712908 0.033789422 0.0030324315 0.005591824 0.046094146
-0.048656378 0.03626292 0.0508739 0.049748152 0.050814737 0.026777608 -0.030439517 -0.043963265
-0.032188687 0.016751563 0.008393942 0.012110547 0.03228404 -0.038033944 -0.04881915 0.044192184
0.018951794 0.010009464 0.012663925 -0.029444804 -0.03724886 0.048310194 0.05092675 0.008991393
-0.034030266 0.0345961 -0.0050726864 0.050293423 -0.047274284 -0.03849871 -0.04600198 -0.010069204
0.024887493 -0.005059991 0.0464616 -0.030818626 -0.0045726444 -0.045763336 -0.015165162 -0.0144477375
-0.0092344815 -0.021664018 -0.0066381353 -0.04232301 0.0044502765 0.036650255 -0.005715928 -0.011181624
-0.033293024 0.02030627 -0.018565536 0.0076361354 -0.003577212 -0.04772315 -0.0036106238 0.028350437
-0.023445154 -0.0035254078 -0.0114191 0.031317726 0.022148192 0.024842292 0.01741011 -0.008791713
0.024498919 0.022301074 0.0020879328 0.00047898552 0.028076319 0.011881938 0.0399466 -0.050386935
0.029062511 -0.027073946 0.0036477293 -0.03222764 0.025514394 0.024896452 -0.015663227 0.04680812
0.03219011 -0.03601433 0.025613943 0.027995918 -0.0031832997 0.0152304135 -0.017687779 -0.048119172
0.02370726 -0.03506191 -0.017063733 -0.00527067 0.039117247 0.023300856 0.021497982 -0.039438874
-0.0068714484 -0.0152863925 -0.04141209 -7.2974326e-05 -0.024866499 0.019940421 0.042285223 0.023451874
0.0222298 -0.038762663 -0.038373873 -0.013219385 -0.0027557812 -0.04771365 -0.00929091 -0.027030258
-0.03279 -0.016883692 -0.018203452 -0.044346884 -0.022725135 0.008612807 -0.039512306 -0.05043103
0.048228078 -0.03617573 0.04608211 0.008162865 0.0036304973 -0.03995592 0.038953915 0.042945582
-0.021250024 0.039325554 -0.010932858 -0.036702666 -0.04101521 -0.00514556 0.035071988 -0.041797798
0.030602727 0.019643957 0.028328305 -0.0039787954 -0.030861188 0.042105082 -0.043031875 0.003831694
00000000: fd52 0a3d af58 093d 2d20 97bc 05e0 2d3d
00000010: f923 d13c 2aa6 193d f5bb 4dbd 36ab 92bc
00000020: a15b a1bc cac7 b03c ea6a 2b3c ac2b 3abc
00000030: e827 a2bb 7fe8 45bd 2d43 a33c 3289 143d
00000040: 1f06 f4bc 924c 103c dbb3 f83c 10e9 d8bc
00000050: 6618 5abd 9b5b 0f3c 6381 95bc 378f 0bbd
00000060: 44ce 803c 98c9 223d 9cd2 5a3c 90d4 183d
00000070: 3056 27bd 6fd7 94bc b6fa 353d c358 203d
00000080: 821b 2f3d 980a 933c 210d 303d ec59 223d
00000090: c362 e03c a5c6 8b3c f9da 47bd aea1 c7bc
000000a0: f661 fbbc 313f 58bd fc09 f33b e05d 933c
000000b0: 1652 12bd 1d1c 40bd 19be 233a 0677 f83c
000000c0: aac9 1fbd 3204 dcbc 6a40 20bd 6b7e 55bd
000000d0: 35bd 853c 2d49 f8bc b1f7 54bd 9b81 4f3d
000000e0: e1f0 0bbd f721 403d 6454 f43b 243a 22bd
000000f0: a6d2 eebc 350a 8dbc ed25 5e3b 3e2a 40bc
00000100: 8b93 68bb 4a72 fabc 7249 573c a4ee d83c
00000110: 9fe2 92bc 7fea 8e3c 56bd e4bc ab5e 23bc
00000120: e093 d0bb 3b8f 50bb cc96 2cb9 f391 41bd
00000130: 552f ae3c 3684 b1bc fa13 a9bc 26d5 223d
00000140: 157c f0bc a7f3 18bd e23c 9f3c 2394 583c
00000150: cfbb 8dbc c709 c43c 9316 a73b 4b9f ce3c
00000160: f46d 623c b3a9 133d 2d0b 50bd ae24 c8bb
00000170: bf78 06bd 5daf ae3c bf5f f63b 6d1e ee3b
00000180: 4632 c73a 339f 033d c412 e4bc 49d8 27bc
00000190: dfef fc3c 8456 0fbd ef1f 75bc 6648 dcbc
000001a0: dce1 bdbc 8579 e8bc 7b2c 51bd 5933 bbbb
000001b0: c766 0a3d c2bb 463b 9f3b b73b 37cd 3c3d
000001c0: e94b 47bd 6d88 143d 2761 503d b8c4 4b3d
000001d0: 1d23 503d b75c db3c 4b5c f9bc d312 34bd
000001e0: 49d8 03bd 933a 893c bf86 093c 516b 463c
000001f0: 453c 043d 7bc9 1bbd 97f6 47bd dd02 353d
00000200: cb40 9b3c bcfe 233c 5a7c 4f3c 3b36 f1bc
00000210: 4392 18bd e9e0 453d 9198 503d a350 133c
00000220: 5263 0bbd a4b4 0d3d c738 a6bb 7a00 4e3d
00000230: aea2 41bd d3b0 1dbd 926c 3cbd 4df9 24bc
00000240: dbe0 cb3c 48ce a5bb 854e 3e3d 5877 fcbc
00000250: 1fd6 95bb 5672 3bbd 4d77 78bc 34b6 6cbc
00000260: 394c 17bc bd78 b1bc b784 d9bb e45a 2dbd
00000270: a0d3 913b 941e 163d ae4c bbbb 2133 37bc
00000280: 445e 08bd 5659 a63c c016 98bc 8c38 fa3b
00000290: a96f 6abb 5a79 43bd 37a0 6cbb 2d3f e83c
000002a0: 0d10 c0bc 870a 67bb 2d17 3bbc 0447 003d
000002b0: 2070 b53c 1082 cb3c a69f 8e3c 1e0b 10bc
000002c0: f5b1 c83c beb0 b63c b3d5 083b 5920 fb39
000002d0: 4f00 e63c 76ac 423c 0c9f 233d 8862 4ebd
000002e0: 8114 ee3c 2eca ddbc be0e 6f3b 2101 04bd
000002f0: 9003 d13c a5f3 cb3c 2b50 80bc dfb9 3f3d
00000300: c7d9 033d c383 13bd 55d4 d13c b257 e53c
00000310: e89e 50bb fc88 793c f6e5 90bc 9c18 45bd
00000320: ba35 c23c 149d 0fbd 3ec9 8bbc 96b5 acbb
00000330: 6839 203d 70e1 be3c 891c b03c a88a 21bd
00000340: e329 e1bb c773 7abc b99f 29bd cb09 99b8
00000350: d4b4 cbbc 185a a33c 4533 2d3d 251e c03c
00000360: 451b b63c 99c5 1ebd ec2d 1dbd 1f96 58bc
00000370: 569a 34bb 636f 43bd e738 18bc 8f6e ddbc
00000380: cf4e 06bd ab4f 8abc 681f 95bc 14a5 35bd
00000390: 102a babc bb1c 0d3c a8d7 21bd c590 4ebd
000003a0: ce8a 453d 012d 14bd 98c0 3c3d 8abd 053c
000003b0: a3ed 6d3b d2a8 23bd 248e 1f3d b5e7 2f3d
000003c0: 8814 aebc d513 213d bb1f 33bc 8955 16bd
000003d0: 91ff 27bd 169c a8bb a5a7 0f3d 2b34 2bbd
000003e0: 92b2 fa3c 5dec a03c c310 e83c 8e60 82bb
000003f0: 9ad0 fcbc 6176 2c3d 3142 30bd 281d 7b3b

bias f4 [128]
0.019000007 0.019000003 0.019 0.019000007 0.019000001 0.020999985 0.019000005 0.020999998
0.020999916 0.020999992 0.020999953 0.020999925 0.020999987 0.02099999 0.019000074 0.020999983
0.020999996 0.019000022 0.021 0.019000031 0.020999992 0.019000009 0.019000007 0.020999974
0.019000027 0.020999989 0.020999989 0.02099999 0.019000366 0.020999998 0.01900003 0.019000024
0.01900023 0.020999935 0.021 0.020999994 0.019000012 0.020999994 0.019000003 0.020999998
0.020999962 0.021 0.01900002 0.019000003 0.020999996 0.019000003 0.020999799 0.020999908
0.020999998 0.020999996 0.020999985 0.019 0.019000001 0.019000081 0.019 0.020999994
0.021 0.019000009 0.019000048 0.019 0.021 0.019000005 0.021 0.019000001
0.020999976 0.01900001 0.020999998 0.020999994 0.020999998 0.019000562 0.021 0.020999989
0.020999989 0.020999674 0.020999981 0.019000001 0.019000005 0.020999994 0.01900001 0.02099998
0.019000001 0.021 0.020999994 0.019000001 0.019000005 0.021 0.020999996 0.019000005
0.019000009 0.020999998 0.020999998 0.020999983 0.019000007 0.020999998 0.021 0.019000003
0.02099999 0.020999998 0.019000165 0.019000014 0.020999996 0.020999953 0.019 0.020999998
0.020999862 0.021 0.020999987 0.021 0.02099883 0.020999981 0.020999992 0.02099997
0.020999977 0.020999981 0.019000007 0.020999994 0.020999996 0.021 0.020999998 0.021
0.020999992 0.019 0.019000005 0.01900003 0.020999992 0.019 0.019000001 0.019
00000000: e7a5 9b3c e5a5 9b3c e3a5 9b3c e7a5 9b3c
00000010: e4a5 9b3c 2908 ac3c e6a5 9b3c 3008 ac3c
00000020: 0408 ac3c 2d08 ac3c 1808 ac3c 0908 ac3c
00000030: 2a08 ac3c 2c08 ac3c 0ba6 9b3c 2808 ac3c
00000040: 2f08 ac3c efa5 9b3c 3108 ac3c f4a5 9b3c
00000050: 2d08 ac3c e8a5 9b3c e7a5 9b3c 2308 ac3c
00000060: f2a5 9b3c 2b08 ac3c 2b08 ac3c 2c08 ac3c
00000070: a8a6 9b3c 3008 ac3c f3a5 9b3c f0a5 9b3c
00000080: 5fa6 9b3c 0e08 ac3c 3108 ac3c 2e08 ac3c
00000090: eaa5 9b3c 2e08 ac3c e5a5 9b3c 3008 ac3c
000000a0: 1d08 ac3c 3108 ac3c eea5 9b3c e5a5 9b3c
000000b0: 2f08 ac3c e5a5 9b3c c507 ac3c 0008 ac3c
000000c0: 3008 ac3c 2f08 ac3c 2908 ac3c e3a5 9b3c
000000d0: e4a5 9b3c 0fa6 9b3c e3a5 9b3c 2e08 ac3c
000000e0: 3108 ac3c e8a5 9b3c fda5 9b3c e3a5 9b3c
000000f0: 3108 ac3c e6a5 9b3c 3108 ac3c e4a5 9b3c
00000100: 2408 ac3c e9a5 9b3c 3008 ac3c 2e08 ac3c
00000110: 3008 ac3c 11a7 9b3c 3108 ac3c 2b08 ac3c
00000120: 2b08 ac3c 8207 ac3c 2708 ac3c e4a5 9b3c
00000130: e6a5 9b3c 2e08 ac3c e9a5 9b3c 2608 ac3c
00000140: e4a5 9b3c 3108 ac3c 2e08 ac3c e4a5 9b3c
00000150: e6a5 9b3c 3108 ac3c 2f08 ac3c e6a5 9b3c
00000160: e8a5 9b3c 3008 ac3c 3008 ac3c 2808 ac3c
00000170: e7a5 9b3c 3008 ac3c 3108 ac3c e5a5 9b3c
00000180: 2c08 ac3c 3008 ac3c 3ca6 9b3c eba5 9b3c
00000190: 2f08 ac3c 1808 ac3c e3a5 9b3c 3008 ac3c
000001a0: e707 ac3c 3108 ac3c 2a08 ac3c 3108 ac3c
000001b0: bd05 ac3c 2708 ac3c 2d08 ac3c 2108 ac3c
000001c0: 2508 ac3c 2708 ac3c e7a5 9b3c 2e08 ac3c
000001d0: 2f08 ac3c 3108 ac3c 3008 ac3c 3108 ac3c
000001e0: 2d08 ac3c e3a5 9b3c e6a5 9b3c f3a5 9b3c
000001f0: 2d08 ac3c e3a5 9b3c e4a5 9b3c e3a5 9b3c

weight f4 [128]
0.8015117 0.15219258 0.88775307 0.5653215 0.4370755 0.36165118 0.4282726 0.5690854
0.13608496 0.2692023 0.5605566 0.12259911 0.038113404 0.14865346 0.26483396 0.77839774
0.8680401 0.06703229 0.60265565 0.33221638 0.37030768 0.18280946 0.31881952 0.111265466
0.35501152 0.16526051 0.14156283 0.36975718 0.022939557 0.24276043 0.15983246 0.176517
0.05325249 0.6690396 0.7220628 0.5895006 0.9711503 0.3445395 0.240831 0.8012971
0.21267585 0.6889271 0.07500996 0.05818205 0.7137587 0.27708703 0.66120845 0.9935807
0.85907453 0.31129694 0.5359596 0.7088879 0.54273236 0.2607336 0.51341283 0.39634722
0.45419323 0.10956745 0.32424408 0.9736634 0.92201185 0.62176657 0.9783148 0.20924388
0.79934 0.17883672 0.511057 0.78248924 0.65533864 0.98040736 0.8038012 0.6587297
0.34959012 0.10048069 0.48662582 0.41174775 0.8929772 0.98168087 0.020498144 0.06798451
0.8124209 0.82539177 0.13359691 0.3350628 0.84967166 0.65857816 0.23416467 0.78749853
0.4638511 0.9830222 0.85351247 0.8155314 0.51726085 0.9816934 0.8687676 0.8639191
0.7170746 0.36897773 0.11626935 0.07658334 0.87593645 0.6233618 0.99211836 0.6354499
0.9405301 0.84142804 0.59968543 0.8068672 0.012734526 0.47507107 0.13420756 0.01289587
0.22819012 0.36138457 0.18138684 0.04998039 0.31876147 0.735005 0.39062813 0.9398816
0.54103214 0.66762966 0.83572614 0.50506574 0.23771559 0.80180687 0.71534204 0.81194264
00000000: df2f 4d3f 5fd8 1b3e c943 633f e9b8 103f
00000010: 5cc8 df3e 582a b93e 8c46 db3e 95af 113f
00000020: db59 0b3e e2d4 893e a380 0f3f 3e15 fb3d
00000030: cd1c 1c3d 9d38 183e 5198 873e 1345 473f
00000040: e037 5e3f 3a48 893d a447 1a3f 4418 aa3e
00000050: f898 bd3e 6732 3b3e 503c a33e 26df e33d
00000060: 12c4 b53e 0d3a 293e d9f5 103e d050 bd3e
00000070: bdeb bb3c 3196 783e 1fab 233e dfc0 343e
00000080: 481f 5a3d 2e46 2b3f 1cd9 383f 83e9 163f
00000090: 4e9d 783f 7b67 b03e 679c 763e cf21 4d3f
000000a0: b3c7 593e 875d 303f d29e 993d 4d50 6e3d
000000b0: e4b8 363f 5ade 8d3e f544 293f 4e5b 7e3f
000000c0: 4fec 5b3f 5062 9f3e a634 093f ad79 353f
000000d0: 82f0 0a3f e07e 853e 066f 033f 06ee ca3e
000000e0: 048c e83e e664 e03d 5203 a63e 0142 793f
000000f0: f808 6c3f 182c 1f3f d772 7a3f 0744 563e
00000100: 8ca1 4c3f f920 373e a2d4 023f 3751 483f
00000110: 46c4 273f fafb 7a3f eac5 4d3f 82a2 283f
00000120: 7afd b23e d2c8 cd3d 0527 f93e 9ad0 d23e
00000130: 279a 643f 704f 7b3f b9eb a73c 763b 8b3d
00000140: d1fa 4f3f e04c 533f a1cd 083e 5a8d ab3e
00000150: 1584 593f 9498 283f ddc8 6f3e 8199 493f
00000160: e47d ed3e 58a7 7b3f cb7f 5a3f aac6 503f
00000170: 356b 043f 4250 7b3f 8e67 5e3f cd29 5d3f
00000180: 3392 373f a6ea bc3e a01e ee3d bad7 9c3d
00000190: 5f3d 603f a494 1f3f 78fb 7d3f d8ac 223f
000001a0: 95c6 703f d467 573f fc84 193f d98e 4e3f
000001b0: 79a4 503c 843c f33e b56d 093e 3349 533c
000001c0: acaa 693e 6607 b93e 79bd 393e 3db8 4c3d
000001d0: b434 a33e 4a29 3c3f 6900 c83e 159c 703f
000001e0: 1581 0a3f c7e9 2a3f 26f2 553f fd4b 013f
000001f0: b76b 733e 3743 4d3f a820 373f 79db 4f3f

bias f4 [128]
0.0009999995 0.0009999998 -0.0009999998 0.0009999991 -0.0009999999 -0.0009999999 -0.0009999998 0.0009999998
0.0009999998 -0.0009999996 -0.0009999948 -0.0009999998 -0.0009999999 0.0009999998 -0.0009999982 -0.0009999997
0.0009999998 0.0009999998 -0.0009999999 0.0009999995 -0.0009999999 -0.0009999998 0.0009999997 -0.0009999999
-0.0009999983 0.0009999998 0.0009999999 0.0009999997 0.0009999984 -0.0009999999 -0.0009999997 -0.0009999998
-0.0009999996 -0.0009999914 0.0009999999 -0.0009999995 0.0009999996 -0.0009999997 0.0009999999 -0.0009999998
0.0009999995 -0.0009999999 0.0009999998 0.0009999999 -0.0009999993 0.0009999998 -0.0009999997 -0.0009999995
-0.0009999998 -0.0009999999 -0.0009999999 -0.0009999999 -0.0009999999 0.0009999999 0.0009999998 0.0009999996
-0.0009999998 0.0009999998 -0.0009999999 0.0009999998 -0.0009999999 0.0009999999 0.0009999998 0.0009999999
-0.0009999998 0.0009999998 0.0009999998 0.0009999996 0.0009999999 -0.0009999903 -0.0009999998 -0.0009999995
-0.0009999991 0.0009999998 -0.0009999983 0.0009999998 -0.0009999998 -0.0009999999 0.0009999998 0.0009999999
-0.0009999999 -0.0009999998 0.0009999998 0.0009999998 -0.0009999999 0.0009999999 0.0009999999 0.0009999997
0.0009999999 -0.0009999998 -0.0009999999 -0.0009999995 0.0009999996 -0.0009999999 -0.0009999999 0.0009999998
-0.0009999999 -0.0009999999 0.0009999963 0.0009999999 -0.0009999997 0.0009999998 0.0009999999 0.0009999998
-0.0009999996 0.0009999998 0.0009999999 0.0009999999 -0.0009999985 -0.0009999991 -0.0009999998 -0.0009999999
-0.0009999996 -0.0009999992 0.0009999999 0.0009999999 0.0009999999 -0.0009999998 -0.0009999998 -0.0009999999
0.0009999998 -0.0009999998 0.0009999998 0.0009999993 -0.0009999998 -0.0009999998 -0.0009999998 0.0009999999
00000000: 6a12 833a 6d12 833a 6d12 83ba 6712 833a
00000010: 6e12 83ba 6e12 83ba 6d12 83ba 6d12 833a
00000020: 6d12 833a 6b12 83ba 4212 83ba 6d12 83ba
00000030: 6e12 83ba 6d12 833a 5f12 83ba 6c12 83ba
00000040: 6d12 833a 6d12 833a 6e12 83ba 6a12 833a
00000050: 6e12 83ba 6d12 83ba 6c12 833a 6e12 83ba
00000060: 6012 83ba 6d12 833a 6e12 833a 6c12 833a
00000070: 6112 833a 6e12 83ba 6c12 83ba 6d12 83ba
00000080: 6b12 83ba 2512 83ba 6e12 833a 6a12 83ba
00000090: 6b12 833a 6c12 83ba 6e12 833a 6d12 83ba
000000a0: 6a12 833a 6e12 83ba 6d12 833a 6e12 833a
000000b0: 6912 83ba 6d12 833a 6c12 83ba 6a12 83ba
000000c0: 6d12 83ba 6e12 83ba 6e12 83ba 6e12 83ba
000000d0: 6e12 83ba 6e12 833a 6d12 833a 6b12 833a
000000e0: 6d12 83ba 6d12 833a 6e12 83ba 6d12 833a
000000f0: 6e12 83ba 6e12 833a 6d12 833a 6e12 833a
00000100: 6d12 83ba 6d12 833a 6d12 833a 6b12 833a
00000110: 6e12 833a 1b12 83ba 6d12 83ba 6a12 83ba
00000120: 6712 83ba 6d12 833a 6012 83ba 6d12 833a
00000130: 6d12 83ba 6e12 83ba 6d12 833a 6e12 833a
00000140: 6e12 83ba 6d12 83ba 6d12 833a 6d12 833a
00000150: 6e12 83ba 6e12 833a 6e12 833a 6c12 833a
00000160: 6e12 833a 6d12 83ba 6e12 83ba 6a12 83ba
00000170: 6b12 833a 6e12 83ba 6e12 83ba 6d12 833a
00000180: 6e12 83ba 6e12 83ba 4f12 833a 6e12 833a
00000190: 6c12 83ba 6d12 833a 6e12 833a 6d12 833a
000001a0: 6b12 83ba 6d12 833a 6e12 833a 6e12 833a
000001b0: 6212 83ba 6712 83ba 6d12 83ba 6e12 83ba
000001c0: 6b12 83ba 6812 83ba 6e12 833a 6e12 833a
000001d0: 6e12 833a 6d12 83ba 6d12 83ba 6e12 83ba
000001e0: 6d12 833a 6d12 83ba 6d12 833a 6912 833a
000001f0: 6d12 83ba 6d12 83ba 6d12 83ba 6e12 833a

running_mean f4 [128]
0.01935107 0.029511197 0.023766464 0.024742862 0.02931282 0.030322915 0.038470294 0.025484128
0.030452823 0.025389615 0.015110013 0.039510388 0.020962117 0.031972207 0.021596787 0.026460797
0.030112917 0.021988546 0.03061123 0.027834404 0.025677377 0.020957714 0.0269552 0.020556962
0.027188087 0.021565849 0.025550012 0.024442852 0.030396355 0.019791266 0.021595854 0.023270829
0.02723142 0.033609625 0.032330584 0.025787799 0.029498084 0.021362377 0.022715196 0.023962092
0.025741098 0.026559448 0.026927644 0.030333424 0.027905393 0.018889166 0.03260822 0.024220042
0.026113136 0.021268671 0.02510844 0.020025656 0.021083469 0.020814182 0.025797898 0.026916688
0.028947104 0.023181597 0.02643994 0.025035268 0.020653162 0.022069443 0.024680808 0.02119191
0.020606324 0.026274716 0.022282928 0.02337851 0.02480602 0.026293082 0.0323773 0.024968637
0.017171314 0.033417713 0.023960635 0.0343717 0.023375766 0.026843851 0.027659288 0.027188843
0.02240285 0.027876375 0.02776741 0.024858011 0.025687689 0.021680463 0.029498069 0.025676915
0.024425015 0.019440586 0.03211683 0.022461642 0.025768245 0.024910517 0.032154776 0.026023665
0.032475848 0.032369215 0.029611507 0.03426857 0.027679164 0.026331758 0.027892822 0.030509258
0.03713395 0.028243586 0.02463374 0.023999011 0.028635895 0.022415534 0.047798485 0.022311522
0.029423086 0.024196135 0.02922984 0.02180967 0.022170877 0.027242828 0.023488993 0.02925164
0.027882678 0.018557593 0.018802801 0.026242798 0.023022547 0.02559856 0.020498408 0.02876626
00000000: 2386 9e3c 77c1 f13c e3b1 c23c 8bb1 ca3c
00000010: 7021 f03c c367 f83c 0793 1d3d 17c4 d03c
00000020: 3378 f93c e2fd cf3c fd8f 773c a5d5 213d
00000030: bfb8 ab3c 4af5 023d bfeb b03c 50c4 d83c
00000040: 5daf f63c 5321 b43c 67c4 fa3c fa04 e43c
00000050: 5d59 d23c 83af ab3c 27d1 dc3c 1367 a83c
00000060: 8db9 de3c ddaa b03c 424e d13c 603c c83c
00000070: c701 f93c 4b21 a23c cae9 b03c 77a2 be3c
00000080: 6d14 df3c 3faa 093d 136d 043d ef40 d33c
00000090: f7a5 f13c 2700 af3c 3815 ba3c 264c c43c
000000a0: ffde d23c 3393 d93c 5d97 dc3c cd7d f83c
000000b0: da99 e43c 74bd 9a3c 3290 053d 1c69 c63c
000000c0: 37eb d53c a33b ae3c 37b0 cd3c d80c a43c
000000d0: 3db7 ac3c 8182 aa3c 1d56 d33c 6380 dc3c
000000e0: 7a22 ed3c 55e7 bd3c 9398 d83c c316 cd3c
000000f0: d230 a93c faca b43c 682f ca3c a89a ad3c
00000100: 98ce a83c 133e d73c b08a b63c 4a84 bf3c
00000110: ff35 cb3c 9764 d73c 0f9e 043d 078b cc3c
00000120: dbaa 8c3c 03e1 083d 1849 c43c 57c9 0c3d
00000130: 897e bf3c a3e7 db3c bb95 e23c 23bb de3c
00000140: 2f86 b73c ff5c e43c 7b78 e33c 07a3 cb3c
00000150: fd6e d23c 3a9b b13c efa5 f13c 6558 d23c
00000160: f816 c83c dd41 9f3c f08c 033d 7a01 b83c
00000170: ed17 d33c 2411 cc3c bab4 033d 952f d53c
00000180: 6505 053d 9595 043d d593 f23c 335d 0c3d
00000190: 6abf e23c b3b5 d73c 7d7f e43c 8dee f93c
000001a0: c519 183d 185f e73c b2cc c93c 9399 c43c
000001b0: d395 ea3c c8a0 b73c 58c8 433d a7c6 b63c
000001c0: af08 f13c f936 c63c 6b73 ef3c 31aa b23c
000001d0: b39f b53c 5a2c df3c fd6b c03c 23a1 ef3c
000001e0: 376a e43c 1806 983c 5508 9a3c 23fb d63c
000001f0: c899 bc3c 12b4 d13c 47ec a73c 38a7 eb3c

running_var f4 [128]
0.9096866 0.9258018 0.91268086 0.91312754 0.92136335 0.9300152 0.9213627 0.909388
0.9293683 0.9135583 0.90742147 0.94084054 0.90946645 0.92774856 0.916499 0.9208579
0.9291455 0.9107185 0.927139 0.9127534 0.92007333 0.9099514 0.9183693 0.91036433
0.9206447 0.9123297 0.915215 0.9177965 0.92103195 0.9084846 0.9109524 0.91544306
0.9208857 0.9241419 0.927121 0.91537654 0.91536736 0.9118831 0.9148803 0.9169055
0.9183097 0.9197335 0.9147586 0.91290027 0.9235337 0.90883714 0.9276304 0.91450006
0.92155814 0.9142623 0.9117162 0.9087478 0.9114109 0.90901256 0.9211617 0.921963
0.92404133 0.91198313 0.9180484 0.91468453 0.9086149 0.9155329 0.9162367 0.911284
0.9128517 0.91408145 0.91292423 0.91580456 0.9140436 0.9186269 0.9144158 0.917115
0.90782195 0.9336535 0.91218716 0.9253983 0.91264707 0.9244393 0.9178251 0.91947293
0.91734576 0.9165389 0.9228109 0.91304684 0.91358614 0.9149082 0.9280937 0.92144734
0.91291624 0.9096046 0.9197236 0.9167886 0.9222876 0.91862035 0.91920066 0.9132196
0.93375945 0.91422457 0.9240018 0.9312339 0.9223003 0.9201733 0.91230035 0.920446
0.9339092 0.92006564 0.9155529 0.9170839 0.92579067 0.9102476 0.9518536 0.9130618
0.9197596 0.91545177 0.9170649 0.91453177 0.9145422 0.91207033 0.919404 0.9171612
0.9232695 0.9108118 0.9104987 0.9213084 0.91606945 0.9202469 0.9135391 0.9167442
00000000: 39e1 683f 5901 6d3f 74a5 693f bac2 693f
00000010: 78de 6b3f 7a15 6e3f 6dde 6b3f a7cd 683f
00000020: 15eb 6d3f f5de 693f c64c 683f edda 703f
00000030: cbd2 683f ee80 6d3f ae9f 6a3f 58bd 6b3f
00000040: 7bdc 6d3f d924 693f fb58 6d3f 35aa 693f
00000050: ed89 6b3f 93f2 683f 401a 6b3f a30d 693f
00000060: 5faf 6b3f 708e 693f 884b 6a3f b6f4 6a3f
00000070: c0c8 6b3f 7292 683f 2d34 693f 7a5a 6a3f
00000080: 2abf 6b3f 9094 6c3f cd57 6d3f 1e56 6a3f
00000090: 8455 6a3f 2c71 693f 9835 6a3f 52ba 6a3f
000000a0: 5816 6b3f a873 6b3f 9f2d 6a3f d5b3 693f
000000b0: b46c 6c3f 8da9 683f 3079 6d3f ad1c 6a3f
000000c0: 3ceb 6b3f 180d 6a3f 3c66 693f b2a3 683f
000000d0: 3a52 693f 0cb5 683f 41d1 6b3f c405 6c3f
000000e0: f98d 6c3f ba77 693f 3805 6b3f c428 6a3f
000000f0: fc9a 683f 5d60 6a3f 7d8e 6a3f e949 693f
00000100: a6b0 693f 3e01 6a3f 67b5 693f 2b72 6a3f
00000110: c3fe 693f 222b 6b3f 2717 6a3f 0cc8 6a3f
00000120: 0567 683f ea03 6f3f 1985 693f e7e6 6c3f
00000130: 3da3 693f 0ea8 6c3f 96f6 6a3f 9462 6b3f
00000140: 2cd7 6a3f 4ba2 6a3f 563d 6c3f 70bd 693f
00000150: c8e0 693f 6c37 6a3f 8c97 6d3f f9e3 6b3f
00000160: e1b4 693f d9db 683f 0173 6b3f a8b2 6a3f
00000170: 0a1b 6c3f b42a 6b3f bc50 6b3f c2c8 693f
00000180: dc0a 6f3f 9f0a 6a3f 628b 6c3f 5865 6e3f
00000190: df1b 6c3f 7a90 6b3f 848c 693f 59a2 6b3f
000001a0: ac14 6f3f 6c89 6b3f ad61 6a3f 03c6 6a3f
000001b0: 9e00 6d3f fd05 693f adac 733f 6bbe 693f
000001c0: 5d75 6b3f 0c5b 6a3f c4c4 6a3f c11e 6a3f
000001d0: 701f 6a3f 717d 693f 0f5e 6b3f 14cb 6a3f
000001e0: 645b 6c3f f62a 693f 7116 693f deda 6b3f
000001f0: 8783 6a3f 4d95 6b3f b3dd 693f bfaf 6a3f

weight f4 [1, 128, 1, 1]
-0.029666647 -0.22316206 0.22079211 -0.020492338 0.27341205 0.2774788 0.31035036 -0.12732826
-0.23073669 0.056881826 0.0043879244 0.09936463 0.3183482 -0.21649365 0.00808248 0.0899662
-0.3031266 -0.06782232 0.20668656 -0.029684389 0.1735679 0.3072917 -0.06428674 0.25062132
0.009086338 -0.10796733 -0.1513911 -0.09117509 -0.009357157 0.2172364 0.046178896 0.22339503
0.033547554 0.0030195967 -0.2827495 0.034771655 -0.032440536 0.058834933 -0.26402217 0.26081464
-0.030350938 0.23891006 -0.23505831 -0.28902084 0.028179495 -0.21864761 0.07137831 0.026350517
0.09225891 0.20534419 0.16035534 0.31708565 0.31524765 -0.23038918 -0.26871613 -0.045552492
0.24356173 -0.0822796 0.19823472 -0.24917765 0.3147803 -0.13598578 -0.26586628 -0.30742076
0.10594878 -0.10178979 -0.13770828 -0.04746706 -0.21205732 0.0007833927 0.24214444 0.029303396
0.021967065 -0.13188747 0.008664111 -0.22478463 0.11622131 0.23304756 -0.29114568 -0.27387044
0.17391032 0.22677378 -0.11320567 -0.2916659 0.12353674 -0.32182404 -0.16654174 -0.062596746
-0.16475385 0.12940992 0.283915 0.032219537 -0.037422497 0.18342425 0.31009635 -0.097576365
0.23407769 0.18887034 -0.003716706 -0.19445674 0.054528728 -0.26768795 -0.29215685 -0.23445468
0.034527592 -0.21911028 -0.24636698 -0.25514108 0.010416763 0.02224107 0.120832205 0.1688959
0.039715406 0.026074506 -0.27388763 -0.25210848 -0.14972845 0.23362595 0.111487225 0.16720763
-0.29209614 0.2463312 -0.070874065 -0.026936458 0.17213619 0.22573274 0.31150818 -0.19353625
00000000: 7807 f3bc 9884 64be 5417 623e 8cdf a7bc
00000010: aafc 8b3e b411 8e3e 3ee6 9e3e 5762 02be
00000020: 3d46 6cbe ebfc 683d 94c8 8f3b af7f cb3d
00000030: 89fe a23e 83b0 5dbe 616c 043c 3340 b83d
00000040: 6933 9bbe 6ee6 8abd a4a5 533e ad2c f3bc
00000050: c9bb 313e 5655 9d3e c4a8 83bd 7051 803e
00000060: ddde 143c fa1d ddbd 4506 1bbe 01ba babd
00000070: c34e 19bc 3873 5e3e 1526 3d3d abc1 643e
00000080: 2969 093d 6de4 453b 8bc4 90be b96c 0e3d
00000090: 5ee0 04bd e6fc 703d ea2d 87be 7f89 853e
000000a0: 88a2 f8bc d7a4 743e 20b3 70be 8afa 93be
000000b0: afd8 e63c 29e5 5fbe cb2e 923d 0add d73c
000000c0: 3df2 bc3d bf45 523e 3134 243e 0d59 a23e
000000d0: 2468 a13e 24eb 6bbe 2995 89be 4095 3abd
000000e0: 3f68 793e 3582 a8bd 0bfe 4a3e 6d28 7fbe
000000f0: e22a a13e db3f 0bbe a01f 88be 4166 9dbe
00000100: adfb d83d 2a77 d0bd 6603 0dbe d26c 42bd
00000110: 8e25 59be 985c 4d3a b6f4 773e ad0d f03c
00000120: 46f4 b33c 820d 07be eaf3 0d3c f12d 66be
00000130: 7005 ee3d 05a4 6e3e 0c11 95be bf38 8cbe
00000140: 8c15 323e 6337 683e 60d8 e7bd 3c55 95be
00000150: d500 fd3d 1fc6 a4be eb89 2abe b932 80bd
00000160: 3cb5 28be 0984 043e 4f5d 913e a2f8 033d
00000170: 5548 19bd 91d3 3b3e f3c4 9e3e 1ed6 c7bd
00000180: 10b2 6f3e 3a67 413e fb93 73bb ab1f 47be
00000190: 8459 5f3d 650e 89be 9595 95be e314 70be
000001a0: ce6c 0d3d 725e 60be a047 7cbe daa1 82be
000001b0: 12ab 2a3c e832 b63c e076 f73d 0cf3 2c3e
000001c0: 9fac 223d 349a d53c 003b 8cbe 5d14 81be
000001d0: 6a52 19be a43b 6f3e 6a53 e43d 7a38 2b3e
000001e0: a08d 95be 3f3e 7c3e 6c26 91bd d9a9 dcbc
000001f0: 7844 303e 7c26 673e 007e 9f3e 5e2e 46be
