data/ball_data/model_8000.pth (torch_old, 853498 bytes, 13 tensors)

weight f4 [64, 1, 5, 5]
000000 a9 90 b2 bd c1 08 b3 3c db 79 b6 3c 29 1d b0 3c
       -0.08718998 0.02185476 0.022274902 0.02149828
000010 92 07 2b 3d 1a 5b b3 bd 2e 29 9f bd d6 b9 0e 3e
       0.041755266 -0.087576106 -0.07771526 0.13938078
000020 66 e4 7a 3d bb 46 af 3d e5 fc 2c be 7c b6 ea bc
       0.061252974 0.08558413 -0.16893347 -0.028651468
000030 40 fc 96 bd 67 ca 64 3d 8c cd 89 3d cb e7 63 be
       -0.073723316 0.05585709 0.06728658 -0.22256391
000040 1e b5 22 be be c7 4a 3d 4c ae fe bc 07 58 57 3d
       -0.15889403 0.049506895 -0.03108897 0.052574184
000050 36 ba cc 3c fc 17 c7 bd b8 5a 7a 3c e8 64 ee 3b
       0.024991136 -0.097213715 0.015280418 0.0072752126
000060 5d 7f a7 3c 0e 78 41 3e 1c 24 08 be 14 ab e9 3c
       0.020446474 0.18893453 -0.13295025 0.02852396
000070 4f 3b 58 bd 95 e0 1b 3c e7 60 0c 3e 1b 73 51 3d
       -0.052790936 0.009513994 0.1370884 0.051135164
000080 a1 03 db bd 95 24 07 be 35 24 b6 3d 60 98 ca 3d
       -0.106940515 -0.13197549 0.08893625 0.098923445
000090 7b b5 3a 3d 3d cb e9 bd f2 7d 7d bd ea b1 58 bd
       0.04558323 -0.11415718 -0.06188769 -0.052904047
0000a0 39 5b e5 bd b5 e4 3c 3d 89 fd 4f bc c1 3a 09 bd
       -0.1119904 0.04611655 -0.012694725 -0.033503298
0000b0 15 dd e2 3d 14 2b 74 3b c6 bd ce 3d d8 32 92 bb
       0.11077324 0.0037257122 0.1009479 -0.0044616275
0000c0 9c 91 81 bd 3c 25 8c 3c d0 8d c6 3d b1 9c 27 3d
       -0.06326601 0.017107598 0.09695017 0.040920917
0000d0 c9 13 b7 bc 2d cc ef bd 94 20 ee bb e0 0f 3d bd
       -0.022348301 -0.11708865 -0.007267067 -0.046157718
0000e0 c6 9f fd 3d eb ea d1 3d c1 e5 0c be b8 b7 9c bd
       0.1238399 0.10249885 -0.13759519 -0.07652229
0000f0 b7 15 0d 3d 42 85 83 3d 7c 5a 9f 3c cc 67 cc bd
       0.034444537 0.06421901 0.019452326 -0.09980735
000100 69 4c 35 3c 44 16 a3 3c 7f 0d c5 bd 22 4a ad bd
       0.011065581 0.019908078 -0.09621715 -0.08461405
000110 b0 98 7d 3c 6c 0c bb bd 3f 46 0a 3d 57 6b 19 3d
       0.015478298 -0.09133229 0.0337584 0.037455883
000120 21 81 39 3e b8 04 e8 bc 30 67 98 3d 87 bb ac bd
       0.18115665 -0.028322563 0.074415565 -0.084342055
000130 08 f6 bf bd ef 1a 1d 3d 0c 22 69 bd 5e fe 29 be
       -0.093730986 0.038355764 -0.056917235 -0.1660094
000140 cf 05 60 3d c9 91 0d bd a9 01 ce 3c c0 22 70 bd
       0.05469304 -0.03456286 0.025147276 -0.05862689
000150 38 42 09 be e2 7d 87 bc 82 b8 ed 3b e9 0a 90 bc
       -0.13404167 -0.016539518 0.007254661 -0.017583327
000160 d5 b1 44 bc f5 54 8d 3d 33 e2 ba 3c 08 c7 d1 bd
       -0.012005289 0.0690097 0.022812938 -0.1024304
000170 f0 62 a4 bd 61 03 72 bd 41 fb af bd e5 c8 81 3d
       -0.08026683 -0.059085254 -0.08592845 0.06337146
000180 09 72 5b bd 51 44 d4 3d e7 77 2f 3d 08 e9 47 bd
       -0.05357555 0.10364593 0.042838957 -0.04880622
000190 27 09 d1 bc 50 25 b4 bc 63 f5 81 3b a8 e7 9f 3d
       -0.02551706 -0.021990448 0.00396602 0.07807857
0001a0 83 74 d7 3c 08 8a 12 bd cc 38 54 3c 7d 1d 97 3d
       0.026300674 -0.035776168 0.012952995 0.07378671
0001b0 17 43 d6 bd 42 11 4e bd c0 7b 56 bd 9b 15 6f 3e
       -0.10462015 -0.050309427 -0.05236411 0.23348086
0001c0 8c dc f0 3c c2 04 ea bd 4c 12 dc 3d b9 16 e4 3c
       0.02940204 -0.11426689 0.10745677 0.027842866
0001d0 12 99 e2 3d 90 96 01 be 88 a4 39 be b1 2a 27 bd
       0.11064352 -0.12655091 -0.1812917 -0.040812198
0001e0 84 92 61 bd 8e 34 2e bd be e0 d0 bd 5d 21 49 3d
       -0.05507137 -0.04253059 -0.10199116 0.049104083
0001f0 d2 d9 3c 3e af e2 9f 3d cf 83 6c bc 5b ea e7 bd
       0.18442467 0.07806908 -0.0144357225 -0.11323997
000200 85 31 af 3c b7 14 e7 bc b4 ed 2d 3d ae 7b 9b 3b
       0.021385917 -0.02820812 0.04246302 0.0047449684
000210 20 c0 58 bd 12 bb b6 3d 7f e9 53 3d 6e 5f 36 bd
       -0.0529176 0.089223996 0.05173635 -0.044524603
000220 b2 1f 80 bc 23 ce 18 3e 8c 6b 1d 3e a5 22 0a 3d
       -0.015640114 0.14922385 0.15373057 0.033724446
000230 ab de ca bd 4d 99 78 be 3a a4 1e be 70 7f 70 bd
       -0.09905752 -0.2427723 -0.15492335 -0.058715284
000240 d0 39 6a bd 5a d8 a3 3d cf 29 6a bd 38 58 84 3d
       -0.05718404 0.0800025 -0.057168778 0.06462139
000250 c1 e0 02 3e e8 c7 3d bd 40 00 91 bd 71 59 e1 ba
       0.1278105 -0.046333224 -0.07080126 -0.0017192793
000260 1e ae 97 bb 40 4e 20 bd e6 23 48 3a d8 00 68 bc
       -0.0046289107 -0.039137125 0.0007634744 -0.014160357
000270 d2 55 25 3d ad d4 c4 3c 56 cf 64 3d 98 19 95 3d
       0.040365048 0.024027193 0.055861793 0.07280272
000280 7d 5a a2 3b 8c 55 fe bc 07 9c bf bc 55 4a 59 3d
       0.0049546347 -0.031046651 -0.02338983 0.053049404
000290 fc 56 29 ba 15 3a 4f 3a 99 f0 1f 3c 90 22 89 3c
       -0.00064598 0.0007905078 0.009761953 0.016740113
0002a0 b9 b4 94 3c 00 34 63 3c 1e a8 89 bd 3e 8c c9 bd
       0.018152582 0.013867378 -0.06721519 -0.09841202
0002b0 20 71 37 bd c9 8f c6 bc 00 34 31 3c 2f 1f 81 bd
       -0.04478562 -0.024238484 0.01081562 -0.06304776
0002c0 41 4d 8c 3d 7b 1c 04 be 33 47 c9 bd 64 92 e1 bd
       0.068506725 -0.1290149 -0.09828033 -0.1101425
0002d0 d2 41 cf bd 16 c7 2e bd 94 2a 2f 3c 00 bd 82 bb
       -0.10119976 -0.042670332 0.010691304 -0.0039898157
0002e0 82 c9 fd 3d 5a 9a ee 3d 40 37 2c 3e 0a b1 4c 3d
       0.1239195 0.11650534 0.16817951 0.049973525
0002f0 70 b4 0e 3e 1e 88 d5 bb f0 e4 58 3c e4 f6 bd 3d
       0.13936019 -0.0065164706 0.013238177 0.09275606
000300 07 25 11 3d 65 b5 16 bd 7a 77 6f 3c 82 9c 04 be
       0.035435703 -0.036794085 0.014615888 -0.12950328
000310 4d 83 f2 bb b2 f6 0d be 8a 6a bf 3c 7e e8 b7 3d
       -0.007400906 -0.13863638 0.023366231 0.08979891
000320 1e f1 1b 3d b2 80 e7 3d 63 38 fb 3d 30 51 bd 3d
       0.038071744 0.113038436 0.12266614 0.09244001
000330 52 33 16 3e 0c 0f fc bc 21 df 83 bd db 91 39 bd
       0.14668015 -0.030768894 -0.06439043 -0.045305114
000340 5f d1 b5 bd 7d 37 8c 3d c5 1f c5 bd 6c 45 ba bc
       -0.08877825 0.06846521 -0.096252 -0.022738181
000350 25 b4 b2 bd c0 dd fd bd cc 7e 4b bd af 0a 20 be
       -0.08725766 -0.12395811 -0.04968147 -0.15629075
000360 32 8e c3 bd 03 75 17 bd 77 4a 09 3d dc e3 93 bb
       -0.09548606 -0.036976825 0.03351828 -0.004513247
000370 86 f1 87 3d 66 23 14 3e f8 3f 63 3d 40 c3 51 3d
       0.06637864 0.14466628 0.055480927 0.051211596
000380 74 02 e3 3d 1d 2c e8 3d b4 37 80 bd 52 9e 12 3e
       0.11084452 0.11336539 -0.062606245 0.14318207
000390 cd 58 50 3e de e8 04 3d 59 db 2f 3d 74 69 55 be
       0.20346375 0.032448642 0.042933796 -0.20841008
0003a0 f6 95 cd bd f4 d8 49 bd 59 94 88 bd d8 f8 34 ba
       -0.100383684 -0.04927917 -0.0666892 -0.00069035357
0003b0 55 20 18 be 0e 21 5e 3c 96 f5 cb 3c 01 88 22 3c
       -0.14856084 0.013557686 0.024897378 0.009920121
0003c0 d2 85 28 3e 3e 4a 10 be 2e 7d 65 bd 29 98 99 3d
       0.16457298 -0.14090821 -0.056027584 0.07499725
0003d0 bb f2 2a 3d a6 3d 40 3d 27 c4 82 bd 7e 90 35 3c
       0.041735392 0.046933793 -0.06385069 0.011081813
0003e0 06 ae 31 bd 80 6f 0d ba f5 17 bc bd 74 17 83 bd
       -0.043378852 -0.0005395338 -0.09184257 -0.06400958
0003f0 05 eb 89 3c 7e 20 af bc c8 20 89 bd 96 59 2d 3d
       0.016835699 -0.021377798 -0.06695706 0.042321764

bias f4 [64]
000000 3b 61 0a be fc cc 96 bc e4 4b c4 bd d4 2b 39 be
       -0.13513653 -0.018408291 -0.095847875 -0.18083125
000010 07 48 9f bd 2c 00 6b bd 95 82 98 bd 36 ed 11 3d
       -0.0777741 -0.05737321 -0.074467815 0.035626613
000020 ea 70 ab bd 00 01 08 bd 10 a8 bc bd 3c 7d f8 bd
       -0.08371146 -0.03320408 -0.09211743 -0.121332616
000030 42 a9 07 be be d5 0c be 6d 5b 1c be 16 c5 44 bd
       -0.1324816 -0.13753411 -0.15269251 -0.04803952
000040 25 ba 1e be b1 da ae bb f5 f4 0c be cd ae 04 be
       -0.15500696 -0.0053361286 -0.13765319 -0.12957306
000050 ee 9f d5 bc 19 65 21 bd 56 91 16 bd 76 bf 60 bc
       -0.026077237 -0.039403055 -0.036759697 -0.013717523
000060 40 fb eb bd 76 36 0e 3d 69 ca b9 bd 87 fc b6 bc
       -0.115225315 0.034719907 -0.0907181 -0.022337211
000070 5f 55 45 bd f0 a8 56 be f5 68 8e bd 42 20 6d bc
       -0.04817712 -0.20962882 -0.06953613 -0.014473023
000080 a9 f9 20 3c b7 03 af bd d8 22 0c be 16 27 38 bc
       0.009825149 -0.085456304 -0.13685167 -0.011239788
000090 64 ec 56 be 93 b3 db bd ef f5 28 be dc 66 a9 bc
       -0.20988613 -0.107276104 -0.16500066 -0.02067893
0000a0 51 0e be 3c cf e0 d9 bd 1a af 75 bc f1 75 bc bd
       0.023200186 -0.10638582 -0.014995361 -0.09202183
0000b0 4e ef a2 bd eb b7 3c bd 98 65 7e be cf d7 3c bd
       -0.079558 -0.046073835 -0.24843442 -0.04610425
0000c0 98 64 03 be ba 18 15 be 15 49 51 3d 07 69 23 3b
       -0.12831342 -0.14560214 0.051095087 0.0024934427
0000d0 4d 12 95 be 00 04 fc 3b bf 7c 0e be 95 0a b3 bd
       -0.29115525 0.0076909065 -0.13914774 -0.08742253
0000e0 2a 18 9e bd 9b f1 28 be 9b 35 37 bc 06 1f b8 bd
       -0.07719453 -0.16498415 -0.011182214 -0.08990292
0000f0 8a 6d 7e be 65 5d c6 bb d3 92 06 be 45 2c 2e bc
       -0.24846473 -0.006053614 -0.13141946 -0.010630672

weight f4 [64]
000000 1e 77 cf 3e 92 ca c6 3e d8 60 14 3e d8 ee e6 3e
       0.40520567 0.38826424 0.14490068 0.45104098
000010 3e cf 01 3f 0c 8f f3 3e 75 9a 78 3c 7b 59 00 3f
       0.5070685 0.47570074 0.015173544 0.50136536
000020 b2 b9 28 3f 29 c7 03 3f 67 23 12 3f 8b 33 2a 3f
       0.6590835 0.5147577 0.5708527 0.664849
000030 c9 8d d4 3e 8e 8e 0f 3f 6e 1c 72 3e 5c 61 c4 3e
       0.41514423 0.56076896 0.23643658 0.3835553
000040 f1 95 04 3f 42 90 02 ba 03 36 39 3f 29 e7 df 3c
       0.5179129 -0.00049806025 0.7234804 0.027331905
000050 04 83 f0 3e 6c ba 0c 3f d5 d6 05 ba 20 7f 1c 3f
       0.46974957 0.5497196 -0.000510556 0.6113148
000060 0b 2f 47 3f 98 6a 81 3e 89 52 af 3e 8c ea 49 3b
       0.77806157 0.25276637 0.34242657 0.0030809967
000070 bd 35 14 3f 47 b2 4c 3f 1f b1 26 3d e2 56 93 37
       0.578945 0.7995953 0.04069626 1.7564224e-05
000080 9c 31 3c 3c 87 0f 11 3f 08 8e c6 3e c3 bd 28 3f
       0.011486437 0.5666432 0.38780236 0.65914553
000090 38 39 a8 3e 70 bb 88 3e 7e 8a a7 3c 8d cd 2f 3f
       0.32856154 0.26705503 0.02045178 0.6867302
0000a0 36 56 e3 3e db 07 81 3e 79 f3 53 3e 8a 59 1a 3e
       0.4440171 0.25201306 0.20698346 0.15073219
0000b0 f3 57 dd 3e db 08 24 3f e7 f4 06 be 4c 0a 36 3f
       0.43231162 0.6407601 -0.1317936 0.7110946
0000c0 a2 78 56 3e 4f 8d 09 3f 7f 5d bc 3e d2 c6 71 3e
       0.20944455 0.53731245 0.36790082 0.23611
0000d0 9e fd d0 3e e2 12 23 3b 32 1a ff 3e 1f fa f9 3e
       0.40818495 0.0024883081 0.49824673 0.4882364
0000e0 4e 2f e7 3e 22 d4 4f 3e d0 ce 07 3f 4e 3f 82 3e
       0.45153278 0.20295766 0.53049946 0.25438923
0000f0 04 8b 08 3f fa 73 17 3f ac c0 10 3f b9 a8 3d 3f
       0.5333712 0.5916134 0.56543994 0.74085575

bias f4 [64]
000000 b1 61 54 3d db e2 ad 3d 5d 72 1d bb 71 5f 80 3e
       0.05185098 0.08490535 -0.0024024465 0.25072816
000010 4e ef 29 3e 0e 82 18 3e 2c e4 be 3b d1 36 fd 3d
       0.16595194 0.14893362 0.00582554 0.12363971
000020 94 5c 56 3e 3f 7a 42 3e 34 96 2b 3e 81 b6 8d 3e
       0.20933753 0.18991946 0.16756517 0.27678302
000030 0a 0c f6 3c f6 17 28 3e 15 89 86 3e 5f 03 bc 3d
       0.030035038 0.1641539 0.2627646 0.091803305
000040 7d f5 60 3e c1 f3 ee 3a e8 b8 54 3e 2f c9 1e 3b
       0.21968646 0.0018230603 0.20773661 0.0024228801
000050 fa 26 a0 3c db a6 78 3e 6b a8 80 bd f3 9d 06 3e
       0.019549835 0.242824 -0.06282123 0.1314619
000060 cd 29 54 3e 7d 8b 0c be 43 ab f5 3d ce 2b 5d ba
       0.2071907 -0.13725086 0.11995556 -0.00084370084
000070 a1 f3 e3 bd d8 28 36 3e 87 18 eb ba 78 d8 34 39
       -0.11130453 0.17789018 -0.0017936387 0.00017246779
000080 7c fa 17 ba 36 13 9f 3d 46 61 59 3c 0c 51 2f 3e
       -0.0005797518 0.07767336 0.013267821 0.1712076
000090 f5 5e 21 3e c1 1f 3d 3c f4 4b 26 be 7c c1 bc 3d
       0.1575888 0.011543215 -0.16239911 0.09216592
0000a0 43 90 a1 bc 2e 4d a6 bd 65 e5 f5 3d 78 cc a4 bc
       -0.01972211 -0.081201896 0.12006644 -0.02011703
0000b0 ba 6d 4e 3e 39 6f 9c bd f1 b5 bb be d4 49 ab 3e
       0.20159045 -0.076384015 -0.36662248 0.33454764
0000c0 26 a1 bf bb 91 2f c5 3d 3f 25 05 3e 5b fb 97 3c
       -0.005848068 0.09628213 0.1300249 0.018552473
0000d0 70 9f 06 3e b2 e6 6d b9 74 56 4d 3e 57 86 af 3d
       0.13146758 -0.00022688022 0.2005251 0.08570545
0000e0 e0 21 bd 3d 2f 22 5e 3d ed e4 75 3e f1 e5 53 3c
       0.09234977 0.05423182 0.2401311 0.01293324
0000f0 0c 86 17 be 75 29 08 3e 9b fa 6b 3d 5f f5 b4 3d
       -0.14797229 0.13297065 0.057612043 0.08835863

running_mean f4 [64]
000000 ab a0 1a 3d f3 8a c1 3c f4 ab 27 3c 4b e1 34 3d
       0.03775088 0.023625826 0.010233868 0.04416017
000010 0d aa f2 3b 58 c3 85 3c 30 dc d1 3b 0c 81 51 3d
       0.0074055255 0.016328499 0.006404422 0.05114846
000020 b4 eb 9a 3c 08 01 9e 3c 2b 50 01 3c 19 5b c7 3b
       0.01891122 0.019287601 0.007892649 0.0060838577
000030 a0 8e a1 3b d3 36 ac 3c 64 a1 29 3a 0a d4 75 3c
       0.0049303323 0.021022236 0.00064708875 0.015004167
000040 16 08 bd 3b f6 ef 3e 38 28 70 61 3c 96 50 a4 ba
       0.005768786 4.552301e-05 0.01375965 -0.0012536224
000050 ac 41 fa 3c 6a c2 4c 3c b4 68 bc b9 80 bb 88 3d
       0.030548893 0.012497524 -0.00035936164 0.06676388
000060 d6 dc 38 3c fe 6f 8d 3d 91 4d 0c 3b 2f a6 64 b9
       0.01128312 0.069061264 0.0021408538 -0.00021805683
000070 33 8a 17 3d d7 4d 9e 3c 9e 86 2f 3a 15 3f 4f 3c
       0.03699703 0.019324226 0.000669578 0.012649317
000080 c8 6b c0 3c d3 df 44 3c a3 c3 ac 3b 88 d9 bb 3d
       0.023488894 0.0120162545 0.005272345 0.0917235
000090 7e 00 0b 3c 41 65 41 3b dd bf 54 3c bc dc 10 3d
       0.008484004 0.0029509815 0.012985197 0.03536676
0000a0 89 11 39 3d 2c e2 a3 3b 28 cf a1 3d 76 af 3b 3c
       0.04518274 0.005001327 0.0790084 0.011455407
0000b0 2c df 8d 3b fb 9a bc 3c 20 b8 32 3c dc 8e 43 3c
       0.0043295827 0.02302312 0.010908157 0.011935916
0000c0 3e e4 7c 3c 48 38 59 3c 5b f1 91 3d f1 5e 2e 3d
       0.015435277 0.013258047 0.07126113 0.042571012
0000d0 09 06 cc 3b 85 33 5d 3c 25 0c 56 3b 75 3d 87 3c
       0.0062263054 0.013501053 0.0032661047 0.016508797
0000e0 27 5d 7c 3c 47 ab 5c ba cc 82 1a 3d 62 bf 97 3c
       0.015403069 -0.00084178563 0.037722394 0.018523876
0000f0 77 d6 45 3c 6f 30 2b 3d c5 40 1d 3b 1e 21 2b 3d
       0.012075058 0.041794237 0.0023994904 0.04177963

running_var f4 [64]
000000 94 a6 25 3c ea ae 73 3b 50 45 fb 3a 01 68 24 3c
       0.010110516 0.0037183114 0.0019170437 0.010034562
000010 21 23 84 3a e2 06 2b 3b b8 af 2a 3a 88 93 c4 3b
       0.001008127 0.0026096632 0.00065111695 0.0059990324
000020 cb 8d 86 3b 8a 71 47 3b 24 60 a8 3a ae 0a a4 3a
       0.0041062585 0.0030432665 0.0012846035 0.001251539
000030 b9 65 7b 3a 94 b3 ad 3b 03 03 8a 39 9f 57 09 3b
       0.0009590048 0.0053009484 0.00026323655 0.0020956767
000040 2e ab bd 3a cd e2 a1 34 ed 1e 6a 3b 4d 53 02 37
       0.0014470571 3.0153606e-07 0.0035724 7.767999e-06
000050 55 60 3d 3b 86 a4 cf 3a c9 2d 20 31 f1 c7 64 3c
       0.002889653 0.0015841878 2.330909e-09 0.013963685
000060 f2 1b 09 3b ef c7 84 3c 49 ad c5 39 04 85 01 31
       0.0020921198 0.016208617 0.00037703876 1.8847581e-09
000070 86 91 30 3c 41 93 84 3b 34 40 82 38 39 8e c2 39
       0.010776883 0.0040458743 6.210842e-05 0.00037108528
000080 a4 af ab 3a 68 af 11 3b cb 4e 5a 3a cc 1d 65 3c
       0.001309861 0.0022229794 0.0008327781 0.013984155
000090 2d b8 cf 3a 32 c0 10 3a 4b 1c 12 3b 75 b6 d0 3b
       0.0015847735 0.00055218034 0.0022294696 0.006369407
0000a0 73 9c 8d 3b 84 21 80 3a 28 1e 57 3c 3d d0 22 3b
       0.0043216287 0.0009775613 0.013129748 0.0024843358
0000b0 10 b9 1c 3a 07 5a 93 3b 13 06 1d 3b 6a 37 d2 3a
       0.0005978504 0.004496816 0.002395992 0.0016038243
0000c0 3f 68 56 3b af 5a 37 3b d3 a2 0d 3c 10 32 aa 3b
       0.0032715944 0.0027977636 0.008644777 0.005193956
0000d0 de 0f af 3a 61 7d ba 39 77 15 2b 3a df 9c 44 3b
       0.0013356169 0.000355701 0.0006526331 0.003000073
0000e0 4e 26 34 3b a3 9b 9f 38 f2 22 96 3b 88 ec 41 3b
       0.0027488652 7.6107004e-05 0.0045818025 0.0029590447
0000f0 f6 70 26 3b ca 40 f8 3b 0a ef 0f 3a dc b7 20 3c
       0.002539692 0.007576083 0.00054906367 0.0098094605

weight f4 [128, 64, 5, 5]
000000 2c 17 21 37 94 da 32 36 1e c3 49 35 5d ce 06 35
       9.601743e-06 2.6651296e-06 7.516227e-07 5.021919e-07
000010 16 85 9e b5 69 39 a7 37 c2 2b 6a 36 3d ac 95 36
       -1.181065e-06 1.9934685e-05 3.4894188e-06 4.460597e-06
000020 7f fb 70 36 0b 2d 02 b5 5b 00 ba 37 2d 41 8d 36
       3.5909177e-06 -4.849432e-07 2.2173093e-05 4.209715e-06
000030 48 06 79 36 b3 44 b5 36 4a 80 f3 36 fc 9a ef 36
       3.7107548e-06 5.402218e-06 7.256899e-06 7.1407976e-06
000040 a3 95 ce b5 7c ce 24 b7 14 f9 d9 b6 39 1e 44 36
       -1.5391746e-06 -9.823238e-06 -6.4961005e-06 2.9223868e-06
000050 ad 18 ea 37 5f 19 67 35 4b 8c 9a b7 3d 42 c7 b7
       2.7906464e-05 8.6091126e-07 -1.842356e-05 -2.3753493e-05
000060 b5 03 4d b4 ff 3d 2b b7 83 0f 8b b6 c3 41 4f 35
       -1.9093461e-07 -1.0206829e-05 -4.1443286e-06 7.7209205e-07
000070 87 8c 1a b6 fe 0a ab 37 0e a8 59 b5 10 b8 45 b7
       -2.3029586e-06 2.0389907e-05 -8.108335e-07 -1.178497e-05
000080 f8 5a e5 b6 f1 1f 01 b7 31 96 82 37 87 67 8e 36
       -6.835322e-06 -7.696436e-06 1.5567146e-05 4.243982e-06
000090 85 5b 69 b6 a1 a1 4f b7 da 27 2e b7 0c e0 8e 37
       -3.4772977e-06 -1.2375794e-05 -1.0380487e-05 1.7032049e-05
0000a0 1e 20 d6 b4 4c 23 97 b7 b3 1c 56 b7 63 8a 1b b7
       -3.9883975e-07 -1.801704e-05 -1.2762076e-05 -9.270941e-06
0000b0 a8 6a 41 37 9c 4d 46 36 66 e0 10 b8 ed 1e 17 b8
       1.1528529e-05 2.9549474e-06 -3.4541263e-05 -3.6030007e-05
0000c0 d8 57 58 36 d1 ba c4 36 9e b5 1f b5 61 d4 b6 b4
       3.223764e-06 5.8630035e-06 -5.9496404e-07 -3.4054668e-07
0000d0 d0 49 ec b4 75 17 19 37 b3 be 8b 36 1f 4f 72 b5
       -4.401213e-07 9.124972e-06 4.164723e-06 -9.026716e-07
0000e0 9c 54 0a b7 3a 96 1c b7 dd 13 82 36 46 46 5c b5
       -8.245141e-06 -9.333302e-06 3.8766143e-06 -8.205865e-07
0000f0 f5 ea cf 34 80 95 13 36 26 d9 24 b6 e9 cf 89 36
       3.8727708e-07 2.1991727e-06 -2.4564301e-06 4.107122e-06
000100 3e 27 6b b6 ac 77 de b6 2c 54 f1 b5 39 b4 ad b6
       -3.504057e-06 -6.630047e-06 -1.7980396e-06 -5.1767825e-06
000110 3b 0c 8d b4 47 36 06 36 7e 87 d1 b6 33 da 1c b7
       -2.6272195e-07 1.999915e-06 -6.2444587e-06 -9.349128e-06
000120 e1 9c 27 b6 c5 44 09 36 b8 7d 7a 34 ad e6 d8 b6
       -2.4976255e-06 2.045462e-06 2.33288e-07 -6.464156e-06
000130 d6 44 89 b6 f7 12 92 b6 38 c5 b0 b6 91 a3 f4 b6
       -4.0909317e-06 -4.353347e-06 -5.268168e-06 -7.2908083e-06
000140 e2 18 e5 b5 bd 9a 4e b6 8f 12 a1 b6 60 e8 a2 b6
       -1.7069071e-06 -3.0786462e-06 -4.8003344e-06 -4.8550282e-06
000150 15 6b b6 b6 5e af 41 b5 15 0b 17 b5 12 7a 69 b5
       -5.4364887e-06 -7.2153296e-07 -5.626801e-07 -8.69769e-07
000160 d5 28 0a b5 b0 fd 92 b5 d7 ab c0 b5 e5 4d e1 b5
       -5.1468425e-07 -1.095168e-06 -1.4355127e-06 -1.6786477e-06
000170 4e 8d a3 b5 43 92 9b b5 a0 e7 d6 b5 e6 b9 5d b6
       -1.2185571e-06 -1.1590968e-06 -1.6011654e-06 -3.3039773e-06
000180 94 ac fe b6 2c a0 1f b7 8f b3 c9 b6 43 af d0 b6
       -7.5898806e-06 -9.514431e-06 -6.01117e-06 -6.219286e-06
000190 bf 3d 29 35 0e 48 a5 b5 f5 fd 3c b4 e7 b0 ad b6
       6.304726e-07 -1.2314429e-06 -1.7601253e-07 -5.176396e-06
0001a0 cb d6 0c b5 f1 5d cf 36 30 d9 7d b4 64 19 86 b6
       -5.246663e-07 6.180017e-06 -2.3641473e-07 -3.996467e-06
0001b0 2e 04 c6 35 2f 5f f8 32 c9 b1 e5 35 c5 fb 98 b7
       1.4753366e-06 2.8914284e-08 1.7113572e-06 -1.8237051e-05
0001c0 18 2e ed b6 44 a0 84 b6 0f 65 e2 35 a8 0e 98 36
       -7.0685164e-06 -3.952564e-06 1.6867724e-06 4.531659e-06
0001d0 90 dd 9a b6 59 74 83 b7 96 e0 cb b5 85 17 94 36
       -4.615351e-06 -1.5670596e-05 -1.5190042e-06 4.4134817e-06
0001e0 29 75 21 37 f6 9e 17 b7 4a c7 cc 35 ea 22 a4 37
       9.623626e-06 -9.037312e-06 1.5257185e-06 1.9566582e-05
0001f0 0c 07 0f b7 58 c2 1d 36 99 33 0b b5 b5 21 9a b5
       -8.525105e-06 2.3507946e-06 -5.185662e-07 -1.1483704e-06
000200 40 fb ce b5 2d 38 00 b7 c5 d1 94 36 5f 15 30 36
       -1.5421319e-06 -7.642474e-06 4.435164e-06 2.6238483e-06
000210 8a c5 53 b6 c2 41 b6 35 2f 93 12 35 13 59 ff b5
       -3.1556433e-06 1.3579195e-06 5.460342e-07 -1.9024905e-06
000220 62 49 7c b6 09 c5 a1 b7 ce 8b 8d b7 21 72 1e b7
       -3.759364e-06 -1.9284447e-05 -1.6873611e-05 -9.444107e-06
000230 ed f1 02 b7 5d 41 05 b8 2e 36 32 b7 98 23 05 38
       -7.804932e-06 -3.1770545e-05 -1.06222415e-05 3.174282e-05
000240 e1 c9 87 36 41 75 77 37 90 dc eb 37 6e 07 21 38
       4.0468153e-06 1.4749648e-05 2.811689e-05 3.839231e-05
000250 8b 07 a8 b7 d2 24 b3 b7 2c 5c af 32 4f cc a6 32
       -2.0030673e-05 -2.1355609e-05 2.0414596e-08 1.9417852e-08
000260 12 64 8d b3 89 4e e3 30 21 f9 59 b3 e5 88 f9 32
       -6.584027e-08 1.6538745e-09 -5.075083e-08 2.9049668e-08
000270 ce 63 23 32 7a 4b eb 30 a5 75 a7 32 94 d9 d5 b3
       9.510542e-09 1.7119952e-09 1.9494857e-08 -9.958163e-08
000280 34 3b a5 34 79 ae 38 33 c2 2c 88 b3 fd 34 20 b4
       3.077672e-07 4.299952e-08 -6.341135e-08 -1.4920438e-07
000290 77 99 39 31 7a 0e f7 b3 2d 3e 01 34 e3 c9 48 33
       2.7008278e-09 -1.1504467e-07 1.203668e-07 4.6749744e-08
0002a0 c5 e8 39 33 47 b7 b2 32 8a f6 a1 b4 0a 64 61 b3
       4.328537e-08 2.0805272e-08 -3.0167968e-07 -5.247788e-08
0002b0 fe 17 7b b3 82 5d 46 34 7a 0c 84 34 84 e7 2e 38
       -5.8462312e-08 1.8474205e-07 2.4595994e-07 4.170045e-05
0002c0 25 37 a6 36 c6 ea 17 37 69 6d a4 36 8c e1 35 37
       4.953605e-06 9.054964e-06 4.900318e-06 1.0840955e-05
0002d0 fb 2a 3f b6 4b 24 03 b8 d3 7c 1d b8 fd 9f 27 b8
       -2.8486236e-06 -3.1266634e-05 -3.754797e-05 -3.9964903e-05
0002e0 56 ab d1 b7 85 d8 b6 b7 25 6c 60 b7 ab 53 01 b8
       -2.4994526e-05 -2.1796915e-05 -1.337662e-05 -3.083392e-05
0002f0 29 a5 cc b7 c1 01 9e b6 2c c0 69 37 62 ca 19 b7
       -2.4395604e-05 -4.708971e-06 1.3932626e-05 -9.166632e-06
000300 88 7a 1b b7 24 d8 b1 b7 38 47 1f 37 14 92 80 b7
       -9.267249e-06 -2.1200693e-05 9.49372e-06 -1.5326812e-05
000310 cf 8a ad b7 0c 58 38 b7 9c 00 9e b6 60 c2 3c b6
       -2.0687845e-05 -1.0987755e-05 -4.708838e-06 -2.8127324e-06
000320 94 dc 6f 36 f4 17 86 b6 f1 7e 87 b6 f4 64 21 b7
       3.5742169e-06 -3.9962997e-06 -4.0380914e-06 -9.619853e-06
000330 f8 f0 64 b7 6a cf 0c 37 f1 b5 62 36 fb a9 4d b7
       -1.3645964e-05 8.392943e-06 3.3782528e-06 -1.2258529e-05
000340 61 32 eb b6 76 af b5 36 08 1c 46 37 8f bd 72 35
       -7.0094106e-06 5.4146467e-06 1.1808246e-05 9.042787e-07
000350 b7 38 a6 b7 f5 4e b8 b6 a3 47 8a 37 de cc 06 b8
       -1.9815152e-05 -5.492819e-06 1.648424e-05 -3.2138887e-05
000360 e4 89 10 b7 d0 c3 19 b8 5c 46 e6 b7 ff f2 4e b7
       -8.615174e-06 -3.6660407e-05 -2.74509e-05 -1.2335134e-05
000370 02 34 0c 37 c4 15 89 b7 a1 e2 f2 b7 f2 6a b3 37
       8.356759e-06 -1.6341808e-05 -2.895418e-05 2.1388263e-05
000380 66 c9 c4 37 cc fb d5 b6 20 50 e9 b6 00 83 d6 b6
       2.3458804e-05 -6.3772077e-06 -6.953269e-06 -6.3929474e-06
000390 b9 95 07 b5 22 76 1a b7 ee 88 b2 35 c1 6e 4c b5
       -5.0509294e-07 -9.20662e-06 1.3301885e-06 -7.615709e-07
0003a0 a8 03 95 b6 19 82 fa b5 2c da 43 b6 d0 4a 0d b4
       -4.4409717e-06 -1.8664315e-06 -2.9184257e-06 -1.3158865e-07
0003b0 5c fa 19 b7 6b a2 bf b7 a9 5b 8b b6 32 39 80 b6
       -9.177802e-06 -2.2844606e-05 -4.1531935e-06 -3.8213557e-06
0003c0 e2 93 54 b7 02 9b 37 b8 e1 37 84 b8 74 2f 45 b7
       -1.2670616e-05 -4.3774962e-05 -6.304659e-05 -1.1753164e-05
0003d0 de 0b 49 b7 fd 95 1a 37 49 4b c1 b7 3c a1 30 b7
       -1.1983297e-05 9.214037e-06 -2.304245e-05 -1.0527958e-05
0003e0 28 9e 00 37 6c 4e c7 37 a5 e6 08 b5 77 b3 89 b5
       7.666218e-06 2.3759167e-05 -5.099958e-07 -1.0259527e-06
0003f0 dd 1a 0e 36 8f 98 7f 35 a8 bf 00 b6 ba 6a 84 b6
       2.1175285e-06 9.5216905e-07 -1.9185045e-06 -3.946331e-06

bias f4 [128]
000000 63 1a 50 b8 71 04 1f bc ce 9c 6d bd b7 ba a4 b2
       -4.961564e-05 -0.009705649 -0.05801087 -1.917702e-08
000010 14 be e3 bd c3 98 fc bd 24 e4 22 be cb d1 34 bd
       -0.11120239 -0.123338245 -0.15907341 -0.044145387
000020 00 17 b0 bc c1 09 7e ba c0 34 58 04 d5 18 a2 bb
       -0.021495342 -0.00096907845 2.54149e-36 -0.004946808
000030 ab 1c 66 bd 16 c5 66 bd 75 a3 d0 b5 48 8d d2 bd
       -0.056179684 -0.0563403 -1.554478e-06 -0.102808535
000040 43 43 87 bd b7 f0 ff 3a 68 17 bd bd 53 44 84 3a
       -0.06604626 0.0019526695 -0.0923298 0.0010091163
000050 5b 2a 32 be 79 24 7e bd fc 96 cc bc d8 e7 a6 3a
       -0.1739897 -0.0620465 -0.024974339 0.001273389
000060 39 02 00 80 57 54 c3 39 f9 79 3b bd c8 b4 64 bc
       -7.97e-43 0.00037256136 -0.04577062 -0.013959117
000070 11 04 e2 39 7f 1e b2 bd 75 e2 0d be 30 ba a4 bb
       0.0004310911 -0.08697223 -0.13855918 -0.005027078
000080 35 4d e9 3a f9 5f af ba f7 fa 31 bd 45 3c f0 b7
       0.0017799499 -0.0013380043 -0.04345223 -2.8638295e-05
000090 6a ca e7 bc ad e8 4a b8 1a 64 d7 bb 0c 67 ab bd
       -0.02829476 -4.837725e-05 -0.0065732123 -0.08369264
0000a0 af b4 52 bb fd c5 04 be be f4 4b bc 8d 3f 96 ba
       -0.0032151153 -0.12966152 -0.012448488 -0.0011463031
0000b0 f6 61 b7 bd 8e 2b e1 bc 20 87 50 bd 7c 54 fe bd
       -0.089542314 -0.027486589 -0.050910115 -0.12418458
0000c0 f0 2d 31 be 41 9c 8a bd 12 d4 54 bc aa 89 c8 bd
       -0.1730268 -0.06768084 -0.012990015 -0.09791882
0000d0 2c 1d 42 be 4e 45 fc 3b 51 b1 c1 3c 56 63 99 b5
       -0.1895644 0.0076986915 0.023644121 -1.1428299e-06
0000e0 ee 07 8d bd e4 20 f6 ba 44 49 f7 bd 6a 1c 93 bd
       -0.06886278 -0.0018778113 -0.12074521 -0.07183154
0000f0 0a 49 23 be fb f0 65 bc af 61 cf bc 74 df 86 bc
       -0.15945831 -0.014034505 -0.025315134 -0.016463973
000100 e2 b9 1c be a9 d8 fb bb e9 71 56 bc 8e ef 0a ba
       -0.15305284 -0.00768574 -0.013088682 -0.00052999787
000110 42 a8 44 bd 6f 4c c5 ae 0c 26 a1 3a 29 85 8e bc
       -0.048012026 -8.9721e-11 0.0012294664 -0.01739748
000120 a8 01 00 80 b4 57 8e ba 3b 2a 97 ad fc 0d 15 bd
       -5.94e-43 -0.0010859878 -1.7185467e-11 -0.03639029
000130 aa 2e af bd ef 52 9c bd d7 4b 9e bb 94 ce a4 bb
       -0.08553822 -0.07633006 -0.004830818 -0.005029509
000140 70 77 d2 bc 7a 5b be bd 87 fb 05 bb 16 29 d7 bc
       -0.025691718 -0.092947915 -0.0020444111 -0.026264708
000150 95 08 0a be eb 7e 86 bd ec de 55 bc 92 01 8e bd
       -0.13479836 -0.065671764 -0.013053637 -0.06933893
000160 ce 89 4b bc 9b 16 17 bd 26 ea ae bc f4 35 46 be
       -0.012422992 -0.036886793 -0.021351885 -0.19356519
000170 b8 8b f3 b8 a4 b9 96 bd f2 46 d2 bc a5 cd 3b 3b
       -0.000116131676 -0.07359627 -0.025668595 0.002865651
000180 0c d4 bb bd d7 d3 ab bd 24 fa b1 b6 78 71 1a bb
       -0.09171304 -0.083900146 -5.3041313e-06 -0.0023566168
000190 7f 03 e1 b9 0e 96 3b bd 4a fd a3 bc f3 fa ae bd
       -0.0004291795 -0.0457974 -0.020018239 -0.085439585
0001a0 de db ce bd f9 bb bb bd 12 5d b5 bc df 1f 0a bd
       -0.1010053 -0.09166712 -0.022139106 -0.0337218
0001b0 ca 63 a2 3a c6 48 05 80 e5 ac f1 ba 0b 95 09 bb
       0.0012389359 -4.85284e-40 -0.0018438367 -0.0020993378
0001c0 d1 2a 3c bb ed 34 65 36 79 ba 31 bd f5 d9 c8 bc
       -0.0028712044 3.4154466e-06 -0.043390725 -0.024517993
0001d0 aa 65 f5 b9 54 c9 b5 bd 3e 11 c4 bc 14 7c 58 bc
       -0.00046805787 -0.08876291 -0.023934003 -0.013213176
0001e0 b4 58 c9 bc 07 e6 9a bd ca 5d 1f bd fc 62 67 b9
       -0.02457843 -0.075634055 -0.038907804 -0.00022066751
0001f0 02 2c be bd 17 c7 bb bd 7b c4 46 bd 96 30 8a 3b
       -0.092857376 -0.09168833 -0.048527222 0.0042172177

weight f4 [128]
000000 ec f3 01 3c 5b 35 6e 3d dd 35 3b 3f 9d 41 80 39
       0.007931691 0.058156352 0.73129064 0.00024462948
000010 39 53 08 3f bd 40 e1 3e 50 7a 1b 3f ce 45 d9 3e
       0.5325199 0.43994704 0.6073351 0.4243607
000020 f5 de 90 3e 18 6c 05 3b ba b2 68 86 69 c7 06 3d
       0.28295103 0.0020358618 -4.3765658e-35 0.032905016
000030 de dd 31 3e 23 41 a4 3e 20 7a fc 39 fa fa 0d 3f
       0.17369792 0.32080945 0.00048156176 0.55461085
000040 dd f4 65 3f 8f 78 14 39 1f 39 ec 3e 9f ec 83 3b
       0.89826757 0.00014159291 0.4613733 0.00402601
000050 85 71 0b 3f 04 2c 80 3e 5e 78 80 3e d2 cf 01 bb
       0.5447009 0.2503358 0.25091833 -0.0019807708
000060 85 01 00 00 4a c7 51 3a cc ad 8c 3e 43 2f 52 3e
       5.45e-43 0.00080024137 0.27476346 0.20525841
000070 18 a2 ad 38 2d e3 d7 3e f8 70 e0 3e d6 dc 91 bb
       8.279475e-05 0.4216551 0.43836188 -0.0044513745
000080 f7 12 7a 3a e6 67 a9 3c 4f e1 06 3f 82 54 75 3b
       0.0009539569 0.020679425 0.52687544 0.0037434404
000090 47 ef e5 3e 81 74 47 38 84 cf b4 3c 61 ff 2b 3f
       0.44909117 4.75538e-05 0.022071607 0.6718655
0000a0 5a d1 fb ba 18 ef 3c 3f 96 42 28 3d 14 f2 5a 3b
       -0.0019212172 0.7380233 0.041079126 0.003340845
0000b0 06 94 00 3f 68 d9 10 3e 22 e0 bb 3e 9c 84 55 3f
       0.50225866 0.14145434 0.36694437 0.8340547
0000c0 01 4c 61 3f f8 47 89 3e 55 c5 26 3e db e1 2e 3f
       0.880066 0.2681272 0.16286214 0.6831338
0000d0 e6 f9 2a 3f 7b cf bc 3d 23 e4 8f 3e 34 92 1e 3b
       0.66787565 0.09219261 0.28103742 0.002419603
0000e0 c5 b9 24 3f 0f 82 fa ba 35 16 02 3f 35 2a 37 3f
       0.6434596 -0.0019112247 0.50815135 0.7154878
0000f0 db 62 76 3f 17 e2 65 3e a3 b9 38 3f f9 5a a5 3d
       0.9624459 0.22449528 0.7215826 0.08073992
000100 3c 2d 5a 3f bf cc 62 3c d0 56 98 3e 3f 25 b0 ba
       0.8522527 0.013842761 0.29753733 -0.0013438835
000110 cd 41 15 3f 4b 0f f6 35 04 7d 12 3f 70 1e 4b 3e
       0.5830353 1.8332879e-06 0.5722201 0.1983583
000120 e4 00 00 80 55 b9 8a 3b f5 44 85 32 dc 0c d3 3e
       -3.2e-43 0.004233519 1.5514596e-08 0.41220748
000130 26 eb 30 3f 9f 24 5e 3f f4 09 71 3b 1a 73 0d 3b
       0.6910881 0.8677463 0.0036779614 0.0021583498
000140 aa 7e a6 3e 62 03 67 3f 7d 67 69 b9 ba 2f a4 3d
       0.32518512 0.90239537 -0.00022259164 0.080169156
000150 1e 9e 58 3f 89 94 01 3f 19 a4 ed 3d eb 5f 19 3f
       0.8461627 0.5061727 0.11603565 0.59911984
000160 7b 21 24 3e cb 97 f4 3e 2b 81 46 3f 28 c0 73 3f
       0.16028397 0.4777206 0.77540845 0.9521508
000170 57 a2 c8 bb 63 ef 02 3f 7b bb 32 3f e4 99 05 3e
       -0.006122868 0.51146525 0.6981732 0.13046986
000180 94 2a 2a 3f d8 83 06 3f 01 3b 10 3b cf 50 9c 35
       0.6647122 0.5254493 0.0022007825 1.1646424e-06
000190 69 bd 25 3d 62 5b 1b 3f c5 2e 10 3f 36 74 40 3f
       0.04046384 0.60686314 0.56321365 0.75177324
0001a0 d2 29 2c 3f 06 bf 4d 3f 91 d6 10 3f d0 cc 0b 3f
       0.6725131 0.80369604 0.565774 0.54609394
0001b0 6e 89 e0 ba 74 c0 63 00 6d d5 67 3a ca 39 a9 b9
       -0.0017130801 9.160753e-39 0.00088437536 -0.00032277248
0001c0 ae ed d2 3a c3 28 0d b8 d3 ea a8 3e 84 d5 77 3d
       0.0016092563 -3.3654982e-05 0.32991657 0.06050636
0001d0 6f c3 01 3d f4 2c 1e 3f 85 bc 2f 3e b7 50 b6 3e
       0.03168052 0.61787343 0.17161758 0.35608456
0001e0 86 40 39 3e ec d7 04 3f 7b 02 ab 3e ea db 8e 3b
       0.1809102 0.5189197 0.3340033 0.004359712
0001f0 2e fc e4 3e 82 dc 20 3f 7a 6f f1 3e 41 65 e5 3e
       0.44723648 0.6283647 0.47155362 0.44803813

bias f4 [128]
000000 1e 19 2e 3a 6b 5c 1b 3e 78 23 18 be cf d0 f7 37
       0.0006641316 0.15171973 -0.1485728 2.9541929e-05
000010 72 2e 40 be 9b 5a 41 be 07 63 50 be 5e a8 2d 3e
       -0.18767717 -0.1888222 -0.20350276 0.16958758
000020 1f 71 49 3e ad 68 a9 bc d0 08 89 34 e5 26 14 be
       0.19672059 -0.020679796 2.552465e-07 -0.14467962
000030 15 45 5b be 41 7f 4a 3e f7 c8 11 b8 61 e4 09 be
       -0.21413071 0.19775106 -3.4757857e-05 -0.13466026
000040 79 49 57 3e 10 87 02 3e 9b 54 20 be f9 19 76 3d
       0.21024121 0.12746835 -0.15657274 0.060083363
000050 71 f5 49 be 10 f1 3b be 4b ae 1e 3e 73 28 03 be
       -0.19722535 -0.18353677 0.15496175 -0.12808399
000060 f4 6f 80 ad 49 3e be 3d 58 3f 45 3e 6b 17 2a 3e
       -1.4601632e-11 0.09289224 0.19262445 0.16610496
000070 4c f6 40 3e 90 07 46 be 6c b2 66 be 56 04 cf bd
       0.18843955 -0.19338822 -0.22529 -0.10108249
000080 95 8d 27 be 1d e8 7a 3d ae 7a 3d 3e 95 f2 e2 b8
       -0.16362603 0.061256517 0.1850383 -0.00010821704
000090 ae 19 29 3e d2 ed 4e bc 13 5c 10 3e 75 80 22 be
       0.16513702 -0.012629943 0.14097624 -0.15869315
0000a0 cf 49 be 3d f0 7f 3a be 79 6f 2d 3e bc 6f 2f 3e
       0.092914216 -0.18212867 0.16937055 0.17132467
0000b0 07 48 04 be 6d 9c 16 3e 9d 85 e4 bd 19 9d 20 be
       -0.12918101 0.14708109 -0.11158297 -0.15684928
0000c0 a2 3e 34 be 4a cf 23 be 52 a5 a4 bd 41 4f 3e be
       -0.17602018 -0.15997043 -0.08039345 -0.1858492
0000d0 55 02 47 be 9e 2c 13 3e 26 c8 1d 3e 7a 7c 51 3a
       -0.19434483 0.14372489 0.15408382 0.0007991266
0000e0 7d 34 4a be e8 87 cf 3d ca 4f 47 be 55 10 32 3e
       -0.19746585 0.10133344 -0.19464031 0.17389043
0000f0 8f 43 41 be 9e ad 00 3e d0 43 3f 3e 46 99 21 3e
       -0.18873428 0.1256623 0.18678212 0.15781125
000100 fa d9 3b be 4d 0f 08 3e bc 84 1d 3e 11 09 0a 3d
       -0.1834487 0.13287087 0.15382665 0.033700053
000110 20 14 3b 3e b8 2b 3f 34 be f6 24 be c0 a3 9a bd
       0.18269396 1.7804166e-07 -0.1610975 -0.07550764
000120 fa 19 8a b4 34 e5 13 3e ec 3e 2d b5 ff 5f 3b 3e
       -2.5723403e-07 0.14442903 -6.4539086e-07 0.18298338
000130 7b 99 0c be 92 f6 24 be 6e 67 3d 3e a2 e4 1d 3e
       -0.13730423 -0.16109684 0.18496487 0.15419248
000140 a7 47 c5 bd 15 85 46 be 1e 8b 14 3e dd 9d 08 3e
       -0.09632807 -0.19386704 0.14506194 0.1334147
000150 19 d9 35 be 08 45 40 3e bd e4 27 3e 96 f5 33 3e
       -0.17758597 0.18776333 0.1639585 0.17574152
000160 0d 94 04 3e 14 00 a8 bd 17 98 36 be 73 6a 4f be
       0.12947102 -0.0820314 -0.17831455 -0.20255451
000170 21 26 c8 3c a3 03 dd bd ba 37 38 be 64 75 81 3d
       0.024432244 -0.10791709 -0.17990008 0.063212186
000180 1c 63 23 be 0b 60 41 be 61 b9 01 3e d4 34 2a 3e
       -0.15955776 -0.18884294 0.12668373 0.16621715
000190 7f ac 31 bc 69 30 49 3e f5 c4 2e 3e f3 49 53 3e
       -0.010844349 0.19647373 0.1706732 0.20633678
0001a0 25 25 19 be 99 dd 4b 3e fe 56 50 3e b3 0b 33 3e
       -0.14955576 0.19908752 0.20345685 0.17484932
0001b0 a6 78 55 be 32 9c 48 b6 65 9d a1 bd 3d 21 2f be
       -0.20846805 -2.989324e-06 -0.07891349 -0.17102523
0001c0 81 3a ef bc 27 6a 0a ba 9e 5e 48 3e 05 3a 41 3e
       -0.029202702 -0.00052801 0.19567344 0.18869789
0001d0 2d 9a d7 3d 80 38 29 be 34 d2 d3 bd b8 87 a5 bd
       0.105274536 -0.1652546 -0.103428274 -0.08082527
0001e0 13 72 0f 3e d3 5c 1c be 41 15 0a 3e d7 c5 9e 3d
       0.1400836 -0.15269785 0.1348467 0.07752579
0001f0 6d 64 49 be c8 10 1d be 47 a6 19 be 34 6d 13 3e
       -0.19667216 -0.15338433 -0.15004836 0.14397126

running_mean f4 [128]
000000 71 07 f8 37 ad 8a ae 3d f5 ed 3a 3c dd 90 21 37
       2.9567369e-05 0.08522544 0.011409272 9.630076e-06
000010 77 7f 4a bc 52 e0 80 3d ee cf 30 bb 7c e6 28 3d
       -0.012359492 0.06292786 -0.0026979405 0.041235432
000020 19 95 0c 3e 49 fc 69 3c ee 89 b2 05 dc c0 9f 3e
       0.13728751 0.014281341 1.6789707e-35 0.31201828
000030 0b 4d 90 3d de 7a 18 3c af 88 a0 34 fb 28 80 3a
       0.07045945 0.009306638 2.9901773e-07 0.0009777838
000040 64 75 5a 3c 01 84 56 3e 85 1f 68 3d e4 4f c9 3d
       0.013333652 0.20948793 0.056670684 0.09829691
000050 82 34 56 bc fc db 72 bb 3b 32 ac 3c ba 59 13 3e
       -0.013074042 -0.003705739 0.021020046 0.14389697
000060 93 0c 00 00 13 aa b5 3d ae 73 fa bb 9c 95 fc 3d
       4.511e-42 0.0887033 -0.0076431846 0.12333223
000070 65 d8 a0 3d 10 fa e6 bc e6 bd 42 bc 3e 6b 0b 3d
       0.07853774 -0.028195411 -0.011886096 0.03403782
000080 da 91 44 3e 64 9c 14 3e 6f 8a 98 3d c6 fa eb b6
       0.19196263 0.14512783 0.07448279 -7.0327396e-06
000090 9d f5 d7 3d 65 98 13 b7 47 83 d3 3d ea a7 0b 3d
       0.10544894 -8.797365e-06 0.103277735 0.034095682
0000a0 06 60 70 3c f6 01 ab bc f5 48 c9 3b 7a 4c 23 3c
       0.014671331 -0.020874958 0.0061427304 0.009966964
0000b0 f3 c7 95 bb d2 5e 57 3d be a4 2b 3e 2f 88 e5 ba
       -0.004570955 0.052580662 0.16762063 -0.0017511899
0000c0 cd 2c a4 3c b0 2a 36 3d 88 7f 09 3e fc 8c 2f 3d
       0.020040894 0.044474304 0.13427556 0.042859063
0000d0 71 0a 94 bc 89 4c 44 3e 31 08 90 3e 31 65 03 3a
       -0.018071385 0.19169821 0.2813125 0.0005012332
0000e0 c5 89 88 3c 12 0d 02 3e 14 05 d0 bc de 3c ba bc
       0.016667256 0.12700298 -0.025393046 -0.022734102
0000f0 b1 dd b3 3c 1d a6 24 3e 90 57 67 3e 78 ec 72 ba
       0.021956297 0.16078992 0.22591996 -0.0009266804
000100 a4 76 7d bc 7f a6 2b 3b d4 7e ee 3d f2 62 04 3d
       -0.015470181 0.0026191769 0.11645284 0.032320924
000110 f2 22 fd 3c 16 13 bc 2e 34 45 fa 3d e1 9e 8a 3e
       0.030900452 8.5526405e-11 0.12220231 0.2707434
000120 9e 0e 00 00 9f 0d a9 3d 7f ad 1d 2d 51 33 c5 3d
       5.244e-42 0.08254551 8.962941e-12 0.096289285
000130 a3 e3 15 bb 2a 83 95 3b 98 74 17 3d f1 4a 89 b9
       -0.0022871278 0.004562755 0.036976427 -0.00026186512
000140 0d ee 22 3e 9d 28 a7 3b 3f 3d 7d 3a 67 7f 19 3b
       0.15911122 0.005101277 0.00096603105 0.0023421885
000150 93 e8 ab 3c 2f a1 02 3d 03 90 70 3d 53 21 e0 3c
       0.020984923 0.031891998 0.05873109 0.02735964
000160 f1 75 dd 3d 10 a2 79 3d 4a 1c cc 3c 09 d8 ae bc
       0.10813511 0.06094557 0.024915833 -0.021343248
000170 27 d5 8d 3c 1b 9d 9a 3d e4 e3 82 3e fc 4f d0 3d
       0.017313553 0.07549497 0.25564492 0.10171506
000180 fe f4 85 3b 85 02 d1 bc 01 79 cc 3d 59 89 ac 3d
       0.0040880432 -0.025513897 0.09984017 0.084246345
000190 36 89 0e 3d 1e 44 9b 3d f1 05 ef 3c ad 40 9e 3d
       0.034798823 0.07581352 0.029177638 0.0772718
0001a0 8b 3c ac 3d 0f 8d 1b bc 04 5f 6c 3c c7 e4 08 3d
       0.08409985 -0.00949408 0.01442695 0.033421304
0001b0 55 39 3d 3e 37 b2 21 00 c5 ea 7f 3d ab 32 18 3e
       0.18478902 3.094503e-39 0.062479753 0.14863078
0001c0 13 6f ba 3c aa 28 c0 39 04 bf a5 3c 68 66 bc 3c
       0.022758042 0.0003665139 0.020232685 0.02299805
0001d0 04 5c c8 3d e0 30 39 3c 43 54 23 3e f7 1b a8 3e
       0.097831756 0.011303157 0.15950112 0.32833835
0001e0 9a 8e c0 3d 05 00 17 3d ee a5 b5 3c 14 78 85 3d
       0.09402199 0.036865253 0.022173848 0.06517044
0001f0 ce ec c9 bc 5e 3f 64 3d 9b 14 70 3e 5d 0c 75 3e
       -0.02464905 0.055724494 0.2344536 0.23930497

running_var f4 [128]
000000 20 f7 53 33 22 34 94 3d c3 20 7b 3d 75 ea 81 30
       4.9352025e-08 0.07236506 0.06131054 9.452622e-10
000010 87 31 d2 3c ed e0 1c 3e 3d 7b 58 3d f1 63 82 3d
       0.025658382 0.15320177 0.052851904 0.063667186
000020 ff ff 4a 3e 97 66 81 3a 04 00 00 00 c8 61 53 3e
       0.19824217 0.0009872493 6e-45 0.2064277
000030 cb 52 62 3d 14 37 fc 3c e1 81 a8 2e 97 28 1e 3d
       0.05525474 0.030787982 7.6628266e-11 0.03861293
000040 5e 84 89 3d bd 26 78 3d 3a bc 12 3e 55 ee 6b 3c
       0.067147 0.06058382 0.14329615 0.0144000845
000050 4f d0 81 3c c3 a3 8a 3c dd 4c 00 3d 09 31 0b 3d
       0.0158464 0.01692379 0.031323303 0.03398231
000060 04 00 00 00 17 87 55 3c a9 b0 34 3c af 8f 1d 3e
       6e-45 0.013032696 0.011028447 0.15386842
000070 78 1a e1 3c 78 0e 05 3b 13 34 86 3c 61 92 f0 3b
       0.027478442 0.0020302814 0.016382253 0.0073416685
000080 7b ae b4 3d 77 b2 1e 3d ba cd 2a 3e 97 8a e0 2f
       0.08822342 0.038744416 0.16680041 4.0843837e-10
000090 33 f4 1b 3e 6d 1c 66 2f 14 f7 59 3d 27 da b1 3d
       0.15229873 2.0928477e-10 0.053214148 0.086841874
0000a0 45 8f 16 3b e9 c3 f0 3b ee ec b3 3b 9b a7 9a 3a
       0.002297358 0.007347573 0.0054908907 0.0011799218
0000b0 86 2f 9f 3c eb b6 7a 3d cd c0 1e 3e 20 b0 fc 3c
       0.01943184 0.0612096 0.15503235 0.030845702
0000c0 32 4b aa 3d 8e f0 a8 3d 6c 8d f6 3d 44 c3 b1 3d
       0.083151236 0.08249007 0.12038693 0.08679822
0000d0 24 a7 bd 3c 2f 4d 1f 3e 1c ad ad 3e 2e c6 05 35
       0.023150988 0.15556787 0.33921134 4.983475e-07
0000e0 54 a3 a5 3d ed f3 0b 3d cf 39 aa 3b 91 ee e1 3b
       0.08087793 0.034168173 0.0051948796 0.0068948944
0000f0 65 45 e4 3d c0 6b 24 3e 29 52 dd 3e b6 a5 26 3b
       0.111460485 0.16056728 0.43226746 0.0025428361
000100 0b 7e 63 3c d0 7d 9b 3a 4e b5 f0 3d a2 49 41 3b
       0.013885031 0.0011863057 0.11753331 0.0029493351
000110 d7 b6 8f 3d 35 c3 2f 20 a9 59 04 3e 9a 8b 85 3e
       0.07017296 1.4887665e-19 0.12924828 0.2608307
000120 04 00 00 00 78 c5 91 3c 57 48 f5 1d 0e 11 42 3e
       6e-45 0.017794356 6.4925758e-21 0.18951818
000130 81 d4 4c 3c 25 e4 58 3d ef 73 06 3c 96 17 04 39
       0.012501837 0.05295195 0.008206352 0.00012597287
000140 03 79 67 3e b5 c4 80 3d 1e af 73 38 fc ee af 3b
       0.22604756 0.06287519 5.8098805e-05 0.0053690653
000150 bb 28 74 3d 5c 43 96 3d 73 bc 69 3d f5 fd 88 3d
       0.059609156 0.073370665 0.057064485 0.066890635
000160 20 2b f8 3d 5d 5d c4 3d 49 6a 75 3d 36 cc 77 3c
       0.121176004 0.0958812 0.059915815 0.015124371
000170 40 16 b6 3a 91 7c 16 3e 41 b1 37 3e 68 04 6a 3d
       0.0013892129 0.14695956 0.17938711 0.05713311
000180 cb 9b 49 3d 2b 5f 52 3b 61 e5 a7 3c a2 aa ba 3c
       0.04922084 0.0032100182 0.020495119 0.022786442
000190 81 a7 28 3b de cd a5 3d af 08 80 3d c6 af 43 3e
       0.0025734606 0.08095907 0.06251656 0.19110021
0001a0 f5 b1 07 3e 0f 32 0e 3d ab 8a 51 3d b0 64 9c 3d
       0.13251479 0.03471571 0.051157635 0.07636392
0001b0 28 ba 68 3d 04 00 00 00 bb a9 24 3c 33 a0 54 3d
       0.056818157 6e-45 0.0100502325 0.05191059
0001c0 25 29 5a 3b 08 11 7a 34 db 88 2b 3d 93 9c b1 3c
       0.0033288684 2.328926e-07 0.041878562 0.021681106
0001d0 c1 d0 51 3d e0 ce 7c 3d 00 fc 15 3e 31 39 c5 3e
       0.051224474 0.06172073 0.14646912 0.38520196
0001e0 ea 94 b4 3d 2e 95 00 3e c4 ee 0f 3d e2 3d ee 3b
       0.088174656 0.12556908 0.035139814 0.0072705606
0001f0 f8 19 47 3b bf 64 2f 3e e3 d6 00 3f a2 c9 82 3e
       0.0030380469 0.17128275 0.5032789 0.2554446

weight f4 [1, 128, 1, 1]
000000 59 3d 05 38 83 e3 34 be 2a ae 92 3e b8 b2 a3 b7
       3.1766805e-05 -0.17664914 0.28648502 -1.9514337e-05
000010 10 18 ed 3e f3 c3 d7 3e 63 c5 0d 3f 7d 4e a2 be
       0.4630742 0.42141685 0.55379313 -0.31700507
000020 e6 c6 c6 be bd 8a a4 3c 02 3b 4c b5 92 a3 0e 3e
       -0.38823622 0.020085687 -7.608179e-07 0.13929585
000030 e3 cb e7 3e 64 d3 d2 be e8 c5 87 36 26 06 54 3e
       0.4527274 -0.41176903 4.046353e-06 0.2070547
000040 15 f5 1a bf dd ec f9 bd 5e 53 85 3e 86 77 5e bd
       -0.60530216 -0.12203381 0.26040167 -0.054313205
000050 5c df e1 3e 7a 3f c6 3e d5 f4 56 be bb 8e 0b 3e
       0.44115722 0.38720304 -0.20991834 0.13628666
000060 8b 54 91 2e 19 8f af bd 2f 4e af be 8b 13 59 be
       6.6088544e-11 -0.085722156 -0.34239337 -0.21198861
000070 54 ac 36 be 68 e8 e7 3e cc 3a d2 3e 72 09 c7 3d
       -0.17839175 0.452945 0.41060483 0.097185984
000080 c5 cd 1f 3e 86 de 4b bd 69 44 ce be 89 da a6 37
       0.15605839 -0.04977276 -0.40286568 1.9890505e-05
000090 c1 67 66 be 65 df 07 3c af d6 1b be 0a ac 9a 3e
       -0.22500516 0.0082930075 -0.15218614 0.3020938
0000a0 08 01 aa bd a1 74 d2 3e 10 8c 54 be 67 b0 69 be
       -0.08300978 0.41104606 -0.20756555 -0.22821198
0000b0 b5 32 62 3e 79 f7 46 be 2c b2 16 3e 47 c0 91 3e
       0.22089656 -0.19430341 0.14716405 0.28467008
0000c0 b0 9a bd 3e 89 25 7e 3e d8 ae 77 3d c8 ac e6 3e
       0.3703208 0.24819006 0.06046948 0.45053697
0000d0 61 21 0a 3f 84 dc 2a be 5c 1c 6d be 34 a2 a6 36
       0.5395718 -0.16685683 -0.2315535 4.9660684e-06
0000e0 4d 2c 04 3f fc 7b c4 bd 9e c4 e0 3e b0 17 be be
       0.516301 -0.09593961 0.43900007 -0.37127447
0000f0 d8 4c 00 3f eb f6 1f be aa bc d8 be 6b df 5b be
       0.50117254 -0.15621535 -0.4233144 -0.21471946
000100 4b 16 b6 3e cd b2 01 be 36 77 6e be 5b a0 08 bd
       0.35563883 -0.12665863 -0.23287663 -0.033356052
000110 e5 a2 cd be 64 a4 99 b4 a6 6a 8f 3e b9 90 8d 3d
       -0.4016334 -2.861808e-07 0.28011054 0.06912369
000120 70 f7 15 35 61 df 16 be eb 4a 96 35 68 c4 c1 be
       5.5866894e-07 -0.1473365 1.1197675e-06 -0.3784516
000130 ac 93 85 3e 94 c9 ab 3e 69 53 7e be ea eb 41 be
       0.26089227 0.3355223 -0.24836506 -0.1893765
000140 99 f7 c2 3d 12 43 f9 3e fc dc 16 be cf c5 1e be
       0.09519882 0.48683983 -0.14732736 -0.15505145
000150 15 77 c5 3e aa 7d d5 be b1 88 4a be ee a2 9f be
       0.38567415 -0.41697437 -0.19778706 -0.31178993
000160 41 35 1d be 14 b2 ad 3d 64 0d d4 3e cc b0 d8 3e
       -0.15352346 0.08481231 0.41416466 0.42322385
000170 a4 db c6 bc 87 49 04 3e 21 1c ca 3e fb 03 3b bd
       -0.024274655 0.12918673 0.39474586 -0.045658093
000180 ca 7a 9e 3e 98 ce d4 3e 05 2b e3 bd d7 f8 43 be
       0.30953056 0.4156387 -0.1109219 -0.19137894
000190 b2 56 18 3a 55 68 fa be 30 62 ba be 08 24 0c bf
       0.00058112585 -0.48907724 -0.36403036 -0.5474248
0001a0 58 00 72 3e ad 1b 02 bf ab af ea be 85 68 c2 be
       0.23632944 -0.5082348 -0.4583715 -0.37970367
0001b0 ae 8f 4e 3e 13 b4 c2 36 71 e1 91 3d b5 63 4c 3e
       0.20171997 5.802614e-06 0.07123078 0.1995991
0001c0 d6 25 e2 3c 3b d6 24 3a cc 1f e0 be e5 fe 84 be
       0.027605932 0.00062880263 -0.4377426 -0.2597572
0001d0 16 3b b5 bd 54 c1 a0 3e c4 9f dd 3d da 63 83 3d
       -0.088491604 0.31397498 0.108214885 0.064155295
0001e0 34 5c 2e be 43 5c 89 3e 78 d1 42 be 8f c7 8d bd
       -0.1702736 0.26828203 -0.19025218 -0.069228284
0001f0 65 3d df 3e 72 e2 8d 3e ad d9 71 3e 36 e3 5f be
       0.43601528 0.27711827 0.23618193 -0.21864018
