data/ball_data/model_6500.pth (torch_old, 853498 bytes, 13 tensors)

weight f4 [64, 1, 5, 5]
0	0xbda35f9c	-0.079772204
1	0x3cd1fb71	0.025632592
2	0x3caccaa8	0.021092728
3	0x3c8ae46d	0.016954625
4	0x3d323ff8	0.043518037
5	0xbdc3aec6	-0.0955482
6	0xbda37d34	-0.07982865
7	0x3e05af84	0.13055235
8	0x3d8a33e4	0.067481786
9	0x3da77d5b	0.081782065
10	0xbe1e3210	-0.15448785
11	0xbca2b52d	-0.019861782
12	0xbd930532	-0.07178725
13	0x3d8f4888	0.06996256
14	0x3d911ccc	0.07085571
15	0xbe4d2846	-0.20034894
16	0xbe15e499	-0.14637984
17	0x3d3be565	0.045873065
18	0xbcd60763	-0.02612657
19	0x3d4e87a5	0.05042233
20	0x3d2d13ba	0.04225514
21	0xbda5a518	-0.0808813
22	0x3c724935	0.014787962
23	0x3bfd58d4	0.0077315364
24	0x3cd123ae	0.025529709
25	0x3e3f121d	0.18659253
26	0xbdf3332b	-0.11874994
27	0x3d330092	0.043701716
28	0xbd0f2b75	-0.034953553
29	0x3ccd5283	0.025063759
30	0x3e026d46	0.12736997
31	0x3d69fe99	0.05712757
32	0xbdbe6f7a	-0.09298606
33	0xbdf019df	-0.117236845
34	0x3db7690f	0.08955585
35	0x3dc2df87	0.09515291
36	0x3d19b163	0.037522685
37	0xbde49f54	-0.11163202
38	0xbd60fdec	-0.05492966
39	0xbd5e4efd	-0.054274548
40	0xbdd79dd9	-0.10528154
41	0x3d0ea3bf	0.03482413
42	0xbbf5e659	-0.007504266
43	0xbd05494b	-0.0325406
44	0x3dc2ecd2	0.09517826
45	0x3b63dce7	0.003476912
46	0x3dbc4264	0.091923505
47	0x3a1326b3	0.00056133716
48	0xbd7a01b8	-0.061036795
49	0x3c45064d	0.012025428
50	0x3ddc04dd	0.10743115
51	0x3d49d156	0.049271904
52	0xbc2167eb	-0.009851436
53	0xbdca6aa1	-0.09883619
54	0x3ab31bd5	0.0013664911
55	0xbd1e110d	-0.03859048
56	0x3e08fd25	0.13377817
57	0x3decbb4b	0.11559161
58	0xbdfdf63c	-0.12400481
59	0xbd900d7b	-0.07033821
60	0x3d2aaba0	0.04166758
61	0x3d989df8	0.07452005
62	0x3cd9aac9	0.026570695
63	0xbdc0588c	-0.09391889
64	0x38894dda	6.54717e-05
65	0x3d02785c	0.031853065
66	0xbda967f7	-0.08271783
67	0xbdab44d4	-0.08362737
68	0x3cebac1e	0.028768595
69	0xbdb906aa	-0.09034474
70	0x3d4b504f	0.049637135
71	0x3d2c8f0d	0.04212861
72	0x3e38c61b	0.18044321
73	0xbd0ef26e	-0.034899168
74	0x3d8b7f56	0.06811397
75	0xbdb408e1	-0.08790756
76	0xbdc9d30f	-0.09854709
77	0x3ccf1173	0.025276875
78	0xbd8845a0	-0.06653905
79	0xbe2d3035	-0.16912921
80	0x3d5ab02c	0.053390667
81	0xbd4145de	-0.04718577
82	0x3a9a33fa	0.0011764758
83	0xbd878122	-0.06616427
84	0xbe06f891	-0.13180758
85	0xbc6ff6dc	-0.014646258
86	0xbb9905c9	-0.004669879
87	0xbcf9f144	-0.030510552
88	0xbc9beac2	-0.01903284
89	0x3d945650	0.07243025
90	0x3c96b426	0.018396448
91	0xbdb12360	-0.08649325
92	0xbda5c5c2	-0.0809436
93	0xbd2b3105	-0.041794796
94	0xbd687857	-0.05675539
95	0x3d94d1be	0.07266568
96	0xbd52b6b9	-0.05144379
97	0x3dd10e2a	0.1020778
98	0x3d114ce1	0.035473708
99	0xbd45f868	-0.0483326
100	0xbd54145e	-0.051777236
101	0xbcf56a8a	-0.029958028
102	0xba52f3a7	-0.0008047171
103	0x3d70658f	0.058690604
104	0x3cc41f39	0.02394067
105	0xbd2630a6	-0.04057374
106	0x3bbe4c65	0.005807447
107	0x3d955c0c	0.07292947
108	0xbdc18e98	-0.09451026
109	0xbd5d8783	-0.054084312
110	0xbd62777c	-0.05528973
111	0x3e647a8d	0.22312374
112	0x3cebcaa0	0.028783143
113	0xbdc10a1c	-0.09425756
114	0x3dc1ecdd	0.09469006
115	0x3d2159b0	0.039392173
116	0x3dfd77d1	0.12376369
117	0xbdea82a6	-0.114507005
118	0xbe1c1710	-0.15243173
119	0xbd2b067c	-0.04175423
120	0xbd20e03e	-0.039276354
121	0xbd2f2fb0	-0.042770088
122	0xbdb146b7	-0.08656066
123	0x3d6565c6	0.05600526
124	0x3e3df615	0.18550904
125	0x3dae589c	0.08512995
126	0xbaa03aaa	-0.0012224515
127	0xbdc46ef7	-0.09591477
128	0x3c9c5b8d	0.019086624
129	0xbceb5030	-0.02872476
130	0x3d0b071d	0.03394233
131	0x3a90b5b7	0.0011040483
132	0xbd6346d9	-0.055487487
133	0x3da3e09f	0.080018274
134	0x3d42a30b	0.04751877
135	0xbd282ba0	-0.04105723
136	0xbc71d83d	-0.014761028
137	0x3e0c514c	0.13702887
138	0x3e1cce7f	0.15313147
139	0x3d00d042	0.03144861
140	0xbdbfb4cf	-0.093606584
141	0xbe698619	-0.2280506
142	0xbe1e31f0	-0.15448737
143	0xbd59705a	-0.053085662
144	0xbd633c89	-0.055477653
145	0x3db185ac	0.08668074
146	0xbd48a6c3	-0.04898716
147	0x3d9605ac	0.073253006
148	0x3e051ac8	0.12998497
149	0xbd213eb0	-0.039366424
150	0xbdade394	-0.08490673
151	0xba807aaf	-0.0009802188
152	0xbb900fa6	-0.0043963967
153	0xbd41e73d	-0.047339667
154	0x3bdff715	0.0068348744
155	0xbc704289	-0.014664301
156	0x3d68f63b	0.05687545
157	0x3d04d863	0.032432925
158	0x3d914e53	0.07095017
159	0x3dc69807	0.09696966
160	0x3c431149	0.011905977
161	0xbd020dd0	-0.031751454
162	0xbccacaaa	-0.02475484
163	0x3d97a727	0.07404929
164	0xba5f9c7c	-0.0008530093
165	0xbc061d1c	-0.008185651
166	0x3c08ca04	0.0083489455
167	0x3ca11e37	0.019667728
168	0x3d0bc15b	0.034119945
169	0x3ca7257d	0.020403618
170	0xbddf74ab	-0.109109245
171	0xbe15fed7	-0.14647995
172	0xbd835aca	-0.06413801
173	0xbcee9d87	-0.02912785
174	0x3c96b746	0.018397938
175	0xbd905ccb	-0.07048949
176	0x3d8f9847	0.070114665
177	0xbdfcc050	-0.12341368
178	0xbdb98ed6	-0.09060447
179	0xbddca250	-0.10773146
180	0xbdd62103	-0.10455515
181	0xbd235b53	-0.039882015
182	0x3c92d2a6	0.01792271
183	0xbbf3bcb9	-0.007438269
184	0x3de18734	0.11012116
185	0x3dd28eaf	0.10281121
186	0x3e1ca918	0.15298879
187	0x3d34b7bc	0.044120535
188	0x3e09648c	0.13417262
189	0xbc32ea0a	-0.010920057
190	0x3bff6ad8	0.007794719
191	0x3d9cf13d	0.076632
192	0x3d00871d	0.031378854
193	0xbd027a2f	-0.031854805
194	0x3c5aa3d6	0.013344726
195	0xbe040d5d	-0.12895723
196	0xbc196d21	-0.009364397
197	0xbe0b10af	-0.13580583
198	0x3cac39be	0.021023627
199	0x3d81ae21	0.063320406
200	0x3d42b3f3	0.047534894
201	0x3de1d742	0.11027385
202	0x3df2e3ce	0.118598565
203	0x3d99460a	0.07484062
204	0x3e07ab2f	0.13248895
205	0xbc76ea32	-0.015070485
206	0xbd830356	-0.06397121
207	0xbd423ce4	-0.04742135
208	0xbd92a621	-0.07160593
209	0x3d8e50b6	0.06948988
210	0xbdc19c0e	-0.09453593
211	0xbcb048a0	-0.021519005
212	0xbda89693	-0.08231845
213	0xbde3fbad	-0.11131988
214	0xbd3afb5f	-0.045649882
215	0xbe2d8e9a	-0.1694893
216	0xbdd2fcd6	-0.10302131
217	0xbd3453a4	-0.04402508
218	0x3d00d737	0.031455245
219	0xbbce62f6	-0.006298418
220	0x3d52f058	0.05149874
221	0x3e084f3d	0.13311477
222	0x3d42bf7e	0.047545902
223	0x3d38a60d	0.045080233
224	0x3db73f44	0.08947614
225	0x3dea25dc	0.11433002
226	0xbd433bd4	-0.04766448
227	0x3e138263	0.14405207
228	0x3e3e6495	0.18593056
229	0x3d206908	0.039162666
230	0x3d29294f	0.04129916
231	0xbe4fa0eb	-0.20276229
232	0xbdbe2611	-0.09284604
233	0xbd4107db	-0.047126632
234	0xbd972117	-0.07379358
235	0xbc50bc12	-0.012740152
236	0xbe13babb	-0.14426701
237	0x3bce0f71	0.006288462
238	0x3cd72b7b	0.02626585
239	0x3bda44e9	0.0066610468
240	0x3e081026	0.1328741
241	0xbe0db43b	-0.13838284
242	0xbd857c0a	-0.06517799
243	0x3d9894bf	0.07450246
244	0x3d251457	0.0403026
245	0x3d2ba401	0.041904453
246	0xbd6bff0a	-0.05761627
247	0x3cb85aa9	0.022504168
248	0xbcfbf373	-0.030755734
249	0xbbc3e712	-0.0059784735
250	0xbd8f714c	-0.070040315
251	0xbd69b00d	-0.05705266
252	0x3c6a2bd7	0.014292679
253	0xbcc34ffd	-0.023841852
254	0xbd6245bf	-0.055242296
255	0x3d14e5bc	0.036351904

bias f4 [64]
0	0xbe0bf9c2	-0.13669494
1	0xbce070a3	-0.02739746
2	0xbdb2914b	-0.08719119
3	0xbe2cef67	-0.168882
4	0xbda5fdb9	-0.081050344
5	0xbd19edc2	-0.03758026
6	0xbdb8fff0	-0.09033191
7	0x3cdb8c69	0.026800351
8	0xbd8d3792	-0.06895365
9	0xbd0d84d4	-0.034550503
10	0xbd91ea48	-0.07124764
11	0xbdfbaa4c	-0.12288341
12	0xbe182021	-0.14856006
13	0xbde5f4cf	-0.11228334
14	0xbe083254	-0.13300449
15	0xbd5518b5	-0.052025516
16	0xbe0d79b4	-0.13815957
17	0xbc930da9	-0.01795085
18	0xbdf3c46a	-0.119026974
19	0xbe085f59	-0.13317622
20	0xbd1d6c68	-0.038433462
21	0xbd0cb5f7	-0.034353223
22	0xbdbab6e5	-0.091169156
23	0xbc4e96b8	-0.012609176
24	0xbdb04567	-0.086069874
25	0x3d162228	0.036653668
26	0xbda916e4	-0.08256319
27	0xbd9b60cc	-0.07586822
28	0xbd0abe1a	-0.0338727
29	0xbe464aef	-0.19364522
30	0xbd99beea	-0.07507117
31	0x3c60a761	0.013711781
32	0x3c85fe15	0.016356507
33	0xbd99e0df	-0.07513594
34	0xbe15fc71	-0.1464708
35	0xbc67a4ec	-0.0141384415
36	0xbe4d76da	-0.2006487
37	0xbdee93f8	-0.116493165
38	0xbe39ab18	-0.18131673
39	0xbd2c8aff	-0.042124745
40	0x3cc5273e	0.024066564
41	0xbdd3bab9	-0.10338349
42	0xbb8cddd2	-0.004298904
43	0xbdbe66f4	-0.092969805
44	0xbd9a3328	-0.075292885
45	0xbd169ed4	-0.036772564
46	0xbe828d24	-0.25498307
47	0xbd48e6bb	-0.049048167
48	0xbdf428d2	-0.11921848
49	0xbdfd392c	-0.1236442
50	0x3d313c93	0.04327066
51	0xbc048e20	-0.008090526
52	0xbe8bdc63	-0.2731658
53	0x3c2d4cc0	0.010577381
54	0xbdf5d348	-0.12003189
55	0xbdb238ba	-0.08702226
56	0xbd5a5cab	-0.05331103
57	0xbe08d26e	-0.13361523
58	0xbc541d95	-0.012946506
59	0xbda40c14	-0.08010116
60	0xbe6be396	-0.23036036
61	0x3bb9cd86	0.0056702523
62	0xbded2098	-0.115784824
63	0xbcd3c9b4	-0.025853015

weight f4 [64]
0	0x3ed47415	0.41494814
1	0x3ee5f015	0.4490973
2	0x3e5c2726	0.21499309
3	0x3efe4492	0.4966169
4	0x3efeedb0	0.49790716
5	0x3f02006e	0.50781906
6	0x3d8601fd	0.06543348
7	0x3f0e2475	0.5552438
8	0x3f2d3edd	0.67674047
9	0x3f0ba457	0.5454764
10	0x3f112cde	0.56709087
11	0x3f2a27c5	0.66466933
12	0x3ecece95	0.40391985
13	0x3f1a4a26	0.6026939
14	0x3e44f5f6	0.19234452
15	0x3ed3a423	0.41336164
16	0x3f098005	0.5371097
17	0x388b4632	6.6411114e-05
18	0x3f3a2472	0.7271186
19	0x3dc28618	0.094982326
20	0x3f009341	0.5022469
21	0x3f17a39c	0.59234023
22	0xbab65dd3	-0.001391346
23	0x3f2440aa	0.6416117
24	0x3f502001	0.81298834
25	0x3e9c4106	0.3051836
26	0x3eb307ec	0.3496698
27	0x3bd060b5	0.0063591846
28	0x3f1fe379	0.6245647
29	0x3f4d8da9	0.8029428
30	0x3ce01af5	0.027356604
31	0x39198ce1	0.00014643699
32	0x3d51e95c	0.05124794
33	0x3f17e851	0.5933886
34	0x3edebc21	0.43502906
35	0x3f30e13e	0.6909369
36	0x3e9b7a97	0.30366966
37	0x3e861f5a	0.26195794
38	0x3cfe1090	0.031013757
39	0x3f3db4cc	0.74104
40	0x3ef297d9	0.47381476
41	0x3e75814f	0.23975109
42	0x3e8027f5	0.25030485
43	0x3e3d0ea6	0.18462619
44	0x3ed43a8c	0.41450918
45	0x3f28d336	0.6594728
46	0xbde9037a	-0.11377616
47	0x3f3a283d	0.7271765
48	0x3e702d99	0.23454894
49	0x3f118416	0.5684217
50	0x3ecafbf6	0.39645356
51	0x3e8e9efe	0.27855676
52	0x3ec7ec1d	0.39047328
53	0x3ca3e648	0.020007268
54	0x3f0305d8	0.5118079
55	0x3f00c26f	0.5029668
56	0x3eeca7f2	0.46221882
57	0x3e73347d	0.23750491
58	0x3f1886bd	0.59580594
59	0x3e945e78	0.28978324
60	0x3f0bb91d	0.54579335
61	0x3f1c1c00	0.60980225
62	0x3f17bd81	0.59273535
63	0x3f47945b	0.7796075

bias f4 [64]
0	0x3d3da3e5	0.04629888
1	0x3d8faa58	0.07014912
2	0xb7853eb2	-1.588403e-05
3	0x3e81ce98	0.2535293
4	0x3e271e09	0.16320051
5	0x3e1535dc	0.14571327
6	0x3c97697f	0.018482922
7	0x3df16cb4	0.117883116
8	0x3e5b0abf	0.21390818
9	0x3e3d1c73	0.18467884
10	0x3e2f623e	0.1712732
11	0x3e8fb090	0.28064394
12	0x3c103953	0.00880273
13	0x3e0c3377	0.13691507
14	0x3e8d1961	0.27558425
15	0x3dbbf90f	0.091783635
16	0x3e615b15	0.22007401
17	0x39a26928	0.00030977395
18	0x3e3f45d1	0.18678977
19	0x3b323fe3	0.0027198724
20	0xbb958c06	-0.0045638112
21	0x3e6a6217	0.22888981
22	0xbdff64f9	-0.12470431
23	0x3e07bb93	0.13255148
24	0x3e4b4ac0	0.19852734
25	0xbe179aff	-0.1480522
26	0x3ddbc44c	0.107308
27	0x3a7e6f4b	0.0009705915
28	0xbde79ff7	-0.11309808
29	0x3e1c7a38	0.15280998
30	0xba5c087f	-0.00083936
31	0x398372a7	0.0002507169
32	0xbb74e2df	-0.003736667
33	0x3d722fe8	0.05912772
34	0xbb58be42	-0.0033072387
35	0x3e171160	0.14752722
36	0x3e29722f	0.16547464
37	0x3b6d8499	0.0036242364
38	0xbe557dba	-0.20848742
39	0x3db84221	0.08996988
40	0xbca1bebe	-0.019744273
41	0xbdd4f207	-0.103977256
42	0x3e038e9d	0.12847371
43	0xbd4f9a1f	-0.05068409
44	0x3e458be3	0.19291644
45	0xbda387f3	-0.07984915
46	0xbebdfa8e	-0.3710522
47	0x3ea10cb8	0.31455016
48	0xbd047cd7	-0.03234562
49	0x3da82ed9	0.082120605
50	0x3e0c1c9e	0.13682792
51	0x3ce78bf3	0.028264975
52	0x3e10a1ec	0.14124268
53	0x3ba1e5e7	0.0049407366
54	0x3e4cf4f9	0.20015325
55	0x3d7a0e90	0.061049044
56	0x3d98c3ef	0.07459246
57	0x3d3c33a4	0.045947686
58	0x3e6cc153	0.23120622
59	0x3bc9427c	0.0061419588
60	0xbe200968	-0.15628588
61	0x3dfc144e	0.1230856
62	0x3d89ddc0	0.067317486
63	0x3da4cee9	0.080472775

running_mean f4 [64]
0	0x3cde7279	0.027154194
1	0x3ca8fc27	0.020628048
2	0x3c8d4a42	0.017247323
3	0x3d6baf33	0.05754013
4	0x3b8ca8c6	0.0042925803
5	0x3ca11a9f	0.019666014
6	0x3c502f83	0.01270664
7	0x3d3ef952	0.04662449
8	0x3cac5296	0.021035474
9	0x3ca6895f	0.020329176
10	0x3c450b33	0.012026596
11	0x3ba62fc1	0.0050716107
12	0x3b3056b5	0.002690715
13	0x3cb196f3	0.021678424
14	0x3aaba3ac	0.0013095043
15	0x3c463e34	0.012099791
16	0x3bb5374e	0.0055302745
17	0x3a36e6eb	0.00069771585
18	0x3c8623bb	0.01637446
19	0xba7d35b1	-0.0009659185
20	0x3cf93bcf	0.030424027
21	0x3c4cf558	0.012509666
22	0xba5ebeb7	-0.00084970467
23	0x3d489aed	0.048975874
24	0x3c899716	0.016795676
25	0x3d8ba4e1	0.068185575
26	0x3b821839	0.0039701727
27	0xba350510	-0.00069053564
28	0x3d3be623	0.045873772
29	0x3c975c64	0.018476672
30	0x3a5c0b8c	0.00083940546
31	0x3c856c49	0.016286986
32	0x3ceeaf6c	0.029136382
33	0x3c912fe0	0.017723024
34	0x3b7633ed	0.0037567571
35	0x3d887833	0.06663551
36	0x3b864585	0.004097643
37	0x3adc93d6	0.0016828727
38	0x3c5c72fb	0.013455148
39	0x3ce2d259	0.027688192
40	0x3d18da4d	0.037317563
41	0x3ba44f59	0.005014342
42	0x3da7c000	0.08190918
43	0x3c5f0566	0.013612127
44	0x3b9ecc8a	0.0048461603
45	0x3cd33f34	0.025786974
46	0x39fea302	0.00048568106
47	0x3c206ecd	0.009792042
48	0x3c874e7d	0.016516918
49	0x3ca4062e	0.020022478
50	0x3d8313d9	0.0640027
51	0x3cf5892e	0.029972639
52	0x3b520359	0.0032045452
53	0x3c92fb83	0.017942196
54	0x3bbaae02	0.005697013
55	0x3c7608dc	0.015016761
56	0x3cc39967	0.023876859
57	0x3bae658b	0.0053221635
58	0x3d4680a0	0.04846251
59	0x3c95a1e5	0.018265674
60	0x3c25b3e7	0.010113693
61	0x3d341952	0.04396946
62	0x3b6342fe	0.0034677382
63	0x3d0bf94f	0.034173306

running_var f4 [64]
0	0x3bfb76e6	0.007674086
1	0x3b39fd3f	0.0028379706
2	0x3b4a50cb	0.003087091
3	0x3c664f9e	0.014057068
4	0x3a1606d0	0.0005723061
5	0x3b3d82ab	0.0028916996
6	0x3aff6a30	0.0019486602
7	0x3ba2ebaf	0.0049719433
8	0x3b8c9a90	0.004290886
9	0x3b55ef62	0.0032643904
10	0x3af0f919	0.0018384784
11	0x3a8aaf4a	0.0010580805
12	0x3a22a037	0.00062036834
13	0x3bb13983	0.0054084673
14	0x39a1e060	0.00030875485
15	0x3ad06d93	0.0015901796
16	0x3aa5dfe6	0.0012655228
17	0x37970c88	1.8006438e-05
18	0x3b8996d7	0.0041988897
19	0x381965d0	3.6572863e-05
20	0x3b42b2ac	0.0029708548
21	0x3ad69c6e	0.0016373524
22	0x342b3995	1.5946564e-07
23	0x3c3919f1	0.011297689
24	0x3b456ce1	0.0030124711
25	0x3c7fbebe	0.015609441
26	0x3a18c547	0.00058277365
27	0x34e69112	4.294639e-07
28	0x3c4895ce	0.0122427475
29	0x3b7598fc	0.003747522
30	0x38bbea61	8.960511e-05
31	0x39993889	0.00029224556
32	0x3b109674	0.0022062333
33	0x3b4f083c	0.0031590601
34	0x3a219735	0.0006164194
35	0x3c15fc1f	0.009154349
36	0x3a6cea2b	0.00090375793
37	0x39dfa509	0.00042656835
38	0x3b20884b	0.00244953
39	0x3b9f9e33	0.0048711537
40	0x3b859915	0.0040770867
41	0x3a77d9db	0.0009454765
42	0x3c5e82cc	0.013580989
43	0x3b36f215	0.0027915288
44	0x3a1c9a29	0.00059738994
45	0x3ba382a0	0.004989937
46	0x39fa9d23	0.00047800792
47	0x3ab6adab	0.0013937255
48	0x3b650438	0.0034945142
49	0x3b8ff25a	0.004392904
50	0x3c07c33b	0.008286293
51	0x3b7aa744	0.003824667
52	0x3a33191f	0.00068320514
53	0x3a3fb911	0.0007313649
54	0x3a7e3017	0.0009696497
55	0x3b275848	0.0025534797
56	0x3b86c082	0.004112304
57	0x3a3cfc4d	0.00072092266
58	0x3bb0d796	0.0053967936
59	0x3b45b439	0.0030167236
60	0x3afb2169	0.0019159737
61	0x3bf7c94c	0.0075618383
62	0x3a2ac096	0.0006513683
63	0x3c02a3fa	0.007973665

weight f4 [128, 64, 5, 5]
0	0x3a567461	0.0008180794
1	0x3aa4cfc0	0.0012574121
2	0x38f11a56	0.00011496681
3	0x392b83d8	0.00016356946
4	0xb979018d	-0.00023747068
5	0x3a01a63f	0.0004945732
6	0x3a9298ef	0.0011184494
7	0x390de848	0.0001353334
8	0x393997ea	0.00017699567
9	0x3922d3eb	0.0001552847
10	0x39990caa	0.0002919187
11	0x39d5e161	0.00040794446
12	0x392ce36c	0.0001648792
13	0xb911fafd	-0.00013921778
14	0xb78ef4f5	-1.7041786e-05
15	0x39dcd0cd	0.0004211724
16	0x39503deb	0.00019859492
17	0x398d7baa	0.00026985753
18	0xb9926ed8	-0.00027929875
19	0xb7c8403a	-2.3871766e-05
20	0x3923a864	0.00015607622
21	0xb8cd6c60	-9.795348e-05
22	0x37c9284a	2.3979828e-05
23	0x3904df0c	0.00012671592
24	0x3818390c	3.6292753e-05
25	0x399ef663	0.0003031968
26	0xb90c95db	-0.00013407266
27	0xb9f37c58	-0.00046441215
28	0xb8c7660c	-9.508067e-05
29	0x3a153b46	0.00056927314
30	0x398d583a	0.0002695935
31	0x38f40429	0.000116356015
32	0xb932b86d	-0.00017044107
33	0x395286cd	0.00020077378
34	0x39a16037	0.0003078
35	0x38b4110c	8.586244e-05
36	0x393f9d1c	0.00018273707
37	0xb9bbace6	-0.0003579624
38	0xb9821aa7	-0.0002481539
39	0x3a11e444	0.0005565325
40	0x37a039ed	1.910046e-05
41	0xb9bd478b	-0.00036102193
42	0xba29947b	-0.00064689637
43	0xb8e908f3	-0.00011111973
44	0x38654280	5.4659788e-05
45	0x38d5f670	0.00010202534
46	0xbaa9bb56	-0.0012949507
47	0xb9dc5b8d	-0.0004202988
48	0xb932b36e	-0.00017042246
49	0xba0993d8	-0.00052481657
50	0x37b03ff6	2.101062e-05
51	0xb99accc3	-0.00029525728
52	0x3717e2af	9.05308e-06
53	0x3929b359	0.00016183908
54	0x399d3f21	0.00029992408
55	0x38e1f8f3	0.000107752065
56	0xb8758988	-5.8540638e-05
57	0xb7ffd1cd	-3.0496065e-05
58	0x3958902e	0.00020653076
59	0x39910774	0.00027662108
60	0xb8816fa6	-6.1719955e-05
61	0xb7177823	-9.028273e-06
62	0xb744e796	-1.1736431e-05
63	0x399aec33	0.0002954915
64	0x39b6af2e	0.00034844264
65	0xb93bb33b	-0.00017900478
66	0xb8594279	-5.179874e-05
67	0x3893f552	7.055201e-05
68	0xb6bad991	-5.56856e-06
69	0x391c9506	0.00014932835
70	0xb9cce354	-0.00039079285
71	0xb9928284	-0.00027944532
72	0xb7c0ad21	-2.2968803e-05
73	0x38ad13b4	8.252953e-05
74	0xb7c61b6d	-2.361621e-05
75	0xb95e3f1a	-0.00021195077
76	0xb98a9405	-0.00026431694
77	0xb9d1e714	-0.00040035753
78	0xba6d439e	-0.0009050908
79	0xb9265901	-0.0001586415
80	0xb88f5419	-6.834436e-05
81	0xb973b4d1	-0.00023241645
82	0xb99e95e5	-0.00030247789
83	0xba0df58a	-0.00054153113
84	0xb983e374	-0.00025155733
85	0xb62c20f4	-2.5649178e-06
86	0xb6d6216e	-6.3815887e-06
87	0xb807eb7f	-3.240583e-05
88	0xb9005e85	-0.00012242243
89	0xb9b08d27	-0.00033674503
90	0x38529cc3	5.0213897e-05
91	0xb6ad5e05	-5.166747e-06
92	0x37651219	1.3653677e-05
93	0xb83bd250	-4.4780143e-05
94	0xb92faff2	-0.00016754845
95	0x3924a2d8	0.00015700923
96	0x392f9340	0.00016744155
97	0xb8ae4443	-8.309681e-05
98	0x37f9e11c	2.9787938e-05
99	0x38dcc70a	0.000105274914
100	0x39d230e4	0.00040090748
101	0xb918f000	-0.00014585257
102	0xb9996712	-0.00029259227
103	0xb74cbffb	-1.22040465e-05
104	0xb8b0f96b	-8.438792e-05
105	0x3a212f3d	0.00061487017
106	0xb8edb07d	-0.00011333914
107	0xb9f17968	-0.00046057557
108	0xb9173fd9	-0.00014424267
109	0xb9e0e44a	-0.00042894698
110	0x38b81b0c	8.7788416e-05
111	0x390720a0	0.00012886757
112	0xb8c7760e	-9.511049e-05
113	0xb9732e28	-0.0002319148
114	0xb62ab554	-2.543752e-06
115	0x38d594bc	0.000101843354
116	0x381ee9a7	3.788774e-05
117	0xb964ed03	-0.00021832068
118	0xb94041cf	-0.00018335062
119	0x392c143d	0.00016410738
120	0xb8e7afad	-0.000110476605
121	0xb8a576e6	-7.88996e-05
122	0xb97be483	-0.00024022353
123	0xb9ad5a36	-0.00033064344
124	0x396c5231	0.00022537333
125	0x3a14012a	0.00056459254
126	0x3a2599cc	0.0006317168
127	0x38b0ea90	8.436025e-05
128	0x3a03b32e	0.0005023953
129	0xb9cc75dc	-0.00038997724
130	0x39d18df3	0.00039969347
131	0x3a77609d	0.0009436699
132	0xb7b9bcd4	-2.2141649e-05
133	0x392dafd4	0.00016564067
134	0xb97dc57c	-0.00024201529
135	0x3a0290a1	0.0004980658
136	0x39183bfa	0.00014518193
137	0xb980186d	-0.0002443226
138	0xba2dcd35	-0.00066300045
139	0xb8a1ccf9	-7.7152574e-05
140	0x3941fd96	0.00018500382
141	0x3a042fe7	0.00050425384
142	0xb91cea41	-0.00014964586
143	0xb9379ee8	-0.00017511437
144	0xb9e0abae	-0.0004285252
145	0xb94fa377	-0.00019801954
146	0x3843492f	4.655978e-05
147	0xb88befdd	-6.6727145e-05
148	0x38a3212a	7.778623e-05
149	0x3917c7d1	0.0001447492
150	0x359f3fb4	1.1864963e-06
151	0x38d4d2f2	0.000101482394
152	0xb6feadb8	-7.5900134e-06
153	0x36860f54	3.9952956e-06
154	0xb7ebcc18	-2.8109222e-05
155	0x3782f3eb	1.561079e-05
156	0x38a53183	7.8770354e-05
157	0xb65698e5	-3.1977481e-06
158	0xb57f07ca	-9.500624e-07
159	0xb7d8e098	-2.5853791e-05
160	0xb8136806	-3.514441e-05
161	0xb7d0e196	-2.4900579e-05
162	0x38267ac9	3.9691837e-05
163	0xb761d32c	-1.3460212e-05
164	0xb612d947	-2.1882167e-06
165	0xb68d5140	-4.211586e-06
166	0xb89ea5fc	-7.564944e-05
167	0xb780d4d3	-1.5357893e-05
168	0xb6caf8f2	-6.04905e-06
169	0xb824c7fd	-3.92869e-05
170	0xb6fd5661	-7.5500434e-06
171	0xb8bbbe21	-8.952269e-05
172	0xb87919bc	-5.9390193e-05
173	0x35cea2f5	1.5395623e-06
174	0xb78d7e00	-1.6867183e-05
175	0x39deb542	0.00042478187
176	0x3a03fe36	0.0005035134
177	0x3a1ac67b	0.00059042097
178	0x39a22316	0.0003092519
179	0x3752d2b5	1.25660345e-05
180	0xb9eda15c	-0.00045324385
181	0xba039edb	-0.0005020925
182	0xba0760d2	-0.00051642687
183	0xba003199	-0.0004890203
184	0x386ff3b3	5.7209003e-05
185	0x3a5a3b26	0.0008324854
186	0x3a9185b3	0.0011102468
187	0xb940f10a	-0.00018400341
188	0xba8181d7	-0.0009880614
189	0xba82c478	-0.0009976765
190	0x392f713b	0.00016731482
191	0x3705edcc	7.982784e-06
192	0xb9edf40f	-0.00045386
193	0xba823a88	-0.0009935657
194	0xb9fe6516	-0.0004852197
195	0xba2db431	-0.0006626277
196	0xba026c7f	-0.00049752736
197	0xba458ec8	-0.00075362297
198	0xb9de40c8	-0.00042391405
199	0xb986eb42	-0.00025733752
200	0xb9677882	-0.0002207477
201	0xba159d6f	-0.00057073584
202	0xb98e27ab	-0.00027113906
203	0xb95dba89	-0.00021145692
204	0xb9f704b1	-0.00047115007
205	0x39b8c6a9	0.00035243228
206	0x3a0ca3ad	0.0005364966
207	0xb9af204b	-0.0003340266
208	0xba14c4a8	-0.0005675056
209	0xba1bb055	-0.0005939056
210	0x39911616	0.0002767301
211	0x3820909a	3.8281643e-05
212	0xba0e360a	-0.00054249226
213	0xba2ab9a0	-0.00065126456
214	0xb8a23aa6	-7.735686e-05
215	0x3a12770b	0.0005587197
216	0x398410af	0.00025189432
217	0xb97f0dde	-0.00024323861
218	0xba62ed25	-0.0008656553
219	0xba0b0cda	-0.0005304344
220	0x3906e282	0.00012863617
221	0x39f4ddba	0.00046704506
222	0xb98acf47	-0.00026475845
223	0xba08a1fd	-0.00052121264
224	0xba1ef060	-0.00060630403
225	0x3a54c591	0.0008116598
226	0x39158aaf	0.00014261411
227	0xba2a8658	-0.0006505004
228	0xb9d8dbf5	-0.0004136261
229	0xba489cef	-0.00076527795
230	0x3a3ffb60	0.00073235296
231	0x3977ed0e	0.00023644065
232	0x37aed8b5	2.0843328e-05
233	0xb963312f	-0.0002166673
234	0x379a3b5f	1.8385877e-05
235	0x3a033e1c	0.00050065084
236	0x39cb4b7b	0.00038775415
237	0xb98904f7	-0.00026134375
238	0xba420731	-0.00074015843
239	0xb90b7dd1	-0.00013302943
240	0x3a38e95a	0.0007053815
241	0x38bcc6f5	9.001597e-05
242	0xb9c3c5fb	-0.00037340805
243	0xb9eac977	-0.0004478206
244	0xb7d2a17a	-2.5109144e-05
245	0x3a063d0e	0.0005120792
246	0x3985ff2b	0.00025557852
247	0xba111c24	-0.00055355043
248	0xb9929893	-0.00027960967
249	0xb9ffa08e	-0.00048757013
250	0x3a156b35	0.0005699874
251	0xb7024e53	-7.76684e-06
252	0xb8ffef9e	-0.0001220398
253	0xb835eaf1	-4.337257e-05
254	0x398f51ce	0.00027336035
255	0x3a3b0d16	0.0007135434

bias f4 [128]
0	0xba66b865	-0.00088012806
1	0xbd1197a8	-0.03554502
2	0xbd78a7cc	-0.0607069
3	0xb98c1ace	-0.00026722852
4	0xbdc35a63	-0.09538724
5	0xbde6ad28	-0.11263496
6	0xbdf5ae0e	-0.11996089
7	0xbd1f9c01	-0.038967136
8	0xbcefaa61	-0.029256048
9	0xbb3d9ce0	-0.0028932616
10	0xa81d70e0	-8.739727e-15
11	0xbcb0433a	-0.021516431
12	0xbd8eaa72	-0.069661036
13	0xbd531b2b	-0.05153958
14	0x3892a153	6.9918715e-05
15	0xbdbb607e	-0.09149264
16	0xbd3faf5a	-0.046798088
17	0xba0dea17	-0.0005413605
18	0xbda32f35	-0.079679884
19	0xb8c0f1c7	-9.200308e-05
20	0xbe28852f	-0.16457056
21	0xbd8497e3	-0.064742826
22	0xbd515a67	-0.051111605
23	0xbb4d7fff	-0.003135681
24	0x800000c8	-2.8e-43
25	0xb7acb8d6	-2.0590069e-05
26	0xbca13a90	-0.019681245
27	0xbc89e50f	-0.016832856
28	0xbb9d6e27	-0.004804391
29	0xbdc03cae	-0.09386574
30	0xbe10c644	-0.14138132
31	0xbaa9979e	-0.0012938862
32	0x3b454d10	0.0030105747
33	0xbaa72e87	-0.0012754955
34	0xbca20ba1	-0.019780936
35	0xba3b105f	-0.00071359234
36	0xbd2e004f	-0.042480763
37	0xbae8e548	-0.0017768526
38	0xbd19a831	-0.037513915
39	0xbdcc135c	-0.0996463
40	0xbaa3bcba	-0.0012492158
41	0xbe04682f	-0.12930368
42	0xbc6eec0e	-0.014582647
43	0x3bd1a9d3	0.0063984185
44	0xbddd924d	-0.1081892
45	0xbcbc6db5	-0.023001531
46	0xbd831429	-0.064003296
47	0xbe080cee	-0.13286182
48	0xbe1ae170	-0.1512506
49	0xbd5e4b4d	-0.05427103
50	0xbc9acb12	-0.01889566
51	0xbdaf748f	-0.08567154
52	0xbe1e67cd	-0.15469284
53	0x3c25670e	0.010095371
54	0x3cc1ada1	0.023642363
55	0xba186de3	-0.0005814714
56	0xbda97497	-0.08274191
57	0xb9b0d22a	-0.0003372592
58	0xbe020e6d	-0.12700815
59	0xbd80d85c	-0.06291267
60	0xbe0a2cde	-0.13493678
61	0xbc60c87d	-0.013719675
62	0xbd218bac	-0.039439842
63	0x3bdc48ba	0.006722537
64	0xbe13a487	-0.14418231
65	0xbcaef7f7	-0.021358473
66	0xbd22e17d	-0.039765824
67	0xba9b5d49	-0.0011853363
68	0xbd65b66b	-0.05608217
69	0x33f23d72	1.128018e-07
70	0x3c70ebd0	0.01470466
71	0xbd80fc0f	-0.06298076
72	0x04566d58	2.5205787e-36
73	0xbbe5bcf4	-0.0070110504
74	0x3563d228	8.486991e-07
75	0xbd108243	-0.035280477
76	0xbd9e8a54	-0.07741228
77	0xbdad8b72	-0.08473863
78	0xbced3bdf	-0.028959213
79	0xbbb51f47	-0.00552741
80	0xbd593b0b	-0.053034823
81	0xbdafd477	-0.08585446
82	0xbb94ccc8	-0.0045410134
83	0x3c3e6399	0.011620426
84	0xbe003bd2	-0.1252282
85	0xbd8a3702	-0.06748773
86	0xbcbddfd3	-0.023178017
87	0xbd9f93cc	-0.07791862
88	0xbbeb77e8	-0.007185925
89	0xbd302d64	-0.043012038
90	0xbc99403f	-0.018707393
91	0xbe38a38a	-0.18031135
92	0xbac4300c	-0.0014967932
93	0xbda13069	-0.07870562
94	0xbbd2e5fc	-0.0064361077
95	0x3bfadbb0	0.0076555833
96	0xbdb2d221	-0.08731485
97	0xbdae4ee5	-0.08511142
98	0xbcd53b5f	-0.026029287
99	0xbca68858	-0.020328686
100	0xbaff672b	-0.0019485703
101	0xbd0f8a53	-0.035044026
102	0xbb7893c9	-0.0037929884
103	0xbdc1150f	-0.09427845
104	0xbde05c52	-0.10955109
105	0xbd9f6fe2	-0.07785012
106	0xbcb9955d	-0.02265423
107	0xbc04d157	-0.008106551
108	0xbbfb1012	-0.007661828
109	0xa24b722a	-2.7572068e-18
110	0x3bebaa2e	0.007191918
111	0xbad6aa1f	-0.0016377604
112	0xba3f4c61	-0.0007297453
113	0x3abc4a79	0.0014365456
114	0xbd7a1aed	-0.061060835
115	0xbc9b4e2b	-0.018958172
116	0x3c4148ea	0.011797169
117	0xbd45ecd5	-0.048321564
118	0xbd224db1	-0.039624874
119	0xbd11b57c	-0.035573468
120	0x3bb08815	0.005387316
121	0xbda137bb	-0.07871958
122	0xbd5d41ba	-0.05401776
123	0xbc282798	-0.010263346
124	0xbdcb0849	-0.0991369
125	0xbda3e1b4	-0.08002034
126	0xbd5649f6	-0.05231663
127	0x3c9dab8c	0.019246839

weight f4 [128]
0	0x3da06dd8	0.07833451
1	0x3dfa58e4	0.12223986
2	0x3f40c08d	0.7529381
3	0x3c4e2066	0.012580967
4	0x3f0319fe	0.51211536
5	0x3ee0aa6a	0.43880016
6	0x3f1db7c0	0.61608505
7	0x3ee73608	0.4515841
8	0x3e926328	0.28591275
9	0xba6b7fb6	-0.0008983569
10	0x2ba26380	1.1538409e-12
11	0x3de65684	0.1124697
12	0x3e2ec6c6	0.17068014
13	0x3e95fb97	0.2929351
14	0x3c0964fa	0.008385891
15	0x3f1ebb62	0.62004673
16	0x3f6edadd	0.9330271
17	0xbc026003	-0.007957461
18	0x3f03a4aa	0.5142313
19	0xb72d57f8	-1.0332085e-05
20	0x3f0a6ebc	0.5407522
21	0x3e79d7a5	0.24398668
22	0x3e9cdca7	0.30637094
23	0xb84d4218	-4.8937363e-05
24	0x00000173	5.2e-43
25	0x3b975bc1	0.004619092
26	0x3e90eddb	0.2830647
27	0x3e95bcf7	0.2924573
28	0x382958af	4.0375333e-05
29	0x3ecb87d8	0.39752078
30	0x3edbd699	0.42937163
31	0x3a0dd796	0.0005410848
32	0x37b52665	2.159476e-05
33	0x3de2a012	0.11065687
34	0x3f142571	0.5786963
35	0x3d35ad50	0.044354737
36	0x3f106ae5	0.5641311
37	0x3ce1f223	0.02758128
38	0x3dd80722	0.105482355
39	0x3f32071c	0.695421
40	0xbb57a06c	-0.0032902015
41	0x3f396c61	0.72431
42	0x3daec2ed	0.08533273
43	0x3d1b2e63	0.037886035
44	0x3f068491	0.5254603
45	0x3e4a30af	0.19745134
46	0x3ede637f	0.43435284
47	0x3f58d07e	0.84693134
48	0x3f5c0454	0.85944104
49	0x3e9ebdb8	0.3100412
50	0x3e85cddc	0.2613362
51	0x3f31eafb	0.69499177
52	0x3f26dcf3	0.6518089
53	0x3e29ad20	0.16569948
54	0x3eb4a728	0.3528378
55	0x3cce8c9d	0.025213534
56	0x3f1cd824	0.61267304
57	0xbb20b873	-0.0024524003
58	0x3efef99b	0.4979981
59	0x3f4da5e5	0.8033126
60	0x3f72eb83	0.9489061
61	0x3ea0868c	0.3135265
62	0x3f4f3ebd	0.80955106
63	0x3e0407d3	0.1289361
64	0x3f5e4160	0.86818504
65	0x3db9b21c	0.09067175
66	0x3ec09519	0.37613752
67	0xbbfe1051	-0.00775341
68	0x3f1cb660	0.6121578
69	0x3b05f697	0.0020441168
70	0x3f22dd2c	0.6361873
71	0x3eb9cee1	0.3629065
72	0x866212ed	-4.251978e-35
73	0x3c9705b2	0.018435333
74	0x39207f6c	0.00015306257
75	0x3ee63a87	0.44966528
76	0x3f35f21f	0.7107257
77	0x3f62c69a	0.8858429
78	0x3d8f39e6	0.06993465
79	0xbb024756	-0.0019878945
80	0x3ee5ac10	0.44857836
81	0x3f6939e7	0.91103977
82	0x3b0e04b6	0.0021670288
83	0x3e089ade	0.13340327
84	0x3f5ca857	0.86194366
85	0x3f0f19e5	0.55898887
86	0x3e460bad	0.19340391
87	0x3f28c130	0.6591978
88	0x3e7f3d2a	0.24925676
89	0x3f19a880	0.60022736
90	0x3f44ced2	0.7687808
91	0x3f725fe6	0.9467758
92	0x3c208103	0.009796384
93	0x3f214aa9	0.6300455
94	0x3f3e8375	0.7441934
95	0x3e9459fc	0.28974903
96	0x3f2b2b5b	0.6686303
97	0x3f0353c6	0.51299703
98	0x3c883f2f	0.01663169
99	0x3d8a3306	0.06748013
100	0x3e2aa52f	0.16664575
101	0x3f1d005e	0.61328685
102	0x3f1f50b0	0.62232494
103	0x3f44f015	0.76928836
104	0x3f39c4f9	0.7256618
105	0x3f52e283	0.8237688
106	0x3f2522ed	0.6450642
107	0x3f189509	0.5960241
108	0x3a836226	0.0010023757
109	0xa4bc42fb	-8.164547e-17
110	0x3abc261d	0.001435462
111	0xbb349dfb	-0.0027559984
112	0x3ab7513e	0.0013986004
113	0x3adba8cb	0.0016758678
114	0x3ea365f7	0.3191373
115	0x3dd96b25	0.10616139
116	0x3df240bd	0.11828754
117	0x3f28bb48	0.6591077
118	0x3e718c73	0.23588733
119	0x3f059431	0.5217925
120	0x3e8dfbd5	0.27731195
121	0x3f0d2ecb	0.55149525
122	0x3ee5f0e8	0.4491036
123	0x3d0bf9c7	0.034173753
124	0x3edbb8f2	0.4291454
125	0x3f2a88ca	0.66614974
126	0x3f06ae41	0.5260964
127	0x3f0e4141	0.5556832

bias f4 [128]
0	0x3c7d01c7	0.015442318
1	0x3e23b0de	0.15985438
2	0xbe12b2ad	-0.14325972
3	0x3b43f9ad	0.0029903457
4	0xbe334553	-0.17506914
5	0xbe36cd9a	-0.17851868
6	0xbe4077cb	-0.18795697
7	0x3e2ac7b7	0.16677748
8	0x3e41d16d	0.18927546
9	0xbd2dabb9	-0.042400096
10	0x38e31ed4	0.00010829946
11	0xbe255554	-0.16145831
12	0xbe521ca0	-0.20518732
13	0x3e431a19	0.19052924
14	0xbb99d48a	-0.004694526
15	0xbe0b7216	-0.13617739
16	0x3e46b45e	0.19404742
17	0x3e18edbd	0.1493444
18	0xbe1ee1d3	-0.15515833
19	0x3db452c9	0.088048525
20	0xbe3ee465	-0.18641813
21	0xbe3281e7	-0.17432366
22	0x3e25b2e5	0.16181524
23	0xbe11af16	-0.14226946
24	0xb5d44613	-1.5815625e-06
25	0x3df071ea	0.117404774
26	0x3e42cc3d	0.19023223
27	0x3e3057d7	0.17221008
28	0x3e59c558	0.21266687
29	0xbe3ac13a	-0.18237773
30	0xbe628c1c	-0.2212376
31	0xbdf821a1	-0.12115789
32	0xbe3f67bd	-0.18691917
33	0x3dba3fae	0.09094177
34	0x3e339109	0.17535795
35	0xbbba7731	-0.0056904783
36	0x3e2fd2e0	0.17170286
37	0xbd4472c9	-0.04796103
38	0x3e1c1277	0.15241419
39	0xbe1c1b4f	-0.15244792
40	0x3dfa813e	0.12231682
41	0xbe2fbd3a	-0.17162028
42	0x3e34f9ae	0.1767337
43	0x3e342d9d	0.17595525
44	0xbe036edf	-0.12835263
45	0x3e1c7c33	0.15281753
46	0xbdf49271	-0.11941994
47	0xbe1d8175	-0.15381415
48	0xbe2bbea2	-0.1677194
49	0xbe23aa37	-0.159829
50	0xbdd53b87	-0.104117446
51	0xbe3192c1	-0.17341138
52	0xbe36bbee	-0.17845127
53	0x3e1bca06	0.15213785
54	0x3e1ee49b	0.15516894
55	0x3c849079	0.016182171
56	0xbe3b593f	-0.18295763
57	0x3dff60d1	0.12469638
58	0xbe3bdace	-0.18345186
59	0x3e28d092	0.16485813
60	0xbe31d7dc	-0.173675
61	0x3e0a8aca	0.13529506
62	0x3e33f549	0.17574038
63	0x3e25480f	0.1614077
64	0xbe34d84c	-0.17660636
65	0x3e1c622c	0.15271825
66	0x3e1f183c	0.15536588
67	0x3d66af30	0.056319416
68	0x3e317f20	0.1733365
69	0x37ae5f42	2.0786774e-05
70	0xbe214437	-0.15748678
71	0xbdc33b94	-0.09532848
72	0xb80cb52c	-3.354733e-05
73	0x3e25a585	0.16176422
74	0xb67f4ee7	-3.8043888e-06
75	0x3e32f052	0.17474487
76	0xbe079f2c	-0.13244313
77	0xbe1cbe1a	-0.15306893
78	0x3e415b06	0.18882379
79	0x3e25d9a2	0.16196302
80	0xbde5b02d	-0.112152435
81	0xbe380aa5	-0.1797281
82	0x3e271458	0.16316354
83	0x3e12c278	0.14331996
84	0xbe2b29f8	-0.16715229
85	0x3e35bfc5	0.17748936
86	0x3e2ffde9	0.17186703
87	0x3e318b2a	0.17338243
88	0x3e0d78bf	0.13815592
89	0xbdc8c515	-0.098032154
90	0xbe2b0166	-0.16699752
91	0xbe469e96	-0.19396433
92	0x3d51b9c6	0.051202558
93	0xbdf11151	-0.11770881
94	0xbe2e3df4	-0.1701582
95	0x3dbb286b	0.091385685
96	0xbe1c4d31	-0.15263821
97	0xbe36bcb9	-0.1784543
98	0x3e21a9e1	0.1578746
99	0x3e34e829	0.17666687
100	0xbd30d8bf	-0.043175455
101	0x3e3ca505	0.18422325
102	0x3e26af37	0.16277777
103	0x3e44355a	0.19160977
104	0xbe1b5933	-0.15170746
105	0x3e3e2a06	0.18570718
106	0x3e450341	0.19239523
107	0x3e2a039a	0.16602936
108	0xbe6cbbc8	-0.23118508
109	0xb83a0430	-4.4349756e-05
110	0xbdd27e73	-0.102780245
111	0xbe39d8a0	-0.18149042
112	0xbd622dce	-0.055219464
113	0xbba98b4d	-0.0051740767
114	0x3e3e2c91	0.18571688
115	0x3e444c60	0.1916976
116	0x3e02ee97	0.12786327
117	0xbe22fcd6	-0.15916762
118	0xbdf164fd	-0.1178684
119	0xbdd24e94	-0.10268894
120	0x3e16bfd7	0.14721619
121	0xbe189a9e	-0.14902732
122	0x3e0f384f	0.13986324
123	0x3dda9c7a	0.10674377
124	0xbe3f1003	-0.18658452
125	0xbe189481	-0.149004
126	0xbe18fa50	-0.14939237
127	0x3e14b181	0.14520837

running_mean f4 [128]
0	0x3b6cbafc	0.0036122194
1	0x3d1f1d67	0.0388464
2	0xbbaac8cb	-0.0052119247
3	0x3c3ced2f	0.011531158
4	0x3c2a5161	0.010395379
5	0x3da7a3ef	0.08185565
6	0x3b012ace	0.0019709351
7	0x3cf187d4	0.029483713
8	0x3dcd08c6	0.10011439
9	0x3a5af03c	0.0008351838
10	0x2ba5997a	1.1766553e-12
11	0x3e9fc3c5	0.31204048
12	0x3edf1a40	0.43574715
13	0x3dbc7c06	0.09203343
14	0x3c15a36d	0.009133202
15	0x3d0403c4	0.032230154
16	0x3d226bf3	0.03965373
17	0x3de7a46b	0.11310657
18	0x3d99f1ad	0.07516799
19	0xb7b279fa	-2.1276053e-05
20	0xbc8ca669	-0.017169194
21	0x3bca1d4e	0.006168044
22	0xbcc11250	-0.023568302
23	0x3b5dee05	0.0033863795
24	0x000009fc	3.582e-42
25	0x3c30ca6b	0.010790448
26	0x3ebe6628	0.37187314
27	0x3dffb2eb	0.12485298
28	0x3d8ee9a5	0.06978158
29	0xbcb44d3a	-0.02200948
30	0xbc879166	-0.016548824
31	0x3c5feb92	0.013667004
32	0x3e7248df	0.2366061
33	0x3dbb0deb	0.09133514
34	0x3eb5259e	0.35380262
35	0x3b21042c	0.0024569137
36	0x3e122324	0.14271218
37	0x3de2f63e	0.11082123
38	0xbba87c19	-0.0051417467
39	0x3c9a28d9	0.018818306
40	0x3d6848bf	0.05671
41	0xbcf89a25	-0.03034694
42	0x3d2748c0	0.040840864
43	0x3dc63762	0.09678532
44	0x3c36c398	0.011155032
45	0x3bbffe7d	0.005859195
46	0x3d291896	0.041283213
47	0xbc4be458	-0.012444578
48	0x3cc4aa28	0.024006918
49	0x3d837dbc	0.06420466
50	0x3dad1601	0.084514625
51	0x3d073815	0.03301247
52	0xbc4d3866	-0.0125256535
53	0x3e48ef50	0.1962254
54	0x3ebb160a	0.36540252
55	0x3b312636	0.0027030832
56	0x3b545f5a	0.0032405467
57	0x3d4a96a4	0.04946007
58	0xbd04455f	-0.03229272
59	0xbce5481f	-0.027988492
60	0x3cca93e7	0.024728728
61	0x3e123906	0.14279565
62	0x3db5fc2d	0.08885989
63	0x3e227117	0.15863453
64	0xbca522c1	-0.020158174
65	0x3d6255b1	0.055257503
66	0x3c610613	0.013734358
67	0x3d028bcb	0.0318716
68	0x3c973bc3	0.018461114
69	0x364a6cc1	3.0163649e-06
70	0x3ee99b84	0.45626462
71	0x3e1436d0	0.14474034
72	0x068e2bb3	5.3478674e-35
73	0x3e41d1dd	0.18927713
74	0x38001f97	3.0547e-05
75	0x3db73cc7	0.08947139
76	0x3ca35edc	0.019942693
77	0xbba527b7	-0.005040135
78	0x3d847f01	0.064695366
79	0x3ce035dc	0.027369432
80	0x3dfd6132	0.12372054
81	0x3be049b4	0.0068447236
82	0x3d820316	0.06348245
83	0x3e5a15ce	0.2129738
84	0x3d207197	0.039170828
85	0x3c9ea1a1	0.01936418
86	0x3dd4acfc	0.10384557
87	0x3d847e28	0.06469375
88	0x3e032872	0.12808397
89	0x3d5d00e0	0.053955913
90	0x3cee92c9	0.029122727
91	0x38fe95cf	0.00012139568
92	0x3da68708	0.08131224
93	0x3df1ca92	0.11806215
94	0x3ebaa123	0.36451063
95	0x3dfbb492	0.122903004
96	0xbbd9d425	-0.006647604
97	0xbccd3124	-0.025047846
98	0x3dce766e	0.100811824
99	0x3d40cd53	0.047070812
100	0x3ec727cd	0.38897553
101	0x3df0ee75	0.11764232
102	0x3e386731	0.18008114
103	0xbc338578	-0.010957114
104	0x3d09c989	0.033639465
105	0x3add3f11	0.0016879757
106	0x3d3d4f75	0.046218354
107	0x3e1079ce	0.14108965
108	0x3c8bdfe7	0.017074538
109	0x23737153	1.3197054e-17
110	0x3e0a9906	0.13534936
111	0x3e29c4d4	0.1657899
112	0x3d0c2ac0	0.034220457
113	0x3d05c1e9	0.03265563
114	0x3c9e364f	0.019313006
115	0x3dfd2084	0.123597175
116	0x3e0b843f	0.13624667
117	0x3d5199ec	0.051172182
118	0x3d0cbee8	0.03436175
119	0x3e7a6ddb	0.24455969
120	0x3e8e5f9d	0.27807322
121	0x3d83644a	0.06415613
122	0xbc09fb52	-0.008421736
123	0x3d647dda	0.055784084
124	0xbcb15c9b	-0.021650603
125	0x3dd078e4	0.10179308
126	0x3e5d0859	0.21585216
127	0x3e9f18dc	0.31073654

running_var f4 [128]
0	0x397c3eea	0.0002405603
1	0x3d638c36	0.055553637
2	0x3cd7d75f	0.026347814
3	0x39f3d1ab	0.00046504787
4	0x3d74f97b	0.059808236
5	0x3e4913d8	0.19636476
6	0x3d77bb1a	0.06048117
7	0x3d6a047a	0.057133175
8	0x3e0889b1	0.13333775
9	0x38f2b9ec	0.0001157409
10	0x19052d3c	6.885074e-24
11	0x3eb2c18d	0.34913293
12	0x3ebd6754	0.36992896
13	0x3e0cdb8d	0.13755627
14	0x399103f4	0.000276595
15	0x3dea0b44	0.1142793
16	0x3debe004	0.11517337
17	0x3d44a40a	0.048008002
18	0x3e504ad5	0.20341046
19	0x2fa1358e	2.9323782e-10
20	0x3c50fac5	0.012755101
21	0x3cfcd15b	0.030861547
22	0x39d37460	0.00040331762
23	0x39bc784c	0.00035947782
24	0x00000004	6e-45
25	0x3a3cf3c1	0.0007207953
26	0x3f08cb5c	0.534353
27	0x3e19ebdf	0.15031384
28	0x3cc2c2db	0.023774555
29	0x3c05f7c2	0.008176746
30	0x3c888fcb	0.016670128
31	0x3b0c53f4	0.0021412345
32	0x3e297c8f	0.16551422
33	0x3d91a239	0.0711102
34	0x3f39c230	0.7256193
35	0x389055d7	6.882444e-05
36	0x3e89fb44	0.26949513
37	0x3cde7449	0.027155058
38	0x3aebd097	0.0017991242
39	0x3d90d4d6	0.07071845
40	0x3c689cb6	0.014197519
41	0x3b91b4bc	0.004446594
42	0x3d2c046d	0.04199641
43	0x3d8da9c2	0.06917144
44	0x3d372d5e	0.044721
45	0x3c9aef46	0.018912923
46	0x3d5a82aa	0.053347267
47	0x3cab3177	0.02089761
48	0x3dad6142	0.08465816
49	0x3d414f1c	0.047194585
50	0x3dcdea88	0.10054499
51	0x3db1d16f	0.086825244
52	0x3cfce3fe	0.030870434
53	0x3e6340cf	0.22192691
54	0x3f221fe9	0.6332994
55	0x3894cd6d	7.0954535e-05
56	0x3d5e2034	0.05422993
57	0x3c228736	0.009919932
58	0x3b306702	0.0026916866
59	0x3b0bea30	0.0021349303
60	0x3df2f74a	0.11863573
61	0x3dfa686d	0.12226949
62	0x3e4aa63f	0.1978998
63	0x3e3fbfc5	0.18725498
64	0x3c5fb3ff	0.013653754
65	0x3d3f1358	0.046649307
66	0x3cfb5864	0.030681796
67	0x3b6fc8f0	0.0036588274
68	0x3d7976da	0.06090436
69	0x2d56e7b5	1.2215941e-11
70	0x3ebed973	0.37275276
71	0x3e3c3da1	0.18382885
72	0x00000004	6e-45
73	0x3e33806d	0.1752946
74	0x305d802a	8.0581464e-10
75	0x3e2a8880	0.16653633
76	0x3d63c4ff	0.055607792
77	0x3d4b1def	0.049589094
78	0x3d73a12a	0.05947987
79	0x3ba891bd	0.0051443265
80	0x3e4e9f8e	0.20178053
81	0x3d68cfa1	0.056838635
82	0x3cbf2704	0.023334034
83	0x3e6fef62	0.23431161
84	0x3dd5098d	0.10402212
85	0x3d697ced	0.057003904
86	0x3e2de702	0.16982654
87	0x3e1f801c	0.15576214
88	0x3e2526c3	0.16128068
89	0x3df93835	0.12168924
90	0x3d990396	0.07471387
91	0x3c81df1c	0.015853457
92	0x3c9b500e	0.018959071
93	0x3e6e09be	0.23245904
94	0x3e8b7e25	0.27244678
95	0x3dd2b101	0.10287667
96	0x3d14383a	0.036186434
97	0x3bffeee2	0.0078104595
98	0x3de39407	0.11112218
99	0x3d26cf69	0.040725145
100	0x3e85a075	0.26098981
101	0x3e38166c	0.17977303
102	0x3e9f62d2	0.3113008
103	0x3d0736db	0.0330113
104	0x3d9f24ae	0.07770668
105	0x3d5a3ab0	0.053278625
106	0x3e0221af	0.12708162
107	0x3e563864	0.20919949
108	0x3b98ac5d	0.004659219
109	0x08d73f9f	1.2954799e-33
110	0x3cd2654c	0.025683068
111	0x3d82e672	0.0639161
112	0x3b6c010e	0.003601137
113	0x3b50ccf3	0.003186044
114	0x3d4ae652	0.049536057
115	0x3e3065e1	0.17226364
116	0x3e038409	0.12843336
117	0x3e1c50db	0.15265219
118	0x3d851f53	0.06500115
119	0x3eda9d16	0.42697972
120	0x3ed19e85	0.40941253
121	0x3e338a28	0.17533171
122	0x3c042ffd	0.008068082
123	0x3cb3b30c	0.021935962
124	0x3be60399	0.007019472
125	0x3e9f24f5	0.31082883
126	0x3ef51f6c	0.47875535
127	0x3ee4f893	0.44720897

weight f4 [1, 128, 1, 1]
0	0xb9a85881	-0.00032109398
1	0xbe6b6eca	-0.22991481
2	0x3e87a152	0.26490265
3	0x3a1e4ba8	0.00060384953
4	0x3edc6303	0.4304429
5	0x3ed2b67c	0.4115485
6	0x3f0dca8a	0.55387175
7	0xbe96510e	-0.29358715
8	0xbece3332	-0.40273434
9	0x3d1139d1	0.03545553
10	0xb8bf34bc	-9.117412e-05
11	0x3e412e2b	0.18865268
12	0x3efb7620	0.4911356
13	0xbeca99c2	-0.39570433
14	0x3a1dd501	0.0006020815
15	0x3e542ead	0.2072093
16	0xbf1553f9	-0.5833126
17	0xbe1806f9	-0.1484641
18	0x3e8c7dc4	0.27439702
19	0xbd96db1c	-0.073660105
20	0x3ed8aa48	0.42317414
21	0x3ec94268	0.39308476
22	0xbe6febbc	-0.2342977
23	0x3e2c094f	0.16800426
24	0x35982b38	1.1337461e-06
25	0xbdd845ab	-0.10560163
26	0xbeb40f85	-0.3516809
27	0xbe813ff0	-0.25244093
28	0xbe4d943a	-0.20076075
29	0x3eda6509	0.4265521
30	0x3ec8aa47	0.3919241
31	0x3df49e56	0.11944263
32	0x3e384318	0.17994344
33	0xbd926a13	-0.07149138
34	0xbecce783	-0.4002038
35	0x39c3caea	0.0003734448
36	0xbe6c209d	-0.23059316
37	0x3c6b9d2b	0.0143807335
38	0xbe504014	-0.20336944
39	0x3e9516c5	0.29118934
40	0xbdcdfed2	-0.10058369
41	0x3ec04d87	0.3755915
42	0xbe8448d2	-0.25836807
43	0xbe8d9988	-0.27656198
44	0x3e47304a	0.19452015
45	0xbe6cab9d	-0.2311234
46	0x3e14711b	0.14496271
47	0x3e78e308	0.24305356
48	0x3e9c2ed0	0.30504465
49	0x3e8d26d8	0.27568698
50	0x3dc3ab7e	0.09554194
51	0x3edeb57e	0.43497843
52	0x3f026073	0.5092842
53	0xbe5c4cc6	-0.21513662
54	0xbe844aa8	-0.25838208
55	0x39a61773	0.00031679458
56	0x3ef0e3ff	0.47048947
57	0xbdf20bbc	-0.118186444
58	0x3ed8bf17	0.4233329
59	0xbec5a1c8	-0.38599992
60	0x3eea291f	0.45734498
61	0xbe2f76b0	-0.1713512
62	0xbeda527b	-0.42641053
63	0xbe864a3e	-0.26228517
64	0x3ead8a26	0.3389446
65	0xbe241e64	-0.16027218
66	0xbe7fa0f6	-0.24963745
67	0xbd47cc9d	-0.04877912
68	0xbec5c363	-0.3862563
69	0xb44c626e	-1.9034789e-07
70	0x3e941b77	0.28927204
71	0x3dc588c8	0.096452296
72	0x38100531	3.433711e-05
73	0xbe33c015	-0.17553742
74	0x368df2ae	4.230379e-06
75	0xbec4a949	-0.38410404
76	0x3e69c15b	0.22827666
77	0x3e9e8580	0.30961227
78	0xbe9f20f6	-0.31079835
79	0xbe6d71ad	-0.23187895
80	0x3e0202ad	0.12696333
81	0x3eec1194	0.4610716
82	0xbe32ade5	-0.17449148
83	0xbe43540e	-0.19075033
84	0x3eb56847	0.3543112
85	0xbedafb8a	-0.42770034
86	0xbe81427c	-0.25246036
87	0xbe9793d2	-0.29604965
88	0xbe3be21a	-0.1834797
89	0x3dd22e7d	0.10262773
90	0x3ebdf5b9	0.37101534
91	0x3ebf29d4	0.373366
92	0xbcf68eea	-0.030097444
93	0x3e15e3c5	0.14637668
94	0x3ec637df	0.387145
95	0xbd9b73c5	-0.07590441
96	0x3e9521cb	0.29127344
97	0x3eca3e72	0.39500767
98	0xbe0417fc	-0.12899774
99	0xbe7383cf	-0.2378075
100	0x3cb5436f	0.022126881
101	0xbee84309	-0.45363644
102	0xbeaa0ddb	-0.33213696
103	0xbf06b45b	-0.5261895
104	0x3e57d6fa	0.21078101
105	0xbef24646	-0.4731924
106	0xbef8d4c3	-0.48599824
107	0xbeb86aeb	-0.36019072
108	0x3e673f36	0.22582707
109	0x384f0845	4.9360347e-05
110	0x3dc3f51e	0.09568237
111	0x3e73f7ba	0.23824969
112	0x3d2da823	0.042396676
113	0x3bbb2365	0.0057110065
114	0xbedf4424	-0.43606675
115	0xbea24c3f	-0.31698796
116	0xbdfc4d18	-0.12319392
117	0x3ea09d41	0.31369975
118	0x3e0788cd	0.13235779
119	0x3dcc82e8	0.09985906
120	0xbe55f46f	-0.20894025
121	0x3e88a28d	0.26686516
122	0xbe55ccbd	-0.20878883
123	0xbdafaf0e	-0.08578311
124	0x3ed39e4c	0.41331708
125	0x3e8855d1	0.26627973
126	0x3e808a2c	0.25105417
127	0xbe721242	-0.23639777
