data/ball_data/model_1000.pth (torch_old, 853498 bytes, 13 tensors)

weight f4 [64, 1, 5, 5]
-0.048669986 0.031074882 0.031075416 0.00303152 0.045551095 -0.06905577 -0.07718048 0.08297732
0.04132581 0.036489394 -0.08805661 0.015340355 -0.07838322 0.0457858 0.055194054 -0.12869576
-0.11505767 0.05550569 -0.07384246 0.056534395 0.046503093 -0.061901633 0.004895399 -0.030479867
-0.015419087 0.11403871 -0.088324346 0.03543386 -0.035734467 0.0054361285 0.06565956 0.046415918
-0.07482965 -0.07645824 0.040681608 0.078820206 0.024070881 -0.07735652 -0.035620958 -0.048173025
-0.044838693 0.038088176 0.00036913986 -0.014107598 0.048176307 0.0397048 0.07288368 -0.009890532
-0.063387044 0.0069522792 0.09186047 0.017716242 -0.001280704 -0.0699387 0.006248594 -0.018809434
0.1012003 0.09171765 -0.08459642 -0.07275657 0.065144435 0.073850796 0.023477523 -0.07181624
-0.0014087034 0.05086252 -0.04534559 -0.07589018 0.06707989 -0.079289645 0.058863465 0.031617
0.10349461 -0.057309832 0.051202726 -0.028772091 -0.05691606 0.00020643335 0.016776241 -0.1010243
0.074361145 -0.014615755 -0.019313255 -0.087028764 -0.14328235 -0.06498671 0.017293297 -0.063234895
-0.04495088 0.015616592 0.006587962 -0.027012683 -0.07801053 -0.015690416 -0.06826847 0.049733788
-0.059928373 0.07583522 0.04752483 -0.032318555 -0.029373186 0.02014458 0.0044621835 0.055339925
0.056279138 -0.013606768 0.004350946 0.03548714 -0.102183245 -0.037159394 -0.04425186 0.14744423
-0.031446803 -0.071843185 0.079433 0.06535014 0.09347941 -0.06879393 -0.10538574 -0.039304253
-0.03216415 -0.024370942 -0.0621376 -0.0127089 0.0964649 0.055770192 0.007031957 -0.08495116
0.014526189 -0.0026771696 0.025838327 0.003913424 -0.070567474 0.052713197 0.054175474 -0.03971889
-0.017980935 0.09297892 0.118287414 0.0070147235 -0.05515102 -0.122526444 -0.10443319 -0.04437052
-0.022329483 0.02571796 -0.089667685 0.06271564 0.09403735 -0.06476797 -0.04552137 0.03182006
-0.009953935 -0.057797205 0.0042765928 0.0251772 0.07268864 -0.022419887 0.08102623 0.06873312
0.028006878 -0.06957269 -0.035747577 0.09684279 -0.0041857595 -0.07341331 -0.02924878 -0.012212365
0.04126276 0.08830884 -0.07909809 -0.12031481 -0.076382555 -0.05787307 0.049165115 -0.06898641
0.067450866 -0.08922132 -0.054047603 -0.08018293 -0.072906025 -0.04854252 0.028983483 -0.03558984
0.05353046 0.06982402 0.084105015 0.007939146 0.09043999 -0.0097474465 0.015151861 0.043018613
0.040954415 0.0030246605 0.03520105 -0.07482463 0.001185802 -0.05042804 0.025712583 0.041753154
0.06677506 0.051942445 0.08660553 0.009162895 0.08762725 0.024728585 -0.07893644 -0.047861334
-0.05415582 0.060516175 -0.065415286 -0.00591192 -0.040114705 -0.09534503 -0.039794195 -0.097526565
-0.07596093 -0.043447748 0.016506951 -0.010580569 0.036154304 0.084818564 0.018413117 0.040661994
0.07102381 0.094319925 -0.010824198 0.10674063 0.12253469 0.040020213 0.033713724 -0.12628837
-0.09012973 -0.024117872 -0.05866805 -0.04649599 -0.101119764 0.004572243 0.020359281 0.029331366
0.06934651 -0.09361304 -0.084312946 0.049530514 0.019804817 0.051465116 -0.047121238 0.028471244
-0.03285958 -0.03710244 -0.08482982 -0.03159936 0.027447622 -0.0042221798 -0.040504817 0.049275294
00000000: 2e5a 47bd c090 fe3c df91 fe3c 77ac 463b
00000010: c993 3a3d 1d6d 8dbd cd10 9ebd 03f0 a93d
00000020: 4145 293d e775 153d 0657 b4bd 1d56 7b3c
00000030: 6287 a0bd e489 3b3d 2913 623d d2c8 03be
00000040: 5ba3 ebbd ef59 633d b73a 97bd 9c90 673d
00000050: 077a 3e3d 918c 7dbd 9569 a03b eab0 f9bc
00000060: 57a0 7cbc 218d e93d 65e3 b4bd 1823 113d
00000070: 4e5e 12bd 8d21 b23b 8578 863d 9e1e 3e3d
00000080: 4a40 99bd 2396 9cbd c2a1 263d 7d6c a13d
00000090: 4c30 c53c 186d 9ebd 48e7 11bd 1451 45bd
000000a0: c7a8 37bd 5902 1c3d 1d89 c139 8e23 67bc
000000b0: 8554 453d 80a1 223d 0a44 953d e60b 22bc
000000c0: 11d1 81bd f2cf e33b 5821 bc3d a721 913c
000000d0: 4cdd a7ba 053c 8fbd 01c1 cc3b 3e16 9abc
000000e0: 1a42 cf3d 77d6 bb3d e340 adbd 6601 95bd
000000f0: 726a 853d 163f 973d ef53 c03c 6514 93bd
00000100: 3ea4 b8ba 3855 503d 4cbc 39bd 506c 9bbd
00000110: 2e61 893d 9c62 a2bd d11a 713d d480 013d
00000120: fbf4 d33d b7bd 6abd f3b9 513d 73b3 ebbc
00000130: d120 69bd 0876 5839 546e 893c d4e5 cebd
00000140: a84a 983d eb76 6fbc d536 9ebc 233c b2bd
00000150: 9cb8 12be c117 85bd acaa 8d3c 4c81 81bd
00000160: 6a1e 38bd bcdc 7f3c d5df d73b b449 ddbc
00000170: fcc3 9fbd 3089 80bc 57d0 8bbd a8b5 4b3d
00000180: 7477 75bd 7f4f 9b3d 65a9 423d 7660 04bd
00000190: 09a0 f0bc 3f06 a53c 8237 923b 1eac 623d
000001a0: f484 663d ecee 5ebc 6192 8e3b f75a 113d
000001b0: 7345 d1bd 7334 18bd 7041 35bd 9ffb 163e
000001c0: 5dce 00bd 8522 93bd c5ad a23d 4bd6 853d
000001d0: 2272 bf3d d5e3 8cbd 7bd4 d7bd 7ffd 20bd
000001e0: 8ebe 03bd 92a5 c7bc ff83 7ebd fd38 50bc
000001f0: 648f c53d 496f 643d 556c e63b e0fa adbd
00000200: 41ff 6d3c 7473 2fbb e6aa d33c 2e3c 803b
00000210: ae85 90bd cbe9 573d 1ae7 5d3d 46b0 22bd
00000220: c14c 93bc bb6b be3d ac40 f23d c4db e53b
00000230: 09e6 61bd 25ef fabd 11e1 d5bd ddbd 35bd
00000240: 52ec b6bc 79ae d23c b1a3 b7bd 0f71 803d
00000250: a796 c03d 12a5 84bd 9e74 3abd c055 023d
00000260: d415 23bc c3bc 6cbd a922 8c3b 6a40 ce3c
00000270: c8dd 943d e9a9 b7bc 14f1 a53d f3c3 8c3d
00000280: ae6e e53c 207c 8ebd 0d6c 12bd 8355 c63d
00000290: b228 89bb b859 96bd 239b efbc 5f16 48bc
000002a0: 2403 293d 44db b43d 2efe a1bd 9c67 f6bd
000002b0: 756e 9cbd 500c 6dbd 5c61 493d bf48 8dbd
000002c0: ae23 8a3d abb9 b6bd 0561 5dbd f336 a4bd
000002d0: c14f 95bd 85d4 46bd c56e ed3c a7c6 11bd
000002e0: c142 5b3d e5ff 8e3d 403f ac3d 3113 023c
000002f0: 9a38 b93d c1b3 1fbc 833f 783c 4934 303d
00000300: d1bf 273d 6239 463b fa2e 103d a83d 99bd
00000310: ea6c 9b3a a28d 4ebd 32a3 d23c 5b05 2b3d
00000320: 5dc1 883d 9ac1 543d 3d5e b13d f81f 163c
00000330: ea75 b33d 9a93 ca3c 6ea9 a1bd 3f0a 44bd
00000340: 7ed2 5dbd cfdf 773d 73f8 85bd c8b8 c1bb
00000350: 514f 24bd 4144 c3bd 3dff 22bd 02bc c7bd
00000360: 6791 9bbd 44f6 31bd 9639 873c 1f5a 2dbc
00000370: 8916 143d 5bb5 ad3d 1bd7 963c 318d 263d
00000380: ee74 913d ce2a c13d fa57 31bc d59a da3d
00000390: 78f3 fa3d 3cec 233d 6717 0a3d bd51 01be
000003a0: f095 b8bd d892 c5bc e94d 70bd 9472 3ebd
000003b0: e117 cfbd c1d2 953b 82c8 a63c 5548 f03c
000003c0: 8b05 8e3d 32b8 bfbd 44ac acbd 82e0 4a3d
000003d0: b63d a23c 16cd 523d 3302 41bd 873c e93c
000003e0: c497 06bd baf8 17bd 42bb adbd 556e 01bd
000003f0: d6d9 e03c 365a 8abb 61e8 25bd e4d4 493d

bias f4 [64]
-0.07390396 -0.014810015 -0.041738402 -0.09322163 -0.04979544 -0.04941829 -0.059167515 0.038527664
-0.047997236 -0.03370748 -0.048773587 -0.052629437 -0.08380152 -0.0597729 -0.07446052 -0.04256274
-0.092972346 -0.029903883 -0.1082206 -0.04209535 0.017598493 -0.015436181 -0.10157917 -0.00772546
-0.052496254 -0.016348202 -0.012875972 -0.12625019 -0.0066876328 -0.07680492 -0.022953533 0.044284634
0.041501835 -0.04747844 -0.048919924 0.0048194746 -0.07958457 -0.04109105 -0.11233697 -0.024658464
0.01027652 -0.036184542 0.026398262 -0.06058454 -0.032215763 -0.025594203 -0.12571795 -0.034641158
-0.051085774 -0.04703634 0.05311505 0.008720652 -0.10165768 0.04806432 -0.082913674 -0.040341422
-0.013112488 -0.025633803 0.013224799 -0.060005113 -0.09855344 0.010034361 -0.060107715 -0.021994364
00000000: f65a 97bd b5a5 72bc e3f5 2abd fbea bebd
00000010: 4ef6 4bbd d56a 4abd a359 72bd 2fcf 1d3d
00000020: c098 44bd db10 0abd d0c6 47bd f791 57bd
00000030: 22a0 abbd 6ed4 74bd c27e 98bd 4556 2ebd
00000040: 4968 bebd fdf8 f4bc c3a2 ddbd 2c6c 2cbd
00000050: b72a 903c 09e8 7cbc bd08 d0bd db25 fdbb
00000060: 5006 57bd aaec 85bc bef5 52bc bb47 01be
00000070: ee23 dbbb e64b 9dbd 0c09 bcbc ce63 353d
00000080: d4fd 293d c178 42bd 4260 48bd afec 9d3b
00000090: 3cfd a2bd 174f 28bd ed10 e6bd 8c00 cabc
000000a0: d95e 283c 3e36 14bd 2b41 d83c 7f27 78bd
000000b0: adf4 03bd efaa d1bc 35bc 00be e3e3 0dbd
000000c0: 513f 51bd 2da9 40bd 2b8f 593d 11e1 0e3c
000000d0: e731 d0bd 18df 443d a5ce a9bd 0c3d 25bd
000000e0: c3d5 56bc fbfd d1bc d4ac 583c ecc7 75bd
000000f0: 63d6 c9bd 2967 243c 8233 76bd 862d b4bc

weight f4 [64]
0.4302847 0.6291882 0.5419296 0.61530215 0.36142263 0.47878277 0.1550723 0.8392995
0.68369997 0.5313942 0.45058948 0.7878518 0.5197072 0.7529123 0.070586056 0.5689561
0.43188345 0.1166407 0.78379595 0.08199963 0.69852203 0.6191601 0.074060544 0.82640094
0.9278987 0.7087112 0.30600855 0.10041875 0.85417247 0.8692803 0.14975575 0.1259361
0.30742022 0.7774731 0.7913469 0.8950364 0.16640946 0.27359414 0.036893398 0.8456417
0.5020014 0.21487522 0.40494 0.3125245 0.3120335 0.82740873 -0.027157187 0.6167562
0.36559162 0.7951143 0.56020117 0.41484365 0.22998299 0.17624813 0.24515106 0.7925995
0.6106926 0.46860743 0.9029648 0.3851971 0.7480366 0.7817226 0.64985013 0.94378936
00000000: 474e dc3e 7a12 213f e6bb 0a3f 7184 1d3f
00000010: 630c b93e 0423 f53e 46cb 1e3e 55dc 563f
00000020: f606 2f3f 7309 083f aab3 e63e a8b0 493f
00000030: 880b 053f dcbe 403f 6c8f 903d 1ba7 113f
00000040: d41f dd3e 52e1 ee3d daa6 483f 6cef a73d
00000050: 57d2 323f 4781 1e3f 0ead 973d 038f 533f
00000060: c58a 6d3f 196e 353f 27ad 9c3e 58a8 cd3d
00000070: 0cab 5a3f 2789 5e3f 9259 193e 65f5 003e
00000080: 2f66 9d3e 7a08 473f b695 4a3f 1b21 653f
00000090: 3e67 2a3e 8814 8c3e 881d 173d f97b 583f
000000a0: 2a83 003f 4008 5c3e 4c54 cf3e 3603 a03e
000000b0: dbc2 9f3e 0fd1 533f c078 debc bce3 1d3f
000000c0: d32e bb3e 9c8c 4b3f 5869 0f3f 6366 d43e
000000d0: a980 6b3e 647a 343e e108 7b3e cde7 4a3f
000000e0: 5a56 1c3f 50ed ef3e b328 673f 8e38 c53e
000000f0: 547f 3f3f f91e 483f 945c 263f 2e9c 713f

bias f4 [64]
-0.06819972 -0.042870104 -0.010497863 0.0601233 0.09700238 0.05970899 0.11128842 0.042010862
0.10938877 0.08121695 0.06131435 0.12667975 -0.056948327 -0.033813816 0.26140007 -0.059013203
0.13059637 -0.095855005 0.008226054 0.00300617 -0.115888596 0.08205627 -0.2484451 0.016014492
0.051702525 -0.09502062 0.07391544 -0.1363606 -0.16926238 -0.049348574 -0.13959582 -0.09514416
-0.049447145 -0.0049974006 -0.038721386 -0.05997991 0.18957016 -0.13265729 -0.25774026 -0.038843166
-0.08103295 -0.16029558 0.03717186 -0.11356059 0.13703309 -0.09632402 -0.31807733 0.15704711
-0.10849978 -0.07304218 0.051780257 0.00964557 0.111994006 0.022180764 0.13279267 -0.031850398
-0.09099908 -0.049359586 0.057141136 -0.046042863 -0.084581904 0.06461034 -0.019945586 -0.032116856
00000000: 4bac 8bbd 9098 2fbd 3bff 2bbc d943 763d
00000010: 2fa9 c63d 6a91 743d 2feb e33d 9513 2c3d
00000020: 3807 e03d 1355 a63d c224 7b3d 56b8 013e
00000030: a642 69bd 5b80 0abd 3bd6 853e d4b7 71bd
00000040: 0ebb 053e a14f c4bd 92c6 063c 2a03 453b
00000050: 0057 edbd 1e0d a83d 6468 7ebe d330 833c
00000060: 07c6 533d 2c9a c2bd fa60 973d 1da2 0bbe
00000070: 1e53 2dbe bb21 4abd 35f2 0ebe f1da c2bd
00000080: 1789 4abd 3cc1 a3bb 519a 1ebd 7ead 75bd
00000090: ae1e 423e 50d7 07be 88f6 83be 031a 1fbd
000000a0: 9af4 a5bd 8624 24be 8541 183d 7492 e8bd
000000b0: 6752 0c3e 8745 c5bd 08db a2be f5d0 203e
000000c0: 2235 debd 2397 95bd 8917 543d 7408 1e3c
000000d0: 1d5d e53d 6fb4 b53c cdfa 073e 9075 02bd
000000e0: ba5d babd 472d 4abd d30c 6a3d 7197 3cbd
000000f0: 4739 adbd 6d52 843d ed64 a3bc f78c 03bd

running_mean f4 [64]
0.033092037 0.021857664 0.038572203 0.06772022 0.009557751 0.015678555 0.025485907 0.05332831
0.020297334 0.02144675 0.009179883 0.013433033 0.01908072 0.022223495 0.026854206 0.015479147
0.0068100756 0.031988375 0.009777669 0.008556968 0.04765526 0.013704842 0.038832422 0.041523457
0.01876679 0.10285241 0.021451483 0.014041134 0.037591476 0.021915782 0.010722231 0.059689224
0.056345444 0.02045466 0.030826716 0.06674836 0.0140554225 0.010019422 0.02453339 0.028465588
0.031158919 0.011539848 0.062646635 0.015325155 0.011029226 0.024577625 0.013269457 0.011863265
0.042886943 0.033811312 0.07105311 0.03554318 0.0107963495 0.06425429 0.0062065115 0.02839518
0.03137575 0.028652752 0.04227891 0.027804628 0.029060032 0.040634595 0.010390837 0.028095338
00000000: 848b 073d d80e b33c e3fd 1d3d e6b0 8a3d
00000010: 1d98 1c3c 5070 803c d2c7 d03c c96e 5a3d
00000020: 9846 a63c 18b1 af3c 3867 163c 3916 5c3c
00000030: 2c4f 9c3c 0c0e b63c 5afd db3c 409c 7d3c
00000040: 0e27 df3b 3e06 033d 8432 203c 8632 0c3c
00000050: 2932 433d 468a 603c bf0e 1f3d 8014 2a3d
00000060: d0bc 993c 49a4 d23d 05bb af3c c90c 663c
00000070: 85f9 193d ba88 b33c 4cac 2f3c b07c 743d
00000080: 7bca 663d 8890 a73c 4f88 fc3c 5db3 883d
00000090: b748 663c 8028 243c 3ffa c83c aa30 e93c
000000a0: fd40 ff3c a111 3d3c e14c 803d 5c16 7b3c
000000b0: edb3 343c 0457 c93c 2368 593c 245e 423c
000000c0: 38aa 2f3d bb7d 0a3d 4b84 913d ba95 113d
000000d0: 2ce3 303c c197 833d fe5f cb3b 029d e83c
000000e0: dc83 003d 2db9 ea3c a62c 2d3d 88c6 e33c
000000f0: 4e0f ee3c 7670 263d 543e 2a3c 3228 e63c

running_var f4 [64]
0.006390982 0.0032932973 0.007394615 0.016500486 0.0012142344 0.002071796 0.0050623757 0.0048032096
0.0033968575 0.0033653378 0.0010701605 0.0017780589 0.0027137245 0.0039061236 0.004206594 0.0021766606
0.0009434033 0.0045541083 0.0018970479 0.00070759206 0.0035652772 0.001426874 0.00846719 0.0070847445
0.002950972 0.03555531 0.0018556095 0.0018997518 0.007898789 0.0033579718 0.0008281785 0.004487576
0.0052962033 0.0029768609 0.004635935 0.008880677 0.002509719 0.0014698264 0.0042278217 0.004429351
0.0030405878 0.0015962062 0.0093118735 0.0025842686 0.00097192416 0.0038515422 0.001836882 0.0015553994
0.008227365 0.00600933 0.0074898275 0.0037066352 0.0014561795 0.0053946166 0.00074329606 0.004270198
0.0044707116 0.002878632 0.0040427865 0.0045553283 0.005383429 0.0055013252 0.0012344342 0.0048050894
00000000: 716b d13b 5cd4 573b 874e f23b 072c 873c
00000010: f226 9f3a f8c6 073b 49e2 a53b 3e64 9d3b
00000020: d09d 5e3b 008d 5c3b a144 8c3a c20d e93a
00000030: bed8 313b e1fd 7f3b 78d7 893b 4ea6 0e3b
00000040: b94e 773a a13a 953b 5da6 f83a b37d 393a
00000050: 6da7 693b f205 bb3a f8b9 0a3c 2527 e83b
00000060: 1865 413b 72a2 113d ec37 f33a 1801 f93a
00000070: ec69 013c 6b11 5c3b 1e1a 593a 840c 933b
00000080: c68b ad3b 7017 433b 0be9 973b 4280 113c
00000090: 197a 243b 31a7 c03a 8a89 8a3b 1724 913b
000000a0: 9944 473b cb37 d13a d490 183c d55c 293b
000000b0: bac8 7e3a 286a 7c3b 88c3 f03a 8bde cb3a
000000c0: 12cc 063c eae9 c43b 3a6d f53b 05eb 723b
000000d0: 47dd be3a 53c5 b03b c1d9 423a 04ed 8b3b
000000e0: 0c7f 923b 6ea7 3c3b 5a79 843b dd44 953b
000000f0: 7a67 b03b 7644 b43b bdcc a13a 0374 9d3b

weight f4 [128, 64, 5, 5]
0.029748179 0.01443053 -0.020832472 -0.0061763544 -0.022789814 0.024578827 -0.012482508 -0.0026327963
-0.01883337 -0.0017668422 0.0063433186 -0.015522166 -0.008250987 -0.028189069 0.003899379 0.014846842
-0.020452768 -0.011513071 -0.001967294 -0.011098773 -0.047907654 -0.019143961 -0.029726004 -0.027764555
-0.005584332 0.027591167 7.299733e-05 0.014175781 -0.019657038 0.0073244777 0.032157723 0.02257085
0.007919748 0.021889843 0.039851878 0.019906867 0.014165227 -0.008499209 -0.013350846 -0.0032003515
-0.04164823 -0.02799007 -0.023702413 0.025790242 -0.013406509 -0.050061863 0.008402592 0.0047636763
-0.027497709 -0.018463165 -0.010310391 -0.037356205 0.01675138 -0.006654876 -0.026810821 0.03739335
-0.02094248 0.036794446 0.019252457 -0.014922384 -0.0066127493 -0.0058988547 0.01659905 0.017266987
0.0046425117 -0.015371131 0.012735778 0.018267417 0.0068691284 0.032663006 -0.04491161 -0.00865251
-0.0011014479 0.01131563 0.013082584 -0.05394786 -0.04207224 -0.057324067 -0.04729687 -0.012937564
-0.033202887 -0.047696307 -0.03489637 -0.032487918 -0.045939077 0.0067182337 -0.0045051873 0.00089403254
-0.008537793 -0.010661843 -0.039114125 -0.03815717 -0.034225352 0.00019237732 -0.0076504676 -0.027939852
-0.026849942 -0.010930568 -0.02371782 -0.015838249 0.020123275 -0.02138432 -0.00714332 -0.0075700823
0.023850169 -0.015109616 -0.02907585 0.0009547965 0.022694176 0.0060163527 0.01320032 0.010932578
-0.035431366 0.025008647 0.010929859 0.016769009 0.023590766 0.027692651 -0.0009239607 0.005945824
-0.009067222 0.019192297 0.003610026 -0.0010974655 0.016802965 0.0014704161 -0.012172813 0.0074230637
0.0032640141 -0.0039939494 0.01116078 0.0011537051 0.0030838065 0.00021448148 0.007446797 0.025332736
-0.0012610471 0.0020784233 -0.011980761 0.024371235 -0.027049286 -0.023873016 -0.032992028 -0.020811943
0.009986238 0.00013330487 0.02345265 -0.026465135 -0.0025528392 -0.010392109 0.0006740848 -0.0001724412
-0.001932163 0.0033781873 0.0026140471 -0.00071129453 -0.00058459025 0.0033998487 -0.0018091741 0.006666247
-0.004144519 -0.0018992574 -0.0032561454 -0.010194565 0.005759913 -0.008410106 -0.011753021 -0.00072077266
-0.0047116 0.004910627 0.0043302397 -0.0060864408 0.002084225 0.0029242076 -0.0074058603 0.009777571
0.0152752865 0.01928366 0.009563041 0.016764706 0.019676233 0.005270161 0.03719985 -0.03191708
0.021179805 -0.022267697 -0.0037147996 -0.016762214 0.010732845 0.014599956 -0.014769193 0.028258795
0.0103210565 -0.03397085 0.005780682 0.033910688 0.005921057 0.017496761 -0.0014210315 -0.047455024
0.032016136 0.0039544282 0.011146025 0.0021333082 0.022589533 0.040056556 0.014642716 0.0011516812
0.0066418233 0.0026613828 0.0074365125 0.025651759 -0.013969223 0.00087133504 0.014093142 0.062657304
0.040833782 -0.017652273 -0.022486318 0.002357918 0.02286303 -0.021110428 -0.008615282 -0.030227939
-0.013219501 0.010126897 0.01350352 -0.0127238035 6.4401465e-05 -0.010603541 -0.029280366 -0.014875725
0.01862159 0.0046001743 0.032504585 -0.0065023405 -0.0047768564 -0.029132098 0.008197316 0.03509675
0.014018975 0.019877804 -0.0055544493 -0.018760301 -0.008208461 -0.0067570256 0.011755734 -0.02063362
0.028924057 0.015281766 0.025035117 0.0055081886 -0.016049849 0.021883985 0.004300837 0.019935109
00000000: 74b2 f33c 086e 6c3c dca8 aabc 0463 cabb
00000010: b4b1 babc 8959 c93c 6f83 4cbc fe8a 2cbb
00000020: 7148 9abc 6395 e7ba 9ddb cf3b af50 7ebc
00000030: 262f 07bc c3ec e6bc b98c 7f3b 2b40 733c
00000040: 908c a7bc 52a1 3cbc b7ed 00bb a1d7 35bc
00000050: d13a 44bd ccd3 9cbc f383 f3bc 7e72 e3bc
00000060: c6fc b6bb df06 e23c 2516 9938 8941 683c
00000070: cc07 a1bc 2c02 f03b d1b7 033d 81e6 b83c
00000080: d5c1 013c 5452 b33c b93b 233d ba13 a33c
00000090: 4515 683c 4440 0bbc 82bd 5abc fdbc 51bb
000000a0: 5697 2abd 6e4b e5bc 902b c2bc 0f46 d33c
000000b0: f9a6 5bbc ab0d 4dbd 06ab 093c 9d18 9c3b
000000c0: e042 e1bc 1040 97bc eaec 28bc d202 19bd
000000d0: 313a 893c 2511 dabb 5ea2 dbbc c529 193d
000000e0: 908f abbc c6b5 163d 54b7 9d3c 047d 74bc
000000f0: c3af d8bb 2e4b c1bb bbfa 873c 7f73 8d3c
00000100: 3620 983b 32d7 7bbc b9a9 503c 8da5 953c
00000110: 6d16 e13b a5c9 053d 3df5 37bd 42c3 0dbc
00000120: 755e 90ba 3165 393c 5658 563c 6ef8 5cbd
00000130: f153 2cbd a4cc 6abd 5dba 41bd 14f8 53bc
00000140: c0ff 07bd 345d 43bd 7fef 0ebd 0d12 05bd
00000150: 9d2a 3cbd a124 dc3b 40a0 93bb 825d 6a3a
00000160: 19e2 0bbc 03af 2ebc 2236 20bd b14a 1cbd
00000170: e22f 0cbd e5b8 4939 c6b0 fabb 1ee2 e4bc
00000180: 69f4 dbbc 2016 33bc e04b c2bc 37bf 81bc
00000190: 91d9 a43c 2b2e afbc 8312 eabb 740e f8bb
000001a0: 6e61 c33c 538e 77bc 7a30 eebc 4f4b 7a3a
000001b0: 23e9 b93c d324 c53b 2846 583c 8e1e 333c
000001c0: 7b20 11bd efde cc3c 2713 333c 295f 893c
000001d0: 6c41 c13c b3db e23c f435 72ba 30d5 c23b
000001e0: af8e 14bc 2a39 9d3c 3096 6c3b d5d8 8fba
000001f0: 5fa6 893c faba c03a 7a70 47bc 2c3d f33b
00000200: 12e9 553b addf 82bb b4db 363c eb37 973a
00000210: b019 4a3b 6fe6 6039 4304 f43b 9986 cf3c
00000220: b849 a5ba 2836 083b f44a 44bc 2fa6 c73c
00000230: 7796 ddbc 5891 c3bc a622 07bd cf7d aabc
00000240: 519d 233c c1c7 0b39 c61f c03c 69cd d8bc
00000250: 894d 27bb aa43 2abc 11b5 303a 55d1 34b9
00000260: a240 fdba 9464 5d3b 6f50 2b3b 2b76 3aba
00000270: 303f 19ba ffcf 5e3b cf21 edba 8870 da3b
00000280: bfce 87bb 81f0 f8ba 0e65 55bb 1b07 27bc
00000290: a7bd bc3b 8bca 09bc be8f 40bc 3cf2 3cba
000002a0: c463 9abb 53e9 a03b afe4 8d3b c470 c7bb
000002b0: 7e97 083b 10a4 3f3b dcac f2bb 1b32 203c
000002c0: 3245 7a3c c4f8 9d3c 4dae 1c3c 2356 893c
000002d0: 0d30 a13c 51b1 ac3b df5e 183d 7cbb 02bd
000002e0: 4581 ad3c bf6a b6bc ff73 73bb e950 89bc
000002f0: d1d8 2f3c a734 6f3c 7cfa 71bc fd7e e73c
00000300: a619 293c 0525 0bbd e06b bd3b efe5 0a3d
00000310: 6d05 c23b 5e55 8f3c e841 baba 3360 42bd
00000320: 5a23 033d 2694 813b d19d 363c f9ce 0b3b
00000330: af0d b93c 5812 243d 01e8 6f3c 02f4 963a
00000340: a7a3 d93b 986a 2e3b fdad f33b a323 d23c
00000350: 2bdf 64bc 4e6a 643a ece6 663c 7952 803d
00000360: 5341 273d 809b 90bc 3a35 b8bc 4d87 1a3b
00000370: 404b bb3c c7ef acbc 1d27 0dbc 95a0 f7bc
00000380: 9b96 58bc 49eb 253c de3d 5d3c 8077 50bc
00000390: 460f 8738 79ba 2dbc 61dd efbc 50b9 73bc
000003a0: 4e8c 983c 0fbd 963b 8723 053d 9611 d5bb
000003b0: 2d87 9cbb 70a6 eebc 094e 063c 9cc1 0f3d
000003c0: d8af 653c c7d6 a23c 1902 b6bb 34af 99bc
000003d0: c87c 06bc 0a6a ddbb 1f9b 403c d607 a9bc
000003e0: 25f2 ec3c 5f60 7a3c 7216 cd3c 097e b43b
000003f0: f97a 83bc 0b46 b33c 09ee 8c3b f44e a33c

bias f4 [128]
0.009080469 -0.013346671 -0.024836548 0.0071529625 -0.009600313 -0.036645282 -0.015094103 -0.010119846
-0.00029009473 -0.025915004 -0.0069056307 -0.053896755 -0.09734657 -0.05613688 -0.05763141 -0.07897447
-0.035409268 -0.0075665354 -0.016733443 -0.049514383 -0.094149 -0.051048335 -0.02439946 -0.04109194
-0.003112997 -0.0016433641 -0.04783541 -0.027688814 0.0006287468 -0.048973493 -0.18225808 -0.023539515
-0.004358113 -0.047800608 0.007561374 -0.033141892 -0.05725056 -0.024608832 0.023731615 -0.030218542
-0.05263695 -0.07089918 -0.04806938 -0.027959624 -0.08056905 0.005461752 -0.04424151 -0.12260979
-0.073372826 -0.06277565 -0.00011746014 -0.0067864275 -0.014644607 -0.0041758693 0.010853158 0.0031247353
-0.06099902 0.0021953695 -0.1040538 0.0109843705 -0.02461531 0.009967523 -0.0041904706 0.011681422
-0.099073224 -0.04909599 -8.803816e-05 -0.0028724126 -0.034961443 -0.014653927 0.057230853 -0.06380477
-0.0010293704 -0.04795199 -0.011307922 -0.03496898 -0.043315608 -0.044760156 -0.063468926 0.008816599
-0.037440587 -0.0063439407 -0.05479909 0.031525392 -0.055245664 0.011791035 -0.01728212 -0.070768885
0.0108978 -0.03469866 0.03994665 -0.17492527 0.009239346 -0.012274072 0.050984617 -0.004271931
-0.056163173 -0.043414228 -0.021186503 -0.044987846 -0.034073524 -0.015321574 0.00018514921 -0.033834636
-0.065791994 -0.06762874 -0.015171821 0.013930677 0.0012812946 0.00023462948 -0.017885769 -0.0042614182
-0.032302875 -0.01917069 -0.04874492 -0.055424612 0.012719982 0.019545905 -0.043115914 -0.002600654
0.03396909 -0.03232093 -0.016811432 -0.02243883 -0.092084005 -0.039764855 -0.014810563 0.0014133063
00000000: 3fc6 143c ffab 5abc 0476 cbbc 6663 ea3b
00000010: a24a 1dbc 5d19 16bd 424d 77bc b6cd 25bc
00000020: db17 98b9 b44b d4bc a148 e2bb d8c2 5cbd
00000030: a35d c7bd c9ef 65bd ea0e 6cbd 5ebd a1bd
00000040: 4f09 11bd b3f0 f7bb 9314 89bc 98cf 4abd
00000050: 31d1 c0bd 0f18 51bd 60e1 c7bc 0650 28bd
00000060: 6c03 4cbb 2666 d7ba 10ef 43bd a7d3 e2bc
00000070: 7cd2 243a 6e98 48bd dda1 3abe f1d5 c0bc
00000080: 80ce 8ebb 92ca 43bd 67c5 f73b cbbf 07bd
00000090: 907f 6abd 7698 c9bc ce68 c23c e08c f7bc
000000a0: d899 57bd 9733 91bd 66e4 44bd 950b e5bc
000000b0: 6301 a5bd 7ff8 b23b 9636 35bd d71a fbbd
000000c0: 7e44 96bd 8590 80bd ef54 f6b8 ae60 debb
000000d0: efef 6fbc bbd5 88bb 72d1 313c 5cc8 4c3b
000000e0: 1cda 79bd 30e0 0f3b 291a d5bd caf7 333c
000000f0: 0ca6 c9bc d24e 233c 3750 89bb 6f63 3f3c
00000100: e7e6 cabd e018 49bd 21a1 b8b8 163f 3cbb
00000110: bb33 0fbd 0617 70bc e66a 6a3d 13ac 82bd
00000120: f0eb 86ba 4e69 44bd dd44 39bc a23b 0fbd
00000130: b56b 31bd 6d56 37bd fffb 81bd 7f73 103c
00000140: 4d5b 19bd d5e0 cfbb 0375 60bd c520 013d
00000150: 4749 62bd 2f2f 413c 3c93 8dbc 47ef 90bd
00000160: b08c 323c 2f20 0ebd 199f 233d 9c1f 33be
00000170: a060 173c 3019 49bc 3fd5 503d 8efb 8bbb
00000180: 5b0b 66bd 1ed3 31bd 518f adbc 2d45 38bd
00000190: ae90 0bbd 5707 7bbc 9d24 4239 3096 0abd
000001a0: f4bd 86bd f080 8abd 3b93 78bc 7f3d 643c
000001b0: 1df1 a73a df06 7639 2d85 92bc 5ea3 8bbb
000001c0: 0550 04bd da0b 9dbc c1a8 47bd eb04 63bd
000001d0: 7967 503c bc1e a03c 509a 30bd bc6f 2abb
000001e0: 2c23 0b3d f462 04bd 21b8 89bc a3d1 b7bc
000001f0: 8a96 bcbd 79e0 22bd 01a8 72bc b13e b93a

weight f4 [128]
0.7383323 0.1668904 0.83703876 0.49782854 0.43462154 0.3803088 0.46480367 0.6056249
0.19840565 0.22196725 0.12053516 0.14893763 0.09058644 0.21889156 0.2388789 0.77714616
0.92574334 0.07193371 0.59923595 0.31339043 0.42568317 0.16604604 0.3518932 0.07840556
0.09655416 0.17340273 0.21970032 0.41641942 0.0012395537 0.249852 0.26291412 0.14010216
0.018962527 0.59115 0.7394741 0.51268595 0.9478461 0.32039872 0.24643973 0.7576702
0.24417017 0.6936605 0.122286014 0.104190916 0.67263675 0.2809218 0.6350882 0.94956285
0.86482424 0.31127477 0.48844665 0.7006727 0.53506184 0.27195776 0.5209066 0.3565902
0.47533342 0.10538596 0.35637888 0.96260905 0.9019439 0.61595166 0.9870868 0.2252066
0.8409867 0.22729085 0.52636385 0.68134785 0.6763713 0.75113505 0.80317384 0.60907894
0.119587585 0.14939171 0.33220056 0.4522345 0.8506144 0.93942064 0.085862644 0.0713077
0.7511118 0.83564156 0.17771055 0.31160533 0.84106547 0.66592026 0.27458364 0.83091515
0.459092 0.9244446 0.83500624 0.87292314 0.49057204 0.91946924 0.8754835 0.82910734
0.6800718 0.38790312 0.10262889 0.12006652 0.8134773 0.6628611 0.9610404 0.69582355
0.9367772 0.8781068 0.67001027 0.7947822 -0.002921301 0.2540663 0.082506865 6.794688e-06
0.21290678 0.2848153 0.2224706 0.13069153 0.3217884 0.7182238 0.36574075 0.88281256
0.52878535 0.6292037 0.797815 0.46822137 0.30084747 0.774484 0.67180806 0.8018876
00000000: 5803 3d3f 51e5 2a3e 2c48 563f 62e3 fe3e
00000010: b786 de3e d6b7 c23e bffa ed3e 3c0a 1b3f
00000020: da2a 4b3e 624b 633e 23db f63d 1b83 183e
00000030: 6285 b93d 1c25 603e ac9c 743e 0df3 463f
00000040: 84fd 6c3f fb51 933d 8767 193f b674 a03e
00000050: 25f3 d93e f907 2a3e 582b b43e 1893 a03d
00000060: 30be c53d 7c90 313e 1ff9 603e ed34 d53e
00000070: 8578 a23a 34d9 7f3e ae9c 863e f176 0f3e
00000080: 4d57 9b3c 9b55 173f 2d4e 3d3f 633f 033f
00000090: 0ba6 723f 4d0b a43e b25a 7c3e adf6 413f
000000a0: bf07 7a3e bc93 313f 1771 fa3d 0c62 d53d
000000b0: ec31 2c3f fbd4 8f3e 2495 223f 8d16 733f
000000c0: 1f65 5d3f 685f 9f3e ae15 fa3e 495f 333f
000000d0: d0f9 083f 0c3e 8b3e 235a 053f fe92 b63e
000000e0: e75e f33e 98d4 d73d 4b77 b63e 8c6d 763f
000000f0: cce5 663f 02af 1d3f b8b1 7c3f 8f9c 663e
00000100: e84a 573f efbe 683e c8bf 063f d06c 2e3f
00000110: ab26 2d3f 634a 403f cd9c 4d3f 99ec 1b3f
00000120: 56ea f43d 24fa 183e 3116 aa3e 488b e73e
00000130: dec1 593f df7d 703f c1d8 af3d c509 923d
00000140: dd48 403f 9bec 553f c1f9 353e bc8a 9f3e
00000150: 1150 573f c079 2a3f 3a96 8c3e dbb6 543f
00000160: 1b0e eb3e 67a8 6c3f f8c2 553f e477 5f3f
00000170: 422c fb3e 5662 6b3f b01f 603f 6140 543f
00000180: 2f19 2e3f 3d9b c63e 182f d23d 70e5 f53d
00000190: 0c40 503f 44b1 293f be06 763f 7e21 323f
000001a0: a1d0 6f3f 9bcb 603f cb85 2b3f d976 4b3f
000001b0: 4c73 3fbb fa14 823e 5cf9 a83d edfd e336
000001c0: 3c04 5a3e 50d3 913e 55cf 633e 00d4 053e
000001d0: 73c1 a43e 84dd 373f 5f42 bb3e 0100 623f
000001e0: 7a5e 073f 7e13 213f 9b3d 4c3f b6ba ef3e
000001f0: ae08 9a3e 9544 463f 9dfb 2b3f 8148 4d3f

bias f4 [128]
0.12951484 0.121317424 -0.10815145 0.13993622 -0.11404953 -0.11656256 -0.11663432 0.118628904
0.12721561 -0.11375065 0.058104295 -0.13670695 -0.13216251 0.12796114 -0.18368223 -0.11632434
0.119043924 0.1526687 -0.114964835 0.14900997 -0.11941431 -0.11552302 0.13483636 -0.119728155
-0.035059597 0.13039722 0.13176136 0.13484083 0.22558331 -0.11467603 -0.16262564 -0.114732616
-0.19459996 0.16181223 0.115779236 -0.112313874 0.15461677 -0.12139169 0.11914106 -0.10800935
0.16881058 -0.11419986 0.13105786 0.12771383 -0.12709618 0.118854135 -0.117992945 -0.13330367
-0.11638916 -0.11476076 -0.10745879 -0.113317005 -0.1132197 0.119175404 0.11643234 0.12931374
-0.11576996 0.14077087 -0.11648061 0.11506176 -0.1114808 0.11845849 0.115569875 0.119170375
-0.12199347 0.13423847 0.12032445 0.11878754 0.118046865 0.1450989 -0.113116 -0.1176561
-0.028512767 0.13540217 0.11888218 0.11865506 -0.10423179 -0.10970123 0.13456833 0.12507743
-0.10591354 -0.112782955 0.13995393 0.11411354 -0.113466695 0.11491349 0.12733416 0.13856366
0.11834354 -0.10471688 -0.11123329 -0.14106485 0.12928598 -0.105530955 -0.11357942 0.116698444
-0.10955198 -0.11816697 0.23028974 0.13529047 -0.11217585 0.1183165 0.11239689 0.11883432
-0.149835 0.11876496 0.12118545 0.114165366 -0.23666108 -0.051961955 -0.12015422 -0.14495718
-0.13792256 -0.11603353 0.1210276 0.13464795 0.12095105 -0.11167218 -0.10980837 -0.10594967
0.11482881 -0.10943184 0.12009564 0.15458821 -0.12197297 -0.110069476 -0.11009219 0.11525727
00000000: 8a9f 043e 4575 f83d 827e ddbd 714b 0f3e
00000010: cd92 e9bd 5ab8 eebd f9dd eebd b6f3 f23d
00000020: cf44 023e 1af6 e8bd c5fe 6d3d e8fc 0bbe
00000030: 9c55 07be 3f08 033e 3217 3cbe 753b eebd
00000040: 4dcd f33d 2f55 1c3e af72 ebbd 1296 183e
00000050: 7d8f f4bd 5597 ecbd 8b12 0a3e 0934 f5bd
00000060: a79a 0fbd d986 053e 73ec 063e b713 0a3e
00000070: 50ff 663e 44db eabd 5687 26be eff8 eabd
00000080: 3645 47be 1bb2 253e aa1d ed3d d104 e6bd
00000090: dc53 1e3e 359c f8bd 3a00 f43d 0234 ddbd
000000a0: aedc 2c3e 9ee1 e9bd 0834 063e 6ac7 023e
000000b0: 8025 02be cc69 f33d 49a6 f1bd c280 08be
000000c0: 715d eebd b007 ebbd 5b13 dcbd bf12 e8bd
000000d0: bbdf e7bd 3c12 f43d 1474 ee3d d26a 043e
000000e0: cd18 edbd 3d26 103e 638d eebd 80a5 eb3d
000000f0: 0c50 e4bd 5d9a f23d e6af ec3d 990f f43d
00000100: b6d7 f9bd cf75 093e aa6c f63d e246 f33d
00000110: 8ec2 f13d ce94 143e 5da9 e7bd aef5 f0bd
00000120: 9b93 e9bc dea6 0a3e 8078 f33d 6d01 f33d
00000130: 7a77 d5bd 0aab e0bd 48cc 093e 4c14 003e
00000140: 33e9 d8bd c0fa e6bd 1550 0f3e 5cb4 e93d
00000150: 3a61 e8bd c457 eb3d e363 023e a2e3 0d3e
00000160: 195e f23d ce75 d6bd 47ce e3bd 4e73 10be
00000170: 8b63 043e 9d20 d8bd 549c e8bd 98ff ee3d
00000180: ca5c e0bd 8601 f2bd 13d1 6b3e 9689 0a3e
00000190: 74bc e5bd ec4f f23d 5730 e63d 685f f33d
000001a0: 596e 19be 0b3b f33d 1430 f83d 88cf e93d
000001b0: 4857 72be 0fd6 54bd 6a13 f6bd a86f 14be
000001c0: 923b 0dbe fda2 edbd 51dd f73d 27e1 093e
000001d0: 2fb5 f73d 62b4 e4bd 36e3 e0bd 24fc d8bd
000001e0: 5e2b eb3d cd1d e0bd b4f4 f53d 5f4c 1e3e
000001f0: f7cc f9bd 1b6c e1bd 0478 e1bd 010c ec3d

running_mean f4 [128]
0.88746953 0.14300801 0.101444304 0.7128239 0.14492424 0.06626272 0.009439757 0.21291529
0.35211125 0.14498776 0.15254585 0.12577856 0.11200556 0.10478936 0.19905071 0.046996415
0.17120749 0.41926104 0.23641841 0.14320889 0.13216943 0.08196357 0.4027868 0.2398921
0.07204933 0.6170256 0.07471328 0.24613115 0.1394211 0.0005273795 -0.02673908 0.43044835
0.33261594 0.43051097 0.32297856 0.17716283 0.09565248 0.28835312 0.6432174 0.15452856
0.18469095 0.063202456 0.068559 0.5807418 0.029426064 0.44090268 0.10260415 -0.01160681
0.018631276 0.07199202 0.2731831 0.20990302 0.25285724 0.50951755 0.90583533 0.5618571
0.012517717 0.64583826 0.019698257 0.3401504 0.07588933 0.7549675 0.36246794 0.67957693
0.021571836 0.19959445 0.47470614 0.5474716 0.15376931 0.45730186 0.8108326 0.071210526
0.03806557 0.22508398 0.38248193 0.23547135 0.05968142 0.17041603 0.104868695 0.7202575
0.29369685 0.04904836 0.113972865 0.93858576 0.043428972 0.37211475 0.29869667 0.05338186
0.634578 0.054632533 0.2611533 -0.022794807 0.58123505 0.37477705 0.97747 0.4364099
0.17072956 0.008859783 0.30082467 0.23483723 0.35749382 0.18977664 0.6572441 0.05460744
0.086671054 -0.002226553 0.09944212 0.4008992 0.23571207 0.17147484 0.45817506 0.082187906
0.24810815 0.32791772 0.09963424 0.18477134 0.7533746 0.12738824 0.042112228 0.3494489
1.0285593 0.15932336 0.12824325 0.2573744 -0.013078544 0.14407204 0.46789014 0.72712386
00000000: 3431 633f b170 123e 08c2 cf3d a17b 363f
00000010: 0567 143e c0b4 873d 36a9 1a3c 7706 5a3e
00000020: ed47 b43e ac77 143e fb34 1c3e 18cc 003e
00000030: 2c63 e53d ce9b d63d f3d3 4b3e 507f 403d
00000040: 0451 2f3e 62a9 d63e ab17 723e 5aa5 123e
00000050: 6c57 073e 84dc a73d 123a ce3e 46a6 753e
00000060: 998e 933d 64f5 1d3f 4703 993d ce09 7c3e
00000070: 68c4 0e3e d73f 0a3a ea0b dbbc ba63 dc3e
00000080: a34c aa3e ef6b dc3e 725d a53e 2c6a 353e
00000090: 73e5 c33d 05a3 933e e5a9 243f bc3c 1e3e
000000a0: a01f 3d3e 4a70 813d a968 8c3d 7fab 143f
000000b0: ee0e f13c ffbd e13e 2022 d23d 7d2a 3ebc
000000c0: 9ea0 983c 8d70 933d a8de 8b3e d1f0 563e
000000d0: 8176 813e be6f 023f d3e4 673f ded5 0f3f
000000e0: 1c17 4d3c a855 253f 3d5e a13c 3128 ae3e
000000f0: dd6b 9b3d 8d45 413f 6695 b93e c1f8 2d3f
00000100: 6bb7 b03c 7d62 4c3e af0c f33e 1927 0c3f
00000110: b475 1d3e 7823 ea3e ba92 4f3f d3d6 913d
00000120: a5ea 1b3d 6a7c 663e acd4 c33e 671f 713e
00000130: 8174 743d 8a81 2e3e 66c5 d63d cc62 383f
00000140: 6f5f 963e efe6 483d 9b6a e93d 2847 703f
00000150: 94e2 313d d385 be3e c5ee 983e f0a6 5a3d
00000160: b473 223f 5dc6 5f3d e3b5 853e 2dbc babc
00000170: d2cb 143f c7e2 bf3e 793b 7a3f 1e71 df3e
00000180: bbd3 2e3e a028 113c b105 9a3e 2c79 703e
00000190: 6e09 b73e cf54 423e 2641 283f 0dac 5f3d
000001a0: 9880 b13d 5ceb 11bb 4fa8 cb3d a942 cd3e
000001b0: 815e 713e 1a97 2f3e ec95 ea3e 2252 a83d
000001c0: 1010 7e3e d5e4 a73e 090d cc3d b334 3d3e
000001d0: 28dd 403f 1072 023e df7d 2c3d f7ea b23e
000001e0: d5a7 833f aa25 233e 3352 033e 94c6 833e
000001f0: 6447 56bc 9f87 133e 4c8f ef3e ca24 3a3f

running_var f4 [128]
2.2257397 0.24957332 0.22789156 1.5745999 0.25639462 0.13651983 0.045262866 0.23783524
0.44632983 0.15611747 0.084420405 0.14679302 0.08864401 0.19052483 0.27952772 0.11530266
0.38135135 0.662372 0.49300948 0.21560887 0.11751847 0.12513281 0.31391683 0.49812698
0.020455481 1.1471033 0.13059972 0.46346706 0.07792771 0.02582248 0.00486831 1.0951674
0.3770468 0.8275553 0.63039535 0.3083002 0.2126316 0.4249803 1.4482868 0.37499464
0.31553313 0.12695992 0.110676 0.5948045 0.06723842 0.6650089 0.22470807 0.0397453
0.056956675 0.15373883 0.44843024 0.21212275 0.39673126 0.9896743 2.2681043 1.2723987
0.060347598 1.6426038 0.032768752 0.45845675 0.18089452 1.5615344 0.6598088 1.5536368
0.044849824 0.30947292 0.54143876 1.1828456 0.26672238 1.0044534 0.62772447 0.12661532
0.0064882026 0.35265908 0.64132005 0.36200655 0.08738068 0.3786575 0.22229622 1.5255772
0.82844484 0.07873086 0.2471589 2.3716185 0.09827396 0.7819932 0.2806247 0.108116224
1.0731018 0.11192074 0.25694177 0.007634554 1.0160927 0.9752492 0.86215395 0.96938276
0.4818562 0.029086895 0.58396727 0.5558612 0.8132252 0.27788237 0.8530743 0.11639083
0.17160316 0.04313359 0.19325013 0.705815 0.07028068 0.113238946 1.1846912 0.0430801
0.27693588 0.48002374 0.11700912 0.42338526 1.5473974 0.14371084 0.07135455 1.0006013
2.6187544 0.35876653 0.23408662 0.428166 0.009982739 0.37263465 1.2972631 1.8849149
00000000: 8572 0e40 2690 7f3e 685c 693e 7d8c c93f
00000010: 2846 833e dbcb 0b3e 8e65 393d 158b 733e
00000020: 5885 e43e 42dd 1f3e 9be4 ac3d e950 163e
00000030: fe8a b53d f118 433e 421e 8f3e cd23 ec3d
00000040: 7c40 c33e 3691 293f bd6b fc3e 92c8 5c3e
00000050: 86ad f03d d122 003e b5b9 a03e 800a ff3e
00000060: 4192 a73c 48d4 923f efbb 053e 8e4b ed3e
00000070: 9098 9f3d aa89 d33c 5886 9f3b 722e 8c3f
00000080: 470c c13e aada 533f 9761 213f 86d9 9d3e
00000090: 19bc 593e 0597 d93e 7661 b93f 4cff bf3e
000000a0: 8f8d a13e c801 023e 19aa e23d 1c45 183f
000000b0: 4cb4 893d 063e 2a3f df19 663e f8cb 223d
000000c0: 674b 693d b66d 1d3e a698 e53e b536 593e
000000d0: 5c20 cb3e 4c5b 7d3f 9f28 1140 f6dd a23f
000000e0: 0b2f 773d d740 d23f 8738 063d d8ba ea3e
000000f0: 6a3c 393e 5ce0 c73f 3be9 283f 92dd c63f
00000100: 73b4 373d 3c73 9e3e bb9b 0a3f 7c67 973f
00000110: d68f 883e ee91 803f 8db2 203f 72a7 013e
00000120: fd9a d43b bb8f b43e 8d2d 243f ec58 b93e
00000130: a4f4 b23d 65df c13e 9fa1 633e 1d46 c33f
00000140: f614 543f a53d a13d 3917 7d3e 99c8 1740
00000150: dc43 c93d b530 483f 0aae 8f3e 0a6c dd3d
00000160: 665b 893f b336 e53d df8d 833e 482b fa3b
00000170: 530f 823f eea9 793f 1fb6 5c3f 7829 783f
00000180: dbb5 f63e a447 ee3c e17e 153f eb4c 0e3f
00000190: 872f 503f 9946 8e3e 1463 5a3f 515e ee3d
000001a0: bdb8 2f3e d9ac 303d 5de3 453e 4bb0 343f
000001b0: 51ef 8f3d d2e9 e73d f6a3 973f c274 303d
000001c0: 8aca 8d3e acc5 f53e 7aa2 ef3d f4c5 d83e
000001d0: 1e11 c63f ef28 133e 5622 923d b413 803f
000001e0: ac99 2740 3fb0 b73e 67b4 6f3e 9338 db3e
000001f0: a48e 233c f8c9 be3e b80c a63f e444 f13f

weight f4 [1, 128, 1, 1]
-0.06087041 -0.29424638 0.1960165 -0.051759463 0.30135584 0.3219776 0.3702623 -0.19883876
-0.3627068 0.07626919 -0.008340379 0.20339292 0.53603333 -0.35216853 0.06393982 0.121360615
-0.38888365 -0.18933508 0.22840126 -0.10266847 0.25539947 0.340461 -0.14531727 0.30578387
0.0015052059 -0.17573342 -0.28535333 -0.18952347 -0.21198662 0.26315805 0.19058362 0.24229741
0.19689211 -0.0645775 -0.33468422 0.046723742 -0.109910816 0.09003834 -0.31568193 0.23741674
-0.12765767 0.2635625 -0.39322972 -0.43561804 0.069004446 -0.25886366 0.09580254 0.07642151
0.1400435 0.23587409 0.14505324 0.33530048 0.3345356 -0.2796614 -0.30306348 -0.07003093
0.2842271 -0.16714336 0.25931263 -0.26658916 0.31291988 -0.1684466 -0.30886114 -0.36475712
0.17782186 -0.19569461 -0.18646269 -0.06527077 -0.2649121 -0.028141815 0.2647749 0.06555977
5.7479147e-06 -0.25876454 -0.026535876 -0.29185134 0.116868176 0.21535078 -0.4992766 -0.37476566
0.14544591 0.262216 -0.24556203 -0.30228627 0.15132575 -0.3636792 -0.27064863 -0.15277627
-0.19495536 0.11024328 0.29022595 0.1264749 -0.07708077 0.1546083 0.33694276 -0.113567434
0.22012374 0.23955423 -0.12640421 -0.356993 0.06486803 -0.340184 -0.29409176 -0.32112768
0.097623214 -0.2918659 -0.3497439 -0.2780817 0.24056387 0.003628129 0.15337925 0.3653107
0.08301069 0.039447527 -0.3693815 -0.45032763 -0.19476995 0.23907761 0.12634106 0.14189908
-0.3068343 0.23156519 -0.116629384 -0.089031346 0.2615748 0.2208932 0.28692427 -0.214922
00000000: 4053 79bd 76a7 96be 8db8 483e bb01 54bd
00000010: 504b 9a3e 3fda a43e 0593 bd3e 639c 4bbe
00000020: b5b4 b9be 0533 9c3d 16a6 08bc 3c46 503e
00000030: 7b39 093f 6f4f b4be e1f2 823d ea8b f83d
00000040: c21b c7be 0ee1 41be 05e2 693e d943 d2bd
00000050: b8c3 823e e750 ae3e 0dce 14be b48f 9c3e
00000060: 544a c53a 76f3 33be d519 92be 7112 42be
00000070: 0513 59be a7bc 863e 5a28 433e d01c 783e
00000080: 169e 493e 3541 84bd bb5b abbe 6561 3f3d
00000090: ec18 e1bd 0566 b83d 10a1 a1be 601d 733e
000000a0: b1b8 02be aaf1 863e 6855 c9be 5409 dfbe
000000b0: 3452 8d3d c789 84be 1f34 c43d e182 9c3d
000000c0: 9067 0f3e fa88 713e d688 143e 81ac ab3e
000000d0: 4048 ab3e c72f 8fbe 232b 9bbe 606c 8fbd
000000e0: 3786 913e a127 2bbe a0c4 843e 607e 88be
000000f0: 0937 a03e 447d 2cbe 0c23 9ebe 72c1 babe
00000100: ef16 363e 2b64 48be 13f0 3ebe aeac 85bd
00000110: 8fa2 87be aa89 e6bc 9390 873e 3344 863d
00000120: 36de c036 c97c 84be c461 d9bc 8a6d 95be
00000130: 9558 ef3d ea84 5c3e 2fa1 ffbe 49e1 bfbe
00000140: c6ef 143e 2d41 863e 9d74 7bbe 44c5 9abe
00000150: 23f5 1a3e 2934 babe 7592 8abe 6271 1cbe
00000160: 61a2 47be 3bc7 e13d 7f98 943e a382 013e
00000170: 86dc 9dbd a351 1e3e c383 ac3e 0b96 e8bd
00000180: 1e68 613e b44d 753e 1b70 01be c9c7 b6be
00000190: 88d9 843d 992c aebe 3293 96be d96a a4be
000001a0: aeee c73d 726f 95be a211 b3be b960 8ebe
000001b0: 6056 763e e7c5 6d3b 730f 1d3e 010a bb3e
000001c0: 8201 aa3d bb93 213d 921f bdbe 5891 e6be
000001d0: c671 47be c3d0 743e 8d5f 013e fe4d 113e
000001e0: 6319 9dbe 6d1f 6d3e 63db eebd 1156 b6bd
000001f0: 22ed 853e d431 623e bde7 923e 8314 5cbe
