data/ball_data/model_6000.pth (torch_old, 853498 bytes, 13 tensors)

weight f4 [64, 1, 5, 5]
00000000: c6d0 9bbd 15d8 ea3c f142 dd3c d614 bf3c
00000010: ca9f 423d 5c96 bfbd 6eeb 99bd c5a2 043e
00000020: 62d7 913d 4e52 9f3d cd44 1bbe 5484 70bc
00000030: c432 9cbd 1269 733d 591d 773d 37df 46be
00000040: a8b3 0ebe 7d18 253d 6b4e 10bd cde0 143d
00000050: 325f 223d 34e6 afbd dbe6 193a 5bfd 3cbc
00000060: 8fd6 ac3b 89cd 373e 47ba 00be acc7 ef3c
00000070: a574 58bd 8a11 173c f52a 003e 96a5 663d
00000080: 73e1 bdbd 32e7 f5bd 6544 a33d 3fe1 c13d
00000090: 2742 073d 0f20 ddbd 02b2 3fbd 104d 36bd
000000a0: ecd5 e4bd ffb2 e33c ddd6 8dbb 4129 e0bc
000000b0: 97fc cb3d 1b18 96bb 9817 a33d c910 7ebb
000000c0: c626 75bd 2846 663c 1652 dc3d c97b 1b3d
000000d0: 98fe 73bc 1f38 d8bd 1ec8 4539 fd66 0ebd
000000e0: cf68 063e 77af e63d 0352 06be 874d 96bd
000000f0: 5c44 373d c0e7 943d 3030 e33c fbb7 ccbd
00000100: 96d4 6fbb e115 083d f2a5 a3bd 732a a3bd
00000110: 2f80 fe3c 7c14 bbbd 8b89 473d 5aa1 143d
00000120: 0c98 323e af9a 24bd 9e51 7a3d 91ef 9abd
00000130: 37e3 b4bd 7aee 1a3d 5987 52bd b593 1abe
00000140: 33ed 8d3d b1c8 ebbc fb6c 7b3c 36ea 34bd
00000150: d92f fabd 5b30 fc3b 9472 c53b 091d aabc
00000160: ab64 56bc a536 863d cda6 0f3d 6fef a2bd
00000170: be26 98bd 3d00 0abd f281 8bbd 73cd ad3d
00000180: 917b 1abd a7f6 f23d 1268 3b3d f93c 38bd
00000190: dcd3 30bd 8e08 35bc f6d8 0dbb 1d84 6b3d
000001a0: f655 013d f602 0abd b516 533c d9eb 803d
000001b0: 7f32 cfbd 10b3 62bd ce6e 68bd faeb 643e
000001c0: 2800 dc3c e8ec d5bd 34f6 a33d ea4d e93c
000001d0: a88e e53d 7934 eebd 6a57 1abe 84d6 52bd
000001e0: a2d3 7cbd eb46 81bd 1183 bebd 081c 073d
000001f0: f99e 223e 365d a43d ddf2 40bb 2514 bfbd
00000200: 4c9d ff3c 7076 97bc 8084 103d aff7 833b
00000210: f184 80bd 1dab aa3d da87 423d d228 26bd
00000220: b55e 56bc bee1 073e 9f4c 1c3e c81f 0d3d
00000230: 4ee5 b0bd 9716 65be f2b1 20be d31a 60bd
00000240: 41c4 61bd 90c4 a93d 18a4 5fbd 1fc7 823d
00000250: 26fc fb3d 5826 2bbd cc69 bdbd 7c26 58bb
00000260: e920 f2bb e78b 4dbd 274d dc3b 3099 98bc
00000270: da7e 6c3d f7d4 063d eda1 a23d b6d2 c43d
00000280: e288 183c a665 21bd 482d cbbc fb89 b23d
00000290: 9669 6cba e30c 3fbc 9a64 4f3c 4556 9f3c
000002a0: 8ae8 3c3d 756d c43c e2b3 dcbd c553 18be
000002b0: 42a8 8cbd 0e4a 09bd ad26 a43c d8fa 87bd
000002c0: 9ac4 9e3d 8c05 e7bd 07ed b6bd 5bb7 dabd
000002d0: cb68 b8bd e4a7 0abd c6a8 b53c 8b63 10bc
000002e0: 3181 d53d 5bf9 d63d c07b 173e 153d 463d
000002f0: bc63 093e b8d6 4a3a 36bb 0e3c 8e3a 9a3d
00000300: 605d 0a3d d22a f9bc 9bc3 cd3c 759d 02be
00000310: 852e 80bc 61e0 05be a3f6 b13c b64a 7e3d
00000320: 0234 483d dd84 ce3d 5f3f e83d 2566 8c3d
00000330: eeeb fc3d f4fd 5fbc 6d51 87bd 7d73 55bd
00000340: 1b37 89bd 343d 863d 08d9 bebd 5efa cbbc
00000350: 1195 a3bd 6e89 f3bd 803f 71bd 338d 26be
00000360: c711 e6bd 03f9 6bbd db85 b53c 3609 95bc
00000370: 64da 4f3d 7eab 003e 4d15 093d d403 1a3d
00000380: 454e 963d ac50 ea3d 8800 37bd 1b58 0f3e
00000390: f937 393e 15a3 253d 37b7 243d 9930 49be
000003a0: 55f1 c3bd b2c0 31bd 26ee 92bd 8e5e 75bc
000003b0: b5df 0ebe 3bb8 123c d3f2 e23c c6d9 7a3c
000003c0: 5a91 0b3e 0c11 06be 7ae9 8dbd 9bac 8b3d
000003d0: 5b28 293d 455b 523d d8d5 7bbd 02d7 a33c
000003e0: 2c4e fdbc 0b74 13bc 27ee b9bd f3e6 8fbd
000003f0: 8601 8e3c 5f7a 89bc c591 31bd 694e ae3c
-0.0760818 0.028667489 0.02700946 0.023325365 0.047515668 -0.09354851 -0.07515608 0.12952717
0.07121159 0.0777937 -0.15162964 -0.014679987 -0.0762687 0.059426375 0.060330722 -0.19421087
-0.13935721 0.040306557 -0.035231035 0.0363472 0.039641567 -0.0858883 0.0005870887 -0.011535014
0.005274601 0.17949499 -0.12571059 0.029270016 -0.052845616 0.00922049 0.12516387 0.05631026
-0.09271517 -0.12006988 0.079720296 0.094667904 0.033022072 -0.1079713 -0.04680062 -0.044507086
-0.11173615 0.027795313 -0.004328592 -0.027363421 0.09960287 -0.0045805103 0.079634845 -0.003876733
-0.05985143 0.0140548125 0.10757844 0.037959848 -0.014892243 -0.10557579 0.00018861933 -0.034766186
0.13125919 0.11263936 -0.13117222 -0.07339006 0.044742927 0.07270765 0.027732939 -0.09996029
-0.0036595217 0.03322399 -0.07990636 -0.07967081 0.031066982 -0.091347665 0.048715156 0.03628669
0.17440814 -0.04018658 0.061112992 -0.07565225 -0.088324 0.037825085 -0.05139861 -0.15095408
0.06930008 -0.02878222 0.015345807 -0.044168673 -0.122161575 0.007696194 0.0060256217 -0.020765798
-0.013085525 0.06553391 0.035071183 -0.079558246 -0.074292645 -0.033691633 -0.068118945 0.08486452
-0.0377155 0.118634515 0.045753546 -0.044980023 -0.043170795 -0.011049403 -0.0021644211 0.05749904
0.03157612 -0.03369423 0.012883832 0.06294984 -0.10117053 -0.05534655 -0.056746297 0.22355643
0.026855543 -0.10445577 0.08005944 0.028479535 0.1120885 -0.11631102 -0.15072408 -0.05147411
-0.061725266 -0.06312355 -0.09302343 0.032985717 0.15880956 0.08025591 -0.0029441633 -0.09330014
0.031202935 -0.018489093 0.03528261 0.004027329 -0.062753566 0.083334185 0.04749284 -0.040566273
-0.013084103 0.13269708 0.15263604 0.034454137 -0.086374864 -0.22371899 -0.15692881 -0.05471308
-0.055118803 0.082894444 -0.05459985 0.063856356 0.12303953 -0.041784614 -0.09248695 -0.0032981923
-0.007389177 -0.05018225 0.0067230645 -0.018627733 0.057738163 0.032917943 0.07941041 0.096105024
0.009309979 -0.03940358 -0.024801865 0.08717724 -0.0009018419 -0.011660787 0.012658263 0.019450316
0.046120204 0.023977974 -0.107764974 -0.14875706 -0.0686803 -0.03351789 0.020037973 -0.066396415
0.077523425 -0.11280355 -0.08931928 -0.106795035 -0.09004363 -0.03385152 0.022175204 -0.008812795
0.10425032 0.104967795 0.147933 0.048398096 0.13416952 0.0007737684 0.008711627 0.075307
0.033780456 -0.030415926 0.025117686 -0.12755378 -0.015647182 -0.13073875 0.02172405 0.06208297
0.048877724 0.100839354 0.11340212 0.0685542 0.123496875 -0.013671387 -0.066073276 -0.05211209
-0.06699964 0.06554642 -0.09318739 -0.024899658 -0.079874165 -0.11891447 -0.05889845 -0.162648
-0.112338595 -0.057610523 0.022158554 -0.018192869 0.050745383 0.12565419 0.03346758 0.037601307
0.073391475 0.11441168 -0.04467824 0.13998453 0.18087758 0.04043873 0.04021379 -0.19647445
-0.09567515 -0.04339666 -0.071743295 -0.014976157 -0.13952525 0.008955057 0.027703678 0.01531071
0.13629666 -0.1309244 -0.06929298 0.06820031 0.04129825 0.051356573 -0.061483234 0.019999985
-0.030921064 -0.008999835 -0.09078627 -0.07026472 0.01733471 -0.016781984 -0.043351907 0.021277623

bias f4 [64]
00000000: c2df 13be 67c8 d7bc 77d1 a5bd 7e90 2bbe
00000010: 7c0e aebd 5e5c 23bd a680 babd b156 1d3d
00000020: a12e 8abd a572 02bd 13f7 8fbd 8129 01be
00000030: e400 12be 55d0 e7bd 0ecb f8bd e68b 2bbd
00000040: ee19 04be 3730 c1bc 7e72 febd da53 00be
00000050: 4fea b0bc a5ef 02bd b66d debd ccab 0bbd
00000060: f5fe c8bd 9f8f 273d 3f98 a1bd aba6 c2bd
00000070: c94d 14bd 8de7 3dbe d6b9 7fbd e590 8f3c
00000080: 9f62 a43c 4bab a4bd 71ab 11be 457c 81bb
00000090: e777 3ebe 6c01 cdbd 0983 38be 424a 03bd
000000a0: 2607 cd3c d3b7 e0bd 628b d53a c537 a3bd
000000b0: cf1a 97bd 2a20 30bd 6faa 75be 89e9 52bd
000000c0: 8976 e4bd fbf4 03be 2d84 503d 65bd c6bb
000000d0: 2f38 84be 8be9 0f3c 1c08 ecbd 986a aabd
000000e0: afb1 8ebd 4a08 0abe 8ed6 01bc df00 ddbd
000000f0: ecc1 5ebe 1baa 303c 56ac dbbd 302b 04bd
-0.14440826 -0.026340676 -0.08096593 -0.16754338 -0.084988564 -0.03988301 -0.09106569 0.038412753
-0.06747175 -0.031847615 -0.070295475 -0.12613489 -0.14258152 -0.11319033 -0.121481046 -0.041881464
-0.12900516 -0.023582561 -0.124241814 -0.12531987 -0.021596102 -0.031966824 -0.108607695 -0.034099385
-0.09814254 0.040908452 -0.07890367 -0.09504446 -0.036206994 -0.18545361 -0.062433086 0.017525146
0.020066557 -0.08040484 -0.14225556 -0.0039515817 -0.18600427 -0.10010037 -0.18018736 -0.03205324
0.025027823 -0.10972562 0.001629215 -0.079696216 -0.0737816 -0.042999424 -0.23990797 -0.051492248
-0.11155421 -0.12886421 0.050907303 -0.006065058 -0.25824115 0.008783708 -0.11524984 -0.083211124
-0.06967484 -0.13479725 -0.007924689 -0.10791182 -0.21753663 0.010782744 -0.1072623 -0.03226775

weight f4 [64]
00000000: de70 da3e e8f6 ec3e a4ca 6c3e 70f7 023f
00000010: 2cc2 f93e 4f28 f53e 74e1 b03d 193a 113f
00000020: 7f2a 313f 88ca 0c3f 5390 113f 36e5 293f
00000030: c091 d73e 0dac 1a3f a968 373e 36c6 e33e
00000040: fcfc 063f 7ba3 34b9 c7f8 3d3f b2f2 b33d
00000050: 955c 043f 1a83 1c3f 2053 58b9 214f 273f
00000060: 97f5 523f f1d5 a63e 0f3a ad3e a15c 0c3c
00000070: 5835 233f c199 4f3f 339c 0b3d ed16 b435
00000080: 3a63 953d 08e9 1c3f 1345 f13e dbe0 313f
00000090: 9ef1 8c3e a655 763e 45f4 093d e5be 3e3f
000000a0: e2d4 f33e cae5 7f3e be36 8c3e 7bed 3f3e
000000b0: 1fd1 c93e 966c 2c3f b6d6 e7bd 74b0 393f
000000c0: b8bb 733e b6d0 173f 9f6e d23e b274 913e
000000d0: f415 c63e 05b9 013d 94ec 003f ca2f 073f
000000e0: 102d eb3e ed0e 6f3e 3633 1d3f 94ff 903e
000000f0: fb95 0f3f 6b04 1c3f dfa1 173f ec9f 483f
0.42664236 0.46282125 0.23124176 0.5115881 0.48780954 0.47882316 0.08636752 0.56729275
0.6920547 0.5499654 0.56860846 0.66365373 0.42103386 0.6041878 0.17911018 0.4448716
0.52729774 -0.00017227039 0.7420773 0.08786525 0.5170377 0.61137545 -0.00020630332 0.65355116
0.8240599 0.325851 0.33833358 0.008567006 0.6375327 0.81093985 0.03408451 1.3417717e-06
0.072943166 0.6129308 0.47123012 0.6948373 0.2752809 0.2405611 0.03368022 0.7451003
0.47623354 0.24990001 0.27385515 0.18742935 0.3941736 0.6735319 -0.1132025 0.7253487
0.23802078 0.5930284 0.41100022 0.28409344 0.38688624 0.03167059 0.5036099 0.52807295
0.45932817 0.23345537 0.61406267 0.2831999 0.5608823 0.6094424 0.5923137 0.7836902

bias f4 [64]
00000000: 304c 383d caaf 773d bce9 433b 9a49 8a3e
00000010: b352 293e bb02 163e f9c7 023d aaf0 e33d
00000020: 4ca3 5c3e 17dd 3c3e a375 2e3e 50a1 923e
00000030: a0ec 4d3c f672 063e 53bd 913e 6e3d b63d
00000040: 5d37 643e b637 88b8 3e75 393e 31af 573c
00000050: 9d15 4bbc 66fa 673e 218e 1abe 75ce 053e
00000060: 66fa 473e dd04 14be a120 e13d 6837 a139
00000070: e908 fdbd 7cf0 163e 9141 483b 37ac 4eb9
00000080: 19a3 4cbc cb57 6d3d c9f4 053c 9731 113e
00000090: 2703 373e d1dd f5bb fd3d 6abe 622f bc3d
000000a0: 5032 bcbc b30a edbd ff24 083e a2db 72bd
000000b0: 5f6f 483e 21f6 a3bd 24d0 c1be a370 9f3e
000000c0: 1afa 1bbd dc8a 983d a080 163e 82be ed3c
000000d0: 5f69 193e 7050 0e3c d8a1 4a3e 4bc3 8e3d
000000e0: 111b 803d 52c3 6f3d a56e 6f3e f274 dd3b
000000f0: f2e7 12be 2cda 043e 2a78 8b3d 710d 893d
0.044994533 0.06047038 0.0029893955 0.2700928 0.16535453 0.14649479 0.03192899 0.111298874
0.21546668 0.18443714 0.17037062 0.28638697 0.012568623 0.13129792 0.28464755 0.088984355
0.22286744 -6.495362e-05 0.1811113 0.0131643275 -0.01239529 0.22654113 -0.1509328 0.13067038
0.19529113 -0.1445498 0.109925516 0.00030749594 -0.12355215 0.14740175 0.0030556659 -0.00019709846
-0.012490057 0.057945054 0.008176037 0.14179073 0.17872296 -0.007503249 -0.22875209 0.09188725
-0.02297321 -0.11574306 0.13295363 -0.05929149 0.19573735 -0.0800593 -0.3785411 0.31140622
-0.038080312 0.0744836 0.14697504 0.029021505 0.14981602 0.00868617 0.19788301 0.06970843
0.062551625 0.05853588 0.23382051 0.0067583257 -0.14346293 0.12973851 0.06810029 0.06692017

running_mean f4 [64]
00000000: 9105 0b3d a879 a63c 9533 863c 91d2 df3c
00000010: db1f ed3b 2c3e a43c 07ef 553c 77b2 553d
00000020: fa3f df3c 13d1 a53c c3e6 143c 3ebb 953b
00000030: 13a0 443b 00e2 cf3c 9e04 1e3b 3720 ab3c
00000040: e32f af3b 177b b43a 66cc 573c f418 c3b8
00000050: 72fc c93c 98e5 753c 8c45 9437 603f 373d
00000060: d727 7a3c bdf8 873d e819 de3b 3542 35ba
00000070: 9f49 243d 72a0 913c 353f af3b cb6b a73c
00000080: 820d 343d 0e43 693c b2be 153c e8ce b23d
00000090: 0d14 e93c 94a6 1c3b e681 4e3c c5b7 fc3c
000000a0: f527 1e3d 56ec 903b 9f4e 8a3d a8a4 703c
000000b0: 68f3 923b 7797 a43c 9bc3 fa3a d598 263c
000000c0: be9e 9c3c f86b 973c 9c06 903d eb76 f83c
000000d0: f83e 2b3c 84a9 b93c d986 de3b d494 933c
000000e0: 8350 df3c b25d 473c ec63 393d 66b3 503c
000000f0: c91d a13c 42b8 333d 28dd 8a3b 8790 f53c
0.033940855 0.020321682 0.016382018 0.027322086 0.0072364635 0.020049177 0.013057477 0.05217215
0.027252186 0.020241296 0.009088221 0.00456944 0.0030002638 0.02537632 0.0024111639 0.020889385
0.0053462847 0.0013769594 0.013171291 -9.3029725e-05 0.024656508 0.015008353 1.767536e-05 0.044738173
0.015268288 0.0663924 0.0067779906 -0.00069144677 0.040109273 0.017776702 0.005348111 0.020437142
0.043958195 0.0142371785 0.009139704 0.087308705 0.028451944 0.0023903 0.012604212 0.030849347
0.038612325 0.0044227047 0.06753277 0.014687695 0.0044845827 0.020091755 0.0019131781 0.010168274
0.019118663 0.0184841 0.07032511 0.030330142 0.010452025 0.02266384 0.0067909774 0.018015303
0.02726007 0.012168335 0.04526131 0.012738084 0.019667523 0.043876894 0.0042377897 0.029976143

running_var f4 [64]
00000000: 9a2a 0c3c b98b 493b ec18 4a3b b054 b13b
00000010: 0093 6e3a 0211 453b e89d 0a3b 07dc ba3b
00000020: ba68 be3b 6dbd 513b 816a aa3a 7933 763a
00000030: c87e 2c3a d36b bb3b cd3c e039 f945 253b
00000040: bb56 943a 6b94 3a38 8b8e 513b cb79 ae38
00000050: 070b 173b c28e dc3a 2cb0 3738 f0a8 233c
00000060: ed7a 233b 97af 593c 7fc4 743a 29ec bc36
00000070: 9d5c 373c 0609 643b 1b8f b139 f87b 023a
00000080: 8cbb 4c3b 4ae2 293b 5ea4 b33a 5eeb 533c
00000090: f54e c83b 02d7 fe39 11aa 0f3b f8c6 b33b
000000a0: c204 723b 4bf6 4c3a 6122 313c 63a8 403b
000000b0: 181e 193a 2214 833b fa29 403a 18ef b03a
000000c0: abd7 803b 1e7d 6f3b c023 0d3c 75df 783b
000000d0: 5e96 0a3b e426 7a3a 4107 963a 9064 403b
000000e0: 2d7f 9b3b 2c1c d93a bd60 a33b 05aa 073b
000000f0: 6d2d 943b 4c55 eb3b 5ea9 403a 3fdd e03b
0.008555079 0.0030753447 0.0030837609 0.005411707 0.0009100884 0.0030069952 0.0021151248 0.005702499
0.005810824 0.0032003776 0.0013001711 0.00093918253 0.0006580171 0.0057196408 0.0004276991 0.002521871
0.0011317352 4.448408e-05 0.0031975831 8.319652e-05 0.0023047344 0.0016827213 4.3794673e-05 0.009989008
0.0024945096 0.013286493 0.00093371415 5.6303293e-06 0.011191514 0.0034795417 0.00033866693 0.0004977579
0.0031239716 0.0025922232 0.0013705601 0.012934534 0.006112928 0.0004860685 0.0021921436 0.0054863654
0.0036929105 0.0007818683 0.010811419 0.0029397241 0.0005840971 0.0040002028 0.0007330474 0.001349899
0.0039319596 0.0036543082 0.0086144805 0.0037974988 0.0021146755 0.00095425383 0.0011446254 0.0029356815
0.004745385 0.0016564182 0.0049858973 0.0020700705 0.0045220167 0.007181799 0.00073494564 0.006862312

weight f4 [128, 64, 5, 5]
00000000: 05be c239 286c b238 c09f 053a 523c c738
00000010: 7415 25b9 274f e1b9 bd72 b2b9 e64c 423a
00000020: b6ac 3a3a fc95 a838 dde6 2cba 33af 6db8
00000030: 02a6 04ba dfc7 97ba 2379 85ba b5b6 d039
00000040: 8887 a8b9 fd42 87ba f580 a4ba 2f73 68ba
00000050: 9602 bc3a a541 ee39 bac1 41ba a80a 63ba
00000060: 8a61 7aba 1e84 0437 3a18 8dba e7a9 8639
00000070: d5a6 a1b9 45a7 0d39 2a69 bc3a 41f8 4a3a
00000080: 7d73 8fb8 b78e 0339 2718 6e3a 2e83 8a3a
00000090: 8ec1 c03a 221c 8d3a 3993 2f39 a64c dd39
000000a0: f420 f839 8119 18ba 14f5 b4b9 210f 0c3b
000000b0: ca25 803a b4bb 0b3a 3af5 c4ba 516b c63a
000000c0: ba2f 0b3b df4e 663a 0de0 ccb8 3b46 86b9
000000d0: 1377 0e36 5086 cf39 600e c3b8 943c 0339
000000e0: 48d8 7039 2b95 1739 82ea 1d3a b2c6 9739
000000f0: be40 8b3a 5c07 853a 6f75 883a e6aa 443a
00000100: 18eb 3f3a 6eea c238 4466 573a 0186 b63a
00000110: 7949 f439 b80b f838 b882 2dba e257 493a
00000120: e343 df3a af3a b439 f08b 2eba 1127 01bb
00000130: 22c5 17bb 6fbb 13bb 50f2 06bb 4f46 0fbb
00000140: 7b0f 97ba 8696 a7ba 7105 05bb b9d7 e9ba
00000150: e77c 9dba 73ba f1b7 ba20 9a38 0b99 a039
00000160: 0973 9239 3f7d 073a 8494 85b7 6427 73b9
00000170: cbc8 bbb9 bdfd 34ba 93da 32b9 842a d1b9
00000180: 5ebc 3cba 744b 72ba 20bd 013a 9a75 90b9
00000190: bd61 1839 987e 3c3a c3b1 eab9 6687 ceb6
000001a0: 95fc 033b 26df 1f3a 9191 9e3a 69e2 07ba
000001b0: 746b e239 e4bc 303b 5235 8c38 eed9 1abb
000001c0: e130 43ba 7666 493b 0876 453b 067d 3aba
000001d0: 2243 b539 f4cd b53a 4f28 a4ba 409c f63a
000001e0: 674a 8439 8b5b cfba 8812 183a 6333 aeb6
000001f0: 97a9 003b 531c 3c3a cc53 ea39 9dec cd3a
00000200: fa38 0e3a 17f5 2f39 878c 56b9 7b84 99b9
00000210: c1f5 a63a e04d 803a d40d a5b9 d588 9839
00000220: 00e7 afba 23c8 fdba 0012 c7ba a2c6 3a39
00000230: 2499 713a c096 5239 6744 c6ba 5096 443a
00000240: 5300 19ba 5c75 943a 9523 2239 2ff4 c538
00000250: 4c87 723a 06bc 48b9 3769 e539 f47b 5d39
00000260: 5eff 9039 8055 5e39 bc5e 3eb4 03e2 4539
00000270: ea53 d138 7db8 9039 b010 a6b9 6665 65b9
00000280: 3e84 8638 2c02 9ab8 9d12 62b9 c02a 4fb9
00000290: 315e 6838 2e31 1239 bf5a a337 f1dd 6d37
000002a0: 6021 a2b9 a428 8bb8 d002 c839 9fc1 d839
000002b0: b01d 19b9 8169 e538 92a8 7a39 259f d339
000002c0: 037d 3a3a 1b9d ea3a adf1 193b 6be3 033b
000002d0: 9f97 bb39 3647 95ba 5931 8fba 83fc dbb9
000002e0: a8e2 38b8 e5c1 573b a6e1 1c3b d315 1a3a
000002f0: 9734 01ba abf4 833a 4976 d73a d52e 1a3a
00000300: 142a e6b9 e43e 1bbb 8d66 96ba 65e9 7fba
00000310: 3aa4 f0b9 f4dc e7ba 1807 7dba fc31 ffb9
00000320: 5adf 353b dddf e53a 15d7 dd3a 2815 773a
00000330: 330f 863a 9a49 003a 58c9 52ba 2b95 9d3a
00000340: 04dc c339 46bf e337 c60b 9239 c9c1 0a39
00000350: 803e 09ba 5941 d1ba 1583 a6b9 8b25 983a
00000360: 46fe 35ba e356 ffba 398d 06bb f40e f3b9
00000370: f057 de3a 3341 1aba 8e7e a9ba 93ee e4ba
00000380: c35a 5d3a b981 c33a 512e 8e3a 1746 293b
00000390: b305 c53a 6795 ee3a 0041 723a 9078 be3a
000003a0: edb6 423b ebcb 073b aa2e 7739 ca61 4cb8
000003b0: c99b c8b7 153b 093a 7824 3a3a 4ad5 f338
000003c0: f18a 153a aecd ddba 3993 05bb 96c0 9eba
000003d0: e782 113a 2457 043b 4064 6bba de46 eeba
000003e0: ecf0 e838 1b95 493a 2c6d 643a 09f2 fe3a
000003f0: fa8d 2a39 8c80 a7b9 4a2c ce39 3f6b 453a
0.0003714414 8.507847e-05 0.0005097352 9.500295e-05 -0.00015743618 -0.00042974317 -0.00034036292 0.00074119715
0.0007121073 8.038801e-05 -0.00065956806 -5.666837e-05 -0.00050601375 -0.0011579952 -0.0010183196 0.0003980898
-0.00032144436 -0.0010319647 -0.0012550639 -0.00088672613 0.0014344032 0.00045443806 -0.0007391233 -0.00086609507
-0.00095512776 7.898574e-06 -0.0010764666 0.0002568506 -0.00030832613 0.0001350912 0.0014374603 0.0007742681
-6.840283e-05 0.00012546299 0.00090825785 0.0010567659 0.0014706121 0.001076583 0.00016744145 0.00042209512
0.00047326798 -0.000580214 -0.00034514873 0.0021371322 0.0009776887 0.0005330399 -0.0015026696 0.0015138184
0.0021238164 0.00087855564 -9.769211e-05 -0.00025610797 2.122896e-06 0.00039582187 -9.301002e-05 0.000125157
0.00022968755 0.00014456052 0.0006024019 0.00028949004 0.0010624153 0.0010149288 0.0010410975 0.00075022725
0.00073211035 9.294307e-05 0.0008216838 0.0013925434 0.00046594048 0.00011827744 -0.0006618905 0.0007680637
0.0017033782 0.00034375998 -0.00066584256 -0.0019707123 -0.0023158272 -0.002254214 -0.0020591207 -0.0021861976
-0.0011524999 -0.0012785948 -0.0020297433 -0.001784078 -0.0012015373 -2.8816261e-05 7.349388e-05 0.00030631604
0.00027932998 0.00051685044 -1.5923993e-05 -0.0002318896 -0.00035817022 -0.0006904265 -0.00017056828 -0.00039895263
-0.00071997 -0.0009242811 0.00049491413 -0.0002755344 0.0001453226 0.0007190495 -0.000447644 -6.155041e-06
0.0020139564 0.00060986204 0.0012097826 -0.0005183579 0.00043186138 0.0026968056 6.685652e-05 -0.0023628431
-0.0007445943 0.0030731237 0.0030130167 -0.0007113967 0.00034573028 0.0013870583 -0.001252422 0.0018814877
0.00025232436 -0.0015820129 0.0005801101 -5.1915863e-06 0.0019632333 0.00071758515 0.00044694392 0.0015710775
0.000542536 0.00016780604 -0.00020460981 -0.0002928114 0.0012738035 0.0009788834 -0.00031481555 0.00029093647
-0.0013420284 -0.0019362014 -0.001518786 0.00017812339 0.000921624 0.0002008332 -0.0015126587 0.0007499205
-0.0005836535 0.001132648 0.00015462779 9.439175e-05 0.0009251728 -0.0001914353 0.00043756675 0.00021122379
0.00027656084 0.00021203421 -1.7729593e-07 0.0001887158 9.981527e-05 0.00027603275 -0.0003167442 -0.00021876916
6.41425e-05 -7.343697e-05 -0.00021559974 -0.00019756984 5.5400833e-05 0.00013941966 1.9473371e-05 1.4177976e-05
-0.00030923914 -6.6356064e-05 0.00038149068 0.0004134299 -0.00014602276 0.000109392226 0.00023904655 0.00040363628
0.0007113965 0.0017899604 0.0023489997 0.0020124565 0.00035780386 -0.001138902 -0.0010924741 -0.0004195907
-4.408011e-05 0.0032921967 0.0023938208 0.0005877886 -0.0004928796 0.0010067424 0.001643845 0.00058816123
-0.0004390037 -0.0023688609 -0.0011474654 -0.00097622565 -0.00045898726 -0.001768975 -0.0009652241 -0.0004867463
0.0027751536 0.001753803 0.0016925061 0.0009425455 0.0010227918 0.000489378 -0.0008040867 0.0012022605
0.00037357223 2.7149577e-05 0.00027856062 0.00013232896 -0.00052354485 -0.001596491 -0.0003175965 0.0011607868
-0.0006942492 -0.001948085 -0.0020530953 -0.00046359713 0.0016963463 -0.0005884349 -0.0012931393 -0.001746612
0.00084440055 0.001491598 0.0010847544 0.002582913 0.0015031606 0.0018202484 0.0009241253 0.001453178
0.0029711083 0.002072091 0.0002357314 -4.8728463e-05 -2.3914401e-05 0.0005234939 0.0007100771 0.00011626871
0.0005704603 -0.0016922259 -0.002038194 -0.0012111838 0.0005550817 0.0020193541 -0.0008979477 -0.0018179079
0.00011107497 0.000768976 0.00087137776 0.0019450794 0.00016265354 -0.00031948497 0.0003932438 0.00075309345

bias f4 [128]
00000000: a15d d63a 327c 4fbd 0c60 28bd 2899 9fb9
00000010: 4594 dcbd 58fb e4bd b4c0 f1bd 48e7 19bd
00000020: 0ab7 1ebd d447 04bb fb7c f9b1 7b30 02bd
00000030: 7047 bdbd c0f8 89bd 86e4 68b9 489c b3bd
00000040: 5a76 56bd d466 93ba 1659 92bd 5712 58ba
00000050: 3c43 28be 16d3 85bd a699 64bd 113b 913a
00000060: 2b4f 4c81 94f3 823a 07d8 29bd 156a 9ebc
00000070: 2289 a7ba 99ea c6bd 62ee 0fbe 2aab 0b3b
00000080: a355 8eba 8020 fbbb 11cb e5bc 0956 a2b9
00000090: c22a 94bd 50b1 05b9 b8c3 bcbc 3280 bdbd
000000a0: 83f7 74bb 3b1d 01be 03aa 91bc 276e 873b
000000b0: a007 cbbd 07d5 95bc 80e0 80bd 77ec 0bbe
000000c0: c21f 11be 526b 2dbd c1db bebc 04c8 a7bd
000000d0: e49a 1ebe 5d02 8b3c faca 073d c122 94b9
000000e0: bf7b b2bd bae7 a639 f2cf febd d319 42bd
000000f0: 6c38 f8bd 2dad 9abc cf6b 1abd 6db8 d53b
00000100: 8fd7 0ebe 0d81 8dbc 212c 1abd d951 26bb
00000110: e3ec 66bd 3f2a 8336 ab42 3b3c fc4e 97bd
00000120: 0766 8f93 47f1 96bc 742d 7cb6 431c 24bd
00000130: 5cd4 b7bd 1e1e 8fbd aff9 c2bc 7ae3 80b9
00000140: 6cbd 4bbd d1a2 8ebd 0e9c 50bc aa83 9a3c
00000150: bce0 03be 6960 a3bd ee00 9bbc 168f a9bd
00000160: c04e 27bc 2864 76bd 5a07 74bc 19df 40be
00000170: 6103 f8bb 2213 8abd a52a 27ba 0c87 7e3b
00000180: 5772 babd 13fa a4bd 03ed 84bb bd46 a7bc
00000190: fec9 b5bb 072e 1ebd 2e5e 3abc 9751 aebd
000001a0: 0378 e7bd 70fd a5bd a49d e2bc d562 87bc
000001b0: 46c6 b6ba ae31 0fa9 06c4 f2ba 7d99 b7bb
000001c0: 8616 b5b7 3d3f 9bb9 cd6d 87bd 7526 a7bc
000001d0: 8668 cf3b 6e20 57bd 9d02 09bd 63d0 f4bc
000001e0: 483f aa39 cffe b3bd 2fc3 4abd 8bc0 5bbc
000001f0: fef3 cebd a5bb b1bd c2cf 3dbd 776b 5e3c
0.0016354808 -0.05065555 -0.041107222 -0.00030440954 -0.10770468 -0.111807525 -0.11804333 -0.037574083
-0.03874878 -0.0020184414 -7.2610624e-09 -0.031784516 -0.09242141 -0.067368984 -0.00022210376 -0.08770043
-0.052358963 -0.0011245855 -0.07145898 -0.0008242479 -0.16431898 -0.06534402 -0.055810593 0.0011080225
-3.7525683e-38 0.0009990805 -0.041465785 -0.019337693 -0.0012781958 -0.09712715 -0.1405578 0.0021311739
-0.0010859262 -0.0076637864 -0.028050931 -0.0003096315 -0.07234718 -0.00012749922 -0.023042545 -0.09252967
-0.0037378974 -0.12608807 -0.017781263 0.004133004 -0.09913564 -0.018290056 -0.0629282 -0.13664423
-0.14172271 -0.042338677 -0.023298146 -0.08192447 -0.15488774 0.0169689 0.033152558 -0.00028254653
-0.08715009 0.00031834637 -0.12442006 -0.04738791 -0.121201366 -0.018881405 -0.03770047 0.0065222294
-0.13949417 -0.01727345 -0.03763974 -0.0025378375 -0.056378257 3.9090223e-06 0.011429469 -0.07388112
-3.619888e-27 -0.018425597 -3.7577383e-06 -0.040066015 -0.08976051 -0.06988166 -0.023800699 -0.00024583546
-0.049741194 -0.069646485 -0.012732519 0.01886161 -0.12878698 -0.07977373 -0.018921342 -0.082792446
-0.010211647 -0.06015411 -0.014894331 -0.18835105 -0.007568762 -0.067419305 -0.0006376899 0.0038837818
-0.0910384 -0.0805551 -0.0040565743 -0.020419473 -0.005547761 -0.038618114 -0.011374993 -0.08511656
-0.11302187 -0.0810498 -0.02766306 -0.016526619 -0.0013944588 -3.179547e-14 -0.0018521554 -0.005603014
-2.158737e-05 -0.0002961102 -0.0661274 -0.02040408 0.006329599 -0.05252116 -0.033449758 -0.029884523
0.00032472075 -0.08788835 -0.049502548 -0.013412605 -0.101051316 -0.086783685 -0.04634071 0.013575426

weight f4 [128]
00000000: b2ab f93d 4f2b 1b3e ac18 413f 4e9a e63c
00000010: 4fd1 033f fb0b e33e c886 183f f315 f53e
00000020: 7bbc 993e 4228 a8ba db37 bcb3 4dd0 003e
00000030: 0e79 313e fd17 973e b065 7c3c 0a37 253f
00000040: 4f46 723f f850 77bb 13bf 063f f42a d239
00000050: 1d86 093f e3b4 7c3e d404 a23e 43e7 c239
00000060: 41b2 7804 ced2 19ba 8d54 9b3e 56ec a43e
00000070: bb47 3bb9 eaef c53e 2cc5 d83e 4f08 833a
00000080: f3e4 cb3b 52d3 1a3e 1422 193f 9f3a 943d
00000090: f515 1e3f 44a1 503d 3bc6 053e f561 343f
000000a0: c0eb 5639 f5ca 3c3f 9b8d b93d 0f3e 553d
000000b0: 983d 083f c432 5d3e aaf8 ec3e 3660 5b3f
000000c0: ed99 5e3f 00ad a23e 0f38 943e 9ac5 343f
000000d0: 9597 203f 21b0 363e d78d bd3e 1706 223d
000000e0: 9c5f 1d3f 33c0 00bb 8169 fc3e b0b6 4c3f
000000f0: 3609 723f f9b8 b23e 7a9e 543f fe5f 123e
00000100: 7672 5c3f e450 023e 4fda cb3e c4ed 1b3b
00000110: d531 1c3f aa57 023c 833f 2a3f 1385 d23e
00000120: 4818 0895 fdbf 4d3d 912e 6b3a 4107 e33e
00000130: 3c68 393f b118 643f 26a3 b43d f79c 84bb
00000140: 2aff f73e 4e09 693f 4cf8 e63c 63ad 1f3e
00000150: 2e3e 5d3f ef33 173f 6b77 583e f46e 2f3f
00000160: dac0 8c3e a319 253f 8660 483f cf41 6d3f
00000170: 7f26 523d 75bc 2a3f 49ba 433f dfc1 b33e
00000180: 4a3e 2d3f b5c0 023f 5b57 123c 5a9c b53d
00000190: 4733 683e 4fd3 213f 7479 2c3f 5b6d 443f
000001a0: 2806 3f3f 991b 563f 5bb3 283f abd3 1b3f
000001b0: c54e d6bb bde6 532b 125e f8ba bba0 98b7
000001c0: 31ba c736 a798 bd3a 343c a53e 63bd f63d
000001d0: 2432 133e c900 2a3f 5691 863e c04c 113f
000001e0: e5cf 9d3e aac7 113f a07a f03e 9e81 933d
000001f0: 831c d73e 08e7 2e3f 00cd 0b3f c63a 143f
0.121909514 0.1515324 0.7542827 0.02814975 0.51491255 0.44345078 0.5958066 0.47868308
0.30026612 -0.001282938 -8.764592e-08 0.1257946 0.17331335 0.2951049 0.015405104 0.6453711
0.9463853 -0.003773747 0.52635306 0.00040086324 0.53720266 0.24678378 0.3164431 0.00037174867
2.923411e-36 -0.0005867899 0.30337945 0.3221156 -0.00017860431 0.38659602 0.4233793 0.0009996983
0.0062223612 0.15119675 0.59817624 0.072377436 0.61752254 0.050935045 0.130639 0.7046197
0.00020496454 0.7374719 0.09060212 0.052061137 0.53218985 0.21601397 0.46283466 0.8569368
0.8695362 0.31772614 0.2894902 0.70614016 0.62731296 0.17840625 0.37022278 0.03955659
0.61474013 -0.001964581 0.49299243 0.7996626 0.94545305 0.34906748 0.83054316 0.1429443
0.86112154 0.1272617 0.39814994 0.0023792842 0.6101354 0.007955471 0.6650316 0.41117153
-2.7484136e-26 0.050231922 0.00089714775 0.44341472 0.72424674 0.89100176 0.088201806 -0.004047032
0.48436862 0.9102982 0.028194569 0.15593486 0.86423004 0.5906362 0.21139304 0.68528676
0.27490884 0.64492244 0.78272283 0.9267854 0.051306244 0.6669381 0.76456124 0.3510885
0.6767317 0.510753 0.00893196 0.08867712 0.22675811 0.63213056 0.6737282 0.76729363
0.7461877 0.8363586 0.65898675 0.60869855 -0.006540152 7.528247e-13 -0.0018948934 -1.8194658e-05
5.9523377e-06 0.001446505 0.32272494 0.120478414 0.14374596 0.6640745 0.26282758 0.56757736
0.30822673 0.5694529 0.46968555 0.07202457 0.4201394 0.68321276 0.5460968 0.5790218

bias f4 [128]
00000000: 3331 e93c 716f 243e cd91 10be 5afd 0b3c
00000010: 1bb9 2ebe c3ae 32be a59d 3abe 2182 293e
00000020: 4bd9 3e3e 9081 54bd a781 9eb7 8ac9 28be
00000030: 531c 4ebe c36f 403e bb24 43bc 1226 0bbe
00000040: d6d9 403e 087c 1f3e 061d 1dbe cd45 ca3d
00000050: 2401 3bbe 86bd 2ebe ad06 273e c510 15be
00000060: 345b 5036 3829 003e 7fcf 403e 79d0 303e
00000070: f268 613e 30bb 36be 89e6 60be 1fd2 01be
00000080: 2397 46be f31b ce3d b3ee 2f3e d443 66bc
00000090: a90f 313e 22df 82bd 8fc1 1d3e d37e 19be
000000a0: a5ee 073e febe 2bbe 4de1 353e 9f3a 343e
000000b0: f2c4 03be 3ae5 1c3e 12ac f9bd 1b05 1dbe
000000c0: 1a84 29be 6f1e 22be 5727 e1bd 79ce 2cbe
000000d0: 0432 31be b1f3 1c3e 2b87 1e3e 0c19 f13c
000000e0: 4948 36be 1a27 073e 37db 37be b6e6 243e
000000f0: 5ba7 2cbe 094e 0d3e 5ca5 2f3e 3eec 243e
00000100: 7187 32be b113 213e a7b9 1e3e 4cfa 853d
00000110: 0733 2e3e 6ce9 4d39 e30c 1fbe befb cebd
00000120: d7a0 6ab7 d2ef 293e a7db 39b7 cfcd 2f3e
00000130: ebe4 05be 0cb2 19be 9fe6 403e 74f1 263e
00000140: 555a ecbd bffd 32be 5b04 2c3e 8666 143e
00000150: 37a2 27be 8c85 313e b4fd 303e dcd3 303e
00000160: 58a8 0f3e 5faf d0bd 572c 27be 8047 44be
00000170: b39d 823d 8254 f5bd 02a2 2abe cbdb cb3d
00000180: 6594 19be abb1 32be 27b9 2c3e 4c93 363e
00000190: 8a1d 5fbd c15b 383e 69d8 233e 3af2 3e3e
000001a0: 4ed3 1cbe a95f 393e 6f8e 403e 14b6 263e
000001b0: 88b3 73be 1d64 afb7 1b5f e1bd f5f9 3bbe
000001c0: a2cc 88bd ee32 03bc 607c 3a3e 87dd 433e
000001d0: c2be 083e 6f26 20be 7b3d f8bd 9f88 dcbd
000001e0: f3bc 173e 2f7e 16be 0218 103e a533 ef3d
000001f0: b841 3bbe 4587 16be f8a4 17be 2aac 143e
0.028465843 0.16058137 -0.14118119 0.00854429 -0.170628 -0.17449479 -0.18224199 0.16553546
0.18637578 -0.051881373 -1.8895442e-05 -0.16483131 -0.20127992 0.18792634 -0.011910613 -0.13588741
0.18833098 0.15574658 -0.15343103 0.09876595 -0.18262154 -0.17064485 0.1631114 -0.14557178
3.1047502e-06 0.12515724 0.18829153 0.17267026 0.2201269 -0.17844844 -0.21962942 -0.12677811
-0.19393592 0.10063925 0.171809 -0.014054257 0.1729113 -0.063902155 0.15405868 -0.14989786
0.1327463 -0.16772076 0.17761727 0.17600487 -0.12868097 0.15321818 -0.12191023 -0.15333979
-0.16554299 -0.15831922 -0.109938316 -0.16875638 -0.17304236 0.15327336 0.1548125 0.029430889
-0.17801012 0.1319851 -0.17954718 0.16103634 -0.16860716 0.137993 0.17152923 0.16105744
-0.1743448 0.15730168 0.15500508 0.06541881 0.17011653 0.0001963728 -0.1553226 -0.1010661
-1.3984935e-05 0.1659539 -1.1078001e-05 0.17168353 -0.13075607 -0.15009326 0.18837975 0.16303045
-0.11540667 -0.17479609 0.16798536 0.14492235 -0.16370474 0.173361 0.1728428 0.17268318
0.14029062 -0.101896994 -0.16325508 -0.191679 0.06377735 -0.11979009 -0.16663364 0.099540316
-0.14998014 -0.17450587 0.16867505 0.17829627 -0.05447153 0.18003751 0.16000523 0.1864709
-0.15314981 0.18102898 0.18804334 0.16280395 -0.23798954 -2.0908245e-05 -0.11004468 -0.1835707
-0.066796556 -0.008007748 0.18211508 0.19127475 0.13354018 -0.15639661 -0.121211015 -0.10768246
0.14818172 -0.14696573 0.14071658 0.11679772 -0.18286788 -0.14700039 -0.14809024 0.145188

running_mean f4 [128]
00000000: d10f 193d ce4c f6bb 2c71 d23c 852b 283b
00000010: f2c9 7cbb 5b07 133d 7651 14bc e11d 9c3d
00000020: c1ad 763d e8e4 1d3c daab cd34 ce70 343e
00000030: 5053 1d3d 8490 ad3d 8614 a13b 8095 b63c
00000040: a060 173d ce12 e93d 5a6d ca3d 8aad 1fb9
00000050: d469 83bb be36 4e3c d3b9 a2bc aef1 b33c
00000060: 0c2f 4004 5be6 023d e9ce 4f3d 0285 1c3e
00000070: 0b9d 5c3d 0bc5 d2bc e004 c8bc e9be f43d
00000080: d535 373e ced8 dd3d f3c1 ff3d 9bb5 f43c
00000090: 3466 a83c fa06 793e a95b b43d 74b6 5a3d
000000a0: 954a 773c 1107 cdbc f49d 223e 5bf2 f13d
000000b0: e4b0 2cbc 5450 df3d eefb 083e ffa1 7dbc
000000c0: 5389 1c3d c9c2 5f3d fb17 963d 6dd8 243d
000000d0: 286e bbbc afff c83e a788 e83e c66f 8c3b
000000e0: cfa1 35b9 28a2 db3c 6f14 f7bc 650a 28bb
000000f0: 0c33 d43c df46 263e 6330 203e 4547 263e
00000100: 0424 b9bc b653 813e 5a93 e4bb 9990 f23c
00000110: 4873 813d dde5 9338 32d2 773e ee05 553e
00000120: 70bf 8c16 3132 3a3c 5895 ec35 5f00 ad3d
00000130: 16b4 9dbc e5b9 b53c 0f49 053e eddd 453e
00000140: 229c 1f3e 6d22 463c 8187 de3d 5f60 b53e
00000150: f21c b63c 2a6e 89bc 22c6 623d 413e ac3c
00000160: d226 0a3e 0085 49bb a0a4 0f3d 2f75 a6bc
00000170: 2ade 373c b2c0 e53d eed1 d43e 9648 5e3e
00000180: 4d08 e4b9 ebf7 d1bc 24fc a03c da02 4d3d
00000190: d7ea d63e 01c7 b43d fb30 463e 6cbe 463d
000001a0: 32c8 263d e67c ce3c b63d 7b3c c48a ba3d
000001b0: cf6f 2d3e ef06 a82a 3b45 5c3d 4856 5a3e
000001c0: 1290 bc3c 1539 c13b 5db1 08b9 6e6d 6c3e
000001d0: b407 103e 16b6 4c3d 65ee c43d dfd8 b83e
000001e0: 87e3 9c3e c4a4 263d 7d9a 0c3e b6aa e63d
000001f0: 853a c3bc f7d0 a73d b5c2 2d3e 8eab b63e
0.0373686 -0.00751648 0.02568873 0.0025660705 -0.0038572517 0.035895687 -0.009052625 0.076228864
0.0602243 0.009637095 3.8309264e-07 0.17621157 0.03840953 0.0847483 0.0049157767 0.022288084
0.036957383 0.1138054 0.098841384 -0.0001522807 -0.0040104184 0.012586294 -0.019863999 0.021965828
2.2591094e-36 0.031957965 0.050734434 0.15285113 0.053860705 -0.025728723 -0.024416387 0.11950476
0.17891629 0.10832368 0.12488165 0.029871752 0.020556547 0.24319068 0.08806545 0.053396657
0.015093465 -0.025027784 0.15880567 0.11813804 -0.010540221 0.10903993 0.13377354 -0.015480517
0.0382169 0.05462912 0.07328793 0.040245462 -0.022879675 0.3925757 0.45416757 0.0042857854
-0.00017321784 0.02681072 -0.03016111 -0.0025640961 0.025903247 0.16237973 0.15643458 0.16238125
-0.022600181 0.2525918 -0.0069755735 0.029609965 0.06320816 7.0523216e-05 0.24201277 0.20803043
2.2739034e-25 0.011364506 1.7626835e-06 0.084473364 -0.01925091 0.022183368 0.13016151 0.19322939
0.15586904 0.012093169 0.10865689 0.35425088 0.0222306 -0.016776163 0.055364735 0.021025779
0.13491371 -0.003074944 0.035069108 -0.02031955 0.011222402 0.11218394 0.41566414 0.21707377
-0.00043493733 -0.025630912 0.01965148 0.050051548 0.41976044 0.088270195 0.19354622 0.048521444
0.040718265 0.02520604 0.015334537 0.09108499 0.16937183 2.9847606e-13 0.05377696 0.21321976
0.023017917 0.0058966973 -0.00013036044 0.23088619 0.14065439 0.04997834 0.09615783 0.3610296
0.3064234 0.040684476 0.13730808 0.11263029 -0.023831615 0.08194154 0.16968806 0.3567776

running_var f4 [128]
00000000: ed5b da3b 9ff0 0b3b aff4 a33d 310d d538
00000010: abf8 243d 9267 cd3d 28c9 0d3d ec7d ad3d
00000020: 2e2f b03d b9fe 363a bed7 092b fc04 443e
00000030: 8516 7f3d 19c1 163e 3727 1739 d29b c23d
00000040: a0ed e93d c139 fd3c 3473 7c3e 566b d732
00000050: b9d2 013d 743b 413d c90f 193b 82e7 0a3a
00000060: 0400 0000 1be5 043c 7b49 b73d ac81 863e
00000070: 596c bd3c c40f 953b 203f f23b 9a2a 023d
00000080: b9bb f53d a3ea d53d 1003 763e 595a 373b
00000090: 49a6 823d 4364 df3d 3544 dd3d a111 183e
000000a0: 6757 1b3b e828 153c 5bae 573e c1f7 da3d
000000b0: 093a 1d3c fb3e f53d 31f0 0c3e 3a6f 953c
000000c0: c2f7 e23d 3490 893d cf54 e73d a517 df3d
000000d0: 0e71 b13c 0c39 063f 13da 213f 8aa8 2839
000000e0: 9212 633d 0e53 f23b 7c28 f73b aee8 ca3c
000000f0: d3c5 e93d 5d37 043e b71a a93e 5e85 353e
00000100: c9c1 5e3c 442e 9a3e 266b 5c3c feef c13b
00000110: 1ad3 f23d 0b97 b831 a494 4b3e fec5 963e
00000120: 0400 0000 3f53 223c 61d5 ba2e a626 273e
00000130: d7f9 2e3c 9b6b b13d ce1c 283e 5b6d ae3d
00000140: 864e 903e be49 893d ea47 ab3d 5711 ca3e
00000150: 3f9e 8f3d 8198 113c da31 943d 067c 893d
00000160: f73f 273e acaf cd3c 8c8e 713d ee9a 983c
00000170: 3f09 683b 12ac 593e 6108 9e3e 62a2 6c3e
00000180: 9ada 2f3d e0b7 173c 2b0c 8a3b 241b 073d
00000190: 2d1f c13e fee2 103e fdc6 533e 9a95 153e
000001a0: 6293 a53d 9196 143e e2b1 6d3d 8efd 2c3e
000001b0: 1e85 de3d ca74 4616 04e5 793c c4ba 5c3e
000001c0: 1b79 eb3a d895 b539 1ba4 023d 5892 bb3e
000001d0: 97db 233e 417b 183e f861 383e 5807 343f
000001e0: c4e7 e33e eb7e 053e 84d0 733e b556 aa3d
000001f0: b870 c13b b58c 873e 6f6d ba3e b196 043f
0.0066637904 0.0021353138 0.08005654 0.000101590886 0.04027621 0.1002952 0.034615666 0.08471283
0.08602749 0.00069807057 4.897158e-13 0.19142526 0.062277336 0.14722098 0.00014415091 0.095023766
0.114222765 0.030911328 0.24653322 2.5078105e-08 0.0316951 0.04717584 0.0023355356 0.00052987796
6e-45 0.008111264 0.08949562 0.26270807 0.023122953 0.0045489985 0.007392779 0.03177891
0.11998696 0.10445144 0.24024606 0.0027977435 0.063793726 0.10907795 0.10804025 0.14850475
0.002370322 0.009103991 0.21062605 0.106917866 0.009596356 0.11974903 0.13763501 0.018241514
0.11082412 0.06716958 0.11295473 0.10893182 0.021660354 0.52430797 0.6322338 0.00016084514
0.055437632 0.007395155 0.007542668 0.024769153 0.11414685 0.12911744 0.33028194 0.17726657
0.013596007 0.30113423 0.013453281 0.005918502 0.11856671 5.3722764e-09 0.1988092 0.2944793
6e-45 0.009907543 8.4962044e-11 0.16323337 0.010679684 0.08663102 0.16417238 0.08516952
0.2818491 0.06703518 0.08363326 0.39466354 0.07012605 0.008886457 0.07236071 0.06713109
0.16332994 0.025108181 0.058973834 0.018628564 0.0035405902 0.21257046 0.30865768 0.23108819
0.042933084 0.009260148 0.0042128763 0.032984868 0.37719098 0.1414909 0.20681377 0.1460785
0.08084752 0.14510562 0.05803097 0.16893598 0.10865234 1.6031165e-25 0.0152523555 0.2155562
0.0017965169 0.00034634653 0.031894784 0.3663509 0.16001736 0.14890768 0.18006122 0.70323706
0.4451276 0.13036697 0.23810011 0.08317319 0.0059033297 0.26474538 0.36411616 0.51792437

weight f4 [1, 128, 1, 1]
00000000: bb56 51b9 9d68 83be ff18 813e cb7d ebb8
00000010: 88c4 db3e 90cc d33e 42d7 073f 45e6 97be
00000020: 58c5 d6be 7747 233d 5cc3 79b9 57ee 4c3e
00000030: 4b47 023f d14e cdbe 3ca4 2238 764b 543e
00000040: 1796 13bf 76ac 20be 5ce7 8b3e f19e 9dbd
00000050: fd44 d43e ec33 cd3e 3543 71be 22a8 373e
00000060: 659c f936 fafc dfbd 3a2b bdbe e2f0 87be
00000070: 5807 55be ac6a d43e 84cc c33e ed94 013e
00000080: 975e 413e 1a05 a9bd 603f ccbe b5a1 51ba
00000090: ccb2 77be c56c ba3c 7126 64be 7a03 943e
000000a0: d0e2 d8bd 783c c33e 7a2e 8cbe f545 97be
000000b0: b65b 3c3e afc8 78be d5fb 193e cbf5 6e3e
000000c0: c299 983e 5dd3 8e3e 8ca4 d43d 8138 df3e
000000d0: e9e5 f53e f367 65be cc20 86be d566 fa38
000000e0: d42c ef3e 1a2a 00be 133a d53e 6d62 b9be
000000f0: 1316 e33e 2766 34be d63c d7be c802 8ebe
00000100: 4d33 a43e e404 36be 3a3d 81be 482b 54bd
00000110: 28ec bcbe 718a 07b5 44ad 973e 26ec d33d
00000120: 4104 a638 1a66 43be 990f e936 09a2 bdbe
00000130: 6e88 623e e9bd 993e 2d42 acbe fd63 7dbe
00000140: 645d 073e 8044 e53e 743d 3dbe a03f 52be
00000150: d0dc ad3e b78e e1be 4e0f 88be 2f58 96be
00000160: bf26 41be aee5 e53d 0203 be3e 7f2f ad3e
00000170: 8555 11bd d7e0 1a3e 32f8 c63e 0cec adbd
00000180: 2475 953e 6bc0 c73e f859 0abe 74c2 83be
00000190: d796 f83c ceed e9be df20 afbe 4ec2 02bf
000001a0: 8c08 513e 1f63 eebe 136f f7be 98a7 b2be
000001b0: 8207 6f3e d828 a038 6950 d53d 83df 803e
000001c0: d9a1 383d 4539 023c 828f e2be c0d8 acbe
000001d0: 8494 09be b314 9c3e 4957 143e 2855 d63d
000001e0: c131 62be 4cc9 8b3e f8f7 4abe 4b00 c0bd
000001f0: 3420 ce3e e72d 883e fa8e 843e f001 6dbe
-0.00019964103 -0.2566575 0.25214383 -0.00011229104 0.4292338 0.41367006 0.5306283 -0.2966787
-0.41947436 0.039863076 -0.00023819268 0.20012794 0.50890034 -0.40099195 3.8776765e-05 0.20731911
-0.57650894 -0.15690789 0.2732495 -0.07696331 0.41458884 0.40078676 -0.23560794 0.17935231
7.438985e-06 -0.10936923 -0.36947042 -0.26550967 -0.20803583 0.41487634 0.3824197 0.12654467
0.1888374 -0.08252926 -0.398921 -0.00079968135 -0.241893 0.022756943 -0.22280289 0.28908902
-0.10590136 0.38132071 -0.2737921 -0.2954556 0.1839436 -0.24295305 0.15037473 0.2333595
0.29804808 0.27895632 0.10382947 0.43597797 0.4802697 -0.22402935 -0.26196897 0.00011940083
0.4671389 -0.1251606 0.4164587 -0.36207905 0.4435278 -0.17617093 -0.42038602 -0.27736497
0.3207039 -0.17775303 -0.25242025 -0.05179909 -0.36898923 -5.049288e-07 0.2962438 0.10347776
7.916289e-05 -0.19081917 6.945757e-06 -0.37037686 0.22122356 0.30027702 -0.33644238 -0.24745174
0.1321922 0.44778824 -0.18480474 -0.20532084 0.3395753 -0.44054195 -0.26574177 -0.29364154
-0.18862437 0.112254485 0.3711167 0.338253 -0.03548195 0.15124832 0.38861233 -0.08492288
0.29190934 0.3901399 -0.13510883 -0.25734293 0.030345364 -0.45689243 -0.34204766 -0.51077735
0.20413417 -0.46559998 -0.4832693 -0.3489349 0.23342708 7.637002e-05 0.10415728 0.25170526
0.045076225 0.007948224 -0.44250113 -0.33759117 -0.1343556 0.30484542 0.14486422 0.10465461
-0.22089292 0.27302015 -0.19821155 -0.09375056 0.40258944 0.2659752 0.25890332 -0.2314527
