data/ball_data/model_1500.pth (torch_old, 853498 bytes, 13 tensors)

weight f4 [64, 1, 5, 5]
000000 19 3c 7a bd 9b b2 fe 3c 68 06 01 3d b3 5d 6e 3b
       -0.06109247 0.031091025 0.03150025 0.0036371767
000010 4a 50 29 3d c9 5b bb bd ff c3 b4 bd e2 66 a3 3d
       0.041336335 -0.09148366 -0.08826446 0.07978608
000020 da 06 10 3d c7 b3 11 3d 51 f6 ce bd 77 b2 d2 3b
       0.035162784 0.03557184 -0.10105575 0.006429966
000030 7a 1e a3 bd 4e 53 1f 3d 49 03 75 3d 40 6f 09 be
       -0.07964797 0.038897805 0.059817586 -0.13421345
000040 25 ca f6 bd e1 c3 5a 3d da d4 8e bd 15 81 78 3d
       -0.12050275 0.05340946 -0.06974192 0.060669977
000050 60 12 1c 3d 73 6e 84 bd ff b7 97 3b 10 3b 00 bd
       0.03810346 -0.06466379 0.0046300883 -0.031306326
000060 36 7d 67 bc 15 be f1 3d 08 4b c6 bd 1b 67 ed 3c
       -0.014128974 0.118038334 -0.0968228 0.028979829
000070 d0 5b 23 bd c1 07 2e 3b 60 0a 9e 3d 6a 82 3c 3d
       -0.03988248 0.0026554915 0.077168226 0.04602281
000080 63 91 a0 bd 93 98 aa bd b4 44 3e 3d ff f1 a5 3d
       -0.0784023 -0.083298825 0.04645224 0.08102798
000090 ed 71 8f 3c 1e 66 b1 bd 80 9e 14 bd 59 38 3c bd
       0.017510379 -0.086620554 -0.03628397 -0.045952175
0000a0 b5 a6 3b bd cf 6e 14 3d 7b 8b a4 ba ba 16 86 bc
       -0.04581328 0.036238488 -0.0012553775 -0.016368259
0000b0 bf 6a 56 3d dd 06 1d 3d 88 7d 98 3d ed f3 13 bc
       0.052347895 0.038336623 0.07445818 -0.009030324
0000c0 3c ad 7c bd 52 f3 45 3c ef a6 b7 3d 57 07 8c 3c
       -0.061688647 0.012081938 0.08967387 0.017093344
0000d0 2d 03 e4 bb 93 78 a1 bd 29 3e 2f 3b 48 6a b7 bc
       -0.0069583864 -0.07884326 0.0026739931 -0.022389546
0000e0 00 0a e8 3d 00 d2 d0 3d b7 a8 af bd a6 e7 9c bd
       0.11330032 0.10196304 -0.08577102 -0.07661371
0000f0 35 50 65 3d ab 99 a9 3d ec 99 fb 3c 68 1c 9d bd
       0.055984695 0.08281263 0.030713044 -0.07671434
000100 da bb 34 bc b6 6c 21 3d b6 5d 2e bd 1d 29 9d bd
       -0.011031115 0.039410315 -0.04256984 -0.07673857
000110 47 58 81 3d c9 df b1 bd 6c 94 58 3d 1d 1c 08 3d
       0.06315666 -0.08685262 0.05287592 0.033229936
000120 bc 35 ec 3d 79 46 6c bd 76 f1 43 3d 8c 48 3f bd
       0.115336865 -0.057684395 0.047837697 -0.046700045
000130 31 ba 98 bd f9 ff d8 bb 7d 4d 3a bb af ec e3 bd
       -0.07457388 -0.006622311 -0.0028427534 -0.11129128
000140 c6 5f 75 3d f4 28 8c bc 9a 4a c6 bc 8b 1a b3 bd
       0.05990579 -0.017109372 -0.024205495 -0.08745297
000150 3a e7 0a be bf 09 5b bd 93 fe a9 3c 00 9b 4a bd
       -0.13564768 -0.05347609 0.020751273 -0.049464226
000160 a4 28 c7 bc aa 04 c1 3c 85 76 23 3c 11 17 02 bd
       -0.024311371 0.023561794 0.009976988 -0.03176028
000170 4f 6f 94 bd 68 3c 0a bc 8b b9 6a bd d9 e7 6d 3d
       -0.07247793 -0.008437254 -0.057305854 0.058082435
000180 c8 28 83 bd a3 61 a0 3d c8 76 27 3d ad 57 31 bd
       -0.06404263 0.07831123 0.040884763 -0.043296505
000190 41 4c 0d bd 96 60 82 3c ef 7e 90 3b f0 50 61 3d
       -0.03449655 0.015915196 0.004409663 0.05500883
0001a0 53 d3 66 3d 3f f5 8c bc c3 a3 0f 3c 76 9f 05 3d
       0.05635388 -0.017206786 0.008767071 0.032622777
0001b0 09 e4 d6 bd 48 b0 26 bd 26 88 42 bd 7f d5 26 3e
       -0.10492713 -0.04069546 -0.047493123 0.1629238
0001c0 95 db a4 bc 47 24 85 bd 51 27 ac 3d 61 af 85 3d
       -0.020124236 -0.0650106 0.084059365 0.065275915
0001d0 3d 72 ce 3d 40 09 94 bd 0e b8 e2 bd eb 3d 0e bd
       0.10080383 -0.07228327 -0.11070262 -0.03472702
0001e0 37 31 07 bd a6 7a c4 bc d2 30 83 bd 2d 5b 03 bc
       -0.03300592 -0.023984265 -0.06405796 -0.0080173435
0001f0 ea 69 da 3d 6b 1b 91 3d a2 fd 77 3c 36 2e a2 bd
       0.10664733 0.07085308 0.015136154 -0.0791897
000200 c4 9a ca 3c f0 8e 61 3b d9 67 19 3d 8d 90 3a 3c
       0.024732001 0.0034417473 0.037452552 0.011387003
000210 4a 64 7d bd fb 00 88 3d a8 ee 7b 3d da 8f d9 bc
       -0.06186322 0.06640812 0.061506897 -0.026557852
000220 3f b6 c2 bb fe ae e2 3d b1 41 03 3e 9c 59 7c 3c
       -0.0059421356 0.11068533 0.12818028 0.015402224
000230 bd 56 40 bd 48 1e 04 be 57 e9 d9 bd 6b 47 38 bd
       -0.04695772 -0.12902176 -0.10640209 -0.044989984
000240 92 2b bd bc f4 bb 2e 3d 63 91 a7 bd 1d 58 81 3d
       -0.023092065 0.042659715 -0.08182027 0.063156344
000250 2c 45 d0 3d 7f 62 76 bd 4c 4a 80 bd 64 19 c2 3c
       0.101694435 -0.060152527 -0.06264171 0.023693748
000260 7e 57 e5 bb fa 44 7c bd 7e e9 24 3c 6d 47 8b 3c
       -0.0069989553 -0.06158922 0.0100654345 0.017001832
000270 18 6a 83 3d 35 27 ac bc 58 c5 9c 3d 4b 75 9b 3d
       0.0641672 -0.02101479 0.07654828 0.07590731
000280 e3 d2 e2 3c 4b ff 83 bd 76 8c fd bc db 87 c5 3d
       0.02768845 -0.06445178 -0.030950766 0.09645053
000290 b6 65 ac 3a 80 f6 8c bd fe c6 ce bc 21 76 c0 bb
       0.0013152871 -0.06882954 -0.025241371 -0.005873457
0002a0 1d c0 29 3d bb 74 95 3d 74 2d c7 bd f2 98 18 be
       0.04144298 0.07297655 -0.09725466 -0.14902094
0002b0 56 a3 aa bd 8c c2 85 bd de 46 e4 3c 5e d7 89 bd
       -0.08331935 -0.065312475 0.027865823 -0.06730531
0002c0 70 45 86 3d 90 ce b4 bd b0 05 67 bd d0 ed b5 bd
       0.06556213 -0.08828461 -0.05640191 -0.0888325
0002d0 1a 51 a0 bd d7 9a 41 bd 83 9f ef 3c c8 0c f7 bc
       -0.07827969 -0.047266807 0.029250866 -0.030157462
0002e0 28 33 67 3d c6 17 9f 3d d3 a8 ba 3d f9 4d 7a 3c
       0.05644527 0.07768206 0.09114232 0.015277379
0002f0 7d 55 cb 3d 45 dd d6 bb 26 8a 23 3c b8 e5 3c 3d
       0.09928415 -0.006557139 0.009981668 0.046117514
000300 74 5b 2b 3d c4 b8 2b 39 39 8a 06 3d b0 35 b0 bd
       0.041835263 0.00016376661 0.032846663 -0.0860399
000310 27 63 c4 bb f2 2c 7e bd 7f 38 c5 3c bb 9f 39 3d
       -0.005993265 -0.062054582 0.024074791 0.045318346
000320 4f 67 83 3d 70 ba 83 3d 2b 46 bc 3d 8e b1 ae 3c
       0.06416189 0.064320445 0.09193071 0.021324899
000330 57 fa c9 3d e8 a5 b7 3c 47 84 8f bd f1 54 47 bd
       0.09862202 0.022417977 -0.07007652 -0.04866499
000340 ab 58 59 bd 8e e5 84 3d 14 34 8d bd dd a4 91 bb
       -0.053063076 0.064890966 -0.06894699 -0.004444702
000350 33 20 42 bd 30 e2 cc bd e6 8f 26 bd 0c ef da bd
       -0.04739399 -0.10004079 -0.040664576 -0.10690126
000360 e5 15 a3 bd 87 43 34 bd bb d9 91 3c 4f e1 c0 bb
       -0.079631604 -0.04400971 0.017804017 -0.005886234
000370 f1 b4 01 3d c6 9f b5 3d c7 b3 79 3c 15 cf 16 3d
       0.0316667 0.08868365 0.015240616 0.036818583
000380 2e db 84 3d 49 e4 c3 3d 2a 07 77 bc 66 eb e5 3d
       0.06487118 0.09565026 -0.015077392 0.11226539
000390 a3 52 07 3e 53 39 17 3d f5 d0 19 3d 82 1d 09 be
       0.13215117 0.036919903 0.037552793 -0.13390163
0003a0 df 46 b7 bd 8a 24 e6 bc 33 d1 83 bd 4a 11 01 bd
       -0.089490645 -0.028093595 -0.06436386 -0.03151063
0003b0 8a 93 c4 bd 04 73 dc 3b 77 e9 b4 3c 0a b4 f9 3c
       -0.09598453 0.006727578 0.022083981 0.030481357
0003c0 5b c7 b1 3d f0 c1 ba bd 29 ea 9c bd 19 27 65 3d
       0.08680602 -0.09119022 -0.0766185 0.05594549
0003d0 5f c1 ca 3c 51 7f 81 3d 2a be 20 bd a8 56 0b 3d
       0.02475041 0.06323112 -0.039243855 0.03401819
0003e0 5b bc c2 bc a3 b9 f3 bc 8d 6c a8 bd c9 98 14 bd
       -0.023771456 -0.029751604 -0.082238294 -0.03627852
0003f0 6d c5 ef 3c ae 54 88 3a fb 68 18 bd f2 a0 37 3d
       0.029268945 0.0010401213 -0.037209492 0.044831224

bias f4 [64]
000000 59 cf bd bd 45 e5 06 bc b7 4b 63 bd 5f 45 ec bd
       -0.09268064 -0.008233373 -0.05549213 -0.11536669
000010 30 c7 8a bd 44 fa 3c bd 5b 63 89 bd 0b f7 0b 3d
       -0.06776273 -0.04613711 -0.06708404 0.034171145
000020 77 1b 54 bd 82 f7 43 bd b1 b8 6f bd b5 80 4b bd
       -0.051784005 -0.047843464 -0.058525745 -0.04968329
000030 d3 86 d2 bd eb 62 79 bd 1e 5a bf bd 06 cc 5f bd
       -0.10279622 -0.06088535 -0.0934336 -0.05463793
000040 3c e1 cc bd 49 9b 30 bd e1 42 de bd 0b fd 8e bd
       -0.100038975 -0.04311684 -0.108526 -0.06981858
000050 16 1f 26 3c c6 57 48 bc 29 48 e5 bd 00 76 87 bc
       0.010139247 -0.012227958 -0.11195404 -0.016535759
000060 16 bb 87 bd 87 cc f2 3a 0a 73 93 bc 74 c4 27 be
       -0.06627481 0.0018524089 -0.01799919 -0.16383535
000070 70 17 5c bc 4b 41 cf bd 64 58 cc bc ad 4d 46 3d
       -0.013433322 -0.101198755 -0.024944492 0.04841392
000080 83 e9 0b 3d 01 42 8c bd 49 b6 97 bd 86 b4 ec 3b
       0.03415824 -0.06848527 -0.07407815 0.0072236685
000090 a7 fa d4 bd 7e b1 62 bd 2e 26 fc bd a4 09 95 bc
       -0.10399371 -0.05534505 -0.1231197 -0.018193074
0000a0 11 b7 f8 3b f1 c4 20 bd c0 2b f4 3c ee 9f 81 bd
       0.0075901826 -0.039250318 0.029806018 -0.06329332
0000b0 d0 17 39 bd 11 d2 88 bc a3 ec 1b be ad 7b 1a bd
       -0.045188725 -0.01670173 -0.15226988 -0.037715603
0000c0 0c 8c 94 bd 6d 13 83 bd 84 5b 5d 3d 2b 61 21 bc
       -0.07253274 -0.064001895 0.054042354 -0.009849827
0000d0 f1 af 03 be 37 83 20 3d 86 a8 d1 bd 1a fe 55 bd
       -0.12860085 0.039187636 -0.102372214 -0.052244283
0000e0 3c 47 0e bd ec 95 21 bd 00 40 1d 3c ad 62 58 bd
       -0.034735903 -0.039449617 0.009597778 -0.05282848
0000f0 4b f7 07 be bb 95 5a 3c 0b 67 b3 bd db 33 14 bd
       -0.13277929 0.013341363 -0.08759888 -0.036182266

weight f4 [64]
000000 9c e3 e1 3e 2d a2 19 3f 45 79 f7 3e 38 12 1b 3f
       0.44118965 0.60013086 0.4833471 0.60574675
000010 87 03 c8 3e 80 f2 fb 3e f0 5c 28 3e 53 48 49 3f
       0.3906519 0.4920845 0.16441703 0.78625983
000020 d5 23 32 3f 83 69 0a 3f 70 8b f9 3e ab 3d 48 3f
       0.69585925 0.5406725 0.48739195 0.782191
000030 07 5e f9 3e 2f be 3b 3f 49 7d ae 3d 7d c8 0e 3f
       0.4870455 0.7333707 0.0851999 0.5577467
000040 08 0c e7 3e 45 0e a0 3d 89 70 47 3f c8 3e c3 3d
       0.45126367 0.07815222 0.7790609 0.09533459
000050 d8 08 34 3f c3 8c 21 3f a7 68 7a 3d b5 cb 4d 3f
       0.70325994 0.6310541 0.06113496 0.8038896
000060 45 68 68 3f 3b 5a 25 3f dd 35 9c 3e 95 d5 b2 3d
       0.907841 0.64590806 0.30509844 0.08732144
000070 2b 32 55 3f eb 57 63 3f dc 80 10 3e e6 96 d2 3d
       0.83279675 0.8880603 0.14111656 0.10282688
000080 ac 1e 8f 3e fc b2 3c 3f db a3 3d 3f a7 90 5e 3f
       0.27953088 0.7371061 0.7407815 0.8693947
000090 f4 c2 34 3e e4 6d 93 3e a3 f6 24 3d 66 0c 57 3f
       0.17652494 0.28794777 0.040274274 0.84003294
0000a0 a6 0e 00 3f f5 cc 64 3e 74 cb c4 3e f5 1f 9b 3e
       0.5002235 0.2234381 0.38436472 0.3029782
0000b0 87 f8 ad 3e ac 3b 4c 3f 19 d2 1a bd 87 a4 27 3f
       0.33978674 0.7977855 -0.03779802 0.65485424
0000c0 47 65 a8 3e 9a 9c 47 3f 6c a7 09 3f a2 cb d4 3e
       0.32889768 0.7797333 0.5377109 0.4156161
0000d0 8b 01 7e 3e d8 d4 29 3e e4 84 97 3e c1 85 41 3f
       0.24805276 0.165851 0.29593575 0.7559472
0000e0 53 62 1b 3f 0f c8 e4 3e 81 9f 5d 3f 6b 8e bd 3e
       0.60696906 0.44683883 0.8657151 0.3702272
0000f0 ff 82 36 3f d4 fb 41 3f 78 c0 20 3f 93 d0 6b 3f
       0.71293634 0.75774884 0.62793684 0.92115134

bias f4 [64]
000000 5d d4 68 bd fd 32 c6 bc dc 80 00 bc 6d df e3 3d
       -0.05684315 -0.024194235 -0.0078432225 0.111265995
000010 06 73 e7 3d 56 9f 99 3d ea d6 e6 3d 77 23 83 3d
       0.11301236 0.07501094 0.1127146 0.06403249
000020 cc b0 01 3e 66 5f ce 3d 27 cc aa 3d 3e 3d 32 3e
       0.12665099 0.100767896 0.0833972 0.17406175
000030 87 67 4b bd 20 b7 cb bc 11 87 90 3e 05 04 07 bd
       -0.04965928 -0.024867594 0.28228047 -0.032962818
000040 4f eb 19 3e 14 81 c9 bd e7 53 d9 3c bb d9 93 3c
       0.1503117 -0.09839073 0.026529266 0.018048158
000050 b1 34 c8 bd 03 fc dd 3d e4 a1 87 be ea 0c 72 3d
       -0.09775675 0.10839083 -0.264907 0.059094347
000060 a6 75 a8 3d 6a c7 ee bd c7 65 be 3d e8 5d 09 be
       0.08225565 -0.11659129 0.09296756 -0.13414729
000070 81 e2 2a be 2a 05 c0 bc af db 08 be f8 e3 ce bd
       -0.16687967 -0.023439962 -0.13365053 -0.10102075
000080 dc 81 0b bd 79 40 0a 3b 84 17 3d bd b7 33 0a bd
       -0.03405939 0.0021095558 -0.046165004 -0.033740725
000090 1b 4e 54 3e 6a 4a f9 bd 79 dc 8c be 11 38 cb bc
       0.2073292 -0.121723965 -0.27511957 -0.024807008
0000a0 25 26 8b bd 65 92 29 be ab 89 8e 3d fe 42 f3 bd
       -0.06794385 -0.16559751 0.06959852 -0.11878012
0000b0 75 12 1b 3e b9 0f b3 bd 62 16 b0 be 9f dd 3b 3e
       0.1514376 -0.08743233 -0.34392077 0.1834626
0000c0 ee 43 f3 bd ad d4 44 bd 43 c6 b0 3d a6 b4 c7 3c
       -0.11878191 -0.048054386 0.086315654 0.024378132
0000d0 71 de 0b 3e 0f a6 5b 3c ac a9 1b 3e a4 4f 93 bc
       0.13659073 0.013406291 0.15201443 -0.017982312
0000e0 3d 5e cb bd c6 8a 2e bd 36 6c ca 3d 65 5d 21 bd
       -0.09930084 -0.042612813 0.09883921 -0.03939571
0000f0 86 6c c2 bd e1 0f ad 3d a9 8e 38 bc 64 c1 a7 bc
       -0.094933555 0.08450294 -0.011264482 -0.020477958

running_mean f4 [64]
000000 ab b8 22 3d b7 80 c0 3c 92 c6 fa 3c bc 0b 7a 3d
       0.039726894 0.023498876 0.030612264 0.061046347
000010 f5 67 b3 3b 84 1e 46 3c f3 29 01 3d 0c cf 47 3d
       0.005475039 0.012092236 0.031534147 0.04878144
000020 7b f1 9f 3c d7 81 40 3c ff 3f f1 3b 2e dd 4f 3c
       0.019524327 0.011749706 0.0073623653 0.012687011
000030 37 7e d1 3b 4e c0 bb 3c 6c 65 ea 3a 15 3b 4b 3c
       0.00639322 0.022918846 0.0017883009 0.012404223
000040 92 7a 6d 3b cc e5 b4 3c 78 8e 2f 3c 00 f3 b8 3a
       0.0036236388 0.022082232 0.01071512 0.0014110506
000050 28 94 28 3d 59 41 73 3c 5d 23 f8 3c 6d be 14 3d
       0.041156918 0.014847123 0.0302903 0.036314417
000060 c7 b4 71 3c 52 ae 8f 3d ae 4e 52 3c 11 94 f0 3b
       0.014752573 0.07015671 0.0128361415 0.0073418696
000070 3f 4f 12 3d 6b fc 4b 3c 41 2f 7f 3c 86 04 72 3d
       0.035720106 0.012450318 0.015575231 0.059086345
000080 63 79 55 3d f0 de 51 3c 6e a5 b5 3c b8 11 8f 3d
       0.052117717 0.0128095 0.02217361 0.069858015
000090 43 41 9f 3c 43 6c f1 3b fb 97 92 3c 27 3f f8 3c
       0.019440299 0.007367642 0.017894736 0.03030355
0000a0 b5 82 f6 3c 8e 6d 2d 3c 0c 91 8e 3d f2 29 41 3c
       0.030091623 0.010585202 0.06961259 0.011789786
0000b0 ea 2c c1 3b de 4a eb 3c f3 78 d9 3c f4 c3 23 3c
       0.0058952468 0.028722223 0.02654693 0.009995449
0000c0 6a 1e d2 3c ce 35 fa 3c 77 53 94 3d 55 01 cc 3c
       0.025649268 0.030543234 0.07242482 0.024902979
0000d0 c3 27 95 3c eb 0c 4c 3d e5 69 6f 3b 22 14 a1 3c
       0.018207436 0.049817007 0.0036531624 0.01966292
0000e0 4c 70 ca 3c 7a 1c d8 3c 3f a5 1b 3d 89 54 ca 3c
       0.02471175 0.026380766 0.037999388 0.024698513
0000f0 35 d4 d3 3c d8 5f 17 3d 2c df 65 3b 77 90 ae 3c
       0.025858024 0.036956638 0.0035075648 0.02130912

running_var f4 [64]
000000 01 65 02 3c dc a0 53 3b cc b5 bc 3b 2a f7 66 3c
       0.0079586515 0.0032291925 0.0057589766 0.014097014
000010 86 ed 3c 3a 67 c6 e2 3a 71 56 bf 3b f0 95 9c 3b
       0.00072070246 0.001730156 0.005839162 0.004778616
000020 c6 cc 5d 3b a7 0c f2 3a cb 86 66 3a 3d 19 eb 3a
       0.0033843978 0.0018466905 0.00087938894 0.0017936599
000030 86 aa 54 3a 77 01 87 3b 4d 35 7c 39 1c c6 de 3a
       0.0008112568 0.0041200477 0.00024052449 0.0016996297
000040 f0 9c 17 3a 6d 7f 33 3b 09 ed 08 3b 7c f4 21 39
       0.00057835784 0.0027389184 0.0020893237 0.00015445234
000050 1f 1d 3c 3b 53 b1 c4 3a 44 4e c9 3b 5e 29 c3 3b
       0.002870388 0.001500646 0.006143363 0.005955859
000060 7d b0 10 3b 9c e7 8c 3c 8e 59 88 3a 2f 1c 92 3a
       0.0022077851 0.017200284 0.0010402666 0.0011147315
000070 25 71 f8 3b ca 7e 02 3b 73 d0 b6 3a 34 86 b6 3b
       0.0075818473 0.0019911998 0.0013947621 0.0055701975
000080 c1 81 95 3b 54 06 f9 3a 2b 54 55 3b 7d 1f 09 3c
       0.004562587 0.0018999078 0.0032551389 0.008369324
000090 ec 34 52 3b 68 9e 92 3a 98 2d 3b 3b d7 74 8e 3b
       0.0032075 0.0011186125 0.0028561112 0.0043474245
0000a0 bc b8 3f 3b 1e f6 bd 3a fb e1 1d 3c 75 a8 07 3b
       0.0029254397 0.0014492904 0.0096363975 0.0020699773
0000b0 44 14 0a 3a e3 a1 91 3b b0 bf 9d 3b e0 03 9f 3a
       0.0005267302 0.004444347 0.0048141107 0.0012131892
0000c0 dc 66 91 3b ff af b2 3b 1b 5c f6 3b c2 a9 30 3b
       0.0044373106 0.0054531093 0.007518304 0.0026956652
0000d0 88 f2 40 3b fe 96 86 3b 8d 74 fb 39 94 45 40 3b
       0.0029441435 0.004107355 0.00047961288 0.0029338347
0000e0 b4 23 5d 3b 60 5a 33 3b 2b bf 66 3b 43 19 80 3b
       0.0033743205 0.00273671 0.003520916 0.0039092614
0000f0 0b 23 aa 3b 78 e1 90 3b 3a 40 fe 39 ac 78 81 3b
       0.0051921657 0.004421409 0.00048494508 0.003951153

weight f4 [128, 64, 5, 5]
000000 0c 4b b7 3c 17 94 d8 3b 9a a9 3f ba 72 cd 58 bb
       0.022374652 0.0066094506 -0.00073113444 -0.003308144
000010 42 cf 9d bc 46 32 8b 3c ec 41 03 bc dc e1 cb 3b
       -0.019263867 0.016991746 -0.0080113225 0.006221993
000020 1f 3e ff bb ff 68 1f bc f5 14 93 3b e8 78 2d bc
       -0.007789388 -0.009729623 0.0044885823 -0.010587908
000030 12 ed 0b bc 33 cc 87 bc ee fa 68 bc 98 3f 64 3c
       -0.008540409 -0.016576862 -0.014219983 0.013931178
000040 76 f6 70 bc f6 e0 5a bc 91 49 dd 3a d7 d9 f6 bb
       -0.014707198 -0.013359299 0.0016882886 -0.0075332928
000050 80 e5 ce bc 8a c9 76 bc 30 58 d8 bc 6a aa bf bc
       -0.025255919 -0.015062699 -0.026409239 -0.02339669
000060 39 79 8e bc a6 38 b4 3c 1e 31 7a 3b 97 6f f2 3b
       -0.017391788 0.021999668 0.0038176249 0.0073985565
000070 3f 19 9f bc 28 67 14 3c 25 6b 16 3d 27 ec 8f 3c
       -0.019421218 0.0090577975 0.036723275 0.01756866
000080 70 5b 4c 3b 85 01 1d 3c db 6f e0 3c 55 68 af 3c
       0.003118243 0.009582882 0.027397087 0.021412054
000090 1c ef 10 3c d0 d2 97 bb aa 4a 9c bc d1 e8 fa bb
       0.008846071 -0.004633285 -0.019078571 -0.0076571484
0000a0 30 36 e5 bc 80 79 c5 bc 08 5e a5 bc bd e0 3d 3c
       -0.02797994 -0.024105787 -0.02018644 0.011589226
0000b0 8d 77 67 bc df c1 1f bd 9f 7c 83 bb f2 2d e1 3b
       -0.014127624 -0.03900325 -0.0040126587 0.006871932
0000c0 4a f4 ad bc b1 ea bb bc ea 18 f9 ba 8f 87 b0 bc
       -0.02123465 -0.022939058 -0.0019004617 -0.021549014
0000d0 8f 59 26 3c a3 f7 e5 ba 13 a7 87 bc 18 a2 01 3d
       0.010153188 -0.0017545115 -0.01655916 0.031648725
0000e0 a9 6c 99 bb fa f6 c9 3c e6 d0 45 3c 32 79 99 bb
       -0.0046821428 0.0246539 0.012073731 -0.004683637
0000f0 7a 29 95 3b 7d 4e c1 39 1e bc 3f 3c f0 6e 93 3c
       0.0045520635 0.00036870307 0.0117025655 0.017997235
000100 79 f6 ad bb 4e 6c 1a bc 62 a3 62 3c 14 23 88 3c
       -0.005308923 -0.009425236 0.013832899 0.016618289
000110 47 4f 9a 3b ac 7b c8 3c 7a eb 3e bd 12 e8 8e bb
       0.0047091576 0.024473034 -0.046611287 -0.004361161
000120 92 74 27 3b cb b1 92 39 7c f2 85 3b 4b 4a 3f bd
       0.002555166 0.00027979756 0.0040877443 -0.04670171
000130 ee ea 2c bd 85 ae 3d bd d3 a9 27 bd b2 ff da bc
       -0.042216234 -0.046309013 -0.04093344 -0.026733253
000140 46 e0 c4 bc f7 28 01 bd e1 bd 01 bd 87 dd 0c bd
       -0.024032723 -0.031533208 -0.031675223 -0.034390952
000150 7f 5e 32 bd 54 26 00 3c 44 d7 14 bb c5 4c f0 bb
       -0.04354715 0.007821638 -0.0022711316 -0.0073333704
000160 cb f0 92 bc be 73 92 bc 6b 95 ab bc 61 9e d1 bc
       -0.017937085 -0.017877456 -0.020945271 -0.025588216
000170 e1 f7 9f bc 2e c9 cd bb b5 f1 79 bc 59 42 f1 bc
       -0.019527378 -0.006280086 -0.015255381 -0.029450582
000180 5d c5 d2 bc 93 2f 71 bb bf d1 eb bb de a4 4e bc
       -0.025728876 -0.0036802038 -0.0071966345 -0.01261255
000190 8e 07 59 3c 03 6c 17 bc 21 78 0c bc b8 59 29 ba
       0.01324643 -0.009242061 -0.008573563 -0.00064602075
0001a0 b0 19 42 3c d4 27 1f 3c ab bc 86 bc 33 5e 6a 3b
       0.011846945 0.009714086 -0.016447386 0.0035761714
0001b0 a0 fd 9d bb 37 fe 9f 3b 0b ba c6 3c a0 4c a0 bb
       -0.004821494 0.0048825997 0.024258634 -0.004891947
0001c0 83 a7 f2 bc 5a 78 22 3c b5 53 d2 3b a2 f9 25 b9
       -0.029620891 0.009916389 0.00641867 -0.00015828622
0001d0 ff a6 2d 3c 92 9c 7f 3c e9 2c 4d 3a 2f 97 e9 3b
       0.010598897 0.015601294 0.00078268215 0.007128618
0001e0 5c f5 47 bc 5b 12 e3 3b bb a4 24 3c 90 66 50 bc
       -0.012204494 0.0069296784 0.01004904 -0.012719765
0001f0 52 be 6b 3c 71 da c8 3b a9 fa 3b bc 8d 79 33 bb
       0.014388638 0.006129556 -0.011473336 -0.0027385682
000200 f0 14 dd 3b 1a 78 b8 38 37 4f 1d 3c b8 49 96 3b
       0.0067468807 8.7961744e-05 0.009601406 0.0045864247
000210 48 fe 2c bb cd 7e 0a ba 22 c2 83 bc e8 a2 06 3d
       -0.002639668 -0.0005283177 -0.01608378 0.032870203
000220 84 72 63 3b d2 f3 66 bc e4 88 40 bc 31 74 c0 3b
       0.0034705708 -0.014096217 -0.011751387 0.005873226
000230 c7 76 19 3b 73 84 7d bc 7e ab f8 bc 46 0e 90 bb
       0.0023416744 -0.015473473 -0.030355211 -0.004396233
000240 95 1d 81 3b 81 90 35 3c f7 a9 80 3b f6 6f b2 bc
       0.003940294 0.011081816 0.0039265114 -0.021781903
000250 aa d0 bb b9 3b 87 c9 bb 63 7f 22 bb 6f 3c 4a ba
       -0.00035822886 -0.006150154 -0.0024795167 -0.0007714694
000260 99 ff 94 3b 6e 53 ca 39 f7 11 d5 ba 4d 82 96 bb
       0.004547071 0.00038590602 -0.0016255964 -0.00459317
000270 15 85 03 bc d8 ef d7 b9 21 c8 25 bc 7d ea 71 bc
       -0.008027335 -0.00041186693 -0.010118515 -0.014765379
000280 83 3a fb bb 44 2d 48 bc 88 b3 4c bb b2 c8 ad bb
       -0.0076668872 -0.012217823 -0.0031234939 -0.0053034658
000290 c6 b5 f7 b9 ce 3c 01 bb 85 e0 48 bc af 2e 09 bc
       -0.00047246943 -0.001972008 -0.012260561 -0.008372947
0002a0 8e c2 c4 bb 20 b2 ae ba 56 55 81 bb d3 d4 56 bc
       -0.006004638 -0.0013328232 -0.0039469404 -0.013112265
0002b0 59 42 ad 3a 08 d5 0b bc 81 ea 19 bc 14 1e 88 3b
       0.0013218626 -0.008534677 -0.009394289 0.004153976
0002c0 22 40 c2 3b 2e 0c 8f 3c 8d 1b 56 3c b6 ce 3c 3c
       0.0059280554 0.017461862 0.013068092 0.011523893
0002d0 3f fb 56 3c aa 3f 93 3b 82 a1 ee 3c d6 87 e2 bc
       0.013121425 0.0044936733 0.029129747 -0.027652662
0002e0 00 69 86 3c c1 dd 50 bc 24 32 b5 3a 85 b6 2a bb
       0.01640749 -0.012748183 0.0013824147 -0.0026048732
0002f0 9a ae a2 3c 5b dc b4 3c ee 1b b1 ba 2e 60 de 3c
       0.019858647 0.02207773 -0.0013512352 0.027145471
000300 b3 7a 43 3b e5 34 03 bd 07 d2 68 bb c5 ee a3 3c
       0.0029827773 -0.032032866 -0.0035525577 0.020011315
000310 36 9b 02 3c 9d fb 97 3c aa 62 09 bc 51 3d 2e bd
       0.0079715755 0.018552596 -0.00838534 -0.042538945
000320 aa 5f 02 3d 80 ad f7 3b b3 6c 19 3c 73 1f 09 bc
       0.031829514 0.0075585246 0.009364295 -0.0083693145
000330 bc c3 04 bb c4 35 1c 3d 17 2b ab 3c 96 31 58 3c
       -0.0020258268 0.038137212 0.02089457 0.013195416
000340 fb cf 95 3c 74 22 c5 3b cb 27 1a 3c a0 7e de 3c
       0.01828765 0.00601607 0.009408901 0.027159989
000350 2c 1d 68 bc 58 19 26 bc 6d af 41 ba cb 89 27 3d
       -0.014167111 -0.010137878 -0.0007388506 0.040902894
000360 66 8f e5 3c 74 85 79 bc 71 46 9c bc c6 fa 8c 3b
       0.02802248 -0.015229572 -0.019076558 0.0043023555
000370 2b 9e 1e 3d 07 a0 e8 bb a8 6b 2f bc e3 d9 9e bc
       0.03872506 -0.007099155 -0.01070682 -0.019391006
000380 f4 40 1c 3b 62 71 50 3c dc d4 83 3b 1a 93 08 bc
       0.0023842426 0.012722345 0.0040231775 -0.008335853
000390 07 1b 1e bb 37 09 a5 bc 45 85 cd bc 1e fd 3a 3a
       -0.0024124996 -0.020145996 -0.025087962 0.00071330543
0003a0 7f 82 fc 3b dc 41 ec bb db 2b 59 3c 8c 78 2a bc
       0.007705986 -0.0072099995 0.013255085 -0.010404717
0003b0 ea b4 30 bc f4 7d f3 bc 4f 38 a7 3b 02 18 4e 3c
       -0.010785321 -0.029723145 0.005103148 0.012578966
0003c0 02 9e 94 3c 10 91 b8 3a 43 32 f5 bb b6 81 45 bc
       0.01814175 0.0014081318 -0.0074827983 -0.012054851
0003d0 fa dd 0f bc d2 a6 87 3c 12 90 f5 b9 cb 29 7e bc
       -0.008780951 0.016559038 -0.00046837382 -0.015512894
0003e0 12 44 00 3d c3 be 90 3a 4a 27 08 3c 63 12 a1 3b
       0.031314917 0.001104318 0.0083101485 0.004915522
0003f0 60 84 6f bc 58 a1 45 3c 7a 4d ff 3b 12 38 e9 3c
       -0.014618963 0.012062393 0.0077912183 0.02846912

bias f4 [128]
000000 a7 79 c5 3a 6e 2b be bc 03 13 d0 bc e1 1e b2 3a
       0.0015066162 -0.023214068 -0.02539969 0.0013589525
000010 d4 d3 9d bc 45 7b 44 bd 14 fe 01 bd 58 54 e0 bc
       -0.019266047 -0.04796912 -0.03173645 -0.027383968
000020 05 08 94 bc 8a 5a ab bc e6 d6 35 bb 18 7e 8f bd
       -0.01807023 -0.020917196 -0.0027746498 -0.07006472
000030 b4 54 e0 bd 8f 1a 3b bd f8 39 09 bd b9 5c aa bd
       -0.10953656 -0.045679625 -0.03350255 -0.08318467
000040 73 1f 45 bd d3 58 9c bc cf 00 f4 bc 6d 24 47 bd
       -0.048125695 -0.019085323 -0.029785542 -0.048618723
000050 f8 1f e3 bd 45 13 6b bd 5b d9 3e bd 94 24 0c bd
       -0.11090082 -0.057391424 -0.046594005 -0.03421457
000060 46 52 50 ba 0d 3c 5a 39 9f 26 7b bd 61 ac 1e bd
       -0.000794683 0.00020812471 -0.06131613 -0.038738612
000070 8c 09 1d ba 1d 32 a5 bd 8b 48 34 be f3 5f 9c bc
       -0.00059904973 -0.08066199 -0.17605798 -0.01908872
000080 7f 78 b7 3a 19 a7 85 bd 42 3a 19 3c 54 24 e5 bc
       0.0013997703 -0.06526012 0.009352269 -0.027971424
000090 de 9d 51 bd 25 0a 0e bd 8e fc 4d 3c 0b 91 11 bd
       -0.051175945 -0.034677643 0.012572421 -0.035538714
0000a0 a7 3a 55 bd 1e 7e 94 bd 83 05 8c bd 3c 03 26 bd
       -0.05205789 -0.072506174 -0.06836989 -0.04053043
0000b0 1a 7f ca bd 36 6b 48 bc c1 69 75 bd 62 29 ef bd
       -0.09887524 -0.012232592 -0.059915308 -0.11677815
0000c0 a5 ab b3 bd 7c 81 8b bd 4f 2e da 3a 75 db 86 bc
       -0.08772973 -0.068118066 0.0016645881 -0.016462067
0000d0 47 05 12 bd a8 77 61 ba 54 4b 86 3c e4 7a ec ba
       -0.035649564 -0.0008600899 0.016393341 -0.0018041995
0000e0 52 16 83 bd 2b 65 1f 3b 4f 75 e5 bd f3 2e 49 bc
       -0.06400742 0.0024321775 -0.112040155 -0.01227926
0000f0 c3 d2 1c bd d0 4a dd bb dd c1 0d bc b5 fb 85 3b
       -0.038286936 -0.006753303 -0.008652178 0.0040888437
000100 a0 84 ed bd 77 0e 61 bd 33 c2 28 bc f9 72 95 bc
       -0.11597562 -0.054945435 -0.010300207 -0.0182433
000110 9e d9 2a bd e5 ef 10 bc cd 2b 4e 3d 71 ff a2 bd
       -0.041711442 -0.008846258 0.05033474 -0.07958878
000120 4d 7c 67 ba 72 52 5c bd 58 bb 4d bb fa 26 1f bd
       -0.0008830473 -0.053789563 -0.0031392183 -0.03885553
000130 6d 89 4e bd 8e 81 7a bd 3d c6 7a bd 4c 52 aa 3b
       -0.05042403 -0.06115871 -0.06122421 0.005197799
000140 25 55 2d bd 9e 5f 95 bc 78 7c 81 bd 9b 1d 04 3d
       -0.04231753 -0.01823407 -0.06322569 0.032254796
000150 ad e9 84 bd 45 6e 4c 3b 10 12 68 bc d3 cd b3 bd
       -0.064898826 0.0031193655 -0.014164463 -0.08779492
000160 9e 66 29 3b 63 00 08 bd 91 72 f1 3c 1a 02 36 be
       0.0025848518 -0.033203494 0.029473575 -0.17774239
000170 70 26 92 b8 54 bb b0 bc 22 8b 34 3d 2c 1b f2 ba
       -6.968982e-05 -0.0215737 0.044078 -0.0018471233
000180 a2 fd 68 bd 73 14 86 bd 27 e3 3c bc 62 77 56 bd
       -0.056882508 -0.06546869 -0.011528767 -0.052359946
000190 34 8b 26 bd c2 85 cc bc 9b 7e 67 bb c8 31 1e bd
       -0.0406601 -0.024966124 -0.0035323265 -0.038621694
0001a0 3c 0e a8 bd 82 07 89 bd fa 90 71 bc b8 fd 16 3b
       -0.0820584 -0.06690885 -0.014744038 0.0023039412
0001b0 08 99 8d 39 6c bc e6 39 10 4a 19 bb f4 9e 0b bb
       0.00027007633 0.00044009404 -0.0023390092 -0.002130446
0001c0 8d e7 d4 bc ff a8 97 bc 1f a7 79 bd 69 47 a1 bd
       -0.025989318 -0.0185132 -0.060950395 -0.078749485
0001d0 61 a0 ef 3b 55 b6 ab 3c 69 aa 3d bd 41 25 3b 3b
       0.00731282 0.020960966 -0.046305094 0.002855614
0001e0 e0 7c 03 3d ea c8 33 bd af 94 9c bc 25 1f c4 bc
       0.032101512 -0.04389278 -0.019113867 -0.023940632
0001f0 e0 1b ca bd 20 64 40 bd e7 ba a9 bc d2 e0 b0 3a
       -0.09868598 -0.046970487 -0.020719005 0.0013494736

weight f4 [128]
000000 c5 7a 31 3f 6e e6 34 3e 7a 07 55 3f 3e 8e e7 3e
       0.69327956 0.17666027 0.83214533 0.4522571
000010 f0 4e e7 3e 8d f4 c9 3e b2 6d f5 3e 10 9e 1c 3f
       0.45177412 0.3944439 0.47935253 0.61178684
000020 71 c5 5e 3e f8 73 52 3e 2e 74 e3 3c a9 a2 1c 3e
       0.21755005 0.20552051 0.02776536 0.15296425
000030 63 cd e0 3d 05 8a 7e 3e 24 2a 5a 3e de 1f 44 3f
       0.109766744 0.24857338 0.21305138 0.76611125
000040 d8 d2 72 3f 86 fe 80 3d 57 30 19 3f 52 1f 91 3e
       0.9485297 0.062985465 0.59839386 0.28344208
000050 0a 17 e3 3e 2a 3c 38 3e fd 79 bc 3e e2 80 93 3d
       0.44353515 0.17991701 0.3681182 0.07202317
000060 d3 55 02 3d d0 fe 29 3e 47 dc 84 3e a8 b3 dd 3e
       0.03182013 0.1660111 0.25949308 0.4330113
000070 58 89 c2 3a a9 3f 96 3e 32 b0 99 3e 73 0c 08 3e
       0.0014841957 0.29345444 0.3001724 0.13285999
000080 6c d5 f8 3a 81 1f 0e 3f 43 91 3e 3f 41 8a f2 3e
       0.0018984503 0.5551682 0.744404 0.47371104
000090 b7 36 6c 3f 72 97 9e 3e 9a 9e 74 3e 38 94 40 3f
       0.9227099 0.3097492 0.23888627 0.75226164
0000a0 4c fc 70 3e 2e 13 34 3f 78 d3 04 3e af 27 ec 3d
       0.23533744 0.70341766 0.12971294 0.115310065
0000b0 c5 f8 29 3f 46 a9 90 3e f3 c9 1e 3f df 0c 6f 3f
       0.6639522 0.28254145 0.620269 0.93379015
0000c0 e2 fe 60 3f 30 dd a1 3e 78 a1 f4 3e 16 67 33 3f
       0.8788892 0.31614065 0.4777944 0.7007917
0000d0 d2 e6 09 3f e4 d2 8a 3e 1a 1c 04 3f 49 e7 a9 3e
       0.5386783 0.27114022 0.5160538 0.3318427
0000e0 0e 65 f9 3e 39 c4 be 3d e5 68 bf 3e 31 d7 74 3f
       0.4870991 0.0931477 0.37384716 0.95640856
0000f0 34 8c 67 3f 8e 5b 1b 3f ff aa 7a 3f 89 7f 67 3e
       0.9044831 0.60686576 0.9791717 0.22607245
000100 b4 76 5d 3f 50 14 71 3e fe 93 07 3f 50 bd 1d 3f
       0.8650925 0.23542905 0.52960193 0.6161699
000110 3f 7f 2f 3f d9 95 25 3f 2f ee 4c 3f c1 1d 1c 3f
       0.6855354 0.64681774 0.8005094 0.609829
000120 fc 44 44 3d 1a 0a 20 3e 81 07 8c 3e 67 ed ed 3e
       0.04791735 0.15628853 0.27349475 0.46470186
000130 d7 ae 56 3f 38 ce 70 3f 33 bf e1 3d 7b 26 8c 3d
       0.83860534 0.94064665 0.110227965 0.06843277
000140 26 5a 3b 3f 4b e5 59 3f cd f6 46 3e 98 fd 9b 3e
       0.7318443 0.851155 0.19430085 0.30466914
000150 0b 36 5a 3f 72 d0 2d 3f 6a f0 90 3e 20 6a 54 3f
       0.85238713 0.6789619 0.2830842 0.82974434
000160 c3 9f e7 3e db c9 66 3f 94 a9 55 3f 1d 48 67 3f
       0.45239076 0.90151757 0.8346188 0.9034441
000170 03 a0 eb 3e 1c 37 67 3f f5 ab 60 3f 13 43 4d 3f
       0.46020517 0.90318465 0.87762386 0.8018047
000180 76 f1 2b 3f f6 98 cd 3e 87 eb 92 3d 0a 31 01 3e
       0.67165315 0.40155762 0.071738295 0.12616363
000190 c3 ea 45 3f 63 48 2d 3f 95 88 74 3f 58 7b 39 3f
       0.7731134 0.6768858 0.9552091 0.7245383
0001a0 fc a6 6b 3f 26 e2 60 3f 0f 87 30 3f 58 f5 4a 3f
       0.9205167 0.87845075 0.68956083 0.79280615
0001b0 80 cf 63 39 36 44 22 3e db b9 82 3d c7 5e 92 ba
       0.00021725707 0.15846333 0.06383105 -0.0011167162
0001c0 4a a6 52 3e 6a ce 7b 3e 27 19 84 3e b1 07 19 3e
       0.20571247 0.2459046 0.2580044 0.1494434
0001d0 9a 25 a3 3e 7e 3d 38 3f 62 4d c1 3e 20 4b 5d 3f
       0.31864625 0.7196883 0.3775435 0.86442757
0001e0 31 9c 04 3f b9 ad 1f 3f 22 f0 41 3f 10 c6 e0 3e
       0.5180083 0.62374455 0.7575704 0.4390111
0001f0 b9 c5 a4 3e 82 d8 44 3f b3 30 29 3f c5 0a 4b 3f
       0.321821 0.76892865 0.66089934 0.7931331

bias f4 [128]
000000 7b 40 0b 3e a2 14 09 3e 27 fc f0 bd eb 59 13 3e
       0.13598816 0.13386777 -0.11766844 0.1438977
000010 69 fe 00 be e1 ea 03 be bd 86 04 be 17 7d 09 3e
       -0.1259705 -0.12882568 -0.12942024 0.13426624
000020 4e 6f 11 3e 8e 0b fb bd 72 e1 27 3d 1e f2 1b be
       0.14202616 -0.12258063 0.040986486 -0.15229079
000030 17 54 17 be c5 df 12 3e c7 33 40 be 2f fd 02 be
       -0.14778171 0.14343174 -0.18769751 -0.12791894
000040 6f cd 07 3e 07 fa 2b 3e 86 2a 01 be 51 dd 28 3e
       0.1326196 0.16794597 -0.12613878 0.16490676
000050 e8 9b 09 be d5 74 02 be ae b1 19 3e 45 04 07 be
       -0.1343838 -0.1273988 0.15009186 -0.13185222
000060 e0 dd 9e bc 7c 3f 12 3e c0 6a 18 3e ba 50 1b 3e
       -0.019392908 0.1428203 0.14884472 0.15167513
000070 0d 71 79 3e 3e 43 03 be 70 9c 3e be b3 a0 00 be
       0.24359532 -0.1281862 -0.18614364 -0.12561302
000080 7d c9 59 be ca 6e 2f 3e 1b 90 03 3e e3 30 f2 bd
       -0.21268268 0.17132106 0.1284794 -0.11825731
000090 8f 5d 2f 3e 7b bf 07 be 0f 01 06 3e f4 a7 f1 bd
       0.17125534 -0.13256638 0.13086341 -0.11799613
0000a0 98 af 3d 3e d1 14 01 be 70 a3 15 3e 86 37 11 3e
       0.18524015 -0.12605597 0.14613128 0.14181337
0000b0 91 fe 10 be 96 88 05 3e 69 eb 03 be 38 f0 17 be
       -0.1415961 0.13040385 -0.1288277 -0.1483773
0000c0 f3 fd 06 be 35 b6 01 be 55 b7 ee bd 38 7a ff bd
       -0.13182811 -0.12667163 -0.116560616 -0.12474483
0000d0 2e 44 ff bd da 0e 06 3e 7a c5 02 3e 78 ec 0b 3e
       -0.12464176 0.13091603 0.12770644 0.13664424
0000e0 ba 40 03 be 3c 59 1d 3e 68 44 05 be a4 07 01 3e
       -0.1281766 0.15366071 -0.13014376 0.12600571
0000f0 75 cc fa bd d7 a4 04 3e cb c0 02 3e 73 1c 06 3e
       -0.12246028 0.12953506 0.12768857 0.1309679
000100 f1 54 0d be b2 20 19 3e 02 f4 07 3e 7e 9a 01 3e
       -0.13801934 0.14953879 0.13276675 0.1265659
000110 64 17 06 3e 64 a3 0b 3e 0b bc fe bd 88 9f 08 be
       0.1309486 0.13636547 -0.1243821 -0.13342106
000120 69 48 ab bc 9e e6 1a 3e ca 51 e4 3d 20 b0 06 3e
       -0.020908551 0.15127036 0.111484125 0.13153124
000130 31 a4 ea bd 7b 27 f5 bd b2 4a 19 3e ea 1e 0d 3e
       -0.11457098 -0.11970421 0.149699 0.13781324
000140 f7 37 ea bd 00 7a 00 be 37 a2 20 3e a8 d7 ff 3d
       -0.11436456 -0.1254654 0.1568688 0.12492305
000150 ed 1d 01 be 3a 67 02 3e 72 80 11 3e 2e 26 1f 3e
       -0.12609072 0.1273469 0.14209154 0.15541908
000160 0b 8e 04 3e 05 9d e6 bd 6a b1 fa bd 84 9a 28 be
       0.1294481 -0.11260418 -0.1224087 -0.16465193
000170 b1 34 0d 3e af 3a ea bd 24 21 00 be 7b a1 00 3e
       0.13789631 -0.11436974 -0.12512642 0.125616
000180 cb c7 f4 bd 7d 33 06 be d8 4c 79 3e d9 73 1a 3e
       -0.1195217 -0.13105579 0.2434572 0.15083255
000190 7f cd f3 bd 8b d9 06 3e 9e b7 fc 3d 3f 31 08 3e
       -0.1190443 0.13168924 0.1233971 0.13300036
0001a0 19 8c 27 be a7 96 07 3e 4f fd 0a 3e b1 ae 00 3e
       -0.16362037 0.13241063 0.13573192 0.1256664
0001b0 b5 b8 82 be 53 78 27 bd 90 0b 06 be bc 82 24 be
       -0.25531545 -0.040886234 -0.13090348 -0.16065496
0001c0 5f 8f 18 be 17 e7 f2 bd 30 3f 0a 3e 7e 1a 1a 3e
       -0.14898442 -0.11860483 0.13500667 0.15049168
0001d0 54 00 08 3e 37 44 fb bd 68 d5 f8 bd 4a 6d ea bd
       0.13281375 -0.1226887 -0.12150079 -0.114466265
0001e0 ef 9d 00 3e d4 7d f4 bd bf c8 08 3e c6 f8 2c 3e
       0.12560247 -0.11938062 0.13357829 0.16891775
0001f0 37 0d 0c be 15 51 f6 bd eb af f5 bd c4 fb 00 3e
       -0.13676916 -0.12027184 -0.11996444 0.12596041

running_mean f4 [128]
000000 03 8a 21 3f a3 5d e2 3d 56 0a d8 3d dd aa 12 3f
       0.63101214 0.11053016 0.105488464 0.57291967
000010 27 1c 3b 3e 3c f5 48 3d 1d fc 92 b9 c4 91 5e 3d
       0.18272458 0.049062 -0.0002803513 0.05433823
000020 94 00 43 3e 0d 92 3e 3e 03 d9 8c 3d 62 73 04 3d
       0.1904319 0.18610401 0.06877329 0.0323366
000030 88 11 0d 3c 0b c8 81 3e 72 c8 62 3e 0e 36 2e 3d
       0.008610137 0.25347933 0.22146776 0.04253202
000040 4e 1b c1 3d db 5d 34 3e 0a fd 3e 3e 57 e8 74 3e
       0.09429036 0.17613928 0.18651214 0.23916756
000050 f3 d1 bf 3c 93 1b 21 3d 90 8d 46 3e 82 7f 86 3e
       0.023415541 0.039332937 0.1938994 0.26269156
000060 05 5c d6 3b d3 9c 15 3f df 67 09 3d af ab 22 3e
       0.0065417313 0.5844242 0.033546325 0.15885805
000070 8b 0a 1f 3e 74 c9 99 bc 3f a5 da bc 0e 4c da 3e
       0.15531366 -0.018772818 -0.026690124 0.4263615
000080 e3 ed 59 3e 9f 1a 97 3d ba 1d 92 3e 4a 03 56 3e
       0.21282153 0.073781244 0.28538305 0.20899692
000090 ed b4 27 3e 96 1c 2b 3e 95 7c e4 3e fe 10 0a 3e
       0.16377611 0.16710123 0.446263 0.13483045
0000a0 fa 58 b1 3d 41 b8 80 3d a4 12 71 3c 8c c6 75 3e
       0.08659549 0.06285144 0.014713917 0.24001521
0000b0 ab 59 a0 3c 59 63 85 3e 01 a4 b7 3d 72 1d c7 ba
       0.019574007 0.2605236 0.08966828 -0.001519127
0000c0 df de 33 3d 51 d5 98 3d de c3 81 3e 48 76 31 3e
       0.04391372 0.07462562 0.25344747 0.17330277
0000d0 1f df 93 3d 05 bf 1a 3f 27 c1 6e 3f 02 52 05 3f
       0.07220291 0.6044772 0.9326348 0.5207826
0000e0 54 e1 ce 3b 8e f3 e9 3e 64 59 b0 bc ea a0 c3 3d
       0.0063134823 0.4569363 -0.021527 0.09552176
0000f0 99 9e 5e 3d db 9b e2 3e 30 61 92 3e c8 ad 03 3f
       0.05435047 0.44259533 0.28589773 0.51437044
000100 50 bb a0 bc 32 3d ef 3d 49 97 a8 3e b8 44 85 3e
       -0.019620568 0.11681594 0.3292792 0.2602899
000110 79 63 cf 3d e6 e9 e7 3e 99 82 33 3f 26 ce 05 3e
       0.10126395 0.45295638 0.7012115 0.1306692
000120 ee 4a b0 3c 72 e7 c9 3d fe be 9f 3e 56 c8 50 3e
       0.021520104 0.09858598 0.31200403 0.20388922
000130 0b ba 08 3d e4 9d ef 3c 03 82 cd 3d e0 80 21 3f
       0.03338055 0.029250093 0.100345634 0.6308727
000140 d0 00 64 3e b7 d0 ae 3c 4e 41 fe 3d d9 14 64 3f
       0.22265935 0.021339757 0.124148 0.8909431
000150 6b 7b 29 3d b2 a5 95 3e 40 37 02 3f f7 1f f7 3c
       0.041377466 0.29227978 0.50865555 0.03016661
000160 84 5d e6 3e 23 83 cf 3d af ea 28 3e dc ff b3 bc
       0.44993222 0.10132434 0.16495775 -0.02197259
000170 2f ba eb 3e c4 d6 3f 3e 63 19 49 3f cb d2 fb 3e
       0.46040484 0.1873427 0.7855436 0.4918426
000180 8c 56 50 3d b0 db cc bc 80 84 7f 3e 26 f2 06 3e
       0.050863788 -0.025007099 0.24952888 0.1317831
000190 0e 17 b1 3e 00 f6 01 3e 2b 5d 26 3f 02 b8 a4 3d
       0.34587902 0.12691498 0.64985913 0.08042909
0001a0 b9 1e 3b 3d 50 2c 36 3d f8 3f e1 3d db 16 90 3e
       0.045683596 0.044475853 0.10998529 0.28142437
0001b0 7f 79 eb 3d 1d 75 5f 3d b7 19 fe 3e c5 ff 08 3e
       0.11497783 0.054555047 0.49628994 0.13378818
0001c0 b4 fd 5c 3e 71 f8 7d 3e 1e 80 4f 3d 1a ca 18 3d
       0.21581155 0.24801804 0.05065929 0.037302114
0001d0 8a 39 2d 3f c8 f0 3c 3e 72 b4 06 3d 65 b1 c5 3e
       0.6766592 0.18451226 0.03288693 0.38611904
0001e0 2c bd 66 3f 16 6e f3 3d d8 47 b8 3d 90 22 65 3e
       0.90132403 0.118862316 0.08998078 0.22376466
0001f0 4e 52 37 bc 00 58 ec 3d a6 53 92 3e 4a 69 26 3f
       -0.011189057 0.11540222 0.28579444 0.6500441

running_var f4 [128]
000000 19 53 b8 3f dd ad 0e 3e 09 51 7a 3e f6 a3 8d 3f
       1.4400359 0.13933511 0.24444975 1.1065662
000010 5b 48 9d 3e 26 b1 f0 3d 69 fa 1b 3d e6 d5 de 3d
       0.30719265 0.117525384 0.038080607 0.10880642
000020 bd fd 91 3e 7e fc 0c 3e a4 39 b5 3c e8 b6 37 3d
       0.285139 0.13768193 0.022122212 0.044852167
000030 14 36 26 3d f1 c9 e4 3e b5 65 b9 3e ee 8b 02 3e
       0.040578917 0.4468532 0.3621041 0.12748691
000040 6e 9f 5b 3e a9 e2 64 3e e2 91 be 3e 63 37 e8 3e
       0.21447536 0.22352089 0.37220675 0.45354757
000050 2d be 88 3d 38 fb 80 3d d1 05 90 3e 57 42 00 3f
       0.06676898 0.06297916 0.28129438 0.50101227
000060 d6 b3 8e 39 0e 0f 95 3f 4c 63 90 3d 1c 14 8b 3e
       0.0002721834 1.1645219 0.070501894 0.2716378
000070 1b 6e be 3d 23 a3 66 3c e7 b3 fa 3b f2 d9 84 3f
       0.09298345 0.014076981 0.0076508406 1.0379012
000080 0e 2a 05 3e 54 33 fd 3d cc 43 1d 3f d5 3f a2 3e
       0.13004324 0.12363306 0.61431575 0.31689325
000090 4b 10 a5 3e 26 28 71 3e db 3a 80 3f b6 fa a1 3e
       0.32238993 0.23550472 1.0017961 0.3163659
0000a0 77 ef e7 3d 4e 74 ca 3d 8d 7e 26 3d 7a ea 29 3e
       0.11324971 0.098854646 0.040648032 0.16593352
0000b0 c5 6d a6 3d 5f 90 dd 3e 7a a6 e9 3d 1b 7a 43 3d
       0.081264056 0.4327421 0.11408706 0.04772387
0000c0 40 1d dc 3d e2 f6 27 3e 11 62 cf 3e 36 99 47 3e
       0.107477665 0.16402772 0.40504506 0.19492039
0000d0 df 87 06 3e 8f 3c a0 3f 8e 30 09 40 8c 4c 8f 3f
       0.13137768 1.2518481 2.1435885 1.1195235
0000e0 2d 4a 7b 3d 2c ec 6e 3f 7b 5e 81 3c e1 63 0a 3e
       0.061350036 0.9332912 0.015792122 0.13514663
0000f0 be 43 1e 3e 3e 83 28 3f 51 ca 09 3f 8e 41 8f 3f
       0.15455529 0.6582526 0.53824335 1.1191881
000100 b5 35 83 3c d0 67 29 3e 7c 79 01 3f be 14 f8 3e
       0.01601682 0.16543508 0.50575995 0.48453325
000110 fd fc 4f 3e 70 39 76 3f 7a 28 14 3f f0 00 98 3e
       0.20311351 0.9618139 0.5787426 0.29688215
000120 c6 4d 07 3b c4 f8 0b 3e 3e 74 00 3f ba 84 ce 3e
       0.0020645722 0.13669115 0.5017737 0.40335637
000130 9a 42 ad 3d a9 6a a5 3d 21 ca 46 3e d2 11 b2 3f
       0.08459969 0.080769844 0.19413044 1.3911688
000140 b9 36 15 3f 16 94 84 3d 93 fe 8e 3e f9 b2 07 40
       0.58286625 0.06473558 0.279286 2.1202986
000150 cb 8f d4 3d 07 32 24 3f e6 32 ec 3e c2 48 c8 3d
       0.10378989 0.64138836 0.46132582 0.097795025
000160 01 3f 23 3f a1 b6 61 3e 9f 7b 5f 3e b0 b8 47 3c
       0.6376801 0.22042324 0.21824501 0.012190029
000170 ce 0e 4c 3f bf 18 d7 3e 40 27 29 3f a5 91 86 3f
       0.7971009 0.42011067 0.66075516 1.0513197
000180 74 35 06 3e b2 22 4a 3c 06 fc ce 3e ca 00 a5 3e
       0.13106328 0.012337374 0.40426654 0.32227165
000190 24 98 44 3f da 47 6a 3e 56 3a 46 3f 91 73 45 3e
       0.7679465 0.22878972 0.77432764 0.19282366
0001a0 f7 18 cc 3d 74 44 34 3e 51 01 56 3e 97 39 f9 3e
       0.09965699 0.17604238 0.2089894 0.4867675
0001b0 2e ea 18 3d 21 e3 3d 3c 02 f3 86 3f e9 47 96 3d
       0.037332706 0.011589796 1.054291 0.073379345
0001c0 1f d5 8e 3e 07 d5 96 3e a2 30 e4 3d 57 b9 f3 3d
       0.27896973 0.29459402 0.111420885 0.11900585
0001d0 74 dd a7 3f 1f 35 22 3e bc a6 4f 3d ff b9 86 3f
       1.3114457 0.15840577 0.05069612 1.0525512
0001e0 2c bc 12 40 56 dd 95 3e c1 4e 3d 3e d7 5b b1 3e
       2.292735 0.29270428 0.18487073 0.3464038
0001f0 33 f2 50 3c 16 1e b1 3e 52 a8 24 3f 59 1e aa 3f
       0.012753057 0.34593266 0.64319336 1.3290511

weight f4 [1, 128, 1, 1]
000000 0a 83 83 bd 36 9b 9d be 21 c2 4f 3e c8 6c 50 bd
       -0.06421478 -0.3078248 0.20288898 -0.050884992
000010 7f 4c a6 3e 31 33 ae 3e af 0d c7 3e fc e8 63 be
       0.32480237 0.3402343 0.38877627 -0.22256845
000020 12 26 c5 be 1e 75 a8 3d 9d 91 e5 bb 91 99 5d 3e
       -0.38505608 0.08225463 -0.007005884 0.21640612
000030 3e 37 0f 3f 42 e3 c4 be 46 ff 75 3d a1 0f 03 3e
       0.5594367 -0.38454634 0.0600579 0.1279893
000040 7c de d8 be d7 1c 4b be ae 8a 72 3e ab c3 ea bd
       -0.42357242 -0.1983522 0.23685715 -0.11463102
000050 28 7b 8e 3e fe 54 b7 3e 1d c5 31 be cd db 9b 3e
       0.27828336 0.3580703 -0.17360349 0.30441132
000060 24 be 63 b8 ba bb 35 be 2a a9 a7 be 8a ec 62 be
       -5.42981e-05 -0.17747393 -0.3274625 -0.22160545
000070 57 ed 6a be 4d 47 9f 3e 1c cd 6c 3e f3 84 76 3e
       -0.229421 0.31109086 0.23125118 0.24074154
000080 ca d4 5a 3e 75 95 9c bd 28 5e b5 be a6 2c 42 3d
       0.21370235 -0.07645694 -0.35423398 0.04740586
000090 e8 cf 09 be 7f 15 cb 3d 86 76 a1 be 77 58 76 3e
       -0.13458216 0.099162094 -0.3153574 0.24057184
0000a0 c7 54 12 be cf 6c 8f 3e 2e 17 cf be ea db e4 be
       -0.14290152 0.28012702 -0.40447372 -0.4469903
0000b0 13 d6 b3 3d 2d 4a 88 be ed a8 d8 3d 97 e5 c1 3d
       0.08781066 -0.26619092 0.10579095 0.09467619
0000c0 6f 3a 2c 3e 7f 1a 7b 3e f3 f5 15 3e 25 c5 b0 3e
       0.16819166 0.24521826 0.14644603 0.3452541
0000d0 78 f2 b0 3e 1e 4a 91 be 66 bf 9c be 91 0c 8f bd
       0.3455999 -0.2837686 -0.30614775 -0.06984819
0000e0 c0 d8 99 3e 7f fd 2d be 05 a4 8f 3e a0 a3 8d be
       0.3004818 -0.16991232 0.28054824 -0.27663898
0000f0 44 51 a5 3e 2d a9 34 be 8a c6 a4 be b8 9b bc be
       0.32288563 -0.1764266 -0.32182723 -0.36837554
000100 4b b0 57 3e 7c 0d 58 be a8 25 50 be 38 4f 92 bd
       0.21063344 -0.21098894 -0.20326865 -0.07144016
000110 38 d8 92 be 7e 3a e1 bc c1 fc 8b 3e 07 66 b5 3d
       -0.28680587 -0.027493712 0.27341273 0.08857351
000120 15 e6 63 b9 a9 69 8c be 54 4f b8 bc 17 79 9f be
       -0.00021734119 -0.27424362 -0.022498764 -0.31147072
000130 d8 34 00 3e 96 8c 69 3e 84 c5 03 bf 77 36 c0 be
       0.12520158 0.22807536 -0.5147326 -0.37541553
000140 20 bc 12 3e 61 2f 93 3e e9 e0 89 be be 4b 9a be
       0.14329576 0.28747085 -0.26929405 -0.30135912
000150 45 93 35 3e 38 1a c7 be 42 7f 95 be da 57 36 be
       0.1773196 -0.3888719 -0.29198653 -0.1780695
000160 86 2e 4d be 44 9a dd 3d 75 35 9a 3e fe 68 27 3e
       -0.20037279 0.108204395 0.3011891 0.16348645
000170 36 3b a5 bd e6 55 1f 3e 4a a0 b2 3e d5 28 ed bd
       -0.08067934 0.15560111 0.34887916 -0.11580054
000180 74 ff 60 3e ce 30 84 3e bb ef 0b be 98 d5 bc be
       0.21972448 0.25818485 -0.13665669 -0.3688171
000190 ff 17 8a 3d b2 65 bb be 77 65 9d be f9 30 b7 be
       0.06742858 -0.36601025 -0.30741474 -0.3577955
0001a0 4d 3b e7 3d 0c 9a 9f be 4a ee c2 be af 42 96 be
       0.112906076 -0.31172216 -0.38072425 -0.2934775
0001b0 f5 5c 84 3e a7 ab 16 ba 15 4b 1a 3e c1 91 be 3e
       0.2585217 -0.0005747624 0.15067704 0.37220576
0001c0 ef cf ba 3d a7 c7 1c 3d f7 dd cf be 21 2a f0 be
       0.091216914 0.03827634 -0.40599033 -0.46907142
0001d0 ad 69 4e be 63 09 80 3e 4a 34 16 3e f7 36 0f 3e
       -0.201575 0.25007161 0.14668384 0.13985811
0001e0 86 26 9c be 2a d1 6f 3e 40 67 05 be 15 59 d7 bd
       -0.3049814 0.23419634 -0.13027668 -0.10515038
0001f0 d4 b3 92 3e 7d ab 66 3e 1e 0e 91 3e c3 56 63 be
       0.28652823 0.22526355 0.28331083 -0.22201066
