data/ball_data/model_9500.pth (torch_old, 853498 bytes, 13 tensors)

weight f4 [64, 1, 5, 5]
000000 f3 7c 98 bd fc 32 24 3d 61 4a b6 3c f1 13 1a 3d
       -0.07445707 0.040087685 0.022252264 0.037616674
000010 37 5f 68 3d 35 fb 93 bd 4e 53 7e bd 41 6a 18 3e
       0.05673143 -0.07225648 -0.062091164 0.14884283
000020 9e ad 84 3d 40 57 bd 3d 1b 9f 2c be 7a 2f c4 bc
       0.06478427 0.09245157 -0.16857569 -0.02394842
000030 39 69 af bd 6d ed 40 3d c1 9e 70 3d c0 d3 6f be
       -0.085649915 0.047101427 0.05874515 -0.2342062
000040 71 3a 2f be 7c 6d 14 3d 4b cb e1 bc 9d e8 40 3d
       -0.17112137 0.036237225 -0.027562758 0.047096837
000050 75 d4 f4 3c 58 e1 c6 bd e7 78 20 3c 11 83 80 3c
       0.029886464 -0.0971095 0.00979445 0.015687497
000060 61 ca 35 3c 25 3d 46 3e 63 c2 10 be 61 90 14 3d
       0.011095614 0.19359262 -0.14136653 0.036270503
000070 d1 f3 2a bd cf 9b 9b 3c 73 56 21 3e e2 f7 63 3d
       -0.041736428 0.018995194 0.15755634 0.05565632
000080 51 5e d3 bd 0b 41 08 be cb f3 b8 3d 0c 65 d2 3d
       -0.10320724 -0.13306062 0.09030875 0.102731794
000090 19 26 44 3d 5e 8a 04 be c8 f6 5c bd e5 d0 51 bd
       0.047887895 -0.12943408 -0.053946286 -0.051224608
0000a0 74 75 f0 bd 2e a2 fd 3c d6 25 bc bc 83 ea 29 bd
       -0.117411524 0.030961122 -0.02296726 -0.041483413
0000b0 70 06 fb 3d fd 62 04 3c bd 58 f2 3d 76 ac 12 3c
       0.12257087 0.008080241 0.11833332 0.008952251
0000c0 79 a7 90 bd c5 a0 03 bb 7e 16 d0 3d b8 a7 49 3d
       -0.07063193 -0.002008484 0.1016054 0.049232215
0000d0 4f fb 39 bc 15 63 ce bd a4 76 89 3b 9c 10 17 bd
       -0.011351421 -0.10077492 0.0041950513 -0.036881074
0000e0 9a fd 06 3e 8a a2 e7 3d ea 81 fc bd b2 28 64 bd
       0.13182679 0.11310299 -0.12329467 -0.055702873
0000f0 6e 67 40 3d 6f d4 87 3d 8a e5 a8 3c a9 69 bf bd
       0.04697364 0.06632315 0.020617265 -0.09346325
000100 15 5e d6 3c e7 a1 04 3d 21 95 c9 bd fe 4f a1 bd
       0.026167909 0.032380965 -0.09842897 -0.078765854
000110 ff 84 82 3c 67 df 9f bd 8c b8 3f 3d 7a 0d 11 3d
       0.015932558 -0.078062825 0.046806857 0.035413243
000120 f1 82 3a 3e d8 4f c0 bc 87 f8 a1 3d 50 65 a0 bd
       0.18214013 -0.023475572 0.07908731 -0.07831824
000130 6f b4 cb bd e0 33 65 3d a2 ae 42 bd 29 3d 28 be
       -0.09946524 0.055957675 -0.047529824 -0.16429581
000140 e6 06 2f 3d 18 0c 58 bd 29 66 16 3c 80 27 9f bd
       0.04273119 -0.05274591 0.00917963 -0.07771206
000150 d3 fa 06 be 31 75 71 bc 48 83 0f bc dd 7c ae bb
       -0.1318162 -0.014737413 -0.008759327 -0.0053249435
000160 c0 a9 c5 bc 5d 13 be 3d 40 25 de 3c 85 d9 ec bd
       -0.024128795 0.09281037 0.027117372 -0.11564926
000170 d9 7b b4 bd 5e 4e 87 bd 49 9c bf bd dd a8 53 3d
       -0.088126846 -0.06606744 -0.09355981 0.051674712
000180 d2 3b 75 bd d1 c1 c7 3d 45 86 1d 3d c7 9f 83 bd
       -0.059871502 0.097537644 0.038458128 -0.064269595
000190 6a 63 0d bd 13 bf 8c bc 00 64 93 bb 7a 03 7f 3d
       -0.034518637 -0.017180955 -0.004498005 0.062259175
0001a0 08 1d 3a 3c 4f c1 03 bd cd 39 a8 3c 0f d1 ae 3d
       0.011359461 -0.032166775 0.020535374 0.085359685
0001b0 f6 53 e5 bd 23 84 74 bd aa 61 2c bd d4 f0 7b 3e
       -0.11197655 -0.059696328 -0.042085327 0.24603587
0001c0 b9 4e 23 3d ac 40 f2 bd 3f 1f d8 3d c2 34 01 3d
       0.039869998 -0.118287414 0.10552835 0.031544454
0001d0 cd e3 04 3e c4 a8 0b be f4 38 45 be 23 31 32 bd
       0.12977524 -0.13638598 -0.19260007 -0.04350389
0001e0 1e b2 4a bd 0a 1e 26 bd 40 d7 ed bd 69 b2 41 3d
       -0.049486272 -0.04055599 -0.11613321 0.047289286
0001f0 fb d8 41 3e 02 b3 be 3d 64 ff 1a 3b 62 1a d7 bd
       0.18930428 0.09311487 0.002365076 -0.10503079
000200 7c bb 0c 3d e4 33 c0 bc 6f af 68 3d dc b8 0b 3d
       0.034358487 -0.023462243 0.05680793 0.034111843
000210 cc 2e 29 bd 77 df ca 3d 41 c8 4c 3d 03 2e 52 bd
       -0.041304395 0.09905904 0.049995665 -0.05131341
000220 ea 4e 54 bc 41 b6 05 3e 91 b9 11 3e 7f b2 0f 3d
       -0.012958268 0.13057806 0.14230944 0.035082337
000230 d6 7d cf bd 2c 20 8c be 72 28 3a be 66 9e 92 bd
       -0.10131423 -0.27368295 -0.18179491 -0.07159118
000240 85 ea 78 bd 26 78 cd 3d 7b 82 43 bd 6d 45 7d 3d
       -0.06077053 0.10032682 -0.047731858 0.061833788
000250 b6 aa 06 3e b9 81 6e bd 0e 93 1a bd 1e 88 9b 3a
       0.13151059 -0.058229182 -0.0377379 0.0011866128
000260 7b 4d fd ba 79 cc 96 bc 83 79 5a 3a 81 c8 f2 bb
       -0.0019325459 -0.018408047 0.00083341467 -0.007409156
000270 90 38 ae 3c ee 62 48 3c f1 71 e2 3c 40 87 14 3d
       0.021267205 0.012230618 0.027642222 0.036261797
000280 91 3f 0e 3b f7 33 83 bc 97 ba 6b bc 21 c6 e8 3c
       0.002170537 -0.01601599 -0.014387748 0.028414788
000290 d1 95 30 3a 9c 14 2f 3a 4d 9d 88 3b 4d d2 01 3c
       0.00067361916 0.0006678791 0.0041691423 0.007923675
0002a0 07 95 10 3c 76 c4 03 3c 6a ce f1 bc ee f0 38 bd
       0.008824593 0.008042445 -0.029517371 -0.045151643
0002b0 38 2a ca bc 8a c2 5f bc c7 e7 9f 3b 34 2b 98 bd
       -0.024678335 -0.013657222 0.004879925 -0.07430115
0002c0 a3 7e 6a 3d 2c c1 11 be 9e 25 e9 bd fe cf f3 bd
       0.057249676 -0.14233845 -0.11384128 -0.11904906
0002d0 07 4b e8 bd b1 8c 71 bd d8 60 81 3b c3 20 73 bb
       -0.11342435 -0.058972064 0.0039483123 -0.0037098385
0002e0 b7 80 0f 3e 47 bd ed 3d 34 73 36 3e f5 79 67 3d
       0.14013945 0.116083674 0.17817384 0.05651279
0002f0 7c 71 10 3e aa 16 11 bb 7f 44 94 3c d3 a0 c4 3d
       0.14105791 -0.0022138753 0.018099068 0.09600987
000300 28 39 20 3d 86 ff 31 bd 26 66 69 3c a9 ee 0b be
       0.03911701 -0.043456577 0.0142455455 -0.1366526
000310 c3 a1 63 bc ff fd 18 be f3 cb c3 3c 5a f0 b1 3d
       -0.0138935475 -0.14940642 0.023900962 0.086884215
000320 d3 a8 0c 3d 18 58 f8 3d b4 b5 e0 3d 84 bd ce 3d
       0.03434069 0.121261775 0.10972157 0.10094741
000330 cb cb 1c 3e 71 88 4a bd 89 10 8f bd 9c f0 7a bd
       0.15312116 -0.049446527 -0.06985576 -0.06126462
000340 8e 2f e6 bd 86 a5 86 3d 7b 34 da bd fe 3b ca bc
       -0.11239539 0.0657454 -0.10654541 -0.02468681
000350 43 0d db bd c8 9f ee bd 2d 91 65 bd 03 b8 27 be
       -0.10695889 -0.116515696 -0.056046654 -0.16378789
000360 39 f3 dd bd 4c 9b 61 bd 94 3d f6 3c 32 0d 6f bc
       -0.10837407 -0.055079743 0.03005866 -0.014590548
000370 b2 2e 99 3d 14 b7 15 3e bf 79 43 3d cd 4b 2b 3d
       0.074796095 0.1462062 0.047723528 0.041820336
000380 91 aa c9 3d 84 a8 fe 3d 39 85 8f bd 87 91 19 3e
       0.09846986 0.124344856 -0.07007832 0.1499692
000390 71 17 61 3e 1a 8c 30 3d d0 6f 55 3d be 7b 57 be
       0.21981598 0.04310236 0.052108586 -0.21043298
0003a0 91 da dd bd c2 03 66 bd 84 99 8b bd 42 16 02 3b
       -0.10832704 -0.056155927 -0.0681639 0.0019849692
0003b0 5c c7 22 be 2e 34 12 3c 15 f5 10 3d 89 36 bf 3b
       -0.15896362 0.008923573 0.03538998 0.0058353585
0003c0 07 59 30 3e 21 35 13 be 6a e0 84 bd 13 00 8c 3d
       0.17221461 -0.14375736 -0.06488116 0.06835952
0003d0 22 a2 0c 3d 90 5d 2c 3d 13 86 8a bd b3 b2 8e 3c
       0.03433431 0.042081416 -0.06763854 0.017419195
0003e0 f5 b7 16 bd c4 ae a7 bb 20 ad d5 bd 2a eb 5f bd
       -0.03679653 -0.0051172692 -0.104334116 -0.05466763
0003f0 1e 5c d9 3c 36 56 6a bc 36 c0 8e bd b1 9f 41 3d
       0.026533183 -0.014302781 -0.06970255 0.047271434

bias f4 [64]
000000 af ad 1f be cf a8 84 bc aa b1 b6 bd 10 c0 36 be
       -0.15593599 -0.016193775 -0.089206055 -0.17846704
000010 2a 14 c8 bd 93 da 94 bd a6 1c 3a bd f7 97 da 3c
       -0.09769471 -0.07268252 -0.045437478 0.02668379
000020 47 d6 d5 bd 4f 92 10 bd 4b 18 9d bd fd 5a 08 be
       -0.10441261 -0.03529578 -0.07670649 -0.1331596
000030 8c c8 10 be 18 05 09 be 02 4f 1e be 50 74 84 bd
       -0.14139003 -0.1338085 -0.15459827 -0.06467497
000040 e8 36 33 be 81 93 40 bc e3 ec 16 be 11 10 d4 bd
       -0.17501414 -0.011753918 -0.14738803 -0.10354627
000050 0b e0 18 bc 22 a7 d9 bc 99 50 af bb 68 94 2d bc
       -0.00933076 -0.026568953 -0.005350184 -0.010594465
000060 2f 4b f3 bd 4b 45 d1 3c 01 b2 b3 bd d4 4a c2 bd
       -0.118795745 0.025545737 -0.08774186 -0.094869286
000070 4b 4d 4c bd 74 18 6b be de c2 7f bd a5 a6 6c bb
       -0.0498784 -0.22958547 -0.0624417 -0.003611007
000080 7f 49 d7 3b 00 cb c4 bd 84 00 23 be 38 a9 01 bd
       0.0065700407 -0.09609032 -0.15918165 -0.03165552
000090 8e ca 61 be fb 38 ee bd 02 fa 02 be a7 05 26 bd
       -0.22049925 -0.11631962 -0.12790683 -0.040532734
0000a0 4e 6a d4 3c 13 ab de bd e1 b3 5d bc a2 4f e1 bd
       0.025929596 -0.108724736 -0.013531656 -0.11001517
0000b0 35 19 69 bd 18 66 b3 bc c4 51 8b be a4 c4 5a bd
       -0.056908805 -0.021899268 -0.2721082 -0.053410187
0000c0 2c b6 0c be 65 5b 0d be 83 ae 2b 3d 9c b3 84 bb
       -0.13741368 -0.13804395 0.041914474 -0.0040497314
0000d0 83 36 9f be ae ba 2f 3b 25 73 04 be 8a 53 e6 bd
       -0.31096277 0.002681415 -0.12934549 -0.112464026
0000e0 dc 38 c6 bd c2 18 44 be ab f9 ba bb f3 c9 dc bd
       -0.09678814 -0.1915007 -0.0057060323 -0.10780706
0000f0 4f f5 8b be 51 74 bc ba 88 9b 15 be a1 80 41 bc
       -0.27335593 -0.0014377927 -0.14610112 -0.011810453

weight f4 [64]
000000 a8 e1 cb 3e 47 5f bc 3e 59 b5 a8 3d f8 69 db 3e
       0.398206 0.3679144 0.08237714 0.42854285
000010 64 4e f8 3e de 2b ea 3e 94 25 fb 3a 9e f3 e6 3e
       0.48497307 0.45736593 0.001916098 0.4510774
000020 24 6c 1f 3f 61 02 f9 3e 29 b8 10 3f 59 31 24 3f
       0.62274384 0.48634627 0.56531006 0.641378
000030 ff 45 c8 3e c6 e2 0a 3f 5c 73 8a 3e 1c 9f b5 3e
       0.39115903 0.5425228 0.27041137 0.35472953
000040 2f e0 08 3f f0 7d f7 b9 6f b7 36 3f 85 bb e5 3c
       0.53467077 -0.00047205342 0.7137365 0.028043518
000050 1b 6e dc 3e f9 9a 0d 3f 9a 98 fc b8 b1 d1 14 3f
       0.43052754 0.55314595 -0.00012044721 0.58132464
000060 41 08 45 3f b0 9f 3f 3e ba ed b4 3e fc e9 08 3c
       0.7696572 0.1871326 0.3533762 0.0083565675
000070 44 96 0e 3f 66 88 4a 3f 63 4d 10 3b c2 19 a1 b8
       0.5569804 0.7911438 0.0022018782 -7.681876e-05
000080 e2 a4 d5 3a fe ef 04 3f 24 7f af 3e 6a 05 1f 3f
       0.0016299749 0.519287 0.34276688 0.62117636
000090 fd 5a a8 3e b8 17 7f 3e 91 c9 20 3c ba ea 26 3f
       0.3288192 0.24911392 0.009813682 0.65201914
0000a0 eb c7 e2 3e ed 0f 66 3e 39 73 1b 3e 55 3f db 3d
       0.4429315 0.22467013 0.15180673 0.10705439
0000b0 c2 80 d8 3e 7d c7 1f 3f 66 7d 25 be 40 3e 3d 3f
       0.42285734 0.6241377 -0.16161117 0.7392311
0000c0 37 f2 41 3e b1 fa f6 3e 16 54 b1 3e 8d 67 28 3e
       0.18940054 0.48238137 0.34634465 0.16445751
0000d0 2e 03 db 3e 07 de 30 bc 2f f8 01 3f ba c6 e2 3e
       0.42775863 -0.010795123 0.50769323 0.4429224
0000e0 d2 55 da 3e 05 05 2b 3e 85 59 f4 3e 54 64 5f 3e
       0.426436 0.16701134 0.47724548 0.21815616
0000f0 7f f9 03 3f 5c ae 12 3f 71 08 0e 3f 01 fe 37 3f
       0.51552576 0.572973 0.5548163 0.71871954

bias f4 [64]
000000 3d b4 83 3d 2a fb b9 3d 5d af 9a bb 02 92 61 3e
       0.06430862 0.09081109 -0.004720612 0.22028354
000010 8c dc 15 3e 5d 15 18 3e 1e a8 bc 3a 1a 32 02 3e
       0.14634913 0.148519 0.0014393365 0.12714425
000020 9a 93 4c 3e 82 ac 3e 3e 9c b8 34 3e 38 af 8d 3e
       0.1997818 0.18620494 0.17648548 0.27672744
000030 50 0a c4 3c 4f 47 2a 3e 99 a4 77 3e f7 29 cc 3d
       0.023930699 0.16628765 0.24183883 0.09968942
000040 47 78 5e 3e cd ea 14 b8 c7 9f 5c 3e 92 71 90 3c
       0.2172557 -3.5504625e-05 0.21545325 0.01763228
000050 25 ef 40 3d 0e ad 73 3e 70 26 0f bb 75 06 20 3e
       0.047103066 0.23796484 -0.002184298 0.15627463
000060 76 17 63 3e 4b d5 11 be d6 92 d7 3d 45 a4 56 bc
       0.22176918 -0.14241521 0.105260536 -0.013100688
000070 d1 a1 ba bd 8e 08 45 3e 14 9e 7e 39 93 ec df 3b
       -0.09112895 0.19241545 0.00024282216 0.0068336218
000080 96 6e 99 3a 2e 4b 83 3d 48 5f 02 3c 8e 8c 59 3e
       0.0011705931 0.06410824 0.007957287 0.21245024
000090 f3 f0 12 3e ec ed b6 3c 05 de a8 bd c3 d7 b7 3d
       0.14349727 0.022330247 -0.08245472 0.089767
0000a0 5b 50 09 bd 73 7b 50 bd 0d a1 ca 3d a5 62 76 bb
       -0.0335239 -0.05089898 0.09893999 -0.0037595418
0000b0 69 ca 4f 3e 04 1b a4 bd f0 f3 b3 be f0 0b b1 3e
       0.20292057 -0.08012965 -0.35147047 0.3457942
0000c0 f6 b2 1a 3b cd 10 ee 3d 83 ea fc 3d 39 2f a8 3c
       0.0023605204 0.11624298 0.12349417 0.02053033
0000d0 91 0b f6 3d d9 66 75 3c d1 fe 4f 3e a3 23 88 3d
       0.12013925 0.014978134 0.20312048 0.06647422
0000e0 5c 0b b1 3d 93 96 33 3d b5 03 81 3e 7f 7b af 3c
       0.08644745 0.04384477 0.2519814 0.021421192
0000f0 82 05 3b be 8e 75 f9 3d a1 14 83 3d 4d 03 cb 3d
       -0.1826382 0.12180625 0.06400419 0.09912739

running_mean f4 [64]
000000 13 e2 11 3d e1 20 df 3c 10 27 56 3c 49 76 49 3d
       0.03561599 0.027237358 0.013070837 0.04918507
000010 10 94 a4 3b 8c 67 88 3c e2 8f f6 3a e9 33 4e 3d
       0.0050225332 0.016650937 0.0018811191 0.050342474
000020 ee dc a8 3c b4 88 95 3c b8 2d 52 3c c5 fe c5 3b
       0.02061316 0.018253662 0.012828283 0.006042334
000030 24 4f 8a 3b f2 eb db 3c fd fd 05 3b 2f a5 87 3c
       0.00422086 0.026845906 0.0020445578 0.016558258
000040 21 3f ac 3b f4 60 a6 3a 54 35 50 3c 41 5f 50 ba
       0.005256549 0.0012693689 0.012708027 -0.0007948764
000050 96 17 e5 3c e8 9a 96 3c e1 6f 5f b8 1c 18 9e 3d
       0.027965348 0.018384412 -5.327154e-05 0.07719442
000060 fb f6 63 3c 52 57 86 3d 91 91 94 3b 5b 08 5c 3d
       0.013913865 0.06559624 0.0045339544 0.053718906
000070 12 bd 31 3d 53 bd 74 3c 62 88 95 b9 56 05 18 b8
       0.043393202 0.014937717 -0.00028521108 -3.6244594e-05
000080 a5 2d 71 3c a5 fc 86 3c be da ba 3b ed a8 65 3d
       0.014720355 0.016477892 0.0057023456 0.056069303
000090 5e 00 87 3b 47 f2 13 3b ee 8f 16 3c 34 73 ef 3c
       0.004119917 0.0022574828 0.009189589 0.029229738
0000a0 c7 a2 1c 3d ba 50 bb 3b d1 50 97 3d 04 e2 6a 3c
       0.038241174 0.0057164105 0.073884614 0.014336113
0000b0 3e b4 05 3c ab cd db 3c 86 cd 76 3b e7 e2 24 3c
       0.008160649 0.026831469 0.0037659123 0.010063863
0000c0 12 d3 83 3c 0f a4 b4 3c 4c 65 73 3d 1c 9c f8 3c
       0.016091857 0.022050885 0.059422776 0.030347876
0000d0 a4 5a 2c 3b 4f 3e 4f 3c 3b f6 cd 3b 20 f8 45 3c
       0.0026299143 0.012649133 0.0062854565 0.012083083
0000e0 e1 1c 73 3c 20 41 29 3c 97 11 2f 3d 56 90 ae 3c
       0.014838428 0.010330468 0.042741384 0.02130906
0000f0 b7 f4 1b 3c 14 85 34 3d 47 05 93 3b 15 eb 30 3d
       0.009518794 0.044072226 0.004486713 0.04319294

running_var f4 [64]
000000 50 34 1e 3c aa e2 84 3b 23 51 04 3b 55 24 3a 3c
       0.009656027 0.004055341 0.0020189963 0.011361201
000010 d0 83 4d 3a ba 69 40 3b 76 37 d7 38 14 32 c1 3b
       0.0007839771 0.0029359893 0.00010262329 0.0058958624
000020 69 c0 9e 3b 9e 31 48 3b 00 fc 0b 3b a4 b9 b1 3a
       0.0048447144 0.0030547152 0.002135992 0.0013559354
000030 90 33 6f 3a 58 c0 e6 3b ad 89 ed 39 49 20 07 3b
       0.000912481 0.007041972 0.0004530674 0.0020618609
000040 fd 63 bb 3a cd 2b 82 37 bc 15 60 3b dc 6a 78 37
       0.0014296767 1.5517604e-05 0.0034192642 1.4806832e-05
000050 9f bd 27 3b 3f 6a 0b 3b 61 f1 93 2d a2 09 89 3c
       0.00255952 0.0021273044 1.6819159e-11 0.016728226
000060 1d 16 30 3b d3 1e 7e 3c 29 c8 3c 3a 62 42 05 3c
       0.002686865 0.015510279 0.0007201457 0.008133503
000070 3e c5 4a 3c dd 97 50 3b a8 c2 ce 36 f1 8c df 2e
       0.012376128 0.0031828799 6.1619394e-06 1.0165902e-10
000080 f6 0a 09 3a 3c d3 52 3b 9c 8f 88 3a 7c d0 08 3c
       0.00052277686 0.0032169363 0.0010418775 0.008350488
000090 2d 40 7c 3a cf 3a 0a 3a 3d 6c 99 3a 4c f9 ac 3b
       0.00096226 0.00052730454 0.0011705231 0.005278742
0000a0 a5 2e 87 3b 35 84 83 3a ae eb 3a 3c 1a 3b 3b 3b
       0.0041254335 0.0010033908 0.0114087295 0.0028569163
0000b0 f6 c5 89 3a 25 47 ac 3b d3 08 77 3a 22 9f c4 3a
       0.0010511267 0.0052575045 0.0009423617 0.0015001039
0000c0 93 4c 6d 3b dd 6f a1 3b 54 d3 02 3c 33 0b 7a 3b
       0.0036208972 0.004926665 0.007984955 0.0038153648
0000d0 3d 61 2d 3a c7 b8 5d 39 df 5f 8f 3a 69 c3 22 3b
       0.0006613916 0.00021145037 0.0010938606 0.0024835712
0000e0 2a e3 39 3b c7 aa e1 3a 79 f6 ac 3b 95 21 6d 3b
       0.002836416 0.0017217033 0.0052784053 0.0036183347
0000f0 ef b1 02 3b d1 92 11 3c db 05 65 3a 1e b8 33 3c
       0.0019942482 0.008885101 0.0008736529 0.01096919

weight f4 [128, 64, 5, 5]
000000 72 67 62 ae 74 a9 2e b0 f6 37 5d b0 d1 95 c2 b0
       -5.147833e-11 -6.354164e-10 -8.0478857e-10 -1.4157938e-09
000010 b8 1c b8 b0 7e 88 d5 2d 1a 61 da af 8d 79 0a 2e
       -1.3395924e-09 2.4275911e-11 -3.9722964e-10 3.1485526e-11
000020 d4 57 8b b0 2b 37 d8 b0 85 bd 9a 2e 63 eb ac af
       -1.0138543e-09 -1.5731748e-09 7.0367746e-11 -3.145387e-10
000030 e5 20 3a 30 71 e1 30 af 47 22 b8 2f e8 af 1b 2f
       6.771315e-10 -1.60872e-10 3.349376e-10 1.4159662e-10
000040 02 a4 2f af c4 cd 1d 30 97 7c 3d 30 ec 60 5b 30
       -1.5974425e-10 5.740868e-10 6.893485e-10 7.980947e-10
000050 2a 3e ef b1 4b c4 11 b1 df aa c9 2f 90 8d fc 2f
       -6.9628827e-09 -2.1211857e-09 3.6683098e-10 4.593912e-10
000060 ce 65 48 30 5e 7d f9 2e 0d 45 4e 30 07 98 e9 2f
       7.290425e-10 1.1345479e-10 7.504049e-10 4.2490475e-10
000070 bc d6 29 30 c5 63 1d 30 5e 81 9a 2f e0 a1 88 2f
       6.1787e-10 5.725805e-10 2.8104358e-10 2.4853275e-10
000080 ef eb d7 2f 2d 5e 4a 30 76 20 5f 2f 56 b7 c2 2f
       3.9275913e-10 7.3621004e-10 2.0293264e-10 3.5418662e-10
000090 2c 31 8b 30 f3 6c 38 b1 ea f0 28 b0 eb 6f 96 2f
       1.0127557e-09 -2.6837454e-09 -6.1460403e-10 2.7364364e-10
0000a0 f8 73 79 b1 4a ff 0a b0 fb ee c9 b0 cd a0 ae b0
       -3.630019e-09 -5.0566895e-10 -1.4692597e-09 -1.2705869e-09
0000b0 2a cf 31 30 c0 e2 f4 2d 2d 85 d5 b1 47 66 40 b1
       6.468662e-10 2.7840286e-11 -6.214256e-09 -2.7997815e-09
0000c0 85 0f be 2e a3 02 cb b1 b6 1e 72 2f 07 34 be 2e
       8.6429565e-11 -5.9083773e-09 2.2020682e-10 8.6494416e-11
0000d0 e9 e9 17 2f 6f eb 3f 2f f1 5a c0 2e b2 12 24 2f
       1.3816472e-10 1.7454992e-10 8.7473036e-11 1.4922355e-10
0000e0 76 39 59 2f f9 d5 7b 2f 57 28 d8 2e 8c e8 9a 2e
       1.9756449e-10 2.2904335e-10 9.8297086e-11 7.044418e-11
0000f0 59 27 0c b1 8d 9e 45 b1 58 8f e9 b0 c5 8b 82 2f
       -2.0395048e-09 -2.8757399e-09 -1.6993722e-09 2.3746174e-10
000100 5a 74 ee 2e ca 22 91 2f f1 58 aa 2f 6b 53 54 b0
       1.0843655e-10 2.6400065e-10 3.0986017e-10 -7.7243695e-10
000110 c0 71 65 b0 f0 5c 52 b0 ab 7b 3b 2f 27 cf 22 2f
       -8.3471363e-10 -7.6529627e-10 1.7051487e-10 1.480741e-10
000120 ec 2f 49 2f 53 35 7e 2f e7 47 ff af f7 63 96 b0
       1.8297869e-10 2.312011e-10 -4.643532e-10 -1.0942348e-09
000130 fc a4 5a b0 72 be 7b b0 b0 77 11 b0 2c 57 1a b0
       -7.9542395e-10 -9.1583907e-10 -5.292078e-10 -5.614875e-10
000140 5b 22 0b b0 f0 99 be 2e 71 22 65 2f ef d7 fd 2e
       -5.061673e-10 8.6675445e-11 2.0839665e-10 1.15434655e-10
000150 b9 e0 41 2e 5c 53 be 30 79 e6 c8 31 af 6b 03 32
       4.4082713e-11 1.3848012e-09 5.846968e-09 7.649688e-09
000160 4e 59 97 31 29 d5 0b 31 21 7d 33 30 ee d3 66 30
       4.404831e-09 2.034833e-09 6.529764e-10 8.397468e-10
000170 ab 18 95 30 68 d8 35 30 24 30 0b 31 73 d0 a4 2f
       1.0848188e-09 6.615495e-10 2.0254527e-09 2.9979538e-10
000180 04 3d eb 2f 0c c6 4a 2f 80 73 8c 2f d6 df 8a ae
       4.2789605e-10 1.8442153e-10 2.554792e-10 -6.315275e-11
000190 5d f6 74 30 73 84 56 2e 2f 08 57 30 df a4 69 30
       8.9116786e-10 4.8775605e-11 7.8228174e-10 8.49992e-10
0001a0 c3 bc ac 30 14 e1 9b 2f 22 9d 03 b0 59 7a 4b 2f
       1.2568296e-09 2.8354263e-10 -4.788082e-10 1.8506209e-10
0001b0 21 6c 2e 30 35 10 43 30 60 1f bf b0 d6 c5 29 af
       6.345449e-10 7.096362e-10 -1.3905996e-09 -1.5440746e-10
0001c0 54 79 eb af 6c bc 80 2f 7c 4a 4d 2f 2d 9d fa b1
       -4.283246e-10 2.3416946e-10 1.8671104e-10 -7.2938264e-09
0001d0 36 ae 4d b0 99 91 66 b0 fe 6e 36 30 3d 67 88 2f
       -7.4826134e-10 -8.388042e-10 6.6368944e-10 2.481161e-10
0001e0 93 00 9f 2f 5c 18 41 ae 5b b7 ed 2f 6d 1f f1 b1
       2.892234e-10 -4.3904755e-11 4.324033e-10 -7.017596e-09
0001f0 bc f1 1e b1 9c df 64 2e 8d c3 f7 2e ab 5c 08 ab
       -2.3129436e-09 5.2039803e-11 1.12669964e-10 -4.844551e-13
000200 fc 13 8d 2e 49 8d 30 af c3 47 c8 ad e6 7b 5e 2e
       6.4154876e-11 -1.6057301e-10 -2.2769236e-11 5.0587e-11
000210 09 a7 7d ae df 49 53 b0 d6 99 86 ae e3 7f e2 ae
       -5.7673897e-11 -7.686633e-10 -6.120941e-11 -1.03000074e-10
000220 af 22 41 b1 af 25 e6 b1 cc fd f9 b0 dd 6b 74 2f
       -2.8104912e-09 -6.698165e-09 -1.8189268e-09 2.2229991e-10
000230 cb 73 1d 2f e3 8c 7f af 63 21 a1 af 41 90 ab af
       1.4320205e-10 -2.3242168e-10 -2.9309452e-10 -3.1207217e-10
000240 52 20 00 2e e8 25 07 b3 67 11 71 b2 98 95 f0 ad
       2.9132537e-11 -3.1466612e-08 -1.4032003e-08 -2.7351274e-11
000250 d5 c1 8d af 65 e4 61 2f 85 a3 90 2d e8 2e c3 2d
       -2.5785477e-10 2.0544773e-10 1.6443522e-11 2.2189764e-11
000260 8b 50 cb 2d b2 2a fa 2d ec bc 05 2e f5 8b 72 2d
       2.3114196e-11 2.844067e-11 3.0408495e-11 1.3787184e-11
000270 ce 2f 7c 2d bc 85 4d 2d 77 6e 5d 2d 2c 05 84 2d
       1.4335156e-11 1.1682596e-11 1.2586924e-11 1.500896e-11
000280 a9 df 64 2d 24 77 5c 2d 4d 5b 55 2d a2 b0 15 2d
       1.3009962e-11 1.2532007e-11 1.2127921e-11 8.50889e-12
000290 3f c1 37 2d eb cf 6a 2d 97 7a 7a 2d 68 6a 55 2d
       1.0445255e-11 1.3347527e-11 1.4238075e-11 1.2131275e-11
0002a0 d8 cb 10 2d 6a 0a 4d 2d 7c 20 34 2e d4 ea 4e 2e
       8.230715e-12 1.1655213e-11 4.0956114e-11 4.7047546e-11
0002b0 fc 5d 73 2e ce 00 0b 2e cc fb 8b 2d b7 28 7c b1
       5.5335278e-11 3.1605656e-11 1.591429e-11 -3.669397e-09
0002c0 4f ca b5 af 88 6b 54 30 53 37 fe b0 0c 84 64 b1
       -3.3067457e-10 7.727796e-10 -1.8496656e-09 -3.3253427e-09
0002d0 da 76 7c b1 06 10 7f b1 84 b2 80 b1 16 f0 f8 2e
       -3.6738386e-09 -3.7116492e-09 -3.745585e-09 1.1320382e-10
0002e0 b9 78 21 31 60 3f 23 b1 0a b9 98 b1 53 66 0f b2
       2.3497206e-09 -2.3755646e-09 -4.4448187e-09 -8.346961e-09
0002f0 83 bd 0d b2 2a a3 1d b2 40 54 c8 b2 a1 c8 d7 b2
       -8.25037e-09 -9.175702e-09 -2.3321377e-08 -2.512053e-08
000300 3e 2c b7 b2 1a 84 23 b2 67 21 35 2f 5a bd a8 30
       -2.1324123e-08 -9.517885e-09 1.6473721e-10 1.2277426e-09
000310 d1 f7 e3 b0 79 fe ab b2 8a a1 fe b2 31 34 bf b2
       -1.6586857e-09 -2.002274e-08 -2.9642951e-08 -2.225906e-08
000320 97 f9 be 2e 28 d3 b3 2e c1 48 80 2f 80 56 51 2f
       8.684536e-11 8.1774865e-11 2.333476e-10 1.903917e-10
000330 29 fa bd 2f 26 60 89 ac dc e6 da ad 55 4f 70 2f
       3.455665e-10 -3.904449e-12 -2.4886253e-11 2.1856057e-10
000340 97 7e 08 2f 04 55 78 af 0f 63 b2 af dc 67 a1 b2
       1.2414102e-10 -2.2585672e-10 -3.2448397e-10 -1.8790097e-08
000350 85 0f 95 b2 4e f4 a8 b1 ac 2f 3b 2f f1 20 21 30
       -1.735294e-08 -4.9172177e-09 1.7024487e-10 5.861827e-10
000360 1e 9a 1b b0 26 18 ff b1 77 50 8b b2 59 dd 22 b1
       -5.6607685e-10 -7.424222e-09 -1.6218321e-08 -2.3699924e-09
000370 67 d3 a7 ad d9 6c f3 af ac d3 a2 b0 3f 3a 2e af
       -1.9079583e-11 -4.4278783e-10 -1.1847212e-09 -1.5845901e-10
000380 d9 c3 4b 30 7b ed 9e af 6f 68 01 2f a9 b1 d3 ae
       7.4129286e-10 -2.8908773e-10 1.1769584e-10 -9.626728e-11
000390 18 84 1c af bc 4e 58 ae f6 e2 04 b0 63 74 e8 2f
       -1.4235046e-10 -4.9182644e-11 -4.834385e-10 4.2283252e-10
0003a0 9e 87 5c 2d e9 26 9a 2f d8 8e 1d 2f e2 cf df af
       1.2535665e-11 2.8040084e-10 1.4329815e-10 -4.0711173e-10
0003b0 a2 14 10 b0 a7 f7 ec b0 ec a6 6e 2e dc 78 7f af
       -5.2416216e-10 -1.7241647e-09 5.426319e-11 -2.3235053e-10
0003c0 84 52 05 ad 25 12 fe b0 63 aa 59 b2 3a cc c4 b1
       -7.578497e-12 -1.8486089e-09 -1.2669804e-08 -5.7275686e-09
0003d0 83 5b 99 af f0 0e 94 b1 3c a4 8e b0 57 14 1c b1
       -2.789556e-10 -4.309065e-09 -1.0378538e-09 -2.271255e-09
0003e0 dd 59 47 b0 c4 e7 74 2f cf 27 43 2d 9f 27 b9 2f
       -7.252348e-10 2.227401e-10 1.1093306e-11 3.3679456e-10
0003f0 5f cb d6 ad 38 ef 9d 2f 62 11 1e af 3a ac 6a 2f
       -2.4419298e-11 2.872811e-10 -1.4376192e-10 2.1343363e-10

bias f4 [128]
000000 c4 82 1f b2 80 98 76 bb 03 01 8f bd 64 fa 10 2e
       -9.284751e-09 -0.0037627518 -0.06982615 3.29642e-11
000010 94 ed e6 bd 6f 11 ed bd a4 38 2f be bb d3 ff bc
       -0.11275783 -0.11575591 -0.1711145 -0.03122889
000020 8f 8e b1 bc 7c 8d b9 b6 0f 01 00 00 77 af 3c bb
       -0.021674423 -5.5299006e-06 3.8e-43 -0.0028791109
000030 33 e9 db bc 74 5c 8a bd 66 a3 58 ae 69 ef c6 bd
       -0.026844596 -0.06755915 -4.925784e-11 -0.097136326
000040 99 8d 35 bd 0b 61 17 ba 4b 83 98 bd 94 88 ab ba
       -0.04432449 -0.00057746534 -0.07446917 -0.0013086968
000050 63 29 36 be 8a c4 96 bd 69 a1 1d bc 02 c1 36 bb
       -0.17789225 -0.073617056 -0.009621003 -0.0027886038
000060 de 00 00 80 22 9f 5c bb fd 7d 3a bd 10 eb ff bc
       -3.11e-43 -0.0033664186 -0.045530308 -0.031240016
000070 fa 09 1c 3b 89 fc 90 bd 44 17 1e be 1d ea 8d ba
       0.0023809657 -0.07079417 -0.15438563 -0.0010827217
000080 8f e4 a5 3b ed 45 99 b9 37 13 d1 bc 05 3a 96 b0
       0.0050626467 -0.00029234533 -0.025521858 -1.0930427e-09
000090 73 31 0b bd 88 64 97 b8 28 d0 ff ba b1 df e4 bd
       -0.033982705 -7.2189665e-05 -0.0019516991 -0.11175478
0000a0 11 a8 9f 39 04 33 07 be 4f 24 15 3a a7 6e 1c bb
       0.00030452062 -0.13203055 0.00056893093 -0.0023869665
0000b0 44 41 a7 bd f1 39 c4 bb 8e 9a 17 bd 41 4d 16 be
       -0.08166745 -0.0059883525 -0.03701263 -0.14677908
0000c0 2f 78 2c be 4e 06 0f bd 45 07 93 ba e0 3e d8 bd
       -0.16842721 -0.034918122 -0.0011217376 -0.105588675
0000d0 08 57 5e be 6e aa 8a 38 f8 ab 2f 3b 47 d0 3e 32
       -0.21712887 6.612098e-05 0.0026805382 1.1106812e-08
0000e0 bb 20 82 bd 7b 75 27 bc 31 3d ff bd b5 8d c1 bd
       -0.06353899 -0.010220881 -0.12462843 -0.094508566
0000f0 60 b8 3c be ce 1e 77 bc 3e a6 23 bd 56 2d 0c bc
       -0.18429708 -0.015083028 -0.039953463 -0.008555731
000100 19 58 1e be c7 a4 83 bb 23 88 3c bd d1 06 6c 38
       -0.15463294 -0.0040174457 -0.046028268 5.6273133e-05
000110 a4 cf af bd 57 87 bb a0 51 7f 54 3c 31 fb 58 bb
       -0.08584526 -3.1768593e-19 0.012969808 -0.0033108706
000120 05 02 00 80 9f 03 17 bb 29 6a 59 98 39 e0 46 bd
       -7.24e-43 -0.002304293 -2.810019e-24 -0.04855368
000130 7f 8e a8 bd 2b e5 9a bd 0e 6a e9 bb 6c 4f 51 bb
       -0.08230304 -0.075632416 -0.0071232384 -0.0031938208
000140 5e e7 ec bb a3 f7 da bd c3 9a b1 39 e0 ac 04 bb
       -0.0072297296 -0.10691764 0.00033875377 -0.0020244643
000150 d9 d4 0a be 73 0d 8b bd 01 25 41 bb 97 a9 92 bd
       -0.13557757 -0.067896746 -0.002947152 -0.07161253
000160 77 4f 25 bc ad 61 95 bc 80 86 ca bc 5d c4 47 be
       -0.010089747 -0.018235052 -0.024722338 -0.195085
000170 cb 1c 1a b4 bf b7 75 bd 5f 6b 01 bd 96 54 48 3b
       -1.4352842e-07 -0.059989687 -0.031596538 0.0030567995
000180 e9 26 d5 bd b2 8e b9 bd 1c a2 cd ba 51 ac e1 b7
       -0.10407812 -0.0906042 -0.0015688571 -2.6902331e-05
000190 af 0b b8 37 65 d4 32 bd 03 61 86 39 70 47 a6 bd
       2.193995e-05 -0.043659586 0.0002563075 -0.08119094
0001a0 08 7f cd bd a3 27 c0 bd 62 e7 25 bc 52 8a 1e bd
       -0.10033995 -0.0938256 -0.010125967 -0.03870613
0001b0 63 7b 4d bb 9e 01 00 80 80 3d a2 3b d5 ba 62 ba
       -0.0031354062 -5.8e-43 0.004951179 -0.0008649056
0001c0 0b 75 fd b8 38 c7 26 a6 8c 74 55 bd 4c f0 de bb
       -0.00012085781 -5.786281e-16 -0.0521131 -0.006803548
0001d0 e5 db c0 39 29 f6 f1 bd 04 aa 8b bc 48 d9 92 b9
       0.00036784928 -0.118145294 -0.017048843 -0.00028009177
0001e0 f9 71 29 bc 65 43 dd bd f1 91 f8 bc 66 cf 6a b8
       -0.010342115 -0.1080387 -0.030343028 -5.5983102e-05
0001f0 a1 4c bd bd b7 16 ce bd 56 52 26 bd 23 33 02 bd
       -0.092431314 -0.10062926 -0.040605865 -0.03178705

weight f4 [128]
000000 fe fb 8b 38 6f de 19 3b 57 9b 36 3f 0f f0 59 33
       6.674974e-05 0.0023478528 0.7133078 5.074258e-08
000010 02 8b 09 3f 4b 3b d9 3e 4a d5 1b 3f 48 d9 c8 3e
       0.53727734 0.4242805 0.6087233 0.39228272
000020 a5 0a 9a 3e 45 e8 47 b7 28 01 00 00 13 af df 38
       0.30086246 -1.1915404e-05 4.15e-43 0.00010666079
000030 a4 83 31 3e 3a 0c 9c 3e ea 41 ac 35 f5 1c f9 3e
       0.17335373 0.30478078 1.2834182e-06 0.48654905
000040 e9 95 5e 3f 6c f3 18 3b c2 84 d3 3e 0f e3 5a 38
       0.86947495 0.002333845 0.41312224 5.2186715e-05
000050 ee ef 0b 3f 5e 66 85 3e 52 31 2f 3e ff d2 02 3b
       0.5466298 0.26054662 0.17108658 0.001996219
000060 b5 01 00 80 95 89 2a ba 89 5e 78 3e c7 67 1b 3e
       -6.12e-43 -0.00065054867 0.24254812 0.15176307
000070 e8 f3 03 bc ca 27 de 3e c8 ba ed 3e eb f0 6b b8
       -0.008053757 0.43389732 0.46431565 -5.625274e-05
000080 b4 90 ae 3b f4 6c 49 39 5c f5 f3 3e 50 0e aa 37
       0.0053273086 0.00019209442 0.47648132 2.0272244e-05
000090 54 53 ad 3e e0 e3 bf 39 44 51 ef 3a 45 b0 2a 3f
       0.33852637 0.0003660014 0.0018258472 0.66675216
0000a0 8c f8 45 bb a2 be 3a 3f 81 55 91 bb 33 ac 24 bb
       -0.003020796 0.7294713 -0.0044352417 -0.0025127053
0000b0 4b 80 f3 3e 94 6b 2d 3d e5 75 81 3e 10 2b 52 3f
       0.47558817 0.042338923 0.2528526 0.8209696
0000c0 58 9b 5c 3f b4 fe 57 3e 0a 73 80 3d 7e 75 2f 3f
       0.86174536 0.21093255 0.06271942 0.68538654
0000d0 ca 59 2c 3f 32 df 1f 3c 92 35 3d 3e cf 83 96 37
       0.6732451 0.009757804 0.18477467 1.7942772e-05
0000e0 9e f4 27 3f b8 31 86 bc fb 1a 09 3f 2e 4a 2c 3f
       0.6560763 -0.01638113 0.53556794 0.6730069
0000f0 ca 84 78 3f 28 c7 10 3e 42 55 2b 3f 31 b4 0f 3c
       0.9707762 0.14138472 0.6692697 0.008770988
000100 f8 53 5d 3f 38 c7 d2 b8 96 76 70 3e 70 5a 31 3b
       0.8645625 -0.00010050688 0.23482737 0.0027061962
000110 d3 ab 14 3f 0e 5b 87 2a 64 46 02 3f f0 02 44 3d
       0.5807468 2.4044e-13 0.5088866 0.047854364
000120 f4 00 00 00 a4 25 93 ba 28 a5 19 23 98 90 c8 3e
       3.42e-43 -0.0011226428 8.32912e-18 0.39172816
000130 49 9d 2a 3f f3 a8 56 3f 3f d0 7c 39 b1 0b 15 bb
       0.6664625 0.83851546 0.0002411017 -0.0022742564
000140 9c 73 3f 3e a6 c5 67 3f 68 6d 9f ba 7b 6b 39 3b
       0.18696445 0.9053596 -0.0012163343 0.0028292823
000150 37 31 57 3f 40 16 e2 3e 98 db a1 3b ec fc 0e 3f
       0.8405947 0.441576 0.0049395077 0.5585468
000160 bd 13 99 3d 5e 94 ab 3e df 3b 3f 3f 21 4e 70 3f
       0.07474468 0.33511633 0.7470073 0.93869215
000170 af 0d cf 34 45 dc c1 3e 93 3c 2b 3f 51 a0 68 3c
       3.856671e-07 0.37863365 0.66889304 0.014198379
000180 c3 c3 27 3f 06 67 07 3f 18 ff c8 b9 3c 4d ac 3a
       0.65533084 0.52891576 -0.00038337032 0.0013145576
000190 01 82 49 3b 91 81 16 3f a6 05 e3 3e 5a b1 44 3f
       0.0030747654 0.5879145 0.44340247 0.76833117
0001a0 e2 9e 1f 3f cc d7 44 3f 8e af 07 3f 02 81 07 3f
       0.6235181 0.7689178 0.5300225 0.52931225
0001b0 ab ff 89 3a 0d 01 00 80 e5 6f 90 3b 58 f7 3f bb
       0.0010528466 -3.77e-43 0.00440787 -0.0029291715
0001c0 ba 17 0e 3b 2d 60 0d 2b 5e 6b ad 3e 7b 6a 01 3c
       0.0021681623 5.0226734e-13 0.33870977 0.007898922
0001d0 14 f2 f9 ba 1d 17 1b 3f cc 06 be 3d 8e f1 3b 3e
       -0.0019069337 0.60582143 0.0927864 0.18353865
0001e0 62 8d 9f 3d 1a 7f e7 3e c9 8c 6b 3e 0b 75 ce b6
       0.077906385 0.45214158 0.23002924 -6.152904e-06
0001f0 b8 c1 f8 3e 0e 35 15 3f 13 0f ca 3e 77 8f b9 3e
       0.48585296 0.5828408 0.39464626 0.36242267

bias f4 [128]
000000 d2 9a 01 36 aa 2d 08 3e 6c 89 1f be 84 ee 5e 36
       1.9312615e-06 0.1329867 -0.15579766 3.3219412e-06
000010 61 cf 4c be 8e 27 4b be 12 03 5f be ee e6 31 3e
       -0.20000984 -0.19839308 -0.21778515 0.17373249
000020 fd 35 4f 3e e7 97 2d bb 9c 97 e7 20 f2 93 f4 bd
       0.20235439 -0.0026488246 3.923325e-19 -0.11942281
000030 71 96 60 be bd 30 4f 3e e1 51 13 b4 4c 21 08 be
       -0.21932389 0.20233436 -1.3720229e-07 -0.13293952
000040 c0 c1 66 3e 1e 17 cc 3d 76 0a 21 be 4a 0a f4 3c
       0.22534847 0.09965347 -0.15726647 0.029790062
000050 e4 39 54 be 54 e1 43 be a1 fb 14 3e 02 e2 d7 bd
       -0.20725209 -0.19128925 0.14549114 -0.105411544
000060 92 3b c1 9e c1 7f 84 3d 5d ad 45 3e 39 fb 1d 3e
       -2.0459308e-20 0.064696796 0.19304414 0.15427865
000070 a1 8f 24 3e 2e 3f 51 be 2d be 6b be 33 f0 96 bd
       0.16070415 -0.20434257 -0.23021765 -0.07370033
000080 19 31 0b be 08 5f 16 3d 34 2d 45 3e f8 8e 58 b4
       -0.13592948 0.036711723 0.19255525 -2.016858e-07
000090 37 fd 20 3e 83 48 0a bb 47 10 f5 3d 51 8c 2a be
       0.15721594 -0.002110035 0.11965995 -0.16655089
0000a0 82 82 7d 3d 36 48 45 be 08 68 1c 3e ce 90 22 3e
       0.06189204 -0.19265828 0.1527406 0.15875551
0000b0 c6 24 07 be 84 c3 06 3e c1 64 cc bd c8 66 27 be
       -0.13197622 0.13160521 -0.09980155 -0.16347802
0000c0 49 61 3f be d3 c6 1e be 6c c3 3d bd db da 4a be
       -0.18689455 -0.15505533 -0.046328947 -0.19810049
0000d0 f0 3b 56 be 7a 63 00 3e 39 b5 15 3e c3 1b c5 36
       -0.20921302 0.12537947 0.14619912 5.8742894e-06
0000e0 3b d8 58 be fc 15 96 3d 1f 11 53 be 0d 6c 3b 3e
       -0.21176235 0.07328412 -0.20612 0.18302937
0000f0 dc 18 51 be ce 20 e8 3d 57 b0 49 3e c1 0d 15 3e
       -0.2041964 0.11334382 0.19696175 0.14556028
000100 13 44 44 be 05 1f da 3d 52 61 19 3e 0c 6b 58 3c
       -0.19166593 0.10650448 0.14978531 0.013209116
000110 1d 21 44 3e 86 6e 15 33 54 36 26 be 1f 8b 48 bd
       0.19153257 3.4792286e-08 -0.16231662 -0.0489608
000120 49 31 37 a0 05 97 f6 3d 66 b6 ea 2f dc 3d 42 3e
       -1.551701e-19 0.120405234 4.2693954e-10 0.1896891
000130 0f b5 13 be 8a 11 2e be 02 ff 30 3e 9a b1 0c 3e
       -0.14424537 -0.16998878 0.17284778 0.13739625
000140 60 c3 97 bd d8 18 54 be 51 ed f6 3d 82 b9 eb 3d
       -0.07410312 -0.20712602 0.12056983 0.11509992
000150 73 17 41 be e5 54 47 3e 75 c6 13 3e fd 12 37 3e
       -0.18856601 0.19465978 0.14431174 0.17878337
000160 9e 2d e5 3d 3b 74 82 bd 78 8e 41 be 87 33 58 be
       0.111903414 -0.063698255 -0.18902004 -0.21113406
000170 c0 60 24 3c 22 f8 c5 bd 54 af 41 be 7b a2 fa 3c
       0.010032833 -0.09666468 -0.18914539 0.030595055
000180 28 ee 2a be 4e 7a 4b be 9d 8b c1 3d 16 35 17 3e
       -0.16692412 -0.19870874 0.09450457 0.14766344
000190 6a e9 b3 b9 d8 e9 54 3e 96 5c 34 3e de 6d 61 3e
       -0.00034315448 0.2079233 0.17613444 0.22014567
0001a0 eb 08 1b be 7b 67 58 3e 22 8a 59 3e e7 02 3c 3e
       -0.1514012 0.21133225 0.212441 0.18360482
0001b0 1f ef 39 be 8b b2 df ac 0a 49 49 bd 96 28 1c be
       -0.18157624 -6.3578635e-12 -0.04914192 -0.15249857
0001c0 6e 5c e9 bb 03 ee c8 b6 a6 11 51 3e e1 bf 35 3e
       -0.007121614 -5.9881727e-06 0.20416889 0.17748977
0001d0 ce 5c 9d 3d 50 89 2f be ad c8 a8 bd 53 fb 46 bd
       0.07683717 -0.17142224 -0.08241401 -0.048579525
0001e0 07 97 fc 3d 32 96 1d be ff 7d 03 3e c9 16 44 3d
       0.12333494 -0.15389326 0.12841032 0.047873292
0001f0 e9 af 54 be 47 c7 21 be 37 7b 17 be b4 4c 11 3e
       -0.2077023 -0.15798675 -0.14793096 0.14189416

running_mean f4 [128]
000000 5d a3 57 31 33 08 1a b8 6f 69 57 bc 96 50 70 2f
       3.137948e-09 -3.6724097e-05 -0.013147696 2.1856503e-10
000010 03 21 56 3b 25 c9 08 3e 0c 3a 97 3b b6 85 5d 3d
       0.0032673485 0.1335798 0.004615074 0.054082595
000020 fb 06 aa 3d 5e df 2d b5 85 14 00 00 f8 b5 dd 3a
       0.08302113 -6.4772564e-07 7.361e-42 0.0016915193
000030 f9 96 12 3e 86 78 d9 bb 96 b0 02 ae 77 c3 80 3d
       0.14315404 -0.006636682 -2.9715418e-11 0.06287282
000040 ee 8e 65 3d 4a e7 e9 3d a9 bd 22 3e f6 09 10 b9
       0.05604451 0.11421068 0.15892662 -0.00013736621
000050 b4 2c 8c 3c c4 62 96 3c aa 15 e0 3e bf d4 28 3c
       0.01711116 0.018357642 0.43766528 0.010304629
000060 2b 11 00 00 1d f1 e7 3a 1c 1d 94 3d 64 8a ff 3c
       6.159e-42 0.0017695759 0.07232115 0.03119392
000070 2a a0 9a 3e 97 0e ca bc b0 39 d0 bc 9b 2b fc b6
       0.3020032 -0.02466516 -0.025418133 -7.5152616e-06
000080 eb bb 89 3e 8f cf 95 b8 46 69 34 3e 6f 1a ff 2e
       0.26901183 -7.1435345e-05 0.17618284 1.1600753e-10
000090 d0 f8 7a 3d cf 32 d5 3b 8b 7f 9e 3d 3d 32 7d 3b
       0.061272442 0.006506301 0.07739171 0.003863468
0000a0 b4 c7 5d 3d 76 78 93 bc f8 3d 1b 3e a5 b4 a8 3d
       0.05414553 -0.018001776 0.15160358 0.0823758
0000b0 e7 f4 df 3c 12 26 b5 3d 88 98 41 3e db 38 7a bc
       0.027338458 0.08845152 0.18905842 -0.015272344
0000c0 b5 aa 58 3d b0 1c 81 3e 61 15 2c 3e 7e 42 44 3d
       0.052897174 0.252172 0.1680503 0.047914974
0000d0 79 e4 8b ba c8 88 9b 3c fe f7 83 3d 81 13 9c 33
       -0.0010672949 0.01898612 0.06443785 7.267864e-08
0000e0 0d a0 f0 3c eb 5a 2b 3c 6b 0b 8b bc d5 33 0f bd
       0.029373193 0.010458688 -0.016973218 -0.03496154
0000f0 9e c1 6b 3c f4 6b 8b 3c fb e0 e7 3d e7 66 f9 3a
       0.014389424 0.01701925 0.113222085 0.001902786
000100 ca 20 46 bc 9d d6 8b ba a8 e8 84 bc 50 06 04 3d
       -0.012092778 -0.0010668818 -0.01622422 0.032232583
000110 12 5f ca bb 24 6d 8d 25 e6 c1 96 3e 5f c4 1d 3e
       -0.006175884 2.4533558e-16 0.29444808 0.15406941
000120 cc 10 00 00 a6 01 0d 3e 61 f8 03 1b 94 37 a6 3c
       6.026e-42 0.1377016 1.0916322e-22 0.020290174
000130 a7 43 12 bc 65 ea 83 ba d1 26 3b 3c aa 4b 46 3e
       -0.008927262 -0.0010064362 0.011422829 0.19364801
000140 73 a6 cf 3e 43 73 de 3b 7e 57 82 3e 78 65 bf 3c
       0.40556678 0.0067886426 0.25457376 0.023363814
000150 b7 94 67 3d 56 f6 1e bc 20 e2 63 3d 81 c1 06 3d
       0.05653831 -0.009702286 0.05563557 0.032899383
000160 cb 7a bd 3b db 8b 27 3e 4a 41 0f 3c 1d 85 3e bc
       0.0057824603 0.16361944 0.0087435935 -0.011628416
000170 1f 65 ae b2 13 00 8f 3d e9 03 7f 3e 61 e1 bf 3d
       -2.030225e-08 0.06982436 0.24903835 0.093691595
000180 8e 27 4f bc 87 4e f2 bc d3 56 06 3a 61 8f b9 3d
       -0.012643708 -0.02957846 0.0005124632 0.090605505
000190 0a 4f a1 3a c9 e2 b8 3d 8c cf d5 3d 47 d8 c0 3c
       0.0012306881 0.09027631 0.10439977 0.02354063
0001a0 da b8 b3 3d 37 2c bc bb b4 3a 82 3d e7 ca 41 3c
       0.08775492 -0.0057425755 0.06358853 0.011828161
0001b0 8a 71 b8 3c 89 0a 00 00 6b e7 0a 3d c9 1e 58 3d
       0.022515077 3.78e-42 0.033912104 0.052763734
0001c0 1c 7a ad 3c 0a c1 9f 28 af 0c 73 bb cb 70 64 3e
       0.02117639 1.7736263e-14 -0.0037086417 0.22308652
0001d0 6f ac f3 3d 55 4c 01 3d 7a 9f 6a 3d 38 80 ba 3e
       0.118981235 0.031566937 0.057280995 0.36425948
0001e0 8d f2 17 3c 61 47 33 3c a4 32 3e 3e f3 d0 42 b7
       0.009274137 0.010942311 0.18574005 -1.1611951e-05
0001f0 50 ed bd bc 3e 9c 62 3d 1f 75 a7 3e 74 b3 8c 3b
       -0.023184448 0.055324785 0.32706544 0.0042938534

running_var f4 [128]
000000 dd 15 64 26 af 3a 5e 39 98 8b e3 3c 0f d3 6b 20
       7.913302e-16 0.00021193431 0.027776524 1.9975108e-19
000010 82 72 16 3d 71 55 80 3e 31 ea 62 3d 0b e1 98 3d
       0.036730297 0.25065187 0.055399124 0.074647985
000020 6c e6 d5 3d c0 1d 71 2c 04 00 00 00 3b 30 32 39
       0.1044434 3.4264674e-12 6e-45 0.0001699337
000030 05 f5 92 3d f3 49 6e 3c f0 30 6f 1f 52 1b 2c 3e
       0.0717564 0.014543998 5.06507e-20 0.16807297
000040 50 64 06 3e 6b 05 fe 3c 91 65 bf 3e 73 00 c4 36
       0.13124204 0.031008443 0.37382177 5.8413075e-06
000050 a6 d4 ed 3c e9 5d a8 3d d4 86 10 3f 81 26 08 3b
       0.029032063 0.08221037 0.5645573 0.0020774903
000060 04 00 00 00 b3 cd 52 39 8e e8 07 3e 69 86 18 3d
       6e-45 0.0002010379 0.13272306 0.03723756
000070 32 82 f4 3d 1d b1 68 3b 01 06 0e 3c 4c 29 7f 34
       0.11938895 0.0035505958 0.008668424 2.376375e-07
000080 41 6f 9b 3d 8c 14 f0 31 12 4d a7 3e 6f 97 23 22
       0.075895794 6.987255e-09 0.32675987 2.2170788e-18
000090 8c 08 bf 3d 6e 39 aa 38 49 d2 78 3c af ab 22 3d
       0.09327802 8.116929e-05 0.015186855 0.03971451
0000a0 be 9f 04 3c ce 01 36 3c f8 b6 18 3d 51 a8 ae 3c
       0.008094726 0.011108829 0.037283868 0.021320494
0000b0 c0 58 58 3d a0 9c 49 3d 46 59 6d 3e 84 f1 70 3c
       0.052819014 0.049221635 0.23178586 0.014706019
0000c0 cf 5d fd 3d a2 c4 c2 3e c0 8d 70 3d ef bc 86 3d
       0.12371408 0.38040644 0.058728933 0.06579005
0000d0 26 8f 3c 3d 19 77 07 3c d6 9a 86 3d de f7 23 29
       0.046034954 0.008268141 0.06572501 3.640826e-14
0000e0 60 82 e9 3d 85 8c 9b 3b f2 9e 08 3c 3c f3 2e 3a
       0.1140182 0.004746976 0.008338677 0.0006673818
0000f0 41 03 a0 3d 39 19 8e 3c ad f6 5f 3e e5 d1 3a 3a
       0.07813121 0.017346011 0.21871443 0.00071266136
000100 50 84 4d 3c 0a 85 ea 35 9b 4e 68 39 61 5f 08 3b
       0.012543753 1.7473078e-06 0.00022154527 0.0020808803
000110 6d b7 fc 3c 16 9c 1e 0c 1f 65 58 3e 36 bd 82 3d
       0.030849183 1.2218848e-31 0.21132325 0.06383745
000120 04 00 00 00 6c 9e 0c 3d 19 00 00 00 f5 10 2c 3d
       6e-45 0.03433077 3.5e-44 0.04200836
000130 72 2d 41 3c f0 57 59 3d eb 64 50 3b 28 ff b2 3d
       0.01179062 0.05306238 0.0031798433 0.087400734
000140 9f 60 b5 3e 8d 3b 7e 3d d1 59 0d 3e b0 ad 8e 3b
       0.3542528 0.06206851 0.13803793 0.0043542013
000150 09 4a f8 3d d9 69 00 3c 12 c4 ab 3c 13 cc 7b 3d
       0.12123496 0.007837736 0.020967517 0.061473917
000160 2d e0 7f 3b a1 19 54 3e 57 2c 1b 3d 53 e3 9b 3c
       0.0039043531 0.20712902 0.037884083 0.019029295
000170 f2 95 92 26 a0 fc e8 3d 04 e7 2a 3e e1 e1 9d 3c
       1.0171428e-15 0.113763094 0.16689688 0.019272747
000180 a4 eb d0 3c db 71 23 3b 08 e9 27 38 6f 73 b6 3c
       0.025502987 0.002493969 4.003293e-05 0.02227184
000190 12 45 cb 35 95 29 13 3e 94 65 14 3e 9d cd b0 3d
       1.5144781e-06 0.14371331 0.14491874 0.086329676
0001a0 4e 6b 10 3e d3 6a 21 3d bb a5 03 3e 0a 7c 06 3d
       0.14103433 0.039408516 0.1285619 0.032833137
0001b0 62 1b 09 3b 04 00 00 00 53 d4 1f 3b 04 46 31 3c
       0.0020920862 6e-45 0.002438803 0.010819916
0001c0 d9 cb c1 3a 83 7d f2 12 1d e9 bb 3c 90 10 d9 3d
       0.0014785483 1.5303288e-27 0.022938306 0.10598862
0001d0 ae 5d 87 3c 1e 59 da 3d 12 e4 29 3d 86 a2 5d 3e
       0.016524162 0.10661529 0.04147727 0.21644029
0001e0 fa 44 b9 3b 1f 1b 60 3d da 2b 62 3e c4 41 3d 2f
       0.0056539746 0.054713365 0.2208704 1.7212815e-10
0001f0 6d 7e b7 3b 19 57 07 3e a1 92 24 3f c2 b8 6c 3c
       0.005599788 0.13216819 0.6428624 0.014448347

weight f4 [1, 128, 1, 1]
000000 75 26 b3 b5 d5 28 0c be a4 33 9d 3e 5f f1 22 b6
       -1.3347732e-06 -0.13687451 0.3070346 -2.4280378e-06
000010 57 0b f5 3e ed 62 d3 3e 0b 56 10 3f 6b 64 a6 be
       0.47860214 0.41286412 0.5638129 -0.32498488
000020 47 f3 c9 be b9 95 0b 3b e8 e4 81 21 25 07 e8 3d
       -0.39443418 0.0021298958 8.801971e-19 0.11329488
000030 d7 f3 d1 3e cf 79 c8 be cb 6e e3 33 84 74 48 3e
       0.41006348 -0.39155433 1.0590664e-07 0.19575697
000040 36 a1 20 bf 29 5f ba bd 64 38 7f 3e 2b fd c7 bc
       -0.6274599 -0.091001816 0.24923855 -0.024412712
000050 b2 81 e9 3e e4 f0 c4 3e 29 2a 31 be ed 4b d1 3d
       0.45606762 0.38465035 -0.17301239 0.1021956
000060 c4 e6 8a 9f d8 9e 73 bd 6c 7b 9f be c7 6c 3e be
       -5.882704e-20 -0.059477657 -0.3114885 -0.18596183
000070 45 41 1b be a4 1c ef 3e 34 19 e4 3e 1d aa 89 3d
       -0.15161617 0.4670154 0.44550478 0.067219
000080 f2 34 02 3e 9b fc 17 bd 45 a7 cc be 99 aa 25 34
       0.1271551 -0.037106138 -0.39971367 1.5428886e-07
000090 ba 3a 57 be ad bf cc 3a 86 63 ee bd 3e a0 a9 3e
       -0.21018496 0.0015621089 -0.11640076 0.33130068
0000a0 11 09 5d bd 78 92 d8 3e e3 dd 27 be ee 5a 3d be
       -0.053963725 0.42299247 -0.16393237 -0.18491718
0000b0 8f ed 74 3e ec b6 0b be 57 59 d1 3d 3b 39 a5 3e
       0.23918746 -0.13643998 0.10222118 0.32270226
0000c0 4d 01 cb 3e 0d ea 51 3e d8 92 86 3c ab 76 f5 3e
       0.3964943 0.2049944 0.016427442 0.479421
0000d0 67 db 0e 3f 33 6f 00 be 04 45 3c be c6 6b a7 b6
       0.5580353 -0.12542419 -0.18385702 -4.9895343e-06
0000e0 28 f9 0a 3f 39 ee 8a bd d1 9d f1 3e bb 96 c5 be
       0.5428643 -0.067837186 0.47190717 -0.3859156
0000f0 b5 c4 09 3f 03 33 07 be 4a f6 e1 be 77 99 2a be
       0.53815776 -0.13203053 -0.44133216 -0.16660105
000100 b2 7a cc 3e 73 bc ce bd c7 be 61 be a6 9b 2f bc
       0.3993736 -0.100945376 -0.22045432 -0.010718262
000110 5c ef dc be 04 96 9e b2 8f 30 89 3e 65 c5 0f 3d
       -0.43151367 -1.846184e-08 0.2679486 0.03510036
000120 a0 24 7d 22 e5 32 ef bd b1 1d 8a af 7e dc c4 be
       3.4307283e-18 -0.11679629 -2.512315e-10 -0.38449472
000130 a3 9b 91 3e 9e f5 b0 3e 22 55 4f be bb aa 14 be
       0.28439054 0.3456239 -0.2024732 -0.14518254
000140 62 ad 40 3d 53 42 05 3f 63 ce ee bd b5 5f ed bd
       0.04704035 0.5205433 -0.11660459 -0.1159052
000150 d9 fb d7 3e ef 5e c7 be c3 0d 0e be 50 d3 aa be
       0.42184332 -0.38939616 -0.13872437 -0.33364344
000160 e8 18 e9 bd c2 5c 5e 3d 50 9d d5 3e 67 a8 e7 3e
       -0.113817036 0.05428768 0.41721582 0.45245668
000170 e1 c5 31 bc eb 54 cb 3d f1 8a d3 3e 41 17 9d bc
       -0.010850401 0.09928306 0.4131694 -0.019176127
000180 ce 29 a5 3e 04 b9 da 3e 97 f7 ad bd 2a e4 1e be
       0.32258457 0.4271928 -0.0849449 -0.15516725
000190 9c c0 ea 38 07 6a 01 bf 5d 75 a7 be f2 62 18 bf
       0.00011193866 -0.5055241 -0.3270673 -0.5952598
0001a0 68 9c 80 3e cf 6a 06 bf d8 34 eb be 72 1e d3 be
       0.25119328 -0.52506727 -0.45938754 -0.41234165
0001b0 6d e5 31 3e b9 6b ac 2c 39 5e 33 3d 7d 07 24 3e
       0.17372675 4.9004936e-12 0.04379103 0.16018482
0001c0 c4 9b 8e 3b 03 c9 98 36 0a d9 e0 be 9c ab 58 be
       0.004352065 4.553354e-06 -0.43915588 -0.21159214
0001d0 fb 0b 8e bd 68 a8 ac 3e 3a 65 93 3d 65 4e 92 3c
       -0.06935879 0.33722234 0.07197042 0.017859647
0001e0 a6 a3 fc bd 07 90 76 3e 1d dc 2a be da 62 38 bd
       -0.12335901 0.2407838 -0.16685529 -0.045016147
0001f0 8e 2a f5 3e 3b 2b 90 3e b8 b9 4c 3e 93 86 65 be
       0.4788403 0.28157982 0.19992721 -0.22414617
