ball_data/model_500.pth (torch_old, 853498 bytes, 13 tensors)

weight f4 [64, 1, 5, 5]
-0.051868584 0.031674165 0.030318514 -0.009960569 0.058836933 -0.055556286 -0.065241806 0.08774481
0.051564317 0.04231444 -0.069031045 0.035707057 -0.0762858 0.048840553 0.053589713 -0.10212083
-0.10026554 0.04894113 -0.08554753 0.03883791 0.065028474 -0.051016055 0.008238203 -0.03925755
-0.03310107 0.099132456 -0.08195896 0.040911995 -0.028271569 0.014394459 0.054737024 0.047669046
-0.07490016 -0.06610327 0.05095477 0.06766071 0.018405633 -0.071770996 -0.031303022 -0.041423
-0.0552998 0.03049598 0.0012633601 -0.010813803 0.041047208 0.03643708 0.06950035 -0.010414281
-0.075922966 -0.0072571626 0.08457227 0.019854244 0.011836863 -0.05526987 0.012662612 -0.018495293
0.09967333 0.090689376 -0.075614184 -0.07136888 0.06682026 0.06762974 0.032332323 -0.06442221
0.0023652194 0.0476405 -0.04579702 -0.06179437 0.06581549 -0.0899345 0.06504732 0.035511278
0.10323235 -0.05529129 0.03783398 -0.03842829 -0.069674425 -0.0372709 0.030704323 -0.08874019
0.08143645 -0.025842408 -0.017307159 -0.07703061 -0.11253517 -0.08796252 -0.0033129423 -0.063708834
-0.048652932 0.0058037485 -0.010152685 -0.021856857 -0.05808711 -0.0072088633 -0.084840335 0.047713675
-0.069348775 0.062057454 0.036055114 -0.041356932 -0.030238347 0.015948936 0.015021395 0.062421978
0.05569074 -0.011251949 -0.0062094317 0.03206709 -0.08691208 -0.038831625 -0.048031054 0.12894042
-0.044423234 -0.07469579 0.0696002 0.055410646 0.0780821 -0.06402083 -0.096983105 -0.04488721
-0.031213844 -0.026988385 -0.0553741 -0.021459088 0.08056927 0.06171982 0.020850768 -0.07595985
0.014275271 0.0066960584 0.021187771 0.0035439609 -0.07307129 0.04956907 0.058649424 -0.043889653
-0.014277117 0.08762834 0.10779609 0.0025512462 -0.052302383 -0.09859015 -0.10114343 -0.043718692
-0.016171193 0.03439317 -0.08724405 0.068930745 0.09396184 -0.058974057 -0.018469583 0.05289578
0.0015312043 -0.047794458 0.020907287 0.039952863 0.083399884 -0.021807099 0.09425921 0.076739386
0.041342076 -0.059813347 -0.034666236 0.10242972 -0.007109397 -0.058378797 -0.020038264 -0.009273713
0.04881783 0.09333943 -0.051866326 -0.09200765 -0.058031354 -0.04352868 0.06621539 -0.060982417
0.07373119 -0.07911994 -0.04525222 -0.078552775 -0.06624454 -0.047568087 0.037358247 -0.03461877
0.04703678 0.07191278 0.080351286 0.0073155374 0.08806447 -0.010183437 0.017985959 0.042939622
0.049872104 0.017866585 0.044418 -0.063592665 0.014201155 -0.03445009 0.027212746 0.040117804
0.06496056 0.04637183 0.09413029 0.010734985 0.09742438 0.026364267 -0.08065201 -0.029569924
-0.03470188 0.07303243 -0.056403894 0.0034289428 -0.019138195 -0.078758314 -0.026408216 -0.08553831
-0.07725787 -0.042385463 0.022135254 -0.0025567573 0.038814526 0.07148044 0.008901543 0.037365697
0.06991827 0.0957101 0.002459295 0.09999685 0.10797385 0.038098946 0.038838588 -0.1101627
-0.076990806 -0.01382232 -0.042341053 -0.046867266 -0.096438 0.017838921 0.028054807 0.031830847
0.063803986 -0.09104416 -0.08122102 0.05695125 0.01257712 0.05328557 -0.046538234 0.025992395
-0.036539204 -0.04822056 -0.07605444 -0.01954104 0.042415258 0.004149341 -0.036611497 0.04827305
00000000: 2774 54bd c5bc 013d 885e f83c a831 23bc
00000010: fffe 703d fd8e 63bd 7f9d 85bd 8db3 b33d
00000020: 1b35 533d e851 2d3d 2660 8dbd 9041 123d
00000030: bb3b 9cbd 080d 483d e380 5b3d ba24 d1bd
00000040: 0558 cdbd 7f76 483d 8b33 afbd 8014 1f3d
00000050: a62d 853d 36f6 50bd 87f9 063c 86cc 20bd
00000060: fd94 07bd f505 cb3d 19da a7bd 5693 273d
00000070: c799 e7bc bdd6 6b3c ee33 603d 9e40 433d
00000080: 4165 99bd 2761 87bd f3b5 503d b391 8a3d
00000090: 69c7 963c acfc 92bd 9937 00bd 2aab 29bd
000000a0: 0b82 62bd b5d2 f93c 5597 a53a 612c 31bc
000000b0: 1e21 283d 0c3f 153d 3356 8e3d a9a0 2abc
000000c0: 807d 9bbd 7ecd edbb 3a34 ad3d 5ea5 a23c
000000d0: 67ef 413c a962 62bd d876 4f3c 7183 97bc
000000e0: 8821 cc3d 5abb b93d 9cdb 9abd d929 92bd
000000f0: 0fd9 883d 7681 8a3d e66e 043d cbef 83bd
00000100: cc01 1b3b af22 433d a895 3bbd 181c 7dbd
00000110: 46ca 863d 942f b8bd 8837 853d 4674 113d
00000120: 7b6b d33d 1f79 62bd cef7 1a3d fc66 1dbd
00000130: 77b1 8ebd 5fa9 18bd a287 fb3c 6bbd b5bd
00000140: 27c8 a63d 75b3 d3bc bec7 8dbc 39c2 9dbd
00000150: d778 e6bd b225 b4bd f31d 59bb c779 82bd
00000160: 4c48 47bd 5f2d be3b 7357 26bc 270d b3bc
00000170: c0ec 6dbd 5438 ecbb c5c0 adbd 6a6f 433d
00000180: bb06 8ebd f52f 7e3d 87ae 133d e365 29bd
00000190: 69b6 f7bc 58a7 823c 4c1c 763c 30ae 7f3d
000001a0: f91b 643d 185a 38bc 7d78 cbbb c858 033d
000001b0: f6fe b1bd e90d 1fbd 36bc 44bd f508 043e
000001c0: 23f5 35bd 1bfa 98bd 8d8a 8e3d 46f6 623d
000001d0: 82e9 9f3d 5a1d 83bd 149f c6bd a7db 37bd
000001e0: 2db4 ffbc bf16 ddbc f4cf 62bd f8ca afbc
000001f0: 8001 a53d eccd 7c3d 3bcf aa3c d690 9bbd
00000200: d4e2 693c 9c6a db3b fa91 ad3c cc41 683b
00000210: 67a6 95bd f008 4b3d 613a 703d a3c5 33bd
00000220: 92ea 69bc 7d76 b33d 32c4 dc3d cf32 273b
00000230: 063b 56bd a2e9 c9bd 4924 cfbd 5f12 33bd
00000240: 7379 84bc dadf 0c3d 02ad b2bd 902b 8d3d
00000250: 116f c03d c88e 71bd 864d 97bc 3fa9 583d
00000260: b1b2 c83a 1fc4 43bd c245 ab3c 9da5 233d
00000270: 8fcd aa3d cda4 b2bc f90a c13d 8a29 9d3d
00000280: 4f56 293d d7fe 74bd 2ffe 0dbd acc6 d13d
00000290: f2f5 e8bb 9b1e 6fbd 4927 a4bc c6f0 17bc
000002a0: 34f5 473d be28 bf3d c971 54bd 826e bcbd
000002b0: 49b2 6dbd 214b 32bd ef9b 873d b3c8 79bd
000002c0: 6100 973d a309 a2bd 645a 39bd 47e0 a0bd
000002d0: 38ab 87bd c1d6 42bd f604 193d 69cc 0dbd
000002e0: a3a9 403d 0247 933d 378f a43d 2db7 ef3b
000002f0: 255b b43d 6ed8 26bc 4a57 933c 75e1 2f3d
00000300: b146 4c3d f25c 923c a6ef 353d df3c 82bd
00000310: f6ab 683c 8a1b 0dbd 44ed de3c 9152 243d
00000320: 0b0a 853d 63f0 3d3d 62c7 c03d cae1 2f3c
00000330: 6f86 c73d e0f9 d73c e22c a5bd a03c f2bc
00000340: 8f23 0ebd 0792 953d c507 67bd 1db8 603b
00000350: b4c7 9cbc 0a4c a1bd 0b56 d8bc b62e afbd
00000360: 6039 9ebd 619c 2dbd fe54 b53c 458f 27bb
00000370: fbfb 1e3d 5664 923d c7d7 113c c60c 193d
00000380: 4f31 8f3d a803 c43d 202c 213b 26cb cc3d
00000390: 6521 dd3d a40d 1c3d 3615 1f3d fb9c e1bd
000003a0: 5bad 9dbd 0377 62bc d06d 2dbd e4f7 3fbd
000003b0: 4981 c5bd ee22 923c 32d3 e53c 1061 023d
000003c0: aaab 823d 5c75 babd 3557 a6bd b745 693d
000003d0: 4410 4e3c f841 5a3d e09e 3ebd 01ee d43c
000003e0: 22aa 15bd ec82 45bd 6ec2 9bbd 8814 a0bc
000003f0: 9fbb 2d3d 32f7 873b f0f5 15bd f6b9 453d

bias f4 [64]
-0.034765396 -0.020040838 -0.012761759 -0.0625384 -0.044618428 -0.035342548 -0.05223342 0.034263264
-0.04931725 -0.053070813 -0.030179253 -0.03152037 -0.040329255 -0.03497223 -0.08378422 -0.040372398
-0.07962429 -0.029944804 -0.06482992 0.00409622 0.036607817 -0.014417807 -0.060551893 0.0067393994
-0.037000142 -0.018746845 0.0018357607 -0.06775247 -0.004898258 -0.04711399 -0.029617181 0.03421107
0.037781697 -0.037311185 -0.025275711 0.025679585 -0.034913078 -0.039558314 -0.08260288 -0.010099208
0.013001108 -0.052246977 0.034112457 -0.044853453 -0.029576397 -0.030562231 -0.056323513 -0.033839907
-0.03666837 -0.0014008863 0.03721482 0.0011120595 -0.046674103 0.04523584 -0.04529872 -0.020046113
0.005480545 6.0391496e-05 0.023759956 -0.04779583 -0.0798157 0.023627494 -0.045977503 -0.03260525
00000000: 2966 0ebd af2c a4bc b216 51bc 2214 80bd
00000010: d0c1 36bd 59c3 10bd b6f2 55bd a357 0c3d
00000020: e200 4abd c860 59bd 7b3a f7bc 811b 01bd
00000030: 4a30 25bd 0b3f 0fbd 1097 abbd 875d 25bd
00000040: 0f12 a3bd ce4e f5bc 8dc5 84bd 9539 863b
00000050: 14f2 153d aa38 6cbc 4305 78bd 2ed6 dc3b
00000060: 768d 17bd fc92 99bc e89d f03a cfc1 8abd
00000070: 9181 a0bb 99fa 40bd bb9f f2bc e820 0c3d
00000080: fbc0 1a3d 9dd3 18bd 020f cfbc fe5d d23c
00000090: 0401 0fbd e607 22bd b32b a9bd 2677 25bc
000000a0: 9902 553c ed00 56bd 81b9 0b3d 41b8 37bd
000000b0: 334a f2bc a55d fabc 7cb3 66bd b79b 0abd
000000c0: 9331 16bd f29d b7ba 916e 183d 86c2 913a
000000d0: 582d 3fbd 3749 393d 278b 39bd bf37 a4bc
000000e0: 2596 b33b e04c 7d38 3da4 c23c 8fc5 43bd
000000f0: 6a76 a3bd 728e c13c e852 3cbd 158d 05bd

weight f4 [64]
0.42659882 0.65282506 0.5947512 0.621457 0.32029226 0.44095963 0.12839268 0.8963324
0.66511166 0.5302443 0.4447102 0.7750072 0.5543772 0.7648257 0.07861076 0.59008527
0.3973967 0.14670768 0.7865921 0.09354046 0.7149818 0.60604215 0.08119696 0.8536905
0.92294884 0.78888315 0.32221332 0.11393761 0.877624 0.8609487 0.1497918 0.15542957
0.31978476 0.83606714 0.86927766 0.91769713 0.13489535 0.26237026 0.03077289 0.85276264
0.5158237 0.20183517 0.40381354 0.3229325 0.26916298 0.8606561 -0.010384016 0.56192875
0.4078823 0.8290156 0.58259785 0.4338069 0.1910023 0.20387122 0.18395352 0.8589925
0.6192083 0.48596105 0.94461703 0.39073136 0.7907938 0.7971888 0.6577487 0.9576539
00000000: 296b da3e 8b1f 273f 9d41 183f ce17 1f3f
00000010: 59fd a33e 76c5 e13e 5f79 033e 0a76 653f
00000020: c244 2a3f 17be 073f 0eb1 e33e df66 463f
00000030: aaeb 0d3f 9ecb 433f aefe a03d d40f 173f
00000040: 9577 cb3e 8a3a 163e 1a5e 493f 2492 bf3d
00000050: 0c09 373f 9425 1b3f 974a a63d 768b 5a3f
00000060: 6046 6c3f 3ff4 493f 25f9 a43e 1f58 e93d
00000070: f7ab 603f 2267 5c3f 0663 193e ee28 1f3e
00000080: d4ba a33e 7f08 563f fb88 5e3f 33ee 6a3f
00000090: 0222 0a3e 6555 863e 6e17 fc3c a74e 5a3f
000000a0: 060d 043f e1ad 4e3e a6c0 ce3e 6957 a53e
000000b0: bbcf 893e f553 5c3f b821 2abc 90da 0f3f
000000c0: f3d5 d03e 5e3a 543f 2225 153f f01b de3e
000000d0: 1b96 433e 9ec3 503e 505e 3c3e efe6 5b3f
000000e0: 6f84 1e3f e3cf f83e 6cd2 713f f10d c83e
000000f0: 7671 4a3f 9114 4c3f 3862 283f ce28 753f

bias f4 [64]
-0.0612486 -0.06053694 -0.02663472 0.031086534 0.06368314 0.029286085 0.08305761 0.02610218
0.07737095 0.052510474 0.019967576 0.059071682 -0.06697325 -0.053805664 0.20593978 -0.072869934
0.08714971 -0.078028046 -0.031871654 -0.010908223 -0.103150964 0.048264876 -0.19809979 -0.03167927
0.016279945 -0.07931904 0.041507613 -0.10687442 -0.15092646 -0.07177772 -0.122547805 -0.07939276
-0.05274153 -0.027966723 -0.040986124 -0.06708563 0.14169958 -0.11544636 -0.20528956 -0.04159071
-0.08245119 -0.12939237 0.007803734 -0.11156492 0.083543144 -0.076520875 -0.25660658 0.09985811
-0.091290615 -0.08668057 0.022259744 -0.012437749 0.06782071 0.018668529 0.085419506 -0.05802918
-0.07493101 -0.05453152 0.025308551 -0.049640667 -0.0718717 0.034668885 -0.032851774 -0.04674523
00000000: d0df 7abd 95f5 77bd 0e31 dabc 30a9 fe3c
00000010: 4e6c 823d 5fe9 ef3c 1c1a aa3d 3dd4 d53c
00000020: a974 9e3d 3915 573d 0b93 a33c 26f5 713d
00000030: 4529 89bd 5463 5cbd e1e1 523e d53c 95bd
00000040: 8c7b b23d 2bcd 9fbd da8b 02bd 67b8 32bc
00000050: d040 d3bd 64b1 453d acda 4abe 1fc2 01bd
00000060: 855d 853c 0572 a2bd e303 2a3d fae0 dabd
00000070: 778c 1abe 3200 93bd 58fa fabd ac98 a2bd
00000080: 8107 58bd 781a e5bc 11e1 27bd 3164 89bd
00000090: b219 113e 246f ecbd 6d37 52be 055b 2abd
000000a0: 2bdc a8bd 6f7f 04be 77b6 ff3b 267c e4bd
000000b0: ab18 ab3d fab6 9cbd f061 83be 6982 cc3d
000000c0: 93f6 babd 9585 b1bd 115a b63c b3c7 4bbc
000000d0: 96e5 8a3d beee 983c 6cf0 ae3d 01b0 6dbd
000000e0: 6e75 99bd 715c 5fbd e153 cf3c 0354 4bbd
000000f0: 7831 93bd f600 0e3d 958f 06bd ed77 3fbd

running_mean f4 [64]
0.03814282 0.018439434 0.057687566 0.094747685 0.0134913465 0.016157204 0.035507184 0.05805548
0.02055243 0.016755568 0.023921898 0.0184553 0.02977887 0.028643938 0.0020138922 0.01725827
0.0053657196 0.03084456 0.019825235 0.02365682 0.05770282 0.019057227 0.06407185 0.040888038
0.020425245 0.10923437 0.030271208 0.0273187 0.040184345 0.017373603 0.015729608 0.058230028
0.054694023 0.031949285 0.03834696 0.07676216 0.039010044 0.008755117 0.02169937 0.032764602
0.03242224 0.009222254 0.06982172 0.014097052 0.0075637377 0.024711391 0.0369529 0.012363591
0.05208173 0.058163606 0.070112064 0.031036016 0.03837631 0.07070559 0.0141491 0.037014954
0.04056259 0.040959515 0.04814157 0.0370266 0.043028858 0.050565876 0.013929405 0.02578063
00000000: a53b 1c3d 4c0e 973c cc49 6c3d 130b c23d
00000010: cf0a 5d3c 1d5c 843c fb6f 113d 95cb 6d3d
00000020: 925d a83c f942 893c dbf7 c33c 922f 973c
00000030: d1f2 f33c b1a6 ea3c 81fb 033b 3761 8d3c
00000040: ebd2 af3b bbad fc3c 8868 a23c f3cb c13c
00000050: cb59 6c3d e71d 9c3c 1a38 833d 377a 273d
00000060: d852 a73c 45b6 df3d 53fb f73c 77cb df3c
00000070: 5798 243d 1653 8e3c 61db 803c 9c82 6e3d
00000080: d706 603d 41dd 023d b411 1d3d 7b35 9d3d
00000090: ffc8 1f3d 9f71 0f3c e1c2 b13c 2d34 063d
000000a0: 2fcd 043d f018 173c b1fe 8e3d 52f7 663c
000000b0: 3bd9 f73b 8b6f ca3c ed5b 173d a990 4a3c
000000c0: a753 553d f63c 6e3d ea96 8f3d 3e3f fe3c
000000d0: 7a30 1d3d 18ce 903d a0d1 673c fe9c 173d
000000e0: f524 263d 2ac5 273d 1830 453d 34a9 173d
000000f0: 073f 303d 2a1e 4f3d 2938 643c e631 d33c

running_var f4 [64]
0.0061623543 0.0025643648 0.011973974 0.025385125 0.0015942259 0.002152917 0.0069435895 0.007149853
0.003255911 0.0028969573 0.0027373428 0.0024232531 0.004208429 0.0044652442 0.00024353761 0.0024269382
0.00070784887 0.0040988587 0.0038497346 0.0014543087 0.0038019777 0.0020309614 0.017030288 0.0064049913
0.0030437824 0.038923264 0.0026505447 0.0041099344 0.007818615 0.0023249427 0.0014619669 0.0062121735
0.005027557 0.004674807 0.0056767426 0.00948657 0.0069426466 0.0012226525 0.0032311555 0.0046859235
0.0028800939 0.0013357138 0.010036922 0.002094455 0.0006406396 0.003911856 0.005008351 0.001530668
0.010582005 0.008954852 0.009215698 0.0034764973 0.005444934 0.009075021 0.0015760186 0.005618768
0.004958265 0.0036419814 0.0043359003 0.0065835435 0.009226497 0.006539971 0.0015624027 0.0043736985
00000000: 93ed c93b e70e 283b 7d2e 443c 77f4 cf3c
00000010: 58f5 d03a f417 0d3b 0d87 e33b 5049 ea3b
00000020: 1f61 553b e1da 3d3b fe64 333b 71cf 1e3b
00000030: dce6 893b 2f51 923b 215e 7f39 440d 1f3b
00000040: ef8e 393a b84f 863b d44b 7c3b 819e be3a
00000050: 9a2a 793b e119 053b 1a83 8b3c f6e0 d13b
00000060: 327a 473b 006e 1f3d c3b4 2d3b a1ac 863b
00000070: a619 003c 115e 183b 789f bf3a 7d8f cb3b
00000080: 34be a43b 202f 993b f803 ba3b 8f6d 1b3c
00000090: 247f e33b 6941 a03a cbc1 533b 608c 993b
000000a0: f5bf 3c3b 1e13 af3a e771 243c 2043 093b
000000b0: 99f0 273a 072f 803b 181d a43b b2a0 c83a
000000c0: 2560 2d3c 5fb7 123c 70fd 163c f2d5 633b
000000d0: 6b6b b23b 66af 143c 6992 ce3a a41d b83b
000000e0: f178 a23b 4fae 6e3b 2b14 8e3b c4ba d73b
000000f0: bc2a 173c 414d d63b 89c9 cc3a 3e51 8f3b

weight f4 [128, 64, 5, 5]
0.03664093 0.02683931 -0.016134275 0.0076942067 -0.009955989 0.043225534 -0.028526211 -0.0036157754
-0.023528282 0.0023586347 0.011643737 -0.01570156 -0.0026914054 -0.0476276 0.011862608 0.017111775
-0.03512991 0.0009963049 0.012401591 -0.026409425 -0.066998735 -0.012203647 -0.0420597 -0.043933883
-0.0012662398 0.055164356 0.008064375 0.033985708 -0.019254351 0.0037750762 0.050190113 0.037582945
0.03006823 0.03322802 0.047507964 0.029764013 0.022939831 0.006815538 -0.027184187 -0.006740951
-0.047224622 -0.04206227 -0.0180276 0.024203908 -0.018213553 -0.058085382 0.0061331764 0.012410632
-0.01881288 -0.015017909 -0.020665895 -0.0446018 0.022170998 -0.0072189094 -0.036048118 0.044816043
-0.025018193 0.04969539 0.019997355 -0.02100633 -0.022157082 -0.009888571 0.018770289 0.009614267
0.014619688 -0.02418397 0.0021247957 0.02901702 -0.0010935694 0.03200303 -0.045819208 -0.01773055
0.005644664 0.0068246094 0.010368559 -0.048560537 -0.00553159 -0.033653095 -0.030620417 0.017316079
-0.03089077 -0.042861857 -0.010817751 -0.008768799 -0.030555254 0.017094899 -0.0018306071 0.011910787
0.006623182 0.010656528 -0.048835933 -0.023585644 -0.034857783 0.011846819 -0.005478749 -0.015317572
-0.018047364 0.010678337 -0.026324151 -0.018101657 0.021714015 -0.023750972 -0.018866397 -0.011915263
-0.0058075516 -0.027071014 -0.04098243 0.02333327 0.02070508 0.009924553 0.006901315 0.02109103
-0.04456504 0.028121421 0.046372373 0.028930647 0.041098226 0.020661239 -0.013677901 -0.018374657
-0.023339055 0.0048444 0.005852165 -0.006289953 0.011355536 -0.016596233 -0.016294925 0.0373671
0.0114080105 0.010055226 0.014927415 -0.007292137 -0.017894821 0.025392774 0.03200945 0.025524478
-0.011983742 0.024243927 -0.008182241 0.032980826 -0.038762495 -0.04030523 -0.036181867 -0.017155107
0.010590876 -0.012858509 0.02414548 -0.04179369 0.000807096 -0.02175233 -0.0081547825 -0.006179169
0.002468925 -0.011394833 -0.0084958505 -0.0078149345 -0.0063839913 0.0075035323 -0.013731885 -0.007651836
-0.011818264 -0.0011999354 -0.0030317926 -0.012291983 0.004066373 -0.015516652 -0.018054355 -0.00092463096
-0.015561312 -0.0039223027 -0.008069536 0.0005463826 0.00046977296 0.006044954 0.0023160623 0.0038828498
0.01862103 0.017055495 0.0058836257 0.010897755 0.026988516 0.009413153 0.046409663 -0.037054017
0.030297365 -0.03131038 -0.005831499 -0.025096988 0.021067658 0.020276057 -0.025526753 0.029430764
0.009779889 -0.047784757 0.010962808 0.038167518 -0.007264599 0.0032417441 -0.015158853 -0.058821734
0.038143598 -0.00034133016 0.0076268646 0.0074394206 0.03739075 0.032630496 0.025710832 -0.018031403
0.0055801915 -0.0060084285 -0.0062571634 0.023348978 -0.022399243 -0.0036034945 0.03410067 0.05609182
0.040166385 -0.020420084 -0.033404615 -0.0018130185 0.017421052 -0.034724653 -0.020405151 -0.028761124
-0.023508806 0.00067523844 0.0012112525 -0.02048802 -0.0062117944 -0.013711753 -0.024705537 -0.03345135
0.040412012 -0.009700161 0.034620747 0.0064230715 -0.0017900203 -0.045478232 0.012109764 0.04051476
0.010914293 0.030877497 -0.008973298 -0.0222945 -0.015748067 -0.008650234 0.016717885 -0.04172058
0.0283036 0.018563608 0.021057744 0.0029136846 -0.020275379 0.03867352 -0.018724136 0.013980646
00000000: cd14 163d 1dde db3c 072c 84bc af1f fc3b
00000010: 721e 23bc 420d 313d cdaf e9bc a5f6 6cbb
00000020: 62be c0bc 5393 1a3b 5fc5 3e3c 8fa0 80bc
00000030: 4a62 30bb 2915 43bd 625b 423c fe2d 8c3c
00000040: 61e4 0fbd 7296 823a 0b30 4b3c 9458 d8bc
00000050: a236 89bd cef1 47bc cb46 2cbd 04f4 33bd
00000060: f5f7 a5ba 05f4 613d 7120 043c 9934 0b3d
00000070: 4dbb 9dbc 4567 773b 2694 4d3d 93f0 193d
00000080: a651 f63c 1b1a 083d b697 423d a9d3 f33c
00000090: 50ec bb3c e054 df3b 5fb1 debc 32e3 dcbb
000000a0: 9b6e 41bd 7d49 2cbd 9eae 93bc 4647 c63c
000000b0: 9734 95bc f0ea 6dbd d0f8 c83b f755 4b3c
000000c0: 781d 9abc ad0d 76bc 864b a9bc 61b0 36bd
000000d0: f49f b53c 9a8c ecbb 31a7 13bd 0791 373d
000000e0: f4f2 ccbc 658d 4b3d 7ed1 a33c 7815 acbc
000000f0: c582 b5bc ac03 22bc 26c4 993c 2985 1d3c
00000100: 6a87 6f3c 761d c6bc 2840 0b3b 1ab5 ed3c
00000110: 1a56 8fba 9c15 033d ecac 3bbd a93f 91bc
00000120: e0f6 b83b f9a0 df3b e3e0 293c 6ae7 46bd
00000130: 5742 b5bb d4d7 09bd abd7 fabc 73da 8d3c
00000140: a40e fdbc ea8f 2fbd f03c 31bc 02ab 0fbc
00000150: 034f fabc 9a0a 8c3c fbf0 efba 7625 433c
00000160: 4707 d93b b898 2e3c 3008 48bd ae36 c1bc
00000170: 09c7 0ebd 2919 423c 1487 b3bb 8ef6 7abc
00000180: 11d8 93bc 31f4 2e3c bfa5 d7bc ed49 94bc
00000190: 97e1 b13c 6691 c2bc b48d 9abc 3c38 43bc
000001a0: 464d bebb 08c4 ddbc 31dd 27bd 6a25 bf3c
000001b0: b39d a93c 989a 223c 6d24 e23b 19c7 ac3c
000001c0: d589 36bd e55e e63c f5f0 3d3d f7ff ec3c
000001d0: 9d56 283d c241 a93c 4619 60bc 7386 96bc
000001e0: 8c31 bfbc c6bd 9e3b 85c3 bf3b f31b cebb
000001f0: 920c 3a3c d3f4 87bc ef7c 85bc 3f0e 193d
00000200: aae8 3a3c adbe 243c 1e92 743c e1f2 eebb
00000210: 2998 92bc 8204 d03c 571c 033d b618 d13c
00000220: 7557 44bc 339b c63c ce0e 06bc e716 073d
00000230: 6cc5 1ebd 1917 25bd 7033 14bd de88 8cbc
00000240: 5b85 2d3c 7fac 52bc becc c53c dc2f 2bbd
00000250: 4c93 533a f131 b2bc a39b 05bc a07a cabb
00000260: b0cd 213b 65b1 3abc 2e32 0bbc 360a 00bc
00000270: cd30 d1bb 31e0 f53b b3fb 60bc 41bc fabb
00000280: 64a1 41bc 2747 9dba 0ab1 46bb 5064 49bc
00000290: 363f 853b 8e39 7ebc bae6 93bc ef62 72ba
000002a0: e0f4 7ebc a986 80bb 1636 04bc 1e3b 0f3a
000002b0: dc4b f639 c014 c63b 14c9 173b 6977 7e3b
000002c0: 218b 983c f7b7 8b3c 6ecb c03b 7f8c 323c
000002d0: 0517 dd3c a039 1a3c 0f18 3e3d f4c5 17bd
000002e0: 2e32 f83c 503f 00bd 2916 bfbb 3398 cdbc
000002f0: 1596 ac3c f919 a63c 7b1d d1bc c918 f13c
00000300: d43b 203c f3b9 43bd 599d 333c 8b55 1c3d
00000310: e00b eebb 7173 543b d65c 78bc 0fef 70bd
00000320: 763c 1c3d 8ff4 b2b9 c7ea f93b 62c6 f33b
00000330: 0b27 193d 8ea7 053d 869f d23c 98b6 93bc
00000340: 0ada b63b 5ae2 c4bb e408 cdbb 5b46 bf3c
00000350: 9e7e b7bc 9b28 6cbb 25ad 0b3d 89c0 653d
00000360: 8285 243d 0548 a7bc 47d3 08bd cea2 edba
00000370: 98b6 8e3c 703b 0ebd b428 a7bc 739c ebbc
00000380: 8a95 c0bc 7c02 313a e4c2 9e3a 7ed6 a7bc
00000390: 4f8c cbbb 43a7 60bc 4463 cabc 4804 09bd
000003a0: 1187 253d 6ded 1ebc 7cce 0d3d a178 d23b
000003b0: 1d9f eaba 6247 3abd 0868 463c cef2 253d
000003c0: ddd1 323c cef2 fc3c bd04 13bc f5a2 b6bc
000003d0: 1702 81bc b6b9 0dbc f2f3 883c 33e3 2abd
000003e0: f4dc e73c b512 983c 4a81 ac3c 84f3 3e3b
000003f0: 8d18 a6bc 2068 1e3d 5c63 99bc 140f 653c

bias f4 [128]
0.0053809127 0.010877213 -0.009467871 0.019123286 -0.0011497025 -0.023338791 0.0118933 -0.0005595227
0.014714545 0.0058127367 -0.014166855 -0.030987447 -0.067928165 -0.02669827 -0.07028011 -0.073616095
-0.030172369 -0.0101136975 -0.016529532 -0.023452064 -0.061880704 -0.029890543 -0.009265724 -0.033143654
-0.00789911 0.0058675543 -0.03586476 -0.026903003 0.00080228527 -0.023135893 -0.14879051 -0.019963661
-0.027959436 -0.053032327 0.016415453 -0.021366233 -0.04432656 -0.009313973 0.027314842 -0.019056812
-0.04151821 -0.06212998 -0.03190041 -0.01651509 -0.042132314 0.013391641 -0.017735481 -0.0870419
-0.052132256 -0.060764827 0.0063838502 0.00475984 0.004123492 0.0042642113 0.010037803 0.015665334
-0.04459304 0.0056817587 -0.07137578 0.016482327 -0.009464233 0.012122406 7.577419e-05 0.0150874285
-0.064714774 -0.03478586 0.0039915107 0.00029082256 -0.021122493 0.0032805833 0.062707804 -0.045218755
-0.0024647736 -0.030372178 -0.014221279 -0.010584487 -0.022250835 -0.03715714 -0.042644013 0.015268182
-0.02271943 0.016703902 -0.033243787 0.028523613 -0.024192207 0.020641578 -0.006375366 -0.062230106
0.014441181 -0.027701925 0.05172246 -0.15142176 0.01104666 -0.014122323 0.05750535 0.006837391
-0.044208616 -0.004168095 -0.012850123 -0.02217081 -0.038043626 -0.012619574 0.0062484182 -0.014635771
-0.051822875 -0.043011114 -0.0035101809 0.025447872 -0.0041453443 -0.0021968721 -0.015341607 -0.006309756
-0.03542266 -0.02555495 -0.028979404 -0.041459847 0.016076315 0.027186532 -0.01418475 0.001481517
0.03703251 -0.022843527 -0.0073836884 -0.0037402236 -0.06691021 -0.021274028 -0.014804581 0.0047498853
00000000: 5e52 b03b 5736 323c 211f 1bbc 70a8 9c3c
00000010: 9db1 96ba fe30 bfbc 1edc 423c efac 12ba
00000020: 4615 713c c578 be3b 191c 68bc 63d9 fdbc
00000030: ec1d 8bbd 55b6 dabc 05ef 8fbd 09c4 96bd
00000040: 0b2c f7bc ecb3 25bc f168 87bc 8b1e c0bc
00000050: 9f76 7dbd 03dd f4bc 43cf 17bc a4c1 07bd
00000060: 456b 01bc 9d44 c03b ede6 12bd b063 dcbc
00000070: 7450 523a 7c87 bdbc 8a5c 18be d58a a3bc
00000080: 300b e5bc 6d38 59bd b379 863c 3d08 afbc
00000090: c48f 35bd a299 18bc 60c3 df3c 081d 9cbc
000000a0: 000f 2abd 027c 7ebd 01aa 02bd a74a 87bc
000000b0: ef92 2cbd 9d68 5b3c 004a 91bc 0643 b2bd
000000c0: a288 55bd 8ae4 78bd 9e2f d13b 6ff8 9b3b
000000d0: 5c1e 873b ccba 8b3b 9975 243c 9654 803c
000000e0: 31a7 36bd 0c2e ba3b 772d 92bd f205 873c
000000f0: df0f 1bbc 0e9d 463c f5e8 9e38 4331 773c
00000100: 2e89 84bd 9e7b 0ebd 38cb 823b 8b79 9839
00000110: 1409 adbc 0eff 563b f36c 803d 4d37 39bd
00000120: 0a88 21bb 13cf f8bc 5e00 69bc 8e6a 2dbc
00000130: 6247 b6bc 1632 18bd 7dab 2ebd 6627 7a3c
00000140: 191e babc 9fd6 883c a32a 08bd 5aaa e93c
00000150: bc2e c6bc 8718 a93c 72e8 d0bb ffe4 7ebd
00000160: b49a 6c3c 26ef e2bc eeda 533d 4e0e 1bbe
00000170: 0dfd 343c 5161 67bc bb8a 6b3d 310c e03b
00000180: 1814 35bd 8494 88bb 5389 52bc 8f9f b5bc
00000190: a2d3 1bbd 54c2 4ebc 88bf cc3b dfca 6fbc
000001a0: 3944 54bd 6c2c 30bd 100b 66bb 0e78 d03c
000001b0: abd5 87bb 66f9 0fbb 5d5b 7bbc 12c2 cebb
000001c0: 5a17 11bd 9d58 d1bc 3766 edbc cdd1 29bd
000001d0: 7ab2 833c 4ab6 de3c 2767 68bc 762f c23a
000001e0: 67af 173d 5922 bbbc def2 f1bb 8a1e 75bb
000001f0: 3808 89bd df46 aebc ea8e 72bc eda4 9b3b

weight f4 [128]
0.7797765 0.15773098 0.8494655 0.5358464 0.42509714 0.36522144 0.4367636 0.57279813
0.16063395 0.22893825 0.283474 0.13234618 0.055443607 0.17510365 0.25382948 0.78193706
0.89814657 0.074059516 0.60057616 0.3118346 0.39136773 0.16272837 0.33546704 0.08205506
0.21881232 0.17315468 0.1786457 0.39342117 0.007392744 0.22490728 0.20788543 0.14658573
0.031922568 0.6231801 0.7233222 0.5487116 0.96715814 0.32575303 0.24461234 0.76229244
0.23961091 0.6836584 0.095130466 0.084253035 0.67512083 0.2817727 0.64877063 0.95338416
0.8413903 0.30106568 0.49951547 0.6984887 0.5270082 0.26950696 0.51938516 0.37991744
0.45961034 0.11543548 0.32190016 0.97196174 0.8992512 0.62023354 0.9774708 0.22334729
0.8131983 0.20277093 0.5197935 0.74185914 0.6630236 0.85833 0.7966465 0.61999255
0.22432993 0.1162362 0.39119688 0.42623824 0.857751 0.95354146 0.061601162 0.0704509
0.7689997 0.8112889 0.1571232 0.31724703 0.83700615 0.65232086 0.2553524 0.82030195
0.46186936 0.94258213 0.82455033 0.8308633 0.51117945 0.93675846 0.8647553 0.8532518
0.68955564 0.36542585 0.112944186 0.09853011 0.8468685 0.6398192 0.9693082 0.6552415
0.9488178 0.85346156 0.63114005 0.7968721 0.0012080334 0.35854435 0.097726986 -0.00015900082
0.21949838 0.3189988 0.19327964 0.103842534 0.32241264 0.7154932 0.3633828 0.89943045
0.5345881 0.63740736 0.80679333 0.4917909 0.26097044 0.779787 0.68352187 0.8132602
00000000: 6f9f 473f 3b84 213e 9276 593f 3b2d 093f
00000010: 55a6 d93e 4efe ba3e 7b9f df3e e6a2 123f
00000020: 3a7d 243e ca6e 6a3e 8123 913e c285 073e
00000030: d618 633d 5f4e 333e f0f5 813e 072d 483f
00000040: efec 653f 84ac 973d 5cbf 193f c9a8 9f3e
00000050: 5a61 c83e 44a2 263e 56c2 ab3e 7c0c a83d
00000060: 5610 603e 764f 313e e6ee 363e 806e c93e
00000070: d53e f23b 184e 663e ebdf 543e 921a 163e
00000080: 3dc1 023d bb88 1f3f a52b 393f 5d78 0c3f
00000090: ad97 773f 1ac9 a63e a87b 7a3e 9925 433f
000000a0: 905c 753e 3d04 2f3f c3d3 c23d db8c ac3d
000000b0: b8d4 2c3f 8344 903e d515 263f fc10 743f
000000c0: 5b65 573f 4825 9a3e 7ec0 ff3e 28d0 323f
000000d0: 02ea 063f d1fc 893e 6df6 043f 8a84 c23e
000000e0: 0c52 eb3e 7069 ec3d 19d0 a43e 7cd2 783f
000000f0: 5435 663f a0c7 1e3f 873b 7a3f 27b5 643e
00000100: c42d 503f 2fa3 4f3e 3011 053f 7bea 3d3f
00000110: eabb 293f 84bb 5b3f 06f1 4b3f d5b7 1e3f
00000120: bfb6 653e 3f0d ee3d f54a c83e e63b da3e
00000130: 9295 5b3f 4b1b 743f 8051 7c3d 9048 903d
00000140: 2add 443f a1b0 4f3f e7e4 203e 346e a23e
00000150: 0946 563f 80fe 263f 8dbd 823e 4fff 513f
00000160: 247a ec3e 104d 713f bb15 533f 75b3 543f
00000170: a8dc 023f 67cf 6f3f 9a60 5d3f b66e 5a3f
00000180: b886 303f 1919 bb3e 484f e73d 28ca c93d
00000190: 60cc 583f 31cb 233f 9524 783f e8bd 273f
000001a0: b9e5 723f 757c 5a3f 6592 213f cfff 4b3f
000001b0: e056 9e3a 2093 b73e 1625 c83d 75b9 26b9
000001c0: 2fc4 603e d053 a33e 19eb 453e 65ab d43d
000001d0: 4513 a53e 902a 373f 4f0d ba3e 1341 663f
000001e0: c4da 083f 212d 233f 028a 4e3f 04cc fb3e
000001f0: eb9d 853e 1fa0 473f 4afb 2e3f d231 503f

bias f4 [128]
0.113249436 0.102365755 -0.09317932 0.12326203 -0.09679762 -0.09842785 -0.09857033 0.09664042
0.105564 -0.09714739 0.04990796 -0.11115884 -0.10915076 0.10550947 -0.15644723 -0.09768623
0.09958258 0.12587565 -0.09749804 0.11786648 -0.09852494 -0.097671375 0.11172757 -0.10062488
-0.044298887 0.10942324 0.10712101 0.10970279 0.18856399 -0.096444 -0.12260653 -0.09716546
-0.15844148 0.13178365 0.09758456 -0.095428586 0.12369056 -0.10171748 0.101113126 -0.09257189
0.1367025 -0.096705176 0.10789684 0.10640603 -0.10380397 0.10109504 -0.099500805 -0.10176102
-0.09604298 -0.09674514 -0.09236952 -0.09633629 -0.09634924 0.100995086 0.09916342 0.11161739
-0.09746396 0.11784416 -0.09692943 0.09822991 -0.09504571 0.10100468 0.09760948 0.10115679
-0.09997491 0.110316165 0.10174627 0.10131243 0.09936574 0.13562448 -0.09616586 -0.091166966
-0.032975074 0.11069186 0.10573656 0.100210674 -0.08825969 -0.094252184 0.11102187 0.10518761
-0.09144021 -0.09520335 0.113357164 0.097226195 -0.095310815 0.096884325 0.105017126 0.111310475
0.10082117 -0.09069087 -0.09499379 -0.10264131 0.11152154 -0.09090335 -0.096535325 0.10058494
-0.09373308 -0.09906078 0.19497599 0.11092958 -0.09705705 0.09917947 0.09582318 0.09927959
-0.12337444 0.09895209 0.1003717 0.097070456 -0.19840766 -0.054146424 -0.10087267 -0.11939783
-0.1130633 -0.09943392 0.10128897 0.11050988 0.10212782 -0.09504967 -0.092140295 -0.091398485
0.09809763 -0.09373173 0.09965486 0.12635268 -0.10095909 -0.09424271 -0.09446096 0.098547585
00000000: 52ef e73d 23a5 d13d cdd4 bebd ce70 fc3d
00000010: d53d c6bd 8a94 c9bd 3edf c9bd 6aeb c53d
00000020: f031 d83d 36f5 c6bd 4a6c 4c3d 3fa7 e3bd
00000030: 6f8a dfbd 5915 d83d b433 20be b80f c8bd
00000040: f4f1 cb3d 8ce5 003e 0dad c7bd fb63 f13d
00000050: 72c7 c9bd ee07 c8bd 6dd1 e43d 6b14 cebd
00000060: c072 35bd 4b19 e03d 4362 db3d dbab e03d
00000070: eb16 413e 6f84 c5bd 2219 fbbd affe c6bd
00000080: 7c3e 22be 4bf2 063e 6ada c73d 1070 c3bd
00000090: 7a51 fd3d 4151 d0bd 6614 cf3d 5596 bdbd
000000a0: bdfb 0b3e 5d0d c6bd 05f9 dc3d 68eb d93d
000000b0: 2d97 d4bd eb0a cf3d 14c7 cbbd 1568 d0bd
000000c0: 2fb2 c4bd 5122 c6bd 3b2c bdbd f64b c5bd
000000d0: c052 c5bd 83d6 ce3d 3116 cb3d a897 e43d
000000e0: 2f9b c7bd 4758 f13d f082 c6bd c32c c93d
000000f0: 53a7 c2bd 8bdb ce3d 7be7 c73d 4b2b cf3d
00000100: a5bf ccbd 71ed e13d 5960 d03d e47c cf3d
00000110: 4480 cb3d 25e1 0a3e 9bf2 c4bd bfb5 babd
00000120: df10 07bd 6ab2 e23d 698c d83d 413b cd3d
00000130: 7fc1 b4bd 4a07 c1bd 6f5f e33d 9a6c d73d
00000140: 0145 bbbd f9f9 c2bd cd27 e83d 871e c73d
00000150: 5132 c3bd 4a6b c63d 3813 d73d bff6 e33d
00000160: 547b ce3d 23bc b9bd 1b8c c2bd 9b35 d2bd
00000170: 6865 e43d 892b babd 50b4 c5bd 7aff cd3d
00000180: 21f7 bfbd 61e0 cabd c9a7 473e 0c2f e33d
00000190: d9c5 c6bd 9b1e cb3d f23e c43d 1953 cb3d
000001a0: bdab fcbd 65a7 ca3d ae8f cd3d e0cc c63d
000001b0: 612b 4bbe a4c8 5dbd 5596 cebd d986 f4bd
000001c0: bb8d e7bd 03a4 cbbd 9770 cf3d 0153 e23d
000001d0: 6428 d13d 67a9 c2bd 0db4 bcbd 212f bbbd
000001e0: 69e7 c83d 6cf6 bfbd d917 cc3d 9962 013e
000001f0: a4c3 cebd 5202 c1bd bf74 c1bd 51d3 c93d

running_mean f4 [128]
0.7865578 0.2757026 0.30982146 0.82211566 0.22613138 0.11557536 0.116374165 0.2722243
0.43837434 0.32946947 0.268915 0.20009813 0.115792595 0.2398249 0.20205298 0.044374462
0.20519634 0.30393133 0.24610102 0.32994053 0.07868142 0.19251792 0.42282382 0.29943612
0.19374388 0.46532863 0.1028631 0.250566 0.3385161 0.059012037 -0.009819511 0.43396196
0.3040535 0.41544038 0.48325607 0.31277418 0.1577742 0.33618623 0.68051124 0.20571984
0.30623153 0.037921578 0.15833877 0.4284839 0.24696912 0.6138258 0.36786035 0.016746951
0.084281445 0.07125557 0.33828828 0.39318278 0.6094912 0.66592366 0.8536481 0.6407766
0.049625386 0.69903487 0.022803588 0.5735214 0.2551878 0.6824434 0.46968174 0.76791555
0.078568645 0.35255215 0.34857038 0.5587251 0.28644636 0.6267642 0.9466134 0.074977934
0.20336178 0.21721713 0.62332356 0.48081836 0.20722495 0.21719493 0.2746341 0.83933556
0.4314195 0.15808728 0.19538338 0.8703791 0.14766689 0.40557885 0.70780075 0.11921298
0.66779125 0.16132492 0.55250543 -0.0015425583 0.6117172 0.31499252 1.2816422 0.66352254
0.24430992 0.18278323 0.39790028 0.21584722 0.27630025 0.18233047 0.741442 0.16982907
0.13435519 0.120567955 0.19698009 0.7517923 0.14374585 0.26612377 0.59970766 0.13400945
0.21246395 0.33946794 0.15486628 0.23041579 0.70050967 0.23965044 0.16023846 0.42901337
1.1087713 0.26721033 0.32068276 0.3916711 0.021174496 0.22044727 0.49261153 0.73006034
00000000: da5b 493f e428 8d3e eba0 9e3e 2c76 523f
00000010: fc8e 673e c6b2 ec3d 9455 ee3d fc60 8b3e
00000020: 9a72 e03e 39b0 a83e 3aaf 893e 86e6 4c3e
00000030: ab24 ed3d a994 753e fae6 4e3e ffc1 353d
00000040: fd1e 523e e39c 9b3e e801 7c3e f7ed a83e
00000050: b923 a13d 6b23 453e 5d7c d83e b14f 993e
00000060: cc64 463e 8e3f ee3e e4a9 d23d 304a 803e
00000070: fb51 ad3e 9bb6 713d 04e2 20bc 4330 de3e
00000080: e6ac 9b3e 9ab4 d43e 576d f73e f023 a03e
00000090: 8f8f 213e 9a20 ac3e fc35 2e3f 39a8 523e
000000a0: 61ca 9c3e a853 1b3d 8f23 223e 3e62 db3e
000000b0: 79e5 7c3e b023 1d3f 3158 bc3e e730 893c
000000c0: c09b ac3d 71ee 913d 1f34 ad3e 414f c93e
000000d0: 9e07 1c3f f979 2a3f af88 5a3f ef09 243f
000000e0: fd43 4b3d f3f3 323f 97ce ba3c 4cd2 123f
000000f0: faa7 823e 9cb4 2e3f 207a f03e 1d96 443f
00000100: 99e8 a03d b781 b43e d177 b23e 9c08 0f3f
00000110: 19a9 923e 9e73 203f 4155 723f 088e 993d
00000120: 123e 503e 2b6e 5e3e 2292 1f3f d32d f63e
00000130: c732 543e 5968 5e3e d79c 8c3e b2de 563f
00000140: 04e3 dc3e a2e1 213e 9512 483e 2ad1 5e3f
00000150: fd35 173e 08a8 cf3e 6e32 353f ef25 f43d
00000160: 5ef4 2a3f 5c32 253e ff70 0d3f ab2f caba
00000170: 8099 1c3f b346 a13e da0c a43f 9ddc 293f
00000180: 612c 7a3e 872b 3b3e 96b9 cb3e 0e07 5d3e
00000190: 3a77 8d3e d7b4 3a3e 25cf 3d3f ace7 2d3e
000001a0: 6894 093e 55ec f63d 26b5 493e 7675 403f
000001b0: 1d32 133e 6041 883e 7186 193f c639 093e
000001c0: 2690 593e bece ad3e 4495 1e3e 1ef2 6b3e
000001d0: 9a54 333f ed66 753e 8d15 243e a4a7 db3e
000001e0: 38ec 8d3f cbcf 883e 8830 a43e 1d89 c83e
000001f0: 2376 ad3c eebc 613e 9437 fc3e 3ce5 3a3f

running_var f4 [128]
2.4930086 0.42202517 0.6661309 1.9942478 0.33939648 0.22952802 0.1430467 0.25354505
0.77370983 0.48022696 0.119764924 0.35650295 0.12186828 0.39582303 0.34758464 0.09834085
0.420839 0.43222022 0.4837148 0.5630386 0.11679984 0.20820194 0.3740746 0.63007027
0.113649935 0.81598 0.16307858 0.43024006 0.44999513 0.094665386 0.019341595 1.0907142
0.5245874 0.8425172 0.9342661 0.5529011 0.27877918 0.50856537 1.5376862 0.41104734
0.6092577 0.091228805 0.21900472 0.38432032 0.2150645 1.2901497 0.5326867 0.038342997
0.15760735 0.1575469 0.56457204 0.5472815 1.105135 1.810737 2.146389 1.5596998
0.09987662 1.8991187 0.051630586 1.3952852 0.524271 1.8594011 0.84482706 2.0488977
0.1090031 0.6046591 0.6059978 1.1240047 0.48637682 1.6608545 0.7778628 0.12493423
0.18625653 0.31749812 1.5524652 0.80964315 0.14565662 0.43221474 0.49920318 2.5976424
1.3044586 0.15198325 0.32108834 2.0218713 0.25277507 0.6691743 0.76892984 0.20635308
1.4048039 0.32212797 0.72797036 0.02422205 1.3422388 0.73824763 1.222247 1.8439752
0.5970603 0.16880658 0.697277 0.35443115 0.6563876 0.29445335 1.0131767 0.27643088
0.23015207 0.2577061 0.23097289 1.3058424 0.07794109 0.32639408 1.8694462 0.064848945
0.27881622 0.5295921 0.21526031 0.3146713 1.6971818 0.27976364 0.2754729 1.252663
2.9494972 0.5889747 0.6432933 0.62501943 0.040270265 0.41575003 1.3030986 1.8334705
00000000: 748d 1f40 af13 d83e 8e87 2a3f 8343 ff3f
00000010: 60c5 ad3e 6509 6b3e d67a 123e a8d0 813e
00000020: d911 463f 4fe0 f53e 5047 f53d 8e87 b63e
00000030: 1496 f93d 51a9 ca3e 9df6 b13e ed66 c93d
00000040: 3678 d73e f84b dd3e 77a9 f73e 4c23 103f
00000050: c134 ef3d e432 553e b586 bf3e 494c 213f
00000060: 4cc1 e83d 11e4 503f 12fe 263e 6d48 dc3e
00000070: c365 e63e eddf c13d 4472 9e3c 869c 8b3f
00000080: 5c4b 063f 35af 573f 102c 6f3f ed8a 0d3f
00000090: 25bc 8e3e 5731 023f e7d2 c43f cc74 d23e
000000a0: 50f8 1b3f 2bd6 ba3d c642 603e a2c5 c43e
000000b0: de39 5c3e a023 a53f 285e 083f 8c0d 1d3d
000000c0: d263 213e f953 213e cb87 103f a41a 0c3f
000000d0: 1075 8d3f 3bc6 e73f 705e 0940 3ea4 c73f
000000e0: 1d8c cc3d 5216 f33f 987a 533d b598 b23f
000000f0: a036 063f db00 ee3f 9646 583f 2421 0340
00000100: 043d df3d f0ca 1a3f ac22 1b3f 63df 8f3f
00000110: 6206 f93e e196 d43f 0422 473f 85dd ff3d
00000120: 08ba 3e3e 1d8f a23e 2eb7 c63f c644 4f3f
00000130: 0227 153e 404b dd3e 8f97 ff3e c63f 2640
00000140: 80f8 a63f 7fa1 1b3e b165 a43e 5766 0140
00000150: bc6b 813e 024f 2b3f 96d8 443f 394e 533e
00000160: 9dd0 b33f f5ed a43e 445c 3a3f 526d c63c
00000170: 7bce ab3f ccfd 3c3f 9772 9c3f 6107 ec3f
00000180: f2d8 183f a2db 2c3e bf80 323f 0078 b53e
00000190: 0509 283f 97c2 963e c6af 813f 5988 8d3e
000001a0: fcac 6b3e 0ef2 833e 2884 6c3e d825 a73f
000001b0: 949f 9f3d 201d a73e 034a ef3f 86cf 843d
000001c0: 00c1 8e3e 5993 073f 336d 5c3e 991c a13e
000001d0: 413d d93f 2e3d 8f3e c90a 8d3e 4357 a03f
000001e0: 90c4 3c40 0cc7 163f dfae 243f 4601 203f
000001f0: 6ff2 243d 30dd d43e efcb a63f 29af ea3f

weight f4 [1, 128, 1, 1]
-0.05653541 -0.27599669 0.19718654 -0.045961507 0.28316522 0.3012776 0.3369874 -0.1538909
-0.31589785 0.06122457 -0.00946229 0.17146216 0.475611 -0.30162367 0.053593595 0.11110167
-0.35005644 -0.16658896 0.22069684 -0.06899701 0.21562207 0.32991743 -0.11543916 0.2950366
0.0031983953 -0.16340466 -0.23594546 -0.15052909 -0.17633776 0.23047881 0.13107477 0.23832998
0.16318834 -0.047437195 -0.30525857 0.041566968 -0.08089815 0.074735545 -0.3043704 0.23383136
-0.10022298 0.24664655 -0.35020027 -0.40327752 0.042778175 -0.2513216 0.084958725 0.048163485
0.10082972 0.21962872 0.14387581 0.32308576 0.31808555 -0.26969662 -0.29345575 -0.067776896
0.26326224 -0.15661082 0.21959855 -0.26274443 0.30306688 -0.15742277 -0.282891 -0.35636428
0.1399313 -0.1641999 -0.16737746 -0.06067515 -0.2399392 -0.02733309 0.2485241 0.044426024
0.001443845 -0.21591957 -0.023146436 -0.2590632 0.10306412 0.21853381 -0.46610582 -0.36196807
0.14791517 0.22801103 -0.20850125 -0.299987 0.13081814 -0.33775967 -0.23410617 -0.119926475
-0.1859768 0.10883513 0.26940498 0.07957083 -0.06862572 0.15615794 0.31786373 -0.11262098
0.22099082 0.21013771 -0.09785592 -0.31735134 0.061928082 -0.30605796 -0.2864369 -0.27314255
0.07911205 -0.25211054 -0.30085233 -0.2647573 0.20300198 0.007386609 0.14819111 0.33932856
0.07115835 0.035172872 -0.33177438 -0.40886122 -0.1835728 0.22730534 0.111638725 0.14357069
-0.30390602 0.2315272 -0.083796784 -0.06798956 0.2163379 0.21687417 0.29165477 -0.21210514
00000000: ad91 67bd 704f 8dbe 45eb 493e 2242 3cbd
00000010: 08fb 903e 0f41 9a3e 9d89 ac3e 9395 1dbe
00000020: 5dbd a1be 9dc6 7a3d b907 1bbc c793 2f3e
00000030: 4983 f33e 6b6e 9abe f584 5b3d 4689 e33d
00000040: 993a b3be 4c96 2abe 5afe 613e 4e4e 8dbd
00000050: 08cc 5c3e f0ea a83e 5e6b ecbd 0a0f 973e
00000060: 2b9c 513b 8d53 27be b09b 71be 4c24 1abe
00000070: e391 34be a302 6c3e 7738 063e c60c 743e
00000080: d81a 273e 814d 42bd da4a 9cbe 2042 2a3d
00000090: eead a5bd f30e 993d 70d6 9bbe 7d71 6f3e
000000a0: b541 cdbd ea90 7c3e 734d b3be 647a cebe
000000b0: 2b38 2f3d 3aad 80be d7fe ad3d 1347 453d
000000c0: d07f ce3d 5ae6 603e 2e54 133e 7f6b a53e
000000d0: 1cdc a23e ad15 8abe d53f 96be 9dce 8abd
000000e0: 4fca 863e 965e 20be 71de 603e 7086 86be
000000f0: 952b 9b3e 6f33 21be 17d7 90be 6175 b6be
00000100: 274a 0f3e 0524 28be ff64 2bbe 8286 78bd
00000110: 9fb2 75be a5e9 dfbc 1a7d 7e3e 10f8 353d
00000120: 663f bd3a 051a 5dbe 989d bdbc efa3 84be
00000130: 4813 d33d 54c7 5f3e 6ca5 eebe e153 b9be
00000140: 1377 173e b97b 693e 5a81 55be e597 99be
00000150: 31f5 053e d6ee acbe 87b9 6fbe 039c f5bd
00000160: b470 3ebe f4e4 de3d 73ef 893e 08f6 a23d
00000170: a48b 8cbd dee7 1f3e 09bf a23e d4a5 e6bd
00000180: 6b4b 623e 572e 573e af68 c8bd e07b a2be
00000190: 4da8 7d3d a1b3 9cbe dba7 92be 57d9 8bbe
000001a0: 8005 a23d a214 81be 5109 9abe 458e 87be
000001b0: c0df 4f3e 5e0b f23b 69bf 173e 79bc ad3e
000001c0: 78bb 913d 6e11 103d 55de a9be 4256 d1be
000001d0: 82fa 3bbe bbc2 683e d8a2 e43d 3204 133e
000001e0: 9299 9bbe 7715 6d3e a69d abbd 1c3e 8bbd
000001f0: af87 5d3e 4314 5e3e c653 953e 1732 59be
