ball_data/model_2000.pth (torch_old, 853498 bytes, 13 tensors)

weight f4 [64, 1, 5, 5]
00000000: c47d 6bbd 9bdb 2a3d 199f 2d3d ff99 883c
00000010: 6874 503d fa36 aabd 64a6 8dbd 08c8 bb3d
00000020: 181b 213d 1f19 2d3d e532 ccbd b40d 213b
00000030: 342c a6bd cdcc 2f3d 27b6 8e3d 8aa7 10be
00000040: 0e2b fdbd 1634 3f3d 0772 89bd edcf 6b3d
00000050: a4ab 153d 9bc1 87bd b70a b7ba 0e28 f9bc
00000060: 3135 77bc a4aa 013e fab7 cdbd 1811 063d
00000070: d813 06bd b6be 5e3c 7a40 ac3d b605 4e3d
00000080: 3be3 9ebd 3e69 a4bd 14df 623d 9f66 ad3d
00000090: eb2f d73c b460 a8bd fc34 0fbd e438 3bbd
000000a0: dc50 45bd 3366 2f3d d843 353b ce21 c5bc
000000b0: cbf9 5d3d 522d 0e3d dfa3 a63d 5aa3 0fbc
000000c0: f899 84bd b033 603c 406d d63d 69b8 bf3c
000000d0: 512d c13a aae6 9bbd 5fcb c23b 9b82 51bc
000000e0: 7f65 fa3d e7a6 d93d 7ba9 b5bd 7700 9ebd
000000f0: d42f 673d 9d3b ae3d 6453 153d cb3b 9cbd
00000100: f583 edbb 7605 343d 08cc 4bbd b72c 99bd
00000110: 568e 7e3d ef2b abbd 97d8 4c3d e8c0 cb3c
00000120: e95e ee3d a6f4 5fbd c657 493d 6e6d 6ebd
00000130: 4962 92bd 6859 203b 313a 55bb 29a6 f7bd
00000140: e388 7f3d 2d5b b8bc dfc0 8abc 97e3 b7bd
00000150: eb3b 0fbe 31c7 4bbd 154e 7c3c f9eb 84bd
00000160: 37b3 3ebd 22b1 073c f774 b23c b628 1bbd
00000170: a1f4 8abd c47e 91bc fe47 69bd 597c 863d
00000180: ea59 6dbd c999 a23d b7e6 293d b67d 06bd
00000190: cd97 04bd 0abe a13c ce7a c83b 8563 703d
000001a0: c393 653d 4916 f0bc df06 113c f952 093d
000001b0: 60eb dfbd 400c 42bd e288 80bd 09a5 263e
000001c0: 3259 a0bc 118e 9dbd fba9 953d cd9d 4f3d
000001d0: c457 d73d 39f6 a2bd 7b04 00be e210 5abd
000001e0: cad3 28bd c905 f8bc 84e4 9abd b3d5 5bbc
000001f0: 0e9a db3d 63e9 7f3d 2137 7c3b 098b bfbd
00000200: b576 8f3c a7b9 a3bb e2f9 f03c 2b68 43bb
00000210: 294d 9cbd e147 6f3d b972 573d b8fb 05bd
00000220: e1e5 24bc b052 e23d c59b 023e 1c90 643c
00000230: c976 57bd 91f7 10be f14a edbd 651a 47bd
00000240: 421a f9bc 17cb 493d dc0c a2bd e927 883d
00000250: 685d e23d d1b7 5abd a306 85bd 000b b83c
00000260: ea15 a6bb 77f5 64bd 45af 6b3c 420a 323c
00000270: 7dc3 6f3d 1551 e5bb b277 b23d e1eb b53d
00000280: b2ee ce3c 455c 51bd a3bc 9ebc fada d73d
00000290: 2760 903c 8339 6bbd 4c04 a5bb 528e 463b
000002a0: 0e1c 5a3d f54d 983d cebd c3bd 78ff 19be
000002b0: cd5e b3bd 8c11 64bd c881 213d 0d63 76bd
000002c0: a10a 8e3d 5784 bcbd 5d2c 75bd a1a9 a9bd
000002d0: 4397 9dbd 0891 3dbd 411f c43c 0167 d5bc
000002e0: 27a7 7a3d 4874 ae3d 0bb2 c03d eed6 7c3c
000002f0: 7e64 d23d 3f08 e5bb fb92 2f3c 084b 563d
00000300: e51e 333d f394 40bb 4bdc f53c b34f bbbd
00000310: a627 b9bb 2950 8abd f64c f93c e311 643d
00000320: d1f4 803d 20ee 923d 8d0a c23d bb37 bb3c
00000330: 8222 d23d d8b1 c73c 33d8 80bd cbdc 49bd
00000340: c192 69bd a768 763d de06 8bbd e789 91bb
00000350: 27cb 55bd 1b1c cabd 15b6 1abd c5d3 f0bd
00000360: e9aa aabd 364b 3abd 574b df3c d330 a43a
00000370: 011a 023d 6664 cb3d 0299 9f3c 97f1 2c3d
00000380: 779f 8b3d 5325 c13d e18d a4bc 3590 f03d
00000390: 5165 143e 47c6 1d3d e35c 213d ad42 12be
000003a0: 10a2 b8bd e7c7 e3bc 0d33 86bd ed3b fcbc
000003b0: c82b d6bd a462 5f3b 5198 e83c 0108 0e3d
000003c0: c8f2 af3d b1f8 d1bd dbb5 9bbd de32 7a3d
000003d0: b4ef 043d 2815 5a3d b58e 30bd c265 f13c
000003e0: 6ba2 d7bc f7ba a5bc cf57 a2bd e8db 1dbd
000003f0: 7e12 db3c b6a5 5aba a61b 53bd 85a7 1e3d
-0.057492986 0.04171334 0.042388055 0.016674994 0.050892264 -0.08311267 -0.06916502 0.09169012
0.03933248 0.042260285 -0.09970645 0.0024574818 -0.081139 0.042919923 0.069683366 -0.14126411
-0.12361728 0.046680532 -0.06711202 0.05757134 0.036540642 -0.06628724 -0.0013964985 -0.030414607
-0.015088365 0.1266275 -0.10044856 0.032731146 -0.03273377 0.013595274 0.084107354 0.050298415
-0.077581845 -0.08027886 0.055388525 0.08466839 0.026267966 -0.0822157 -0.03496264 -0.045708552
-0.048172817 0.042822074 0.0027658846 -0.02406397 0.0541933 0.03471119 0.08136725 -0.008766973
-0.0647468 0.013684198 0.104700565 0.023403363 0.0014738237 -0.07612355 0.005944654 -0.012787486
0.1222639 0.10627537 -0.088702165 -0.077149324 0.056442097 0.08507464 0.03645648 -0.07628592
-0.0072483965 0.04395052 -0.049755126 -0.07479232 0.06214746 -0.08357989 0.050011244 0.024872258
0.116391964 -0.054676674 0.049155973 -0.05820983 -0.07147653 0.0024467353 -0.0032535905 -0.120922394
0.062386405 -0.022504414 -0.016937671 -0.08978956 -0.139877 -0.04975051 0.015399476 -0.06490321
-0.04655763 0.008281978 0.021784289 -0.03788062 -0.067849405 -0.017760642 -0.056953423 0.06566686
-0.057947077 0.079394884 0.041479792 -0.03283473 -0.03237133 0.019743938 0.006118155 0.05868866
0.05604912 -0.029307501 0.008851736 0.033526395 -0.10933566 -0.047374964 -0.06276108 0.16273893
-0.019573782 -0.07693113 0.07307812 0.0506876 0.10514787 -0.079571195 -0.12501709 -0.053238757
-0.041217603 -0.030276196 -0.07563117 -0.013417649 0.10722743 0.062478434 0.0038485008 -0.09352691
0.017512659 -0.0049964967 0.029416028 -0.0029816728 -0.07631905 0.05841816 0.052599642 -0.03271076
-0.010064573 0.11050928 0.12754734 0.013950374 -0.052603517 -0.14156939 -0.115865596 -0.048609156
-0.030408029 0.049265947 -0.07912609 0.06648237 0.11052972 -0.053397957 -0.064954065 0.022466183
-0.0050685303 -0.055898156 0.014385049 0.010866703 0.05853604 -0.006998191 0.08714236 0.08882881
0.025260303 -0.051113386 -0.019377058 0.10539813 0.017623974 -0.057427894 -0.0050359126 0.0030297232
0.05324941 0.07436744 -0.09557687 -0.1503886 -0.08758316 -0.055680797 0.03943041 -0.060153056
0.06935621 -0.09204929 -0.05985676 -0.08284307 -0.076948665 -0.04628089 0.023940684 -0.026050093
0.061194565 0.08518273 0.09408959 0.015432103 0.102730736 -0.0069895084 0.010716195 0.05231765
0.043730635 -0.0029385656 0.03001227 -0.09146061 -0.0056504784 -0.067535706 0.030432206 0.05568112
0.06296695 0.07174325 0.09474669 0.022853723 0.10260488 0.024376795 -0.06291237 -0.04928283
-0.05702472 0.060158398 -0.06788419 -0.004441488 -0.052195694 -0.09868642 -0.037771303 -0.11759142
-0.0833338 -0.045481883 0.027257605 0.0012526758 0.03176308 0.09931259 0.01948214 0.042222586
0.06817525 0.09430947 -0.020087184 0.11746255 0.14491774 0.03851917 0.039395224 -0.14283247
-0.09015286 -0.027805282 -0.06552706 -0.030790294 -0.10457569 0.0034085894 0.028392943 0.034675602
0.08591229 -0.10252512 -0.076030456 0.061083667 0.03245516 0.053242832 -0.043104846 0.029467467
-0.026322564 -0.020230753 -0.079269044 -0.038539797 0.026742216 -0.0008340733 -0.05154004 0.038733978

bias f4 [64]
00000000: c9e1 d7bd c8fd 66bc e3df 91bd e21f e6bd
00000010: 8f6f 7fbd 86fe 12bd 5dcc 93bd 8f0c 463d
00000020: 11d9 72bd a08d e7bc b07f 63bd 53e3 8cbd
00000030: 3b2d f7bd 4ace 93bd bed4 b3bd 07dc 62bd
00000040: 8ec5 dcbd 187d 4ebd f9f1 cebd 706e a0bd
00000050: aa61 02bc f986 c6bc 1385 00be bf5a 003b
00000060: fa77 a7bd c05e 893c 5d29 24bd c33d 2abe
00000070: 5387 b8bc ecfd f6bd a7d3 bdbc 0688 423d
00000080: 5f3d 3c3d 08d9 abbd 1a13 adbd a54b c3ba
00000090: 4626 02be 0900 87bd 2a04 07be ab0c b3bc
000000a0: 5e37 863c d88a 4abd ed11 7c3c 66ce aabd
000000b0: a05b 17bd dc00 dfbc d69a 2dbe be11 32bd
000000c0: 1535 bfbd 4b9a c2bd ce48 0a3d 5775 2abc
000000d0: 58cd 27be 99fa e13c c35b cebd bf87 3dbd
000000e0: 6717 46bd ca73 55bd e687 2cbb 570d 73bd
000000f0: 501f 05be e3d6 193b 2f3c b3bd 621c 2bbd
-0.10541112 -0.014098592 -0.07122781 -0.1123655 -0.06236225 -0.035887264 -0.072167136 0.04835182
-0.059289042 -0.028265774 -0.055541694 -0.06879296 -0.12069174 -0.07217081 -0.08780812 -0.055385616
-0.10779868 -0.050412267 -0.10104746 -0.07833564 -0.007957855 -0.024234282 -0.12550764 0.001958534
-0.081771806 0.016768813 -0.04007851 -0.16625123 -0.022525465 -0.120601505 -0.023172213 0.047493003
0.045956966 -0.08391005 -0.08450909 -0.0014899863 -0.12709913 -0.065918036 -0.13185182 -0.021856626
0.016383823 -0.049448818 0.015385133 -0.08340149 -0.036952615 -0.02722209 -0.16953596 -0.04347395
-0.093362965 -0.09502085 0.03376084 -0.010403953 -0.16386926 0.027585315 -0.10076096 -0.046272036
-0.048362162 -0.05211238 -0.002632612 -0.059338894 -0.13000226 0.002347403 -0.087517135 -0.041775115

weight f4 [64]
00000000: 03a7 e53e f637 133f cff0 e73e 1109 183f
00000010: ea81 d03e 380b fc3e 1a85 343e b4a5 413f
00000020: d990 383f b532 0e3f beda fc3e 89aa 423f
00000030: 4f06 f23e e472 393f b7a1 e93d 2bea 083f
00000040: 08dd e43e 47bb 833d 5c0b 463f 2c64 ba3d
00000050: e257 313f fd5c 1e3f c4f9 7b3d fb86 463f
00000060: 274f 663f 5959 153f 5fa8 983e 5e75 8a3d
00000070: 596d 4d3f cbb7 603f a07a e73d e0e8 9c3d
00000080: a77a 853e 6d1b 3a3f 77b6 313f edc6 563f
00000090: 1867 4e3e ae43 8d3e 9527 3a3d 4e83 553f
000000a0: 32b5 fd3e d888 6c3e 9c51 bd3e 1859 943e
000000b0: 1af7 b43e 9874 453f 19b7 66bd 4b07 323f
000000c0: f5c9 a03e 12ff 413f aebe 043f 5863 d13e
000000d0: e254 953e 58f2 1c3e 70d2 a83e 72c7 363f
000000e0: 1b03 173f bf96 d83e 4d75 543f d904 bf3e
000000f0: c017 303f 4a60 3f3f 7174 1c3f 0b09 693f
0.44853982 0.57507265 0.4530091 0.59388834 0.40724117 0.4922731 0.17628899 0.7564347
0.7209602 0.5554612 0.49385637 0.76041466 0.47270438 0.72440934 0.11407798 0.5348231
0.44699883 0.06432205 0.77361083 0.091011375 0.69274724 0.6186064 0.061517492 0.77549714
0.89964527 0.5833946 0.29815957 0.06760667 0.80244976 0.87780446 0.11302686 0.07661605
0.2607014 0.726981 0.69419044 0.83897287 0.20156515 0.27590698 0.045447905 0.8340348
0.49552304 0.23099077 0.36976326 0.28974223 0.35344774 0.7713103 -0.05632696 0.6954238
0.3140408 0.7577983 0.51853454 0.40896106 0.29166323 0.15326822 0.3297305 0.7139808
0.58989114 0.4230251 0.82991487 0.37308386 0.6878624 0.747563 0.61115175 0.91029423

bias f4 [64]
00000000: 72dc 51bd 4bdb 9fbc 39b0 69bc e1cc 123e
00000010: 0a42 003e 2181 b33d 551b e13d 8217 a43d
00000020: 33a7 0c3e aa0e dc3d fc45 d43d d073 553e
00000030: 01e6 e2bc 78e2 b9bb 5991 963e 8b2a 86bc
00000040: c77a 2f3e c5f2 cdbd 98a3 523d 02f8 9c3c
00000050: 692b dabd 9b8c 053e 92a4 89be 1a0e 8b3d
00000060: 6cdc c63d a09a 02be 9fb8 c63d cade ebbd
00000070: b112 37be 9df8 beba 4876 f9bd 39e1 bbbd
00000080: cf04 37bd 18b1 003c 4120 4abd 6dd5 49bc
00000090: 2441 5a3e da4c dcbd 13b8 90be 8e37 39bc
000000a0: acd8 68bd 9d3c 30be 4e9f 9b3d a4d2 05be
000000b0: 814d 283e 1295 d2bd 386d b7be e87d 533e
000000c0: d7cf eabd a987 2ebd 2140 c73d 33db 983c
000000d0: a5d1 103e 43bf eb3c 88bf 263e 7981 6aba
000000e0: fa77 bcbd de10 c5bc df67 e83d 484f 11bd
000000f0: 253a dabd 18e2 b33d 5419 d13b 7d95 21bb
-0.051235624 -0.019513747 -0.014263206 0.14335968 0.12525192 0.08764864 0.10991541 0.08012296
0.13735656 0.107449844 0.10364911 0.2084496 -0.027697565 -0.005672749 0.29407766 -0.016377708
0.1713668 -0.1005607 0.051425546 0.019161228 -0.10652811 0.13041918 -0.2688337 0.06789799
0.09710011 -0.12754297 0.097031824 -0.11517103 -0.17878224 -0.0014569942 -0.121807635 -0.09173817
-0.04468232 0.007854722 -0.049347166 -0.012318951 0.21313912 -0.10756846 -0.28265437 -0.011304749
-0.05684726 -0.17210622 0.07598744 -0.13068634 0.16435815 -0.10282339 -0.35825515 0.20653498
-0.114654236 -0.042609844 0.097290285 0.01865921 0.14142473 0.028777724 0.16284001 -0.00089456845
-0.09202571 -0.024055894 0.11347937 -0.035476 -0.106556214 0.08783358 0.006381193 -0.0024655752

running_mean f4 [64]
00000000: 22d5 d43c 72a5 b83c b42b d23c bbe7 813d
00000010: a1ea 0f3c aa3a 5d3c 9964 b63c 0b55 6a3d
00000020: 206f 8a3c 7783 843c 4913 1f3c 6b73 0e3c
00000030: 422a 063c 9a0a a93c ed47 953c 4057 713c
00000040: 1d09 0d3b 4840 8c3c 310b 4f3c 5fb9 263b
00000050: db7b 143d 0083 373c 3ecc e33c 5112 383d
00000060: c32c 583c 7c9c a23d 125a 073c 1e39 2b3b
00000070: a394 0a3d a25b 1a3c ab37 553c ee65 693d
00000080: 53ac 663d 31f7 293c 727b ce3b c99a 943d
00000090: 940e 203c 5211 c23b 743e d03c 3bc4 ed3c
000000a0: 60bb 093d bda8 123c c215 873d bacc 3c3c
000000b0: c5d6 313c 7831 be3c 56f6 903c a574 0c3c
000000c0: 0f36 933c f206 a43c 1076 7e3d 5c76 cd3c
000000d0: 93ba 863c 84e2 453d a62e 843b 7af5 b23c
000000e0: 136e ae3c fb71 d93c d134 2f3d c002 d43c
000000f0: 9944 063d a316 fc3c f054 883b e372 ac3c
0.025980536 0.022539828 0.025655605 0.06343027 0.008783967 0.013502756 0.022264766 0.05721001
0.016898692 0.016175969 0.009709188 0.00869451 0.008188786 0.020634938 0.018222773 0.014730275
0.0021520325 0.017120495 0.012636946 0.002544008 0.03625093 0.011200666 0.027807351 0.044939343
0.013194266 0.07940003 0.0082612205 0.0026126574 0.033833157 0.009421261 0.013013761 0.056981973
0.056316685 0.010373876 0.006301337 0.072560854 0.009769101 0.005922475 0.025420405 0.029024234
0.03362596 0.008951363 0.06595947 0.01152342 0.010854428 0.023216948 0.017695587 0.008572732
0.017970113 0.020022843 0.062124312 0.025080852 0.016446387 0.048311725 0.0040338812 0.021845568
0.021292722 0.026543608 0.04277498 0.025880218 0.032780264 0.030772513 0.004160516 0.021050876

running_var f4 [64]
00000000: b866 b73b 0c83 443b 71bb a13b ac1e 773c
00000010: 4dbf 8a3a 43e0 e13a c5ed 993b 4d59 a93b
00000020: e184 403b d990 203b 5063 9c3a 1567 b13a
00000030: 780f 8c3a a200 7d3b 5707 253b 90fc 003b
00000040: e65e bf39 fa5a f73a 6110 2b3b 41d6 8039
00000050: 5e51 433b f9d0 b23a 50ea bf3b 4142 ec3b
00000060: a0a8 f73a 676a a83c d091 613a 3190 ef39
00000070: fbbd fa3b 2f39 c83a e21e 6d3a 9b55 8d3b
00000080: 90a4 8b3b 1544 e13a 9e85 413a 1631 1f3c
00000090: 1215 dd3a d9c3 833a 2007 a53b cf60 8d3b
000000a0: 190a 413b 8e78 a63a 6df5 223c 9400 093b
000000b0: 89ea 833a ad7f 7b3b 1fec 473b fd77 873a
000000c0: 6ec9 4e3b 86a7 6f3b 368b f33b 1715 3d3b
000000d0: 3bc4 3f3b 967c 3c3b a807 153a cd43 563b
000000e0: 7d21 3e3b a60a 3b3b 69ae 893b 7f29 853b
000000f0: 8d71 f53b cd55 853b dc98 153a 566c 823b
0.005596962 0.0029985337 0.004935675 0.015082996 0.0010585577 0.0017232973 0.004697534 0.005168116
0.0029376077 0.0024500398 0.0011931453 0.0013534749 0.0010685762 0.0038605114 0.0025181377 0.001968179
0.00036501064 0.0018871718 0.0026102292 0.00024573694 0.0029803137 0.0013642601 0.0058567896 0.0072100465
0.0018894859 0.02055855 0.00086047966 0.00045693063 0.007652042 0.0015275831 0.00090454344 0.0043131835
0.0042615607 0.0017186428 0.0007382276 0.009716293 0.0016867241 0.0010052874 0.0050362498 0.004314519
0.0029455482 0.0012700723 0.009946209 0.0020904886 0.0010064404 0.0038375661 0.003050573 0.0010335442
0.0031553167 0.0036568358 0.0074323667 0.0028851682 0.002926125 0.0028760782 0.000568504 0.003269422
0.002901166 0.0028540283 0.0042016995 0.0040637846 0.007490343 0.004069066 0.0005706677 0.0039802

weight f4 [128, 64, 5, 5]
00000000: 93be 433c 45e3 51ba da80 2cbc 9812 04bb
00000010: 5fd3 a7bb a1da 443c 60bd 6dbb f99f 86bb
00000020: 6a25 39bc dd04 443a 16aa aa3b c63b fabb
00000030: 5995 e1bb f499 c8bc de06 6bbc d307 b8ba
00000040: 7726 61bb 107d 05bc d254 2cbc 1742 4fbc
00000050: c507 f2bc 121e 8dbc b39a d7bc 88c4 76bc
00000060: 09ca 8bbc 5e48 593c 54dc 533c dec4 b4bb
00000070: 118b 88bc 5c60 45bb d656 dd3c 9906 293c
00000080: c5e8 353b 1c4f 593b 0058 383c c5e9 553c
00000090: 2e5e 58bb d0ef 76bb 66e9 a3bb e73c 91bb
000000a0: 108d a9bc 80e4 bfbb c075 b6bc 659f 843c
000000b0: c714 82bc e865 9abc 85a6 d03b d0f3 ae3b
000000c0: e7c2 61bb 9067 6cbc a877 623b fd0b 27bc
000000d0: d93d b43b 7297 eebb 3985 77bc e56c cf3c
000000e0: a1e8 ea3a 1626 873c 30a5 2bba bed1 87bb
000000f0: 05a3 653b 4b50 133b 83ae 573c 9b4e 4d3c
00000100: 4559 14bc 763d 8f3a d8e0 483c 1836 953c
00000110: 01e4 823a c66d 763c ee15 02bd 2921 d53b
00000120: 3831 993b a22d c83b 3718 8f3a e33d 05bd
00000130: f357 15bd 433c 02bd 2f88 08bd d44b c3bc
00000140: 54b3 b0bc 737b f2bc 72fd f9bc 0d6a eabc
00000150: 632a 16bd 1135 e3ba 993f 07bc 5e53 11bc
00000160: 6793 1ebc 95a1 42bc 7fdb 5dbc 9ec5 8fbc
00000170: 9116 a3bc 478d dbbb 08ad 32bc a8c5 edbc
00000180: d3fd b4bc 41a8 bdbb 2f36 08bc 7b80 04bc
00000190: 6519 163b b889 433b e222 e43b 32cb f3bb
000001a0: 5119 d43b 1385 3fbb fb26 ef3a 93ff 22b9
000001b0: f58e 2ebb 3914 fc3a 7a43 803c f78f 983b
000001c0: a877 b9bc eeaf 403b 7df3 773c f428 213c
000001d0: 32a6 863c 4db4 523c 9c06 d93b 23b3 fa3a
000001e0: 45a3 20bc f89f 563b bf25 193c 8509 0ebb
000001f0: 57e1 ab3c 7149 3c3c 7144 14bc 78a9 883a
00000200: 6f57 353c 39e3 023c b31a ed3b 9c0f 063c
00000210: e06d e8ba 3f18 df3a 44d2 90bc c575 a73c
00000220: c816 da3b 42a2 c4ba 7ce9 14bc 634a b1bb
00000230: ad59 553c d6bc e03a 1c22 8ebc b043 06bb
00000240: 9402 2a3b ca0f 053c 8b92 01bc 985d e8bc
00000250: 4176 24bb 12db f0bb 2859 223c f1fc 883b
00000260: 4b98 46ba 0805 1039 ca5b a53b b625 093c
00000270: b8ed 053b 5ac5 363a af8f 09bc cd2d 3dbb
00000280: 36ee a7bb e25e 43ba a7e0 273b 6ffb febb
00000290: 6a01 203a c83d b3ba 9a7f b0ba d774 dbbb
000002a0: 87dc 05bb a19c 8cba cc29 e8bb 40db 92bb
000002b0: 4c33 9c3b 2e3f 18bb 9e01 0fbb 831c 4a3c
000002c0: 811c 3b3c b17e 853c 8b19 1d3c c7ef 923c
000002d0: 9c06 783b 126c e13b 7976 bc3c ad54 b5bc
000002e0: 9732 103c bc54 b3ba a18e b43b 45cc 23bb
000002f0: a0e4 403c 2a73 813c 3e7c 92ba 5f5d 5e3c
00000300: 1b40 c23a ff66 f7bc c6f5 1ebb 52c2 b13c
00000310: d1e5 383c a774 573c 3989 1fbc 7393 07bd
00000320: 5adc eb3c 94e3 213c db60 cb3c f77c 503b
00000330: c523 1e3b f207 ea3c 9ead 8d3b 23f0 083b
00000340: b892 803a 9c47 ff3a 6ee0 763c 45d1 b63c
00000350: 6539 2abc 8c5f 5cbc 0e87 22ba 6da7 283d
00000360: 8246 fc3c 36f4 00bc 2dde 92bc 3dd1 a03b
00000370: 5643 023d 0f93 faba acde 06bc 4115 1cbb
00000380: 1661 9d3b c2f7 ac3c 6b87 103c 6b93 e43a
00000390: 5cfe 493c ee42 9abb 8f8a f8bb 5eeb 913b
000003a0: fd3c 003c 0a9e e0bb cf6d bf3b 9d5f 6e3a
000003b0: 0817 f7b9 c183 adbc ae4c c53b b768 9f3b
000003c0: a5f3 443c 67fe 623a c1b0 e03a f104 84bc
000003d0: a5be 9c3a 30aa 123c a021 19bb eaa2 83bb
000003e0: 3942 e23c 2085 8b3b e2af 053c b3df 3b3b
000003f0: be90 cebb 3648 e93b a56f d03b 86cc 893c
0.011947292 -0.0008006583 -0.0105287675 -0.0020152684 -0.005121633 0.012015016 -0.0036276206 -0.0041084257
-0.011300424 0.00074775313 0.005208264 -0.00763652 -0.0068842587 -0.024487473 -0.014344899 -0.0014040418
-0.0034355202 -0.008147493 -0.01051827 -0.012650034 -0.02954472 -0.017226253 -0.026318884 -0.015061505
-0.017064111 0.013261883 0.012930948 -0.0055166325 -0.016667875 -0.003011725 0.027018946 0.010316514
0.002775715 0.0033158725 0.01125145 0.013056223 -0.003301512 -0.003767956 -0.0050021885 -0.004432309
-0.020697147 -0.0058560967 -0.022272944 0.016189286 -0.015879048 -0.01884742 0.006367507 0.0053391233
-0.0034448446 -0.014428988 0.0034556184 -0.010195729 0.005500537 -0.0072812373 -0.015107446 0.02532048
0.0017922112 0.016497653 -0.0006547747 -0.0041448763 0.0035039794 0.0022478278 0.013164165 0.012530948
-0.009054487 0.0010928351 0.012260638 0.01821427 0.0009986163 0.01504082 -0.031759195 0.006504197
0.004675057 0.0061089555 0.0010917251 -0.032529723 -0.036460828 -0.03179575 -0.033333 -0.023839869
-0.021569885 -0.02959988 -0.03051636 -0.028615022 -0.036661517 -0.0017334541 -0.008254909 -0.008869974
-0.009678698 -0.0118793445 -0.0135411015 -0.017550286 -0.019908221 -0.006700191 -0.010905512 -0.029024914
-0.02209369 -0.0057878797 -0.0083137 -0.008087273 0.002290332 0.0029836725 0.006962166 -0.0074399943
0.0064727445 -0.0029223606 0.001824587 -0.00015544733 -0.0026635502 0.0019232101 0.015657175 0.004655834
-0.022640064 0.0029401737 0.015133736 0.009836424 0.01643667 0.01286037 0.0066231024 0.0019126873
-0.0098045515 0.0032749157 0.009347378 -0.0021673155 0.020981474 0.011492119 -0.009049521 0.0010426482
0.011068209 0.007988744 0.007235849 0.0081824325 -0.0017732941 0.0017020776 -0.017678387 0.0204419
0.006655548 -0.001500197 -0.00908887 -0.005410479 0.013021869 0.0017146121 -0.017350249 -0.0020487122
0.0025941478 0.00812144 -0.007908474 -0.028364941 -0.00250949 -0.007350334 0.009908952 0.0041805436
-0.0007575794 0.00013734784 0.0050463425 0.008370807 0.002043588 0.00069721567 -0.008396073 -0.002886641
-0.0051248325 -0.00074527983 0.002561608 -0.007781438 0.00061037263 -0.0013675028 -0.0013465763 -0.006697278
-0.0020425634 -0.0010727831 -0.0070850607 -0.004481703 0.0047668573 -0.0023231017 -0.0021821032 0.012335899
0.01142037 0.016295763 0.009588609 0.0179366 0.0037845736 0.006879338 0.02300571 -0.022135103
0.008801124 -0.0013681869 0.0055101668 -0.002499358 0.011773258 0.015801985 -0.0011175943 0.013572066
0.001482013 -0.03020048 -0.002425538 0.021699104 0.011285261 0.013150371 -0.009737306 -0.033099603
0.028791595 0.009880919 0.024826458 0.0031812766 0.0024130207 0.028568242 0.0043236753 0.0020895086
0.0009809351 0.0019476297 0.015068157 0.022316584 -0.0103896605 -0.0134505145 -0.0006199934 0.041175295
0.03079534 -0.007870724 -0.017928207 0.0049077556 0.031802498 -0.0019117313 -0.0082318 -0.002381638
0.0048028333 0.021114234 0.008821349 0.0017438954 0.01232871 -0.0047076857 -0.007584877 0.004453107
0.007827041 -0.006854777 0.0058419476 0.0009093227 -0.0004712867 -0.02118099 0.006021104 0.004864778
0.01202098 0.0008659125 0.001714252 -0.016115637 0.0011958672 0.008951709 -0.002336599 -0.0040172236
0.027619468 0.004257813 0.0081596095 0.002866727 -0.0063038757 0.007119204 0.0063609653 0.016821157

bias f4 [128]
00000000: 149c 0d3c 2e39 17bd 4a6e 0abd 2370 0abb
00000010: 8190 7dbd c99e 84bd dead 34bd 0b07 15bd
00000020: 0104 00bd b4fb e5bc 25e6 22ba 6150 99bd
00000030: 3b97 e7bd 2d8e 87bd 6cf5 9dbc 99ab a7bd
00000040: 256e 38bd 5a71 c1bb 74b9 43bd 7c71 27bd
00000050: 3d44 0cbe 6447 5cbd c030 69bd 0ccd a6bc
00000060: c85b 0fb5 11ef a23b b17a 80bd c542 0dbd
00000070: bbad b4bb 8825 a1bd f2dc 2fbe 4dc9 56bc
00000080: 4eda d3ba 2b32 38bd 1d30 403b 6ae6 cbbc
00000090: fdea 86bd c3ec e1bc 16a4 883b 5477 1cbd
000000a0: 2567 e0bc ea93 b5bd 37c3 5ebd 28b0 e1bc
000000b0: 83c9 dfbd d2c6 cfbb 5fdc a9bd 63b3 03be
000000c0: be05 cbbd 2ec4 9cbd 0153 61bb a0e3 08bd
000000d0: d0cf 6bbd f1f2 29bc 6e25 343c 2ba3 3f3b
000000e0: c7eb 80bd c418 eb3b c523 edbd 3ba5 80bc
000000f0: aa08 33bd a38d 71bc 0769 07bc db1d 5cb9
00000100: deb3 f6bd 53e8 73bd 28ee 2abc 0044 dfbc
00000110: 2d1c 03bd 0a99 c4bb 214e 153d 1e9c bdbd
00000120: e9d2 aeb9 84b2 1dbd 5223 6a3b 3e4a 2ebd
00000130: e70c 53bd b097 86bd 9ab6 58bd 36a4 233c
00000140: e218 40bd 98c1 bfbc 919e 4ebd d723 ff3c
00000150: 3731 a0bd fe5d b7ba bc90 b1bc fcec b8bd
00000160: f541 393b a531 16bd 244c c73c 7380 35be
00000170: a62f 49bc 3eee bdbc 0564 103d 7786 043b
00000180: f203 8abd 030e 83bd 0b4b 0a3b 3412 76bd
00000190: 76f5 05bd 1381 f7bc d40b febb a866 42bd
000001a0: aa51 c4bd 1865 a3bd 7e8e b9bc 5c2c 2c3b
000001b0: bb5c 38bc 5447 63b9 9160 f1b9 0f4c 153a
000001c0: 4bc4 b7bc ca2a d1bb 3d2b 83bd ace0 9cbd
000001d0: 5549 a03a 7389 213c 3989 0fbd 387a e2bb
000001e0: 6433 b93c cc8b 65bd a515 13bd 7725 e9bc
000001f0: 97e1 d7bd cd98 52bd ecb9 c6bc 2bce b93b
0.008643169 -0.036919765 -0.033796586 -0.0021123968 -0.061905388 -0.06475598 -0.044111125 -0.03638367
-0.03125382 -0.028074123 -0.0006214104 -0.07486034 -0.11308142 -0.06618915 -0.019282065 -0.081870265
-0.045026917 -0.005903405 -0.047784284 -0.04087971 -0.13697906 -0.05377902 -0.056931257 -0.020361446
-5.340521e-07 0.0049723466 -0.062734015 -0.034487505 -0.0055138743 -0.07868487 -0.17174128 -0.013109517
-0.0016163082 -0.04496972 0.0029325553 -0.024890143 -0.06587789 -0.027578717 0.004169951 -0.038199738
-0.027392933 -0.08866103 -0.05438539 -0.027549818 -0.10927107 -0.00634084 -0.082939856 -0.128614
-0.099132046 -0.07654606 -0.003438175 -0.033420205 -0.057571232 -0.010372863 0.010995252 0.0029241543
-0.06294971 0.007174583 -0.11579088 -0.015703788 -0.043709435 -0.0147432415 -0.008264787 -0.00020991957
-0.12046026 -0.059547734 -0.010432757 -0.027254105 -0.032009292 -0.005999689 0.036451463 -0.092582926
-0.00033345007 -0.038500324 0.003572662 -0.04255127 -0.051525977 -0.06571901 -0.052908517 0.009987881
-0.04689873 -0.023407742 -0.05044419 0.03114502 -0.07821887 -0.0013989804 -0.02167546 -0.09029576
0.0028268073 -0.03666844 0.024328299 -0.1772478 -0.012279427 -0.023184892 0.035251636 0.002022175
-0.06739034 -0.06399157 0.0021101858 -0.060075954 -0.032704793 -0.030212915 -0.007752875 -0.047461182
-0.09585889 -0.079782665 -0.022650953 0.0026271557 -0.011252577 -0.00021674979 -0.0004603905 0.00056952325
-0.022432467 -0.0063832747 -0.064047314 -0.0766004 0.0012228886 0.009859431 -0.035042975 -0.0069115423
0.022607513 -0.056041524 -0.035909314 -0.028460247 -0.10541075 -0.051415253 -0.024258576 0.005670329

weight f4 [128]
00000000: dec9 233f a317 2e3e 64e8 533f 32ce cc3e
00000010: 7a12 ea3e e79b d33e 8864 003f 3d49 1d3f
00000020: c001 783e d319 413e fd2a 5eba 84c6 273e
00000030: 539f fd3d f30f 873e 2803 443e 6f38 433f
00000040: b5d7 733f c42b 4c3d add1 163f df21 803e
00000050: 3620 f13e 68c3 3f3e c8d1 ca3e e0f6 8d3d
00000060: bcd7 d03b 005b 223e d123 7f3e ceaa d73e
00000070: 689c 94ba d0a9 9f3e 92bb ab3e 83d5 ff3d
00000080: db07 4bba 5dcb 023f bd07 403f 6f1d de3e
00000090: 9f80 683f 039f 923e e00c 773e 3d77 413f
000000a0: 5cf7 503e c0cb 363f c843 0c3e 2a06 003e
000000b0: 8077 253f ee22 8b3e 04b8 193f 1094 6f3f
000000c0: 4be0 613f f644 aa3e 3c4e ee3e 652a 373f
000000d0: b98e 0c3f b60c 8a3e 64c3 023f c2c4 9b3e
000000e0: 2910 033f 5f6b 9e3d b87b ca3e 01a0 713f
000000f0: 678d 693f 4520 183f eeea 773f 626b 643e
00000100: 9a7f 5e3f 6f27 713e 4248 053f b909 0a3f
00000110: 06c9 2f3f 2a27 0a3f e0f1 493f 3e32 163f
00000120: aac7 633c 26f9 143e 7cd1 5c3e b517 ee3e
00000130: 450e 533f 097b 703f d489 e63d 0e6f 783d
00000140: 4660 373f 86cd 5d3f 5fa7 453e c353 963e
00000150: 6774 5d3f 82d4 2d3f 3e7a 963e d733 4d3f
00000160: 5823 e23e 507a 613f 06fa 543f bce3 663f
00000170: f4f1 d83e 0f79 623f ea5e 5f3f c611 443f
00000180: a27f 2c3f 57d2 d93e db09 083d bc56 023e
00000190: a485 393f 0541 2e3f 014d 713f a742 3c3f
000001a0: 1f25 673f 416f 623f 527b 363f 3221 473f
000001b0: 5b72 5b3b 66d7 ab3d 1552 3f3d 23a8 bb3a
000001c0: e48e 3f3e 440c 503e 57ee 903e 8ccf 263e
000001d0: 4f68 9f3e 169e 363f 1b72 bd3e ba2d 583f
000001e0: 4ff7 003f ae23 1f3f 681e 383f 7f78 d13e
000001f0: 7119 b03e a359 433f 9a74 273f e186 463f
0.639799 0.17001204 0.82776475 0.40001065 0.45717221 0.41329882 0.501534 0.6143988
0.24219418 0.18857507 -0.00084750337 0.16384321 0.12383904 0.26379356 0.19141829 0.76257986
0.9525102 0.049846426 0.5891369 0.25025842 0.47094887 0.18726885 0.39613175 0.06931853
0.006373374 0.15855026 0.24916007 0.421225 -0.0011338117 0.31184244 0.33541542 0.12491896
-0.0007745006 0.5109156 0.7501181 0.4338183 0.9082126 0.2863694 0.24126005 0.7557257
0.2040686 0.7140465 0.13697731 0.12502351 0.6463547 0.27175087 0.6004641 0.935853
0.8823287 0.33255738 0.46544063 0.71549064 0.5490528 0.26962823 0.5107939 0.30423552
0.51196533 0.07735323 0.39547515 0.9438477 0.9123139 0.5942424 0.9684285 0.22306588
0.86913455 0.23550199 0.5206338 0.53921086 0.6866611 0.5396601 0.78884697 0.58670413
0.013902584 0.14548168 0.21564287 0.46502462 0.8244365 0.93937737 0.112567574 0.060652785
0.71631277 0.8664173 0.19302128 0.2936078 0.8650574 0.67902386 0.29390138 0.80157226
0.4416759 0.8807726 0.83194005 0.90191245 0.42372096 0.8846597 0.872542 0.7658962
0.6738225 0.4254329 0.033212524 0.12728399 0.72469544 0.6806796 0.94258124 0.73539203
0.9029102 0.8845101 0.7128192 0.7778503 0.003348491 0.08390693 0.04670914 0.0014317076
0.18706852 0.20317179 0.2830684 0.1629011 0.3113427 0.7133497 0.37001118 0.84444773
0.5037736 0.6216382 0.71921396 0.40912244 0.3439441 0.7630865 0.65412295 0.7754956

bias f4 [128]
00000000: bcef 073e eb64 0f3e b68c fabd bceb 0a3e
00000010: b4a5 07be dddc 0abe 9cbc 0bbe 2df4 103e
00000020: 9059 193e 9575 fcbd cde0 b63c c2be 22be
00000030: 581c 20be 0542 1b3e efe6 33be 6f75 07be
00000040: 6890 0f3e a851 313e b3d2 06be 1640 2a3e
00000050: f6ba 11be 6807 09be a85b 203e 9211 0dbe
00000060: 0759 0cbc d5db 163e dacd 203e 11e3 223e
00000070: 4d40 7e3e b0f8 0abe d8e3 47be a4de 05be
00000080: 5e11 5fbe ea22 2a3e d383 0a3e d279 e9bd
00000090: 98e9 333e e3f8 09be 26f9 0b3e 2825 fcbd
000000a0: 211c 403e b3a6 07be 6264 1d3e e4b6 183e
000000b0: 97aa 12be ed20 0b3e fb37 07be cac2 1abe
000000c0: bb0d 0ebe b60a 08be e938 f6bd fc14 06be
000000d0: 5bef 05be c1ec 0b3e b39b 083e 6c96 093e
000000e0: 4820 0abe 7786 213e 7081 0cbe b8b7 063e
000000f0: d177 03be 6374 093e c658 093e be50 0c3e
00000100: 531c 15be 2668 1f3e d9ae 0d3e a8bb 003e
00000110: 63e3 0c3e 821a eb3d df3c 05be 4bd9 0abe
00000120: 4efd 5ebc 1d26 223e b001 b73d 1576 0d3e
00000130: aebe f2bd 05c5 ffbd 6343 213e 80a2 133e
00000140: de89 f1bd 9c7e 07be de28 283e c06c 053e
00000150: 1c91 07be 7f5c 093e 7a34 193e 6291 253e
00000160: e483 093e 5751 ecbd 0446 03be 813e 30be
00000170: be80 0c3e daf7 f1bd eb70 06be 14f9 023e
00000180: fdad febd 793b 0dbe ad67 773e ff25 223e
00000190: 5151 f3bd 2940 0e3e a45c 043e 6f27 103e
000001a0: a907 2abe 85e0 0e3e 8147 133e bec4 063e
000001b0: 7875 85be 097d ebbc 5fb8 09be f816 2cbe
000001c0: 715d 18be 834f e1bd 8446 123e 6c69 223e
000001d0: 3819 0d3e 4652 03be e1fb 00be e576 f1bd
000001e0: eb1b 063e d4ce febd c6c4 0d3e e1de 2d3e
000001f0: 4dea 13be 275e 00be c10a 00be b411 063e
0.13275045 0.14003341 -0.1223387 0.13566488 -0.13246804 -0.13560815 -0.13646168 0.14155646
0.14975572 -0.123271145 0.02232399 -0.15893081 -0.15635812 0.15161903 -0.17568563 -0.13228391
0.1401993 0.17316306 -0.13166313 0.1662601 -0.14231476 -0.13381732 0.15659964 -0.13776234
-0.008566148 0.14732297 0.15703526 0.15906931 0.24829216 -0.13571429 -0.19520509 -0.13073212
-0.21783969 0.16614881 0.1352685 -0.114001885 0.17569578 -0.13473849 0.13669261 -0.123117745
0.1876073 -0.13247184 0.15370324 0.14913517 -0.14322887 0.13586779 -0.13204949 -0.15113369
-0.13872425 -0.13285336 -0.120225735 -0.13093942 -0.13079588 0.13664533 0.13340645 0.13436288
-0.13488877 0.1577395 -0.13721251 0.1315602 -0.12838675 0.13423304 0.1341277 0.13702676
-0.14561586 0.15567073 0.1383623 0.12571585 0.13758616 0.11479665 -0.13011502 -0.13559453
-0.013610197 0.15834852 0.08935869 0.13814576 -0.118527755 -0.1248875 0.15748362 0.14417458
-0.11793874 -0.13231891 0.1642184 0.13029766 -0.13238949 0.1341419 0.14961424 0.1616874
0.13429219 -0.11538952 -0.12819678 -0.17211343 0.13720986 -0.11814852 -0.13129012 0.12790328
-0.124355294 -0.13792218 0.24160643 0.15834807 -0.11880744 0.13891663 0.12925965 0.14077543
-0.16604485 0.13952835 0.14382745 0.13160989 -0.26066184 -0.028746145 -0.13449238 -0.16805637
-0.14879395 -0.11001494 0.14284712 0.15860528 0.13779151 -0.12824354 -0.12596084 -0.117902555
0.13096587 -0.12441793 0.13844594 0.16979553 -0.14444847 -0.12535916 -0.12504102 0.1309269

running_mean f4 [128]
00000000: 415a 403f 8c12 ef3c 8149 ca3c 4bc4 b53e
00000010: 9fc8 b43b 9e68 193d cdfc 2dbb 9062 003d
00000020: f93b 4f3d 8d39 1b3d 0aec c03b 3dc9 ab3d
00000030: 4c2f 943c 16e2 553d f7a4 113e b1f9 2b3d
00000040: a277 c13d 027b 863e 6a27 ca3d c3a1 cb3d
00000050: 0057 83bc 73cc b23d e460 9a3d e28a a23e
00000060: 3736 843b c963 0e3f 60a7 173d 2e3b 0a3e
00000070: 2d46 e53d 529b c6bc c2c2 c8bc 3614 c23e
00000080: 3f74 9c3d 1b9a 2c3e 643f 153e bb7b 813e
00000090: 7209 5b3d 3818 2b3e adf9 933e ff19 bb3d
000000a0: d376 6d3e a9a6 ad3c 3ef9 923d 4964 ec3e
000000b0: c089 6bbc a60b 9c3e d38a fd3a fdf6 40bc
000000c0: da97 9d3c 2b84 9f3c 9145 553e 69b4 b53d
000000d0: 145a d83c 36c5 c23e b1a7 383f e046 f53e
000000e0: 117f 663b e423 ee3e ea4b c0bc b331 eb3d
000000f0: 86bb 283d 17d4 c73e a653 5e3e 7726 ed3e
00000100: 24a8 03bc a8d8 c03d 2286 c43e 48e3 993d
00000110: 15d2 723e 61e8 993e e1c6 b03e 2679 423d
00000120: a397 383b 66ac 2f3e 1566 863e 51d9 0c3e
00000130: 7138 813d a5f5 d13c 601e cb3d 258d 2e3f
00000140: 17b1 213e f23e 7d3c 7d9d 263e 082f 543f
00000150: ea38 ba3c 030a 9d3e f345 913e bfd6 733c
00000160: 3466 ae3e 6026 953d 90c4 163e 9f8b 29bc
00000170: bcd3 463e 04c4 103e 08af 063f c846 133f
00000180: b4bf bf3b 41bc 013d 9bc2 a73e bd04 923d
00000190: 4d31 d83e cc2b f43d afdd de3e 73b0 ec3c
000001a0: ad00 633d bceb 84bc c6c1 863d 6e6d 883e
000001b0: 53c3 c53c 7854 ee3c 0cbd c13e b504 7a3e
000001c0: 3082 333e 354c b53e 001b 1d3d e2ca 613d
000001d0: 11c5 013f 1258 2b3e 1310 053e 1be5 a03e
000001e0: cfca 183f a21c 5a3d 4b8d 823c 5d17 1c3e
000001f0: 2b55 b7bc 3f2f b53d 8441 953e fdfd 383f
0.75137717 0.029183649 0.024693253 0.35501322 0.00551708 0.037453286 -0.0026548386 0.031343997
0.050594304 0.03789668 0.005887513 0.083879925 0.01808896 0.052217565 0.14223085 0.04198617
0.09446646 0.26265723 0.09870799 0.09942963 -0.016032696 0.08730402 0.07538012 0.31746584
0.004034783 0.5562101 0.037024856 0.13499138 0.111950256 -0.024243984 -0.02450693 0.37906045
0.0763936 0.16855662 0.14574963 0.2528971 0.053475805 0.16708457 0.28901425 0.09135818
0.23189859 0.021197634 0.071764454 0.46170262 -0.014376104 0.30477637 0.0019343741 -0.011777637
0.019237448 0.019472202 0.20827319 0.08872301 0.02641014 0.38041085 0.72130877 0.47905636
0.0035170952 0.46511757 -0.023473699 0.11484089 0.04119446 0.39029 0.21711597 0.4631841
-0.008035693 0.09416324 0.38383585 0.075140536 0.23712952 0.30060104 0.34526733 0.047478817
0.0028166554 0.17155609 0.26249757 0.13754775 0.063095935 0.025629828 0.09917903 0.6818412
0.1579021 0.015456902 0.16271015 0.82884264 0.022732217 0.306717 0.2837368 0.014882742
0.3406235 0.0728271 0.1472342 -0.01034823 0.19416708 0.14137274 0.52610826 0.5752988
0.00585171 0.031673674 0.3276566 0.0712981 0.42225114 0.11922416 0.43528506 0.028892731
0.055420566 -0.016225688 0.06579928 0.26645988 0.02414099 0.029093012 0.37839544 0.24415858
0.17530131 0.35409704 0.038355827 0.055125125 0.50691324 0.16732815 0.12994413 0.31424794
0.5968446 0.053249963 0.015936514 0.15243287 -0.022379478 0.08846902 0.29151547 0.72262555

running_var f4 [128]
00000000: 2694 aa3f e181 4d3d 1f24 943d bd97 ed3e
00000010: 82c6 943d bf58 e73d bb14 173d bfcc a23d
00000020: 73fb bc3d ac1d 333d ba86 8e39 02ae 2b3d
00000030: c033 523d 8894 d13d 634f 583e 08ab fb3d
00000040: 30a0 5f3e 7f65 fa3d ce95 5e3e 5b0d 1d3e
00000050: 529d 903c b5c7 283e 8187 ca3d 21c6 103f
00000060: 40ca 5738 5286 6f3f 56ad bc3d c40e 733e
00000070: fd58 a23d 0c3f c33b eece ec3b 611c 473f
00000080: afb4 c13c 5542 793e cf52 8f3e a37a d23e
00000090: c0a2 003e e87c 8f3e f9a1 0d3f 35ab 483e
000000a0: 47b9 973e 7402 b33d 1860 f43d 6a38 e03e
000000b0: eb1e a13c bc45 bd3e 7d38 533d b85a 033d
000000c0: 7f08 793d d978 863d 6c02 a63e 16e4 ea3d
000000d0: 5383 a93d 0882 113f 47f1 ad3f 9055 4e3f
000000e0: 8b16 393d a3a2 3d3f 2c35 113c 6e10 1c3e
000000f0: 4b29 f83d b2d5 e63e 818a c83e ed83 633f
00000100: 9b84 853c b967 133e cd0a 003f a417 f43d
00000110: 0cd1 fe3e f5dd e23e a906 ba3e 8803 0a3e
00000120: f79b a138 ec9b 863e 79f3 813e 56ed 7a3e
00000130: 4561 833d 59da ae3d a4b0 623e baf8 a13f
00000140: 75b6 b93e 0694 4d3d 4d98 a03e 1e63 e93f
00000150: cf44 b63d 7adb 3f3f d745 673e c91d 8c3d
00000160: ff03 fb3e 87c7 293e d63a 6b3e 3b0a aa3c
00000170: c1e9 8f3e a06a 9e3e 8d10 c73e bef2 7e3f
00000180: 641f 583d d8d1 823d 581d d83e 470b 2a3e
00000190: 203e 6d3f 6dc7 3c3e 015b f13e 4977 c03d
000001a0: bbf2 073e e1fc e93c a649 2b3e b7a9 ec3e
000001b0: 0905 2b3c 1814 553b 83ed 163f d0e7 603e
000001c0: f73a 633e 99a2 d73e 4878 993d fc0e 1e3e
000001d0: 5647 443f bde1 453e 6d55 b13d 92d0 4b3f
000001e0: ec9f a53f a463 243e 6a2b 4e3d 62c1 893e
000001f0: 3b83 c73b 5660 9b3e 5ba3 233f e77e b23f
1.3326461 0.05017269 0.07233452 0.4640483 0.07264425 0.11296224 0.036885004 0.079492085
0.09227648 0.04372947 0.0002718473 0.041913994 0.051318884 0.10233408 0.21124034 0.12288481
0.2183845 0.1222639 0.21736833 0.15337126 0.017653141 0.16482432 0.098891266 0.5655232
5.1448354e-05 0.9356433 0.09212749 0.23736101 0.079271294 0.0059584435 0.0072268164 0.7777768
0.023645727 0.2434171 0.27992865 0.4110919 0.12562084 0.28024983 0.55325276 0.1959656
0.29633543 0.08740702 0.11932391 0.4379304 0.019668063 0.36967266 0.051567543 0.032068938
0.060799118 0.065660186 0.32423723 0.11469285 0.08277001 0.56839037 1.3589257 0.8059931
0.045187514 0.7407629 0.008862775 0.15240642 0.12117251 0.45084912 0.3916817 0.8887318
0.016298583 0.14395036 0.5001648 0.119185716 0.49768865 0.44309965 0.36333206 0.1347791
7.706129e-05 0.26290834 0.25381067 0.24504599 0.06415037 0.0853774 0.22137696 1.265403
0.36272016 0.050189994 0.31366196 1.8233373 0.08899843 0.7494427 0.22585236 0.068416186
0.49026486 0.1658002 0.22971663 0.020756831 0.28108028 0.30940723 0.38879815 0.99589145
0.05276431 0.06387681 0.42209888 0.16605864 0.9267292 0.1843545 0.47139743 0.09397752
0.13276188 0.028562965 0.16727313 0.46223232 0.010438212 0.0032513198 0.58956164 0.2196343
0.22190462 0.4211624 0.07493645 0.15435404 0.7667135 0.19324394 0.08658872 0.7961513
1.2939429 0.16053635 0.05033437 0.26905352 0.006088642 0.30346936 0.63921136 1.3944978

weight f4 [1, 128, 1, 1]
00000000: 7503 82bd fee6 9abe 5efb 573e e544 3abd
00000010: 6ebc ab3e e852 b93e 77cf d33e d12a 79be
00000020: df67 cfbe bbbf b03d 9288 e6bb 0418 6c3e
00000030: 10d3 103f bdd2 cbbe f804 673d 93ac 113e
00000040: c383 e2be 2108 4abe 8572 733e 66ee f1bd
00000050: 871b 9e3e 5fc8 ba3e d9cb 54be ab66 983e
00000060: bab2 b537 9a15 34be 4989 a4be 17ae 6bbe
00000070: 531d 70be 80d7 a93e df63 893e 9e6a 6f3e
00000080: 95e7 5f3e 2df0 adbd 9fb5 bfbe 6b45 443d
00000090: 965d 27be 773c c73d fd67 a3be f395 813e
000000a0: 83e4 0fbe a55a 983e a226 cebe dcfa e3be
000000b0: d44d cc3d bea4 85be 290b e33d 2968 f83d
000000c0: 2f71 3f3e 20a3 873e fc04 163e 1f81 bc3e
000000d0: 5c24 b93e 38ee 91be 71f3 9dbe c6b8 89bd
000000e0: d237 a83e 2499 29be 4fea 9b3e 746d 91be
000000f0: 912c ad3e bd1d 3bbe 561e abbe fd1c bbbe
00000100: 59a6 673e 371f 5ebe 01a0 57be 7335 95bd
00000110: 9aaf 9abe 2f86 c4bc 90d0 8c3e d4ca bb3d
00000120: ece1 9db9 27a8 89be 3295 6cbc 5f96 a3be
00000130: e127 083e 586d 743e a484 00bf 694a bbbe
00000140: 3dd9 163e 4cdb 9f3e 498c 8bbe f613 97be
00000150: 08df 503e c6a8 cdbe b9c0 9ebe 50f4 3dbe
00000160: 1f5e 4fbe 3778 e23d 700d 9f3e 685c 383e
00000170: d28f a5bd fa21 203e 9e09 b63e bd88 eabd
00000180: 3209 6b3e 8d02 923e c3e2 0dbe a0c7 babe
00000190: 1787 8c3d 42c3 c3be 2a6d a2be 953c c2be
000001a0: c88c 023e 0e8b acbe b2f2 d3be 7402 99be
000001b0: cd83 863e a699 fdb8 69a9 133e 34cc ba3e
000001c0: 913c b53d 0475 0c3d 3988 dbbe 2361 f1be
000001d0: 37f1 4fbe 6016 823e 34fe 173e 41e9 0d3e
000001e0: d377 99be da0f 763e 5725 13be 1f79 f0bd
000001f0: 9343 9f3e 03b8 6b3e d0a9 913e 4e5d 64be
-0.063483156 -0.30254358 0.21091983 -0.04547586 0.33542198 0.36196065 0.4136922 -0.2433274
-0.40508935 0.0863032 -0.0070353234 0.23056036 0.56572056 -0.39809218 0.056401223 0.14225988
-0.4424115 -0.19729663 0.23774154 -0.11813049 0.30880377 0.36480996 -0.20780887 0.2976583
2.1660107e-05 -0.17586365 -0.3213599 -0.23015629 -0.23448686 0.33172226 0.26834008 0.23380515
0.21865685 -0.084930755 -0.37443253 0.047917765 -0.16344294 0.0972833 -0.31915274 0.25309715
-0.14052014 0.29756656 -0.4026385 -0.44527328 0.09975782 -0.2610225 0.11086113 0.12129242
0.1869552 0.26491642 0.14650339 0.36817262 0.36160553 -0.2850206 -0.30849794 -0.06724696
0.32855088 -0.16562325 0.304522 -0.2840382 0.33823064 -0.18273063 -0.33421582 -0.36545554
0.2262205 -0.21691595 -0.2105713 -0.07285585 -0.30212098 -0.023989765 0.2750287 0.09169546
-0.00030113698 -0.26886103 -0.014439868 -0.31950662 0.13296463 0.23869836 -0.50202394 -0.36580208
0.14731307 0.31221998 -0.27255467 -0.29507416 0.2039758 -0.40167826 -0.3100641 -0.18550229
-0.20250748 0.110580854 0.3106494 0.18004 -0.08084072 0.15637961 0.35554212 -0.11451862
0.22952726 0.2851757 -0.13856034 -0.36480427 0.06861704 -0.38234907 -0.3172391 -0.37936845
0.12749016 -0.3369984 -0.413961 -0.29884684 0.2627243 -0.00012092599 0.14420094 0.3648392
0.08849443 0.034291282 -0.42877367 -0.47144422 -0.2030686 0.25407696 0.14843065 0.1385851
-0.2997423 0.24029484 -0.14369713 -0.11741852 0.31106243 0.23019414 0.2844987 -0.22301218
