ball_data/model_9000.pth (torch_old, 853498 bytes, 13 tensors)

weight f4 [64, 1, 5, 5]
-0.072211295 0.037844826 0.025260909 0.035934046 0.05351949 -0.07196478 -0.058676053 0.14788868
0.0640161 0.084723644 -0.17278108 -0.032788467 -0.0929024 0.044295788 0.052607942 -0.24160716
-0.17239912 0.029337462 -0.028590476 0.046821434 0.034109537 -0.094783075 0.008071042 0.01811505
0.014960725 0.1875685 -0.14325087 0.040032424 -0.045906667 0.018819297 0.15225224 0.053632382
-0.10039382 -0.13469298 0.089948416 0.10276486 0.046530947 -0.116273575 -0.05250426 -0.04685303
-0.12065527 0.02895312 -0.02156908 -0.0333095 0.12752528 -0.008625462 0.10470628 0.00019035177
-0.06468619 0.009315821 0.101785615 0.043970473 -0.020691136 -0.1097117 -0.002449498 -0.04169311
0.12450897 0.109948054 -0.13272372 -0.06528117 0.04615649 0.06689348 0.025379602 -0.09399753
0.019026116 0.030190812 -0.097914584 -0.08219863 0.016829493 -0.08371004 0.044371523 0.037435245
0.1805502 -0.027087351 0.07666601 -0.07262399 -0.087415025 0.049927965 -0.04288643 -0.16524181
0.048833404 -0.040747885 0.023988282 -0.0574485 -0.12499768 -0.0041497448 0.0054923063 0.005993078
-0.0005739624 0.10343932 0.037602674 -0.105391525 -0.07639206 -0.04357732 -0.07366401 0.0694004
-0.046763856 0.09902614 0.04727917 -0.05565873 -0.04556779 -0.031078538 -0.0077598337 0.06339919
0.018956382 -0.036362085 0.01919422 0.07537489 -0.11251822 -0.057180304 -0.04779081 0.23886013
0.03400482 -0.12306577 0.10097403 0.01247391 0.12433487 -0.13525258 -0.1906452 -0.051773105
-0.06706831 -0.039910425 -0.11519745 0.041447986 0.18917823 0.0834734 -0.008509431 -0.11147527
0.032360326 -0.024678294 0.048906427 0.028765492 -0.03924271 0.10397463 0.054077175 -0.047964793
-0.0076812105 0.1369549 0.14987965 0.034886774 -0.09602653 -0.25513372 -0.17629912 -0.07387374
-0.065942384 0.11460473 -0.039404046 0.06799853 0.13216117 -0.058260664 -0.048759565 0.00215596
-0.0016420679 -0.02402278 0.0015831072 -0.009310159 0.028640406 0.017359782 0.03827074 0.049399678
0.003083282 -0.020713778 -0.018114142 0.03872445 0.0018407329 0.0011533706 0.0065109776 0.011334888
0.012683942 0.011746939 -0.042325087 -0.06259106 -0.032326743 -0.01674802 0.007786823 -0.06257487
0.06634213 -0.13126822 -0.10364035 -0.11183928 -0.10976298 -0.055554323 0.008126708 0.00052442687
0.14086959 0.11633112 0.17499892 0.057076328 0.14264993 0.0060985433 0.014243861 0.09040679
0.033567395 -0.040530693 0.018586576 -0.13624722 -0.014404809 -0.14877294 0.022090465 0.086979784
0.04658394 0.12570511 0.118709795 0.10873948 0.15524702 -0.037454188 -0.06304955 -0.051662866
-0.100501604 0.06647162 -0.10530672 -0.021985352 -0.1002694 -0.12176066 -0.06075346 -0.16081871
-0.09754095 -0.05522158 0.024760146 -0.018040074 0.07599568 0.14921297 0.04602108 0.034891613
0.083343074 0.12791304 -0.06109921 0.1464415 0.21258 0.02986471 0.05088211 -0.20686683
-0.10325667 -0.055720534 -0.077154 -0.0007345506 -0.15349814 0.0044597946 0.02525159 -0.0021691828
0.16911909 -0.14320424 -0.07607257 0.05729022 0.030331016 0.036298133 -0.07289075 0.006713472
-0.04220043 -0.006036239 -0.09718261 -0.060801562 0.021117346 -0.019459805 -0.06798268 0.045013018
00000000: 84e3 93bd 2d03 1b3d f7ef ce3c 942f 133d
00000010: 4137 5b3d 4562 93bd 4d56 70bd 2170 173e
00000020: df1a 833d 9783 ad3d 86ed 30be 334d 06bd
00000030: 9d43 bebd 806f 353d 6d7b 573d de67 77be
00000040: 6589 30be 1e55 f03c 9336 eabc d5c7 3f3d
00000050: 71b6 0b3d a11d c2bd 673c 043c 0366 943c
00000060: d41d 753c f511 403e 5bb0 12be 0af9 233d
00000070: a108 3cbd ed2a 9a3c 03e8 1b3e a1ad 5b3d
00000080: 469b cdbd f5ec 09be e036 b83d 6276 d23d
00000090: 3c97 3e3d d720 eebd b50e 57bd f6e8 3fbd
000000a0: 1c1a f7bd 182f ed3c a4b1 b0bc 8b6f 08bd
000000b0: fd95 023e cf51 0dbc 3f70 d63d 2a99 4739
000000c0: 317a 84bd 63a1 183c fa74 d03d 621a 343d
000000d0: 7580 a9bc 87b0 e0bd c287 20bb 65c6 2abd
000000e0: 8ffe fe3d 722c e13d bae8 07be 22b2 85bd
000000f0: 960e 3d3d 73ff 883d e2e8 cf3c c781 c0bd
00000100: a8dc 9b3c b952 f73c 7187 c8bd c157 a8bd
00000110: 01de 893c 2b70 abbd eabe 353d b355 193d
00000120: 27e2 383e 4be6 ddbc 1203 9d3d e3bb 94bd
00000130: a606 b3bd 4481 4c3d aea9 2fbd 2635 29be
00000140: 8905 483d 41e7 26bd 1383 c43c 1e4f 6bbd
00000150: c9fe ffbd 95fa 87bb cef8 b33b 9561 c43b
00000160: f775 16ba ffd7 d33d 4305 1a3d 83d7 d7bd
00000170: 7173 9cbd 227e 32bd 28dd 96bd cc21 8e3d
00000180: 758b 3fbd 38ce ca3d cea7 413d 69fa 63bd
00000190: 4aa5 3abd 6b98 febc 3446 febb 6fd7 813d
000001a0: 6a4a 9b3c 69f0 14bd 323d 9d3c 265e 9a3d
000001b0: f46f e6bd e535 6abd 4cc0 43bd c097 743e
000001c0: a348 0b3d e809 fcbd 79cb ce3d 5f5f 4c3c
000001d0: 48a3 fe3d a77f 0abe 7f38 43be 0910 54bd
000001e0: 1c5b 89bd 1d79 23bd a4ec ebbd 5dc5 293d
000001f0: f0b7 413e 1af4 aa3d 246b 0bbc 254d e4bd
00000200: 438c 043d 222a cabc 1b52 483d 9ca5 eb3c
00000210: f7bc 20bd a7f0 d43d 0780 5d3d bb76 44bd
00000220: aab2 fbbb e83d 0c3e 0d7a 193e 6fe5 0e3d
00000230: 8fa9 c4bd e3a0 82be c287 34be 1e4b 97bd
00000240: cd0c 87bd e2b5 ea3d 2366 21bd d042 8b3d
00000250: 4255 073e bca2 6ebd 1cb8 47bd 024b 0d3b
00000260: a83a d7ba 6ccb c4bc 4380 cf3a a389 18bc
00000270: 499f ea3c 1a36 8e3c c8c1 1c3d 5157 4a3d
00000280: e310 4a3b f1af a9bc 1c64 94bc 879d 1e3d
00000290: bf44 f13a b22c 973a 0a5a d53b f7b5 393c
000002a0: 4fd0 4f3c 3c76 403c 125d 2dbd be2f 80bd
000002b0: 0c69 04bd 2533 89bc 9b28 ff3b 4127 80bd
000002c0: 62de 873d 2d6b 06be 6441 d4bd fe0b e5bd
000002d0: 6acb e0bd ee8c 63bd e225 053c b179 093a
000002e0: 1e40 103e 033f ee3d eb32 333e dec8 693d
000002f0: d312 123e 4ad6 c73b 155f 693c 3227 b93d
00000300: f77d 093d 8303 26bd e042 983c 6484 0bbe
00000310: 2602 6cbc ef57 18be 10f7 b43c 7522 b23d
00000320: cdce 3e3d d7b8 003e 1f1e f33d ceb2 de3d
00000330: 13f9 1e3e 9069 19bd 1f20 81bd 719c 53bd
00000340: c9d3 cdbd 4622 883d 0dab d7bd a01a b4bc
00000350: 0b5a cdbd a75d f9bd 9fd8 78bd a9ad 24be
00000360: 8dc3 c7bd 0630 62bd cad5 ca3c c7c8 93bc
00000370: a0a3 9b3d 49cb 183e 9a80 3c3d 82ea 0e3d
00000380: c6af aa3d a3fb 023e 2a43 7abd c3f4 153e
00000390: 92ae 593e d6a6 f43c c269 503d e6d4 53be
000003a0: 3c78 d3bd 373b 64bd eb02 9ebd db8e 40ba
000003b0: 9e2e 1dbe 7823 923b 6cdc ce3c d928 0ebb
000003c0: 8e2d 2d3e 22a4 12be f0cb 9bbd 26a9 6a3d
000003d0: c078 f83c 5aad 143d bf47 95bd affc db3b
000003e0: 5cda 2cbd a5cb c5bb ad07 c7bd 0f0b 79bd
000003f0: 49fe ac3c 2b6a 9fbc 813a 8bbd 925f 383d

bias f4 [64]
-0.1469866 -0.030479891 -0.09626442 -0.19442591 -0.093378834 -0.053515635 -0.053727727 0.043754436
-0.097728096 -0.032309927 -0.06946251 -0.12724763 -0.14189099 -0.13090931 -0.17326207 -0.04567333
-0.1569846 -0.02232213 -0.1400946 -0.09279685 -0.015348327 -0.035928093 -0.0120292 -0.015487245
-0.11535116 0.05130168 -0.102720454 -0.0049258014 -0.048030436 -0.2282334 -0.07301288 -0.0071119196
0.006570385 -0.10236489 -0.14801921 -0.017765487 -0.20760484 -0.107864656 -0.13799085 -0.04719471
0.023835614 -0.11487588 -0.016108684 -0.10727777 -0.077849425 -0.045943342 -0.26426703 -0.07450546
-0.13391167 -0.13940719 0.04263523 -0.009946188 -0.3074937 0.006250018 -0.12336784 -0.10267089
-0.08464037 -0.19000357 0.00017031236 -0.11402525 -0.26658878 0.0076468396 -0.14344266 -0.0066632074
00000000: a883 16be f7b0 f9bc 4826 c5bd 9617 47be
00000010: 673d bfbd 3633 5bbd 9b11 5cbd da37 333d
00000020: ab25 c8bd 6a57 04bd 5c42 8ebd 344d 02be
00000030: df4b 11be 170d 06be 9d6b 31be f513 3bbd
00000040: 92c0 20be e6dc b6bc f574 0fbe 460c bebd
00000050: 8d77 7bbc 5629 13bd 1f16 45bc 37be 7dbc
00000060: 3b3d ecbd b621 523d 1a5f d2bd 9e68 a1bb
00000070: 90bb 44bd 04b6 69be c787 95bd 1b0b e9bb
00000080: 624c d73b afa4 d1bd 5992 17be ed88 91bc
00000090: 5d96 54be 25e8 dcbd 794d 0dbe 3d4f 41bd
000000a0: e842 c33c 0c44 ebbd 5cf6 83bc 73b4 dbbd
000000b0: 856f 9fbd 162f 3cbd 024e 87be 5296 98bd
000000c0: 2420 09be c2c0 0ebe 47a2 2e3d 56f5 22bc
000000d0: d06f 9dbe f3cc cc3b 47a8 fcbd 1e45 d2bd
000000e0: ee57 adbd 4c90 42be e095 3239 1286 e9bd
000000f0: 537e 88be 5792 fa3b a2e2 12be 0957 dabb

weight f4 [64]
0.40673774 0.36713073 0.08845663 0.44024888 0.4904764 0.4718618 0.0037454425 0.48486617
0.63086635 0.5092834 0.5810533 0.6509154 0.39685622 0.5581647 0.26328033 0.3512017
0.533074 -0.0025079858 0.7184503 0.039057508 0.45528573 0.54085314 -0.00019343077 0.59597045
0.77290344 0.20893222 0.35729408 0.00072256575 0.56621474 0.78448576 0.0046684467 0.00013701712
0.004141271 0.52814996 0.35596016 0.6257772 0.33987212 0.24327631 0.011676139 0.6581726
0.44967878 0.24122044 0.16369095 0.1098235 0.43510836 0.6268328 -0.15086797 0.7426524
0.1914943 0.49758658 0.35583207 0.19689217 0.4202899 0.00054220256 0.5140971 0.4621457
0.44066143 0.19306725 0.49118465 0.2365793 0.5231377 0.5579448 0.5553613 0.72726953
00000000: ee3f d03e 8ff8 bb3e c028 b53d 4d68 e13e
00000010: b91f fb3e df97 f13e 1976 753b 6140 f83e
00000020: 7580 213f 6660 023f e9bf 143f 64a2 263f
00000030: bd30 cb3e e2e3 0e3f aecc 863e b6d0 b33e
00000040: 8a77 083f 055d 24bb 5cec 373f c4fa 1f3d
00000050: 361b e93e 5a75 0a3f add3 4ab9 8591 183f
00000060: 00dd 453f 54f2 553e 40ef b63e 916a 3d3a
00000070: 73f3 103f 0fd4 483f c5f9 983b 41ac 0f39
00000080: 80b3 873b d634 073f 6940 b63e ef32 203f
00000090: b803 ae3e 6d1d 793e 474d 3f3c 007e 283f
000000a0: 4c3c e63e 7e02 773e 9a9e 273e 25eb e03d
000000b0: 86c6 de3e 1d78 203f 227d 1abe 781e 3e3f
000000c0: 1517 443e abc3 fe3e 9f2f b63e 1a9e 493e
000000d0: 3d30 d73e 9922 0e3a de9b 033f 5c9e ec3e
000000e0: 609e e13e 6cb3 453e 8e7c fb3e d841 723e
000000f0: 5aec 053f 78d5 0e3f 282c 0e3f 562e 3a3f

bias f4 [64]
0.054769814 0.08996259 -0.0032545056 0.23130733 0.14993326 0.14347267 0.0003273169 0.123489656
0.19616702 0.18290678 0.17153417 0.26841125 0.021922134 0.16377461 0.24439526 0.09207425
0.21581295 0.0030738518 0.20646377 0.007737939 0.026838662 0.22863533 -0.011302697 0.14537391
0.21168414 -0.1440661 0.11075333 0.005973981 -0.092190824 0.18670426 0.00014322768 -0.0044918447
-0.0017816718 0.06105171 0.008112525 0.20301494 0.14294599 0.011984831 -0.10732106 0.080451466
-0.028568568 -0.061543915 0.101735316 -0.0135789355 0.19644466 -0.07947052 -0.3568512 0.33797532
-0.004846711 0.11330357 0.12145108 0.009295682 0.124180414 -0.00066509575 0.19947569 0.07341973
0.0934363 0.043948423 0.24805978 0.017348118 -0.17127512 0.12566677 0.055825025 0.0924739
00000000: 5056 603d 4e3e b83d 8b49 55bb d4db 6c3e
00000010: 1b88 193e 80ea 123e bb9b ab39 25e8 fc3d
00000020: 02e0 483e ea4b 3b3e a7a6 2f3e 336d 893e
00000030: 0c96 b33c 88b4 273e c042 7a3e 6d91 bc3d
00000040: 12fe 5c3e ad72 493b 3d6b 533e 898e fd3b
00000050: c1dc db3c 611f 6a3e f22e 39bc e6dc 143e
00000060: bac3 583e 1086 13be a4d2 e23d 63c1 c33b
00000070: 8bce bcbd 672f 3f3e 632f 1639 5330 93bb
00000080: fc86 e9ba 5c11 7a3d 65ea 043c 26e3 4f3e
00000090: 6f60 123e 065c 443c 25cb dbbd bdc3 a43d
000000a0: a108 eabc 7915 7cbd 9b5a d03d 2f7a 5ebc
000000b0: ca28 493e 71c1 a2bd 33b5 b6be 1a0b ad3e
000000c0: 29d1 9ebb b40b e83d 58bb f83d eb4c 183c
000000d0: 4d52 fe3d d259 2eba 5b43 4c3e 155d 963d
000000e0: 885b bf3d 4303 343d 6203 7e3e a41d 8e3c
000000f0: bf62 2fbe caae 003e c8a8 643d f562 bd3d

running_mean f4 [64]
0.031951305 0.018141793 0.010620064 0.019931 0.00898596 0.014606863 0.0031964257 0.057841145
0.01771551 0.021275107 0.01370305 0.005851747 0.003852679 0.021668274 0.0013542635 0.013862124
0.005794539 0.003617924 0.014683466 0.010862167 0.031451806 0.014150873 -0.00011987705 0.059022207
0.014182495 0.060895205 0.002071854 -5.002269e-05 0.03825559 0.012726799 -0.00041090272 -6.1898514e-05
0.016654644 0.011881151 0.007931119 0.08387614 0.0045899814 0.0026869345 0.013160359 0.027519045
0.036484648 0.00439639 0.07798856 0.0093126055 0.0064120796 0.021983907 3.6127415e-06 0.01756477
0.012335209 0.017933428 0.060956515 0.031430613 0.0008421347 0.009462258 0.0065448196 0.014765118
0.017637389 -0.0007719829 0.05351189 0.011205516 0.009620372 0.050450355 0.0036840027 0.048074562
00000000: 5fdf 023d 199e 943c c7ff 2d3c 5646 a33c
00000010: d939 133c a051 6f3c 207b 513b d6ea 6c3d
00000020: 1e20 913c 2249 ae3c c282 603c 03c0 bf3b
00000030: 3a7d 7c3b aa81 b13c 8b81 b13a f61d 633c
00000040: 1ee0 bd3b b11a 6d3b ec92 703c 3bf7 313c
00000050: 9cd3 003d 10d9 673c 8066 fbb8 45c1 713d
00000060: b25d 683c 406d 793d f1c7 073b 74cf 51b8
00000070: e5b1 1c3d 1084 503c 6e6e d7b9 83cf 81b8
00000080: 526f 883c 29a9 423c 86f1 013c 41c7 ab3d
00000090: 8e67 963b 4817 303b 8c9e 573c 9f6f e13c
000000a0: ed70 153d 980f 903b 77b8 9f3d e693 183c
000000b0: 6c1c d23b 9817 b43c 6d72 7236 fee3 8f3c
000000c0: 9e19 4a3c 20e9 923c 8aad 793d 63bd 003d
000000d0: b4c2 5c3a 9607 1b3c ed75 d63b 65e9 713c
000000e0: 497c 903c e55e 4aba 492f 5b3d 5797 373c
000000f0: c49e 1d3c 08a5 4e3d 4f6f 713b d5e9 443d

running_var f4 [64]
0.008595822 0.002610485 0.0018006399 0.003844415 0.0012061679 0.0024221202 0.00022845196 0.0061567896
0.0041189445 0.0033399558 0.0021402435 0.0012866879 0.0008569793 0.005593307 0.00037607024 0.0018556365
0.0014351747 0.000108168475 0.0039853724 0.0010140123 0.0027682243 0.0017604232 6.943657e-11 0.013663449
0.0026156222 0.009298082 0.00037537035 3.064625e-11 0.011109261 0.0026564123 9.930486e-06 1.417284e-08
0.0007066201 0.0023101363 0.0013511567 0.013138842 0.001084314 0.00060067634 0.0020465862 0.005164806
0.0042144316 0.00082663534 0.012755318 0.0020494377 0.00076205283 0.0045423014 0.00034488188 0.0024602327
0.0028217144 0.003944871 0.008157313 0.004016655 0.00041117298 0.00016150248 0.0011418132 0.002452316
0.0033410243 8.477406e-05 0.005819292 0.0020741653 0.0020414868 0.010063914 0.000773632 0.011156587
00000000: 7ed5 0c3c ac14 2b3b 7303 ec3a 95f2 7b3b
00000010: 4718 9e3a 6fbc 1e3b 9b8c 6f39 e5be c93b
00000020: 36f8 863b 29e3 5a3b 5443 0c3b 15a6 a83a
00000030: e8a6 603a 0f48 b73b 4b2b c539 d438 f33a
00000040: 791c bc3a 82d8 e238 ba97 823b 9be8 843a
00000050: 196b 353b 00be e63a 50b1 982e a9dc 5f3c
00000060: dc6a 2b3b fc56 183c 5bcd c439 9cc8 062e
00000070: 9e03 363c 3417 2e3b 1d9b 2637 cf7c 7332
00000080: 793c 393a a865 173b 4c19 b13a 4c44 573c
00000090: 8a1f 8e3a b576 1d3a 0520 063b 883d a93b
000000a0: 3719 8a3b 8fb2 583a aefb 503c dc4f 063b
000000b0: 80c4 473a 96d7 943b 43d1 b439 db3b 213b
000000c0: 83ec 383b fa43 813b 40a6 053c 259e 833b
000000d0: b492 d739 fe58 2939 e5a8 953a 09b7 203b
000000e0: 16f5 5a3b bac8 b138 c2af be3b b8ee 073b
000000f0: 77ca 053b 1de3 243c 91cd 4a3a 1eca 363c

weight f4 [128, 64, 5, 5]
-7.721402e-08 6.393604e-08 -6.5469132e-09 -5.1491032e-08 -2.952183e-08 -6.600521e-09 3.3877182e-08 2.3581638e-08
-1.7286128e-07 -5.8857363e-08 3.6042632e-08 9.679609e-08 -2.3850637e-07 -3.1619936e-07 2.9109023e-07 6.837011e-08
1.7366182e-07 -4.0769237e-08 -3.3608824e-08 2.5399174e-07 1.6490139e-08 2.0698806e-07 -2.0425679e-08 -1.4134031e-08
3.303851e-07 4.1816293e-08 -7.5715e-09 7.806776e-09 -2.419358e-08 4.488671e-08 -7.032684e-08 -1.4766376e-07
5.9379895e-10 1.0984361e-07 -6.6314705e-08 -5.3662575e-08 -4.2633122e-08 1.6059806e-08 9.7799004e-09 -7.715008e-09
-6.0846645e-08 -7.9647954e-08 -2.8066443e-08 3.372157e-07 -1.6637346e-08 -2.5369136e-08 1.121028e-08 -5.6042527e-08
1.9519516e-07 1.498931e-08 1.268055e-08 2.7657658e-09 6.1023453e-09 -3.8399017e-09 -3.5204092e-08 -2.0821998e-08
-1.1309319e-08 9.3695345e-09 -6.753546e-09 -3.891724e-08 -1.3517622e-08 4.3583273e-10 3.757446e-08 9.20732e-09
7.3339873e-10 -2.1889871e-08 -1.02634505e-08 4.372172e-08 -3.8067673e-09 1.9263943e-08 -3.883155e-09 -8.452251e-09
-2.731765e-08 1.5227815e-08 -3.8328615e-08 6.6337117e-07 5.199099e-07 5.322228e-07 4.590769e-07 5.4539987e-07
4.3849445e-07 3.926901e-07 5.46587e-07 4.303674e-07 5.635234e-07 5.6903184e-07 1.7839201e-07 -5.0072035e-08
1.7803627e-07 1.5845904e-07 -1.03622625e-07 -2.3869177e-07 -5.546091e-08 -1.3145473e-07 -3.7392503e-08 -1.0347452e-07
1.2329774e-07 2.0838482e-07 -6.564296e-08 -4.210255e-08 1.8094575e-07 6.4621794e-08 -4.3342215e-08 8.4385556e-07
1.4410952e-07 4.59172e-09 3.912814e-09 3.626084e-07 5.865051e-07 8.6536494e-07 3.5154966e-07 -1.2187588e-08
-1.6037725e-07 6.876694e-07 2.1072232e-07 2.5426013e-07 7.176628e-08 -5.3136002e-08 1.8946163e-07 -8.8748806e-08
-2.3675382e-08 7.455424e-08 1.0427759e-07 7.606261e-07 -4.928485e-08 9.212903e-08 1.5083195e-07 -7.060896e-08
-4.803646e-08 -4.29321e-08 5.7736912e-08 -3.8287506e-08 -1.9227118e-08 -1.4579325e-07 1.9082972e-07 8.4922384e-08
-2.4438425e-08 -4.0794585e-08 -1.9919018e-07 1.3797032e-07 6.462339e-08 1.5565733e-07 -5.1534736e-09 -5.884778e-08
8.835185e-08 9.4826056e-08 -4.3555893e-08 1.1807941e-07 3.7329096e-07 6.235706e-07 -1.7577617e-09 -1.8094732e-09
-2.076584e-09 -8.255291e-09 -1.988413e-09 -2.1477242e-09 -9.870411e-10 -2.269458e-09 -4.699741e-09 -1.517902e-09
2.7977431e-10 -6.6119016e-10 -1.934027e-09 -1.5518593e-10 5.5064957e-09 1.7842787e-09 8.070627e-09 4.6303654e-09
-7.582581e-10 2.726811e-09 9.539449e-09 1.4460802e-08 1.0915273e-08 8.25311e-09 2.053691e-08 -6.850436e-08
-8.451239e-08 -1.18154844e-07 -1.2684505e-07 -9.1535924e-08 5.6861044e-08 9.673381e-08 2.0851246e-08 1.04566844e-07
1.447076e-07 3.7598195e-08 3.0018217e-08 -4.470296e-08 9.009531e-08 1.4032102e-07 1.8161671e-07 4.3568673e-07
5.7535635e-07 3.2450544e-07 1.2155529e-07 1.637231e-07 6.803313e-08 1.3880474e-07 2.3912165e-07 2.2665316e-07
-3.288063e-08 1.8829394e-07 5.9762606e-08 4.9050858e-08 3.3392212e-07 -2.899528e-08 -1.4247501e-08 4.18123e-08
-2.2152276e-09 1.9070693e-08 2.6643391e-07 1.5467565e-07 -1.1052785e-07 -1.6255855e-07 -1.8233289e-08 4.2948485e-09
1.9932589e-08 5.9282268e-08 1.4432257e-07 1.6317024e-07 5.7264566e-09 9.631804e-09 -4.411901e-08 -7.5276446e-08
-8.497623e-08 4.9210158e-08 -3.5551736e-08 1.0341736e-07 1.6793135e-07 1.02498824e-07 1.7704211e-07 2.241579e-08
-3.9253486e-08 2.6402072e-08 3.6862378e-09 6.825468e-08 -1.0205974e-07 -1.01319735e-07 8.1229096e-08 2.5736414e-08
1.928834e-08 1.536217e-08 8.493698e-08 9.995832e-09 3.174466e-07 5.140903e-08 5.190748e-08 7.115974e-08
6.8693154e-08 1.973325e-07 1.743865e-08 -1.5860293e-08 -9.154005e-08 8.2186e-08 -2.9811996e-08 -1.3488407e-08
00000000: dbd0 a5b3 364d 8933 42f3 e0b1 fd26 5db3
00000010: 3197 fdb2 ccca e2b1 5b80 1133 9290 ca32
00000020: bf9b 39b4 5bca 7cb3 4bcd 1a33 37de cf33
00000030: 110c 80b4 1cc2 a9b4 2347 9c34 ded2 9233
00000040: cc77 3a34 401a 2fb3 4b59 10b3 5c5c 8834
00000050: 33a6 8d32 7240 5e34 8b74 afb2 20d2 72b2
00000060: c85f b134 8099 3333 cf13 02b2 901e 0632
00000070: 3fd2 cfb2 76c9 4033 9706 97b3 818d 1eb4
00000080: e338 2330 2ae3 eb33 e568 8eb3 a07a 66b3
00000090: 9d1b 37b3 e3f3 8932 7504 2832 f78a 04b2
000000a0: ccaa 82b3 ed0a abb3 c316 f1b2 930a b534
000000b0: e9e9 8eb2 52eb d9b2 5597 4032 69b3 70b3
000000c0: d696 5134 d7c1 8032 a6d9 5932 de0f 3e31
000000d0: ccac d131 22f0 83b1 4f33 17b3 0fdc b2b2
000000e0: e94a 42b2 a6f7 2032 d20c e8b1 f525 27b3
000000f0: 213b 68b2 019a ef2f 8e61 2133 392e 1e32
00000100: 5998 4930 5608 bcb2 2253 30b2 8ac8 3b33
00000110: aecc 82b1 dc79 a532 986c 85b1 6535 11b2
00000120: 26a8 eab2 52ce 8232 c29e 24b3 8512 3235
00000130: f08f 0b35 13de 0e35 0c77 f634 9867 1235
00000140: 386a eb34 ebd2 d234 2cb9 1235 3f0d e734
00000150: 0845 1735 92bf 1835 068c 3f34 c90e 57b3
00000160: 3d2a 3f34 e424 2a34 2487 deb3 8c25 80b4
00000170: ea33 6eb3 0026 0db4 7e99 20b3 b835 deb3
00000180: d363 0434 62c0 5f34 99f7 8cb3 3ed4 34b3
00000190: fd49 4234 35c6 8a33 4527 3ab3 5085 6235
000001a0: 86bc 1a34 32c5 9d31 7a71 8631 85ac c234
000001b0: 5370 1d35 6d4b 6835 9ebc bc34 9461 51b2
000001c0: 2a34 2cb4 4898 3835 e942 6234 3f81 8834
000001d0: ee1d 9a33 a737 64b3 d16e 4b34 2c96 beb3
000001e0: b75e cbb2 a01a a033 36ef df33 d42d 4c35
000001f0: 44ad 53b3 78d8 c533 5ff4 2134 b0a1 97b3
00000200: a550 4eb3 5864 38b3 68fa 7733 8f71 24b3
00000210: e128 a5b2 588b 1cb4 e0e6 4c34 935e b633
00000220: aaec d1b2 1f36 2fb3 fbe0 55b4 fe24 1434
00000230: 16c7 8a33 c322 2734 6f12 b1b1 d2bf 7cb3
00000240: f1bb bd33 2da3 cb33 3612 3bb3 d892 fd33
00000250: b868 c834 7263 2735 be95 f1b0 2eb1 f8b0
00000260: a7b3 0eb1 27d3 0db2 88a4 08b1 2a97 13b1
00000270: 6ca8 87b0 baf4 1bb1 5c7b a1b1 6e9e d0b0
00000280: bcce 992f 1fbf 35b0 c3e7 04b1 f5a0 2aaf
00000290: a633 bd31 ba3a f530 fea6 0a32 2019 9f31
000002a0: ac6d 50b0 9162 3b31 f1e2 2332 486f 7832
000002b0: e185 3b32 90c9 0d32 2569 b032 ac1c 93b3
000002c0: 2e7d b5b3 50bc fdb3 e732 08b4 6892 c4b3
000002d0: 6137 7433 f9bb cf33 601c b332 3b8e e033
000002e0: ec60 1b34 a77b 2133 61ed 0033 6dff 3fb3
000002f0: 6c7a c133 26ab 1634 6c02 4334 54e8 e934
00000300: 3072 1a35 b037 ae34 dd84 0234 ddcb 2f34
00000310: 9c19 9233 5b0a 1534 a160 8034 f25d 7334
00000320: a338 0db3 d82d 4a34 d756 8033 fdab 5233
00000330: e845 b334 4c11 f9b2 2cc5 74b2 1c95 3333
00000340: b23a 18b1 e6d0 a332 660a 8f34 eb14 2634
00000350: 545b edb3 c18b 2eb4 6d9f 9cb2 e391 9331
00000360: 3a38 ab32 8b9d 7e33 16f7 1a34 e533 2f34
00000370: 72c2 c431 1f79 2532 5d7d 3db3 aaa7 a1b3
00000380: 2d7c b6b3 245b 5333 8cb1 18b3 4b16 de33
00000390: 9e50 3434 531d dc33 f718 3e34 d88c c032
000003a0: aa97 28b3 c5ca e232 fb50 7d31 6893 9233
000003b0: ef2b dbb3 1d95 d9b3 2b70 ae33 f912 dd32
000003c0: 82af a532 c5f5 8332 9966 b633 22ba 2b32
000003d0: 876d aa34 d4cc 5c33 e1f0 5e33 7bd0 9833
000003e0: 7684 9333 58e2 5334 ffcb 9532 273d 88b2
000003f0: ad94 c4b3 3b7e b033 a30a 00b3 a4ba 67b2

bias f4 [128]
5.4156654e-08 -0.0019192632 -0.067497194 -4.936209e-09 -0.11421012 -0.11710245 -0.1786503 -0.05310778
-0.03658301 8.792219e-05 1.39e-43 -0.0013833934 -0.043835003 -0.071238644 -5.4207314e-09 -0.08952962
-0.06550414 -0.0015040907 -0.068410486 -0.001739138 -0.17520659 -0.072211824 -0.026534064 0.0002512801
7.02e-43 -0.0034762141 -0.048334163 -0.031115623 -0.0042852634 -0.083001964 -0.14347114 6.0521706e-05
0.004891367 -0.0012032896 -0.032158136 -9.884272e-09 -0.034749325 -9.6552445e-05 -0.011648041 -0.109589964
-0.005599874 -0.13958319 -0.0034081412 0.005049075 -0.07981663 -0.005612532 -0.05511581 -0.13849305
-0.18488936 -0.034109615 -0.01189012 -0.10120519 -0.2118553 0.007033979 0.006377673 -4.925566e-07
-0.06801456 0.00097458466 -0.12011827 -0.09025547 -0.17412905 -0.010936094 -0.042596154 -0.00076386036
-0.15937209 -0.004087357 -0.017139321 0.00044426945 -0.060560256 -4.1949336e-15 0.011473448 -0.0063029146
1.49e-43 0.0010030958 5.702414e-18 -0.033541687 -0.089368485 -0.07622233 0.0006332894 -0.00502733
-0.02311695 -0.09179117 -0.0019480954 -0.00665037 -0.14463286 -0.050286036 0.0010490692 -0.066192955
-0.0008998122 -0.013310803 -0.022051621 -0.18558736 -1.52223665e-05 -0.06821972 -0.040485103 0.0023120614
-0.09629103 -0.08202684 -0.0010349423 -0.006849417 4.9887007e-05 -0.043553587 -0.0026016 -0.08683852
-0.10149418 -0.08737643 -0.01191549 -0.03103212 -0.00567775 -1.2e-43 -0.00080896204 -0.0072796964
-0.00016757818 3.652546e-12 -0.044114824 -0.029116217 0.00045022636 -0.11298368 -0.016814029 -0.004679394
-0.01431689 -0.10764603 -0.05105672 -0.003213913 -0.08608816 -0.09785371 -0.058114592 -0.02513798
00000000: df99 6833 c98f fbba f83b 8abd 5b9b a9b1
00000010: ffe6 e9bd 69d3 efbd 1bf0 36be 8b87 59bd
00000020: 11d8 15bd de62 b838 6300 0000 fb52 b5ba
00000030: 558c 33bd 91e5 91bd 4241 bab1 4e5b b7bd
00000040: 0927 86bd e924 c5ba cc1a 8cbd caf3 e3ba
00000050: 5b69 33be cbe3 93bd f75d d9bc 3ebe 8339
00000060: f501 0000 32d1 63bb 0bfa 45bd 31e6 febc
00000070: 656b 8cbb effc a9bd 19ea 12be b0d8 7d38
00000080: c347 a03b b3b7 9dba 40b8 03bd 7dcf 29b2
00000090: 4f55 0ebd 337c cab8 6dd7 3ebc b470 e0bd
000000a0: 267f b7bb e5ee 0ebe 1f5b 5fbb b672 a53b
000000b0: e776 a3bd 55e9 b7bb 1ec1 61bd 1fd1 0dbe
000000c0: a353 3dbe 86b6 0bbd c7ce 42bc ab44 cfbd
000000d0: 99f0 58be 4b7d e63b ccfb d03b 3b38 04b5
000000e0: 384b 8bbd 457b 7f3a 9100 f6bd dcd7 b8bd
000000f0: e34e 32be 4e2d 33bc 4e79 2ebd cd3d 48ba
00000100: 7032 23be 3cef 85bb c367 8cbc d6ec e839
00000110: 080e 78bd 6f23 97a7 21fb 3b3c ae88 cebb
00000120: 6a00 0000 4f7a 833a c761 d222 0263 09bd
00000130: d306 b7bd 741a 9cbd 5503 263a 4dbc a4bb
00000140: c25f bdbc 02fd bbbd 3c57 ffba 59eb d9bb
00000150: a31a 14be bbf8 4dbd ec80 893a 2c90 87bd
00000160: 60e1 6bba 8e15 5abc 9aa5 b4bc 9d0a 3ebe
00000170: 9163 7fb7 c8b6 8bbd b5d3 25bd f485 173b
00000180: 3b34 c5bd b0fd a7bd e7a6 87ba 1371 e0bb
00000190: c43d 5138 3f65 32bd 9b7f 2abb 65d8 b1bd
000001a0: 2edc cfbd 6af2 b2bd 3039 43bc 1337 febc
000001b0: 6b0c babb 5600 0080 8610 54ba 858a eebb
000001c0: edb7 2fb9 3683 802c bfb1 34bd 2285 eebc
000001d0: 5c0c ec39 fd63 e7bd 93bd 89bc 9a55 99bb
000001e0: 6491 6abc 8675 dcbd da20 51bd 83a0 52bb
000001f0: fd4e b0bd 8767 c8bd 9109 6ebd 2aee cdbc

weight f4 [128]
0.00050179416 0.0023672 0.7170092 1.853594e-06 0.53645056 0.44244447 0.6118542 0.4008072
0.31101885 0.00026520016 3.9e-43 -0.0016872783 0.19207932 0.27736893 1.5749763e-05 0.5070875
0.9105786 0.00784367 0.42929986 0.0042224787 0.5377465 0.2711614 0.21764125 -0.0019809795
-7.3e-43 -0.0006343118 0.26283845 0.16598259 -0.0011172562 0.43641466 0.45200858 -0.0042945957
-0.0034813194 0.0004022499 0.5010345 0.00018383352 0.37720284 -9.786117e-05 -0.00237303 0.6697725
-6.691723e-05 0.7344197 -2.2481703e-05 0.010554369 0.47497362 0.07538522 0.296203 0.8394446
0.8849227 0.23352416 0.098207876 0.6836032 0.6706389 0.042684805 0.22364144 0.00014231044
0.65591264 0.0023367943 0.5314912 0.6988609 0.96665967 0.1787155 0.7048125 0.026260315
0.87873435 0.001626192 0.25382107 -0.00053592183 0.5766889 2.2223594e-10 0.5324884 0.09094036
-4.2e-43 0.0046426165 9.3054525e-14 0.4114988 0.68070734 0.8517971 -0.0016638212 0.008176681
0.23392773 0.9054076 -0.0005270869 0.03253345 0.8691281 0.46324772 0.028063396 0.5657671
0.10337275 0.38015133 0.755332 0.93386567 1.02416525e-05 0.4251218 0.690026 0.050963923
0.66077024 0.5291066 -0.0018708089 0.010987352 0.008964498 0.5876959 0.4846763 0.7580459
0.65055466 0.7676466 0.54033154 0.5133012 0.003851929 -3.27e-43 0.0014948616 -0.0020083892
-0.003733998 1.1602648e-10 0.3316277 0.0364607 0.0014397405 0.59655887 0.118661165 0.23636606
0.10407249 0.4843137 0.28603274 0.0015476466 0.4777194 0.59910685 0.42114416 0.39172977
00000000: d68a 033a 0723 1b3b ea8d 373f 01c9 f835
00000010: d354 093f 1588 e23e 7aa2 1c3f 9a36 cd3e
00000020: dd3d 9f3e 900a 8b39 1601 0000 aa27 ddba
00000030: 71b0 443e 4d03 8e3e 5c1e 8437 7dd0 013f
00000040: ae1b 693f bd82 003c 31cd db3e b85c 8a3b
00000050: c1a9 093f abd5 8a3e 59dd 5e3e 52d3 01bb
00000060: 0902 0080 f247 26ba c392 863e 57f7 293e
00000070: e670 92ba be71 df3e ab6d e73e aeb9 8cbb
00000080: d926 64bb 11e5 d239 cc43 003f 6fc3 4039
00000090: bb20 c13e d13a cdb8 d684 1bbb 3676 2b3f
000000a0: ea55 8cb8 ee02 3c3f 1797 bcb7 3bec 2c3c
000000b0: be2f f33e 9163 9a3d eba7 973e d7e5 563f
000000c0: 4b8a 623f f520 6f3e 3621 c93d 9f00 2f3f
000000d0: feae 2b3f 43d6 2e3d 4302 653e 2b39 1539
000000e0: e4e9 273f e724 193b cf0f 083f 8ce8 323f
000000f0: 0277 773f 3201 373e 986e 343f df1f d73c
00000100: bcf4 603f f325 d53a d6f4 813e 1b7d 0cba
00000110: e2a1 133f db59 742f 2951 083f f13e ba3d
00000120: 2c01 0080 1721 983b 488a d129 f9af d23e
00000130: d642 2e3f 600f 5a3f 9314 daba 7cf7 053c
00000140: c08a 6f3e cbc8 673f 342c 0aba cb41 053d
00000150: 2e7f 5e3f ce2e ed3e 35e5 e53c 1dd6 103f
00000160: 18b5 d33d 32a3 c23e 705d 413f d211 6f3f
00000170: 90d3 2b37 91a9 d93e 8ba5 303f 8cbf 503d
00000180: 3d28 293f 8873 073f ee35 f5ba 4b04 343c
00000190: d4df 123c 3d73 163f 7e27 f83e 4c0f 423f
000001a0: c08a 263f 7d84 443f 2b53 0a3f b567 033f
000001b0: a570 7c3b e900 0080 3bef c33a 2e9f 03bb
000001c0: 17b6 74bb 1a25 ff2e 1bcb a93e d157 153d
000001d0: adb5 bc3a 15b8 183f a004 f33d f209 723e
000001e0: f523 d53d f7f7 f73e e272 923e 67da ca3a
000001f0: a397 f43e 115f 193f 35a0 d73e ce90 c83e

bias f4 [128]
1.0564835e-05 0.13389106 -0.14546785 -6.683768e-07 -0.18805341 -0.18772656 -0.20549217 0.16421393
0.192912 -0.0053214026 5.548991e-16 -0.12200005 -0.21098873 0.1934522 3.9448228e-08 -0.12610878
0.21251835 0.10312123 -0.14954938 0.03521948 -0.19596824 -0.1810072 0.14214921 -0.10762838
-2.0318515e-17 0.06829543 0.18567525 0.152082 0.1631644 -0.19274811 -0.22014442 -0.07763456
-0.13875835 0.038086843 0.1826116 -2.800958e-07 0.15249458 -0.0027335705 0.12165473 -0.15572089
0.06653861 -0.18130216 0.15272515 0.15735014 -0.12275761 0.13182698 -0.09825343 -0.15267439
-0.17477703 -0.15059575 -0.05548433 -0.18618493 -0.19647045 0.12635261 0.14287242 1.1652684e-05
-0.19891435 0.07695811 -0.19429414 0.1722462 -0.19082269 0.11091244 0.18577325 0.14440341
-0.1808072 0.10930529 0.14430293 0.016032701 0.18010902 -2.6352016e-08 -0.15454099 -0.053735226
-9.804484e-16 0.12253048 4.554884e-09 0.17975126 -0.13410883 -0.15929557 0.1713305 0.13768743
-0.07741493 -0.19475414 0.12278172 0.116125844 -0.17667799 0.18472116 0.1461841 0.16956006
0.11221553 -0.06469164 -0.17777532 -0.20016748 0.009691945 -0.09416081 -0.17801206 0.03693782
-0.15654057 -0.18763512 0.09856708 0.14814138 -0.0013021369 0.19629559 0.16719455 0.2075511
-0.14276356 0.19948962 0.20200638 0.17220423 -0.18376468 3.6861528e-10 -0.053848904 -0.15290791
-0.010778156 6.830845e-06 0.19351335 0.17564109 0.080373 -0.1616119 -0.084463574 -0.05727224
0.124276966 -0.1465156 0.123428494 0.051640328 -0.19558366 -0.14881536 -0.14223826 0.13484961
00000000: 9f3f 3137 bd1a 093e 86f5 14be 816a 33b5
00000010: 1391 40be 643b 40be 8a6c 52be b227 283e
00000020: b98a 453e 295f aebb 54f0 1f26 2adb f9bd
00000030: 6e0d 58be 5518 463e c96d 2933 a922 01be
00000040: 699e 593e 3931 d33d 7923 19be 4d42 103d
00000050: e6ab 48be f459 39be 908f 113e 456c dcbd
00000060: bd67 bba3 79de 8b3d a721 3e3e 62bb 1b3e
00000070: 9214 273e c35f 45be 8a6d 61be defe 9ebd
00000080: ab16 0ebe f300 1c3d 89fe 3a3e 1360 96b4
00000090: 8a27 1c3e b425 33bb 1d26 f93d 4c75 1fbe
000000a0: 6545 883d 46a7 39be fb63 1c3e 6520 213e
000000b0: 5868 fbbd a7fd 063e 1839 c9bd ad56 1cbe
000000c0: c0f8 32be c635 1abe 8943 63bd 43a7 3ebe
000000d0: 8d2f 49be 9462 013e 264d 123e e67f 4337
000000e0: 34b0 4bbe 379c 9d3d 0bf5 46be 4f61 303e
000000f0: 0667 43be 1026 e33d 583b 3e3e 7dde 133e
00000100: 8625 39be 74db df3d 26c4 133e 0357 833c
00000110: 806e 383e b25c e2b2 fe3f 1ebe 7819 5cbd
00000120: 294c 8da6 43f1 fa3d 2f81 9c31 b710 383e
00000130: d353 09be 611e 23be 4371 2f3e effd 0c3e
00000140: b88b 9ebd a16d 47be fb74 fb3d 63d3 ed3d
00000150: 13eb 34be 8b27 3d3e 49b1 153e 27a1 2d3e
00000160: 41d1 e53d 0d7d 84bd bc0a 36be b4f8 4cbe
00000170: f7ca 1e3c 62d7 c0bd cb48 36be 1d4c 173d
00000180: 2c4c 20be 6c23 40be 8add c93d 60b2 173e
00000190: 77ac aaba b601 493e 0c35 2b3e 4788 543e
000001a0: 9c30 12be 0247 4c3e c3da 4e3e 4e56 303e
000001b0: cf2c 3cbe fda5 ca2f ab90 5cbd e493 1cbe
000001c0: dd96 30bc 8334 e536 5d28 463e 42db 333e
000001d0: 999a a43d 977d 25be 3dfb acbd 4c96 6abd
000001e0: ec84 fe3d 2f08 16be 14c8 fc3d cf84 533d
000001f0: 1547 48be 0e63 18be e8a6 11be 0416 0a3e

running_mean f4 [128]
6.7361693e-06 0.031212498 -0.012014099 3.4154368e-08 0.0055691227 0.06860145 -0.012388502 -0.0021582553
0.027017253 0.028516665 5.431e-42 0.11227123 0.037842102 -0.0035776806 -4.113296e-10 0.113012604
-0.0063767927 0.14347383 0.17052765 0.020621583 0.007288376 0.0014780823 -0.008693531 0.2172731
5.274e-42 0.013439722 0.0117199 0.07283275 0.1952945 -0.020561805 -0.020401055 0.04416839
0.20044613 -0.00014456108 0.11840991 9.518557e-09 0.032474093 -2.6793583e-05 0.120507285 0.002730372
0.002939484 -0.023346746 0.023704497 0.12078109 0.014505297 0.28607813 0.03175008 -0.017526176
0.008758931 0.44179988 0.016951753 0.014743836 -0.009247512 0.11686009 0.119524255 9.4154655e-07
0.013996654 0.1495783 -0.021933408 -0.028826667 0.030869793 0.075584665 0.0435527 0.06754296
-0.014862414 0.014918918 0.15984273 0.063892595 0.025850808 -1.110124e-15 0.36141816 0.19297269
4.884e-42 0.05180801 3.9641982e-17 0.07221154 0.018155713 0.0020508505 0.23526786 0.13659441
0.18106191 0.03345719 0.06062515 0.008232618 0.023612922 0.05934738 0.22620454 0.048919983
0.056003474 0.32791525 0.04723093 0.042857334 -4.746759e-06 0.07918903 0.09421708 0.045290004
-0.0033677525 -0.02548024 0.035834357 0.011234457 0.0006237089 0.09782016 0.1659631 0.0087377
0.08889666 0.027133523 0.06375795 0.03987375 0.00632277 3.234e-42 0.003938917 0.010770587
0.016679456 4.085424e-11 0.026715223 -0.00659678 0.07138345 0.012360255 0.19503152 0.34407786
0.05989876 0.034893446 0.012823045 0.012102889 -0.0007261109 0.07021462 0.2742848 0.05481635
00000000: 4107 e236 5ab1 ff3c c9d6 44bc 20b1 1233
00000010: 307d b63b eb7e 8c3d 25f9 4abc 8471 0dbb
00000020: 4953 dd3c c89b e93c 240f 0000 75ee e53d
00000030: 5200 1b3d 8577 6abb 7f21 e2af 2773 e73d
00000040: 6af4 d0bb ceea 123e cd9e 2e3e 98ee a83c
00000050: 54d3 ee3b 36bc c13a 506f 0ebc d77c 5e3e
00000060: b40e 0000 4832 5c3c d304 403c 5629 953d
00000070: 48fb 473e 3b71 a8bc 1d20 a7bc eae9 343d
00000080: c041 4d3e 5295 17b9 e580 f23d 0e87 2332
00000090: 8e03 053d c8c2 e0b7 86cc f63d 0af0 323b
000000a0: 5ca4 403b ad41 bfbc ef2f c23c 135c f73d
000000b0: a0a7 6d3c d578 923e 5f0c 023d 0e93 8fbc
000000c0: 9f81 0f3c 9833 e23e 67de 8a3c 2190 713c
000000d0: e082 17bc 5854 ef3d 22c9 f43d 96be 7c35
000000e0: 3952 653c 0e2b 193e b1ad b3bc e725 ecbc
000000f0: a6e2 fc3c 22cc 9a3d 5164 323d f753 8a3d
00000100: 7c81 73bc 7a6e 743c d0ad 233e 1fda 823d
00000110: 13c5 d33c 59fc 9fa6 cd0b b93e a29a 453e
00000120: 9d0d 0000 a334 543d fed0 3624 a5e3 933d
00000130: 4abb 943c 9067 063b 0fea 703e 68df 0b3e
00000140: 4b68 393e 680a 093d 1452 783d 1ae2 063c
00000150: e36f c13c 3d16 733d 2aa2 673e 5260 483d
00000160: e663 653d 82e4 a73e 3875 413d 2c8b 2f3d
00000170: 5946 9fb6 dc2d a23d e2f4 c03d 0382 393d
00000180: 83b5 5cbb f0bb d0bc 0cc7 123d ba10 383c
00000190: 6580 233a f055 c83d 3bf2 293e 9228 0f3c
000001a0: 740f b63d 1f47 de3c 8793 823d a852 233d
000001b0: 3d2f cf3b 0409 0000 0812 813b 1e77 303c
000001c0: 5ba3 883c c9ad 332e e2d9 da3c cd29 d8bb
000001d0: 7c31 923d ab82 4a3c 58b6 473e f92a b03e
000001e0: 6758 753d 6eec 0e3d c017 523c 324b 463c
000001f0: 7a58 3eba afcc 8f3d 0f6f 8c3e 1c87 603d

running_var f4 [128]
1.2138913e-10 0.007923519 0.025638577 1.0673878e-14 0.05738709 0.1248587 0.028378723 0.018816052
0.05126998 0.0010930062 6e-45 0.023288283 0.019280063 0.017826246 2.2910897e-16 0.28788143
0.025420576 0.055979416 0.37552008 0.004742279 0.029145127 0.04137367 0.0042958413 0.1088423
6e-45 0.00095843954 0.030838676 0.11816255 0.08314623 0.0067011933 0.010039985 0.005996263
0.054392442 3.484785e-08 0.21574752 6.477977e-16 0.061926126 7.748808e-09 0.056459974 0.037537944
0.00045864872 0.010663228 0.0045568952 0.043067116 0.04537505 0.2297271 0.04681387 0.010773157
0.058930833 0.5672026 0.008741478 0.038201623 0.03546181 0.0643422 0.1461156 6.484121e-12
0.08455433 0.049581762 0.0071841977 0.001773606 0.12266182 0.06765314 0.09586397 0.036146723
0.011992325 0.0026882447 0.1888691 0.0051421463 0.06593336 6.8574316e-30 0.28934985 0.1207711
6e-45 0.018483933 4.0719367e-33 0.134697 0.03494984 0.05903621 0.086276345 0.060020044
0.21407737 0.10928821 0.01923829 0.0032004034 0.07777875 0.087744236 0.1266218 0.100010425
0.03533849 0.4613556 0.10436365 0.060049415 2.4071528e-11 0.13121934 0.062251203 0.016585538
0.036027946 0.005214881 0.003995253 0.0046003917 1.0390788e-06 0.15761644 0.27360922 0.059371036
0.14143813 0.08911168 0.12987372 0.08091787 0.0016127141 6e-45 7.892049e-05 0.0027706581
0.0016075112 2.3604061e-21 0.05870986 0.00031136707 0.009544852 0.06612725 0.1653818 0.3138169
0.04395533 0.10163914 0.022981621 0.0013718914 0.018749993 0.2059994 0.57385164 0.09381761
00000000: 0178 052f a6d1 013c fe07 d23c 9348 4028
00000010: ba0e 6b3d ebb5 ff3d 7f7a e83c 1f24 9a3c
00000020: 7800 523d 3443 8f3a 0400 0000 12c7 be3c
00000030: 39f1 9d3c 5908 923c 8412 8425 3265 933e
00000040: d03e d03c ac4a 653d 2b44 c03e 1f65 9b3b
00000050: c3c1 ee3c 7077 293d 21c4 8c3b b6e8 de3d
00000060: 0400 0000 ca3f 7b3a 64a1 fc3c 35ff f13d
00000070: 9248 aa3d af95 db3b c07e 243c 4d7c c43b
00000080: 9cca 5e3d 9eab 1533 ebec 5c3e 09b7 3a26
00000090: 40a6 7d3d 9e1f 0532 9342 673d 63c1 193d
000000a0: ca76 f039 d2b4 2e3c 0252 953b 2567 303d
000000b0: 30db 393d 953d 6b3e e7bf 3f3d e581 303c
000000c0: 7561 713d 3134 113f 6b38 0f3c 4e79 1c3d
000000d0: 6740 113d d8c5 833d 549f 153e c523 e42c
000000e0: d22a ad3d 3f16 4b3d 6b69 eb3b 5878 e83a
000000f0: 1f36 fb3d bb8d 8a3d 5454 c43d 960e 143d
00000100: 757b 443c 432d 303b e766 413e 737f a83b
00000110: 1208 873d d215 0b0f aa25 943e d756 f73d
00000120: 0400 0000 9e6b 973c 4224 a909 03ee 093e
00000130: 9027 0f3d f4cf 713d a7b1 b03d 94d7 753d
00000140: 1937 5b3e 7fd2 df3d 9e99 9d3c dcbd 513b
00000150: 774a 9f3d 40b3 b33d 25a9 013e 44d2 cc3d
00000160: 18bf 103d cd36 ec3e 9cbc d53d 60f6 753d
00000170: 43bc d32d 5d5e 063e 1efb 7e3d 65de 873c
00000180: 0a92 133d 98e1 aa3b 9cea 823b e2be 963b
00000190: 7a76 8b35 3466 213e 8216 8c3e 0b2f 733d
000001a0: 28d5 103e 2f80 b63d 9efd 043e 45b8 a53d
000001b0: b561 d33a 0400 0000 1e82 a538 ee93 353b
000001c0: 20b3 d23a e558 321d c079 703d fb3e a339
000001d0: 0362 1c3c b96d 873d d959 293e 9cac a03e
000001e0: 810a 343d 2e28 d03d f443 bc3c 09d1 b33a
000001f0: 9699 993c 82f1 523e f1e7 123f 7223 c03d

weight f4 [1, 128, 1, 1]
-1.8635532e-06 -0.13979204 0.2984372 -6.2372687e-06 0.47321784 0.4279289 0.5631095 -0.31870633
-0.40188003 0.004269532 1.5668697e-16 0.11468763 0.43657258 -0.36707932 6.460009e-07 0.19774322
-0.64803535 -0.09538257 0.25224358 -0.029321 0.44170555 0.39785266 -0.1965956 0.10596143
-4.6113553e-18 -0.06334205 -0.32658225 -0.1886215 -0.15511553 0.46793583 0.42881945 0.0703177
0.1303312 -0.03907856 -0.40590325 2.6511532e-07 -0.21634445 0.004481093 -0.11860629 0.32258606
-0.05985026 0.42066413 -0.16904949 -0.19177784 0.22387947 -0.14822982 0.122917004 0.32278118
0.40371114 0.22038327 0.035046488 0.4678976 0.5504256 -0.13300683 -0.20170309 -9.17098e-06
0.53735304 -0.07122924 0.46549904 -0.39231858 0.5242823 -0.14474602 -0.45113066 -0.17288391
0.4017089 -0.10284943 -0.22045645 -0.018708987 -0.4165172 -7.04531e-08 0.2735622 0.0442234
2.2005912e-15 -0.12021032 1.5223435e-08 -0.38961402 0.28203225 0.34593704 -0.20955266 -0.15278558
0.06470801 0.50977093 -0.119051054 -0.12176783 0.43509364 -0.39662427 -0.14265764 -0.3208806
-0.12355191 0.061035715 0.41459367 0.43314895 -0.013763668 0.11182024 0.41619182 -0.026445268
0.32026872 0.4242314 -0.08780274 -0.15960701 0.00013774761 -0.49228427 -0.33914858 -0.5740113
0.2575537 -0.5068164 -0.45636347 -0.38099667 0.17564353 1.7572283e-09 0.04688183 0.16479939
0.00950269 5.0757782e-05 -0.4324653 -0.22009218 -0.071468726 0.31678107 0.081277475 0.031099297
-0.12982507 0.25748178 -0.18846641 -0.04652035 0.46872032 0.28037208 0.21170965 -0.22101164
00000000: 331f fab5 a525 0fbe c3cc 983e bb49 d1b6
00000010: 9c49 f23e 7f19 db3e f227 103f 7a2d a3be
00000020: 38c3 cdbe 6ee7 8b3b d5a5 3425 59e1 ea3d
00000030: 7186 df3e d2f1 bbbe d868 2d35 337d 4a3e
00000040: a5e5 25bf f057 c3bd 1226 813e 9832 f0bc
00000050: 3b27 e23e 58b3 cb3e 5b50 49be 4e02 d93d
00000060: 0521 aaa2 7ab9 81bd ca35 a7be ff25 41be
00000070: 9bd6 1ebe 4995 ef3e 398e db3e ba02 903d
00000080: 8b75 053e d710 20bd 8dd2 cfbe 2c55 8e34
00000090: 6689 5dbe 22d6 923b dbe7 f2bd 002a a53e
000000a0: 8c25 75bd 4a61 d73e 4f1b 2dbe 6961 44be
000000b0: a940 653e 8fc9 17be e9bb fb3d 9343 a53e
000000c0: 3ab3 ce3e 27ac 613e e88c 0f3d 4690 ef3e
000000d0: b1e8 0c3f f132 08be 418b 4ebe 0fdd 19b7
000000e0: f88f 093f a3e0 91bd e455 ee3e fbdd c8be
000000f0: 5d37 063f 4d38 14be 99fa e6be 7b08 31be
00000100: caac cd3e b9a2 d2bd 56bf 61be 9743 99bc
00000110: be41 d5be 004c 97b3 5810 8c3e 9923 353d
00000120: be91 1e27 d430 f6bd b0c4 8232 7d7b c7be
00000130: 8866 903e a91e b13e f994 56be d373 1cbe
00000140: a285 843d 5980 023f 0ad1 f3bd 6961 f9bd
00000150: 98c4 de3e 5612 cbbe d814 12be 764a a4be
00000160: c908 fdbd 9600 7a3d 9f45 d43e b3c5 dd3e
00000170: 0281 61bc 0302 e53d 1817 d53e bfa3 d8bc
00000180: 43fa a33e dc34 d93e ecd1 b3bd 0570 23be
00000190: 5870 1039 af0c fcbe e2a4 adbe 68f2 12bf
000001a0: 14de 833e b8be 01bf 79a8 e9be ff11 c3be
000001b0: e6db 333e f982 f130 2907 403d 2cc1 283e
000001c0: 2cb1 1b3c c1e4 5438 186c ddbe d85f 61be
000001d0: 325e 92bd 2131 a23e ce74 a63d f4c3 fe3c
000001e0: ddf0 04be a7d4 833e 57fd 40be 1f8c 3ebd
000001f0: 1cfc ef3e ee8c 8f3e 6aca 583e e050 62be
