ball_data/model_10000.pth (torch_old, 853498 bytes, 13 tensors)

weight f4 [64, 1, 5, 5]
00000000: 4388 b4bd 6850 103d 1c93 723c da4a 173d
00000010: 1ebd 773d 3b75 acbd f4d7 7dbd 350c 133e
00000020: f83f 953d ba64 cd3d feb7 36be 2c82 09bd
00000030: 0e3a b7bd b467 533d c6c3 643d fb29 76be
00000040: 7e3c 30be 8255 d63c 3fdb e1bc 8172 323d
00000050: 4076 983c 588d cfbd 3a1a 053b 4f69 5a3c
00000060: 2570 293c 2bae 4b3e 5c52 0dbe d16d 1a3d
00000070: 8c66 3bbd 7685 8e3c ed73 223e 4eb1 5b3d
00000080: 4bc6 d7bd 6e66 0bbe 54be b33d da93 c73d
00000090: 1a04 393d 4003 0dbe a9ca 6ebd 6843 66bd
000000a0: 23a2 01be 9b9a d43c d804 f7bc d860 55bd
000000b0: 97e4 fb3d f51e cfbb 659a dc3d b7b4 6137
000000c0: ab49 9cbd 4168 f6bb 7aea c23d cd46 353d
000000d0: dcdc 81bc 546f d0bd 0f63 a13b 0e02 1fbd
000000e0: 22db fe3d 813f dc3d ab6d fdbd 99aa 5cbd
000000f0: c26d 2a3d 294c 733d df5a 8c3c 4c6c c1bd
00000100: 7214 d13c b521 0b3d 8514 c8bd 9e6c 9fbd
00000110: cc0e 623c fbd5 99bd 29c5 3c3d bbe2 0f3d
00000120: 4e69 353e 6781 b3bc ecb0 9d3d 1841 abbd
00000130: 99ec d3bd b519 693d 60da 64bd 5d56 38be
00000140: 46ed 3d3d a50f 48bd 823c ce3c a817 89bd
00000150: d6bd 09be d03c 0dbc 6eb7 68bb 6900 3b3c
00000160: 0599 94bc eba5 c63d ad82 183d 5626 dfbd
00000170: 96c4 a1bd 9e28 5abd 6cd3 a6bd aae5 313d
00000180: 4c28 6dbd 7572 cc3d 3a5b 443d f459 59bd
00000190: b5d2 15bd f1fc 85bc 7e75 3a3c 4f22 953d
000001a0: 3d7d 993c aff3 11bd 278f 843c 7fb5 b03d
000001b0: 0d18 e0bd 2868 6bbd 73b6 67bd 0c6d 733e
000001c0: a171 033d 4882 01be 09e3 d23d 6f1f b43c
000001d0: 0e20 033e 1474 0dbe 0862 48be da66 24bd
000001e0: 90f6 6fbd 7758 40bd a42b cbbd 3ed7 903d
000001f0: ae42 533e 4d91 d03d 121f 5b3b b6aa d9bd
00000200: cdf2 133d 3a71 a1bc c2d4 8c3d 230d 403d
00000210: 83dd bcbc 3b5b e53d c9d2 793d fbbd 34bd
00000220: d73a 66bc b00a 083e 6047 183e 9b3c 203d
00000230: 7dc3 c5bd 3c2e 8fbe 1cec 36be e6f5 63bd
00000240: c11c 47bd 124a ee3d e767 1dbd 09a0 933d
00000250: 18dd 1a3e 146c 30bd dde6 dabc ee73 503a
00000260: 257b a3ba e8a6 50bc ad46 103a 36cf b5bb
00000270: 31b6 6f3c ef4a 073c d91a 993c 0a91 ca3c
00000280: 4f18 a93a bb64 3bbc f801 2bbc cea7 9e3c
00000290: 51ff 1fb9 248c a439 530d 303b 0951 ac3b
000002a0: f441 c43b 7bd3 a63b 7f08 9cbc fc3f f3bc
000002b0: f26a 8fbc 053e 27bc 0895 433b b70a 97bd
000002c0: 0ace 893d cfe2 0abe 0f28 d1bd eb8c e3bd
000002d0: 47c4 f3bd e06e 6cbd 21a8 203c 149e 993b
000002e0: 511a 173e 9319 dd3d d217 393e d232 813d
000002f0: d9c6 173e bcf0 1e3b 25c5 0e3c 9330 c43d
00000300: 7af7 2d3d 721e 1bbd a032 813c 62ca 1cbe
00000310: 7be2 c7bc 128b 1cbe 6166 af3c d74d b13d
00000320: a4da 143d 136c 083e cf98 f03d 400d dd3d
00000330: 0d31 203e 0304 45bd 4a9f 80bd 4826 7bbd
00000340: 9b49 d6bd 1a2d 8c3d 3042 ddbd c4b6 a0bc
00000350: a846 dfbd c49e f2bd e5ef 72bd f767 2dbe
00000360: c844 c8bd 8fff 4fbd c754 f43c 8e67 a1bc
00000370: 1b43 9d3d c890 213e 9419 573d a6f9 223d
00000380: e61d ce3d f3d7 023e c539 89bd 29ed 183e
00000390: 58a6 603e c90b 253d 5c5b 453d b901 57be
000003a0: 03af d6bd 8a52 6ebd 8274 8fbd cedb 173a
000003b0: a9ce 2bbe 4e0a d33b 9d35 f73c f5c3 973b
000003c0: b087 353e 8c59 1bbe 5af2 6fbd 76ba 953d
000003d0: cbc1 1f3d 629f 203d 2712 91bd d53e 9c3c
000003e0: 4856 05bd d13f 2cbb b8bb dbbd 73eb 60bd
000003f0: bcaa c73c 700a 5dbc abf7 8ebd aa0c 623d
-0.08815052 0.03523293 0.014805581 0.03693662 0.06048309 -0.084207974 -0.061973527 0.14360125
0.07287592 0.10028978 -0.17843625 -0.033571407 -0.0894662 0.05161257 0.055850767 -0.24039452
-0.17210576 0.02616382 -0.027570365 0.04356623 0.018611073 -0.10134381 0.0020309822 0.013330772
0.010341679 0.19890659 -0.13800949 0.037702385 -0.045752093 0.017397624 0.15864535 0.053635888
-0.10535868 -0.13613293 0.087765366 0.09744997 0.045169927 -0.13770771 -0.05829874 -0.056216627
-0.12659506 0.025952628 -0.030153677 -0.05209431 0.122994594 -0.006320829 0.10771636 1.3453121e-05
-0.076312385 -0.0075197523 0.09517379 0.044256974 -0.015852384 -0.10177484 0.004925139 -0.03882032
0.1244414 0.107543 -0.12374433 -0.053873632 0.04160858 0.059398804 0.017133174 -0.09444484
0.025522444 0.033967692 -0.09769539 -0.07784389 0.013797473 -0.07511517 0.046086464 0.035128336
0.17715952 -0.02191229 0.07699761 -0.08362025 -0.10347862 0.05690928 -0.05587232 -0.18001695
0.04636886 -0.048843045 0.025175337 -0.06693965 -0.13451323 -0.008620456 -0.0035509723 0.011413672
-0.018139372 0.09699615 0.037233997 -0.10895984 -0.07898824 -0.05326139 -0.08145794 0.043431915
-0.05789976 0.099827684 0.047938563 -0.0530643 -0.0365779 -0.016355963 0.011380551 0.072819345
0.018736476 -0.035632785 0.016181542 0.08628368 -0.10942087 -0.057472378 -0.05657048 0.23772067
0.032090787 -0.12647355 0.1029721 0.021987645 0.12805197 -0.13813812 -0.19568646 -0.04013715
-0.05858475 -0.046959367 -0.09920433 0.07072304 0.20630905 0.10183964 0.0033435267 -0.10628264
0.036120225 -0.019707311 0.06876518 0.04688753 -0.023054844 0.111990415 0.060992036 -0.044126492
-0.014052114 0.13285327 0.14870977 0.039120298 -0.09656427 -0.27964962 -0.17863506 -0.05565443
-0.048611406 0.116352215 -0.038429167 0.07208259 0.15123403 -0.04307182 -0.026721412 0.0007951845
-0.0012472613 -0.012735106 0.00055036956 -0.005548383 0.01463084 0.008257612 0.01868956 0.024727363
0.0012900921 -0.01143759 -0.010437481 0.019367125 -0.00015258534 0.0003138493 0.002686341 0.0052586836
0.0059893075 0.0050911284 -0.01904702 -0.029693596 -0.01750705 -0.010207658 0.0029843468 -0.073750906
0.06728752 -0.13563083 -0.10212719 -0.11110862 -0.11902671 -0.057722926 0.00980571 0.004688034
0.14756133 0.107958935 0.18075493 0.06308521 0.14821948 0.0024252376 0.008713995 0.09579577
0.04247234 -0.03787083 0.01577121 -0.15311578 -0.024399986 -0.15287426 0.021411123 0.08657425
0.036341324 0.13322477 0.11747896 0.10793543 0.15643711 -0.04809953 -0.06280382 -0.061315805
-0.10463258 0.0684454 -0.1080364 -0.0196184 -0.109021485 -0.118466884 -0.059310813 -0.1693419
-0.09778744 -0.05078083 0.029825581 -0.019702699 0.07678815 0.15777886 0.052514628 0.039788865
0.100642964 0.1277769 -0.06700472 0.1493422 0.21938455 0.040294442 0.04818283 -0.20996751
-0.104825996 -0.058184184 -0.07004644 0.00057929463 -0.16778053 0.0064404374 0.030176932 0.004631514
0.17727542 -0.15170878 -0.058580734 0.07310955 0.039003175 0.0392145 -0.070835404 0.01907293
-0.032552987 -0.0026283155 -0.10729164 -0.054912042 0.024373405 -0.013491258 -0.06980833 0.05518786

bias f4 [64]
00000000: 38f5 1cbe 7da6 abbc 10c9 bdbd 1f3f 39be
00000010: 8766 afbd bfc2 36bd 9826 12bd 20c0 e33c
00000020: 4a75 b8bd 1427 d7bc 9989 a9bd c5ad 05be
00000030: d734 18be 7539 1cbe 8284 1ebe cfdd 44bd
00000040: 5a4a 30be b990 8fbb 10e8 16be 4852 adbd
00000050: 05cf afbc addf c0bc c994 f6ba f543 6bbc
00000060: 06ea e8bd 312a 2e3d cef4 cdbd 0639 89bd
00000070: 955e 14bd 153a 7dbe 39bb 50bd 93db c2ba
00000080: 37fc b73b 5a10 e5bd edbb 2cbe ddd9 b6bc
00000090: 401a 68be 79d1 02be 89b0 e7bd 02e6 1abd
000000a0: 0443 cf3c b44b fbbd 9930 8fbc 8b58 eabd
000000b0: b8a2 bbbd 17d7 21bd 96d7 89be c0f2 65bd
000000c0: 64b1 04be 043e 1abe f4a6 363d 7247 1bbc
000000d0: 06b8 9ebe 8e9c ccbc bb3b 00be 0d1e e1bd
000000e0: 22b9 b3bd 5ce9 3ebe c5eb 09bc 6c6a d7bd
000000f0: 5f47 8bbe 9e95 38bb c43b 20be e9bf b9bc
-0.15327919 -0.020953411 -0.09266865 -0.18090485 -0.085644774 -0.044619318 -0.035681337 0.027801573
-0.09006746 -0.026263751 -0.08278198 -0.13054569 -0.14863907 -0.15256293 -0.15480235 -0.048063096
-0.17215863 -0.004381266 -0.14736962 -0.084629595 -0.02146102 -0.023544157 -0.0018812652 -0.014359464
-0.113727614 0.042520706 -0.100564584 -0.067003295 -0.036223013 -0.24729188 -0.0509598 -0.0014866464
0.005614783 -0.111847594 -0.16868563 -0.022320682 -0.22666264 -0.1277522 -0.11312968 -0.03781701
0.02530051 -0.122702986 -0.017479228 -0.114426695 -0.091618955 -0.039511766 -0.26922292 -0.056139708
-0.12958294 -0.1506272 0.044592813 -0.009477483 -0.30999774 -0.024976995 -0.12522785 -0.1099206
-0.08775546 -0.18643707 -0.008418028 -0.10518345 -0.2720289 -0.002816535 -0.15647799 -0.022674518

weight f4 [64]
00000000: 8b67 c83e 7600 a93e d092 873d 29de cf3e
00000010: da07 013f f3dd eb3e 536d a83a ece5 dd3e
00000020: b8e6 1c3f eb30 003f 0a57 103f 63eb 253f
00000030: 4fd3 ca3e 0468 093f 979a 8b3e 9434 bf3e
00000040: 8fc1 043f 93cc 1939 3bc7 333f 6fea 5c3c
00000050: b9f9 d83e 2877 0e3f 626a cab8 0423 123f
00000060: 0824 413f 206f 383e dc23 b43e 8348 33b8
00000070: cdb8 083f 0c52 493f fe2b 393b e23b 33b7
00000080: 662b 5a3a d8df 023f c434 ad3e 68f1 1d3f
00000090: 533f ac3e eb30 6e3e 9c66 193c 4d0f 293f
000000a0: 2353 da3e e1a4 6d3e e501 093e 0105 af3d
000000b0: dea1 e53e 4d7f 193f 7b21 37be 7553 3e3f
000000c0: 4a7c 323e 5622 f43e 4d22 a83e a204 0f3e
000000d0: f4d9 df3e 42e9 7f39 05b2 043f 4ae6 de3e
000000e0: ec02 db3e cb29 323e de50 e43e 9103 613e
000000f0: f40d 013f 0549 0e3f 5a73 093f 01b7 343f
0.39141497 0.33008164 0.06619799 0.40599182 0.50402606 0.4606777 0.0012849964 0.4333948
0.6128955 0.5007464 0.5638281 0.64812297 0.3961434 0.5367434 0.2726638 0.373448
0.51857847 0.00014667427 0.70225877 0.013483628 0.42378023 0.5565057 -9.651926e-05 0.5708468
0.75445604 0.18011141 0.3518361 -4.2744457e-05 0.53406984 0.7864082 0.002825498 -1.0683174e-05
0.0008322507 0.5112281 0.3382932 0.6169648 0.33642063 0.23260848 0.009362843 0.6603897
0.42641553 0.23207428 0.13379629 0.08545876 0.44850057 0.5995987 -0.17883866 0.74346095
0.17430225 0.47682446 0.3283867 0.13966611 0.43720973 0.0002440559 0.51834136 0.43535072
0.42775667 0.17398755 0.44592947 0.21974017 0.50411916 0.5558017 0.5369164 0.7059174

bias f4 [64]
00000000: fc6f 853d d8ab c23d bfc3 923b ed99 693e
00000010: 2026 113e b9cc 123e 220f cc39 6950 fb3d
00000020: d887 483e 9ad4 383e 6692 333e 929c 8a3e
00000030: 0d62 023d 82ab 2f3e 5f80 723e c82e bf3d
00000040: 86cd 5e3e f62b 90b9 65b4 5c3e 31d5 383b
00000050: 031f 433d c38b 713e 55ac b5ba a40a 183e
00000060: f9cd 653e 99f0 00be 49b6 e33d f2fe 9839
00000070: e9b8 aabd 015a 4f3e c6b7 04ba 144d 98ba
00000080: b7a6 5cb9 dd34 7f3d 549d ca3b 3ee1 553e
00000090: b99d 133e e6e6 ab3c f26a 7ebd 04f7 bb3d
000000a0: 4238 9bbc fdf3 47bd 67ab b13d 76a9 53bc
000000b0: 3bcf 4e3e 6e13 85bd 8804 b4be b0f9 b23e
000000c0: 4caa 33bc 302e f53d d2e9 f33d 0503 743c
000000d0: 2d10 023e 52da 2b3c 5e66 503e 84a4 9f3d
000000e0: 9050 c93d 5965 3e3d 18cd 813e 8ba5 bc3c
000000f0: e762 2abe 986e 013e 9cc8 733d 9138 d23d
0.065155 0.09505433 0.004478901 0.22812624 0.141747 0.14335908 0.00038921187 0.122711964
0.1958307 0.18049851 0.17536315 0.2707258 0.03183179 0.17155269 0.23681782 0.09335095
0.21758088 -0.00027498574 0.2155319 0.0028203244 0.047636997 0.23588471 -0.0013860563 0.14847809
0.22441854 -0.1259178 0.111187525 0.00029181648 -0.0833605 0.20249178 -0.0005062785 -0.0011619651
-0.00021042941 0.062306274 0.0061833058 0.20886704 0.14415635 0.020984124 -0.06211371 0.09177974
-0.018947724 -0.04881667 0.086752705 -0.012918821 0.2019624 -0.064978465 -0.35159707 0.3495612
-0.010965895 0.119717 0.11909832 0.014893298 0.12701483 0.010489063 0.2035155 0.07795051
0.09829819 0.04648337 0.25351787 0.023028156 -0.16639291 0.12639844 0.059517488 0.102646954

running_mean f4 [64]
00000000: f34c 1d3d f5d2 e33c c326 0a3c 2084 2c3d
00000010: b634 d33b 3848 9d3c 9927 5f3a d680 4d3d
00000020: 0571 b03c 8cff a03c f2c0 803c d4d2 d93b
00000030: 0521 9e3b 0fc3 c23c 75fb 8c3a fcbe 8e3c
00000040: 74a6 cb3b 19e6 dc38 4670 623c e0dc 653b
00000050: 700e 043d 4e97 733c d46a 9fb7 67e7 873d
00000060: 041e 8a3c 8dc7 783d 59c3 073c a8e8 ed3b
00000070: be76 2c3d 6f96 7e3c 037b c0b9 3a3d 80b7
00000080: 104d 4a3c b06f 423c 90da e13b f01f a63d
00000090: ebc8 413b 66fc 1b3b 4ab3 093c b41c 013d
000000a0: 3adc 253d 6440 733b 9962 943d f300 333c
000000b0: f4f3 903b 07da d63c b833 9e3b 76ae 153c
000000c0: 189b b83c 1feb 3d3c f097 873d c2f3 e03c
000000d0: 34a3 3c3c c8bd 803d 3fd6 013c 1c0c 4e3c
000000e0: ef3c 9e3c 1d33 153c de30 3c3d a88e 4f3c
000000f0: 32b5 6e3c 9532 363d c89c 1b3b 1694 293d
0.038403463 0.027810553 0.008432093 0.04211819 0.0064454926 0.019199476 0.00085126754 0.050171696
0.021538267 0.019653104 0.015717003 0.006647447 0.0048257136 0.023774652 0.0010756092 0.017425053
0.006214911 0.000105332765 0.013820713 0.0035074279 0.03224033 0.014867617 -1.9004023e-05 0.06635933
0.016860016 0.06073718 0.008286321 0.007260401 0.04210543 0.015538796 -0.00036712745 -1.52873e-05
0.012347475 0.011867449 0.0068925098 0.0811156 0.002956922 0.0023801564 0.008404562 0.031521514
0.040493228 0.0037117237 0.072453685 0.010925519 0.0044236127 0.02622701 0.0048279427 0.009135833
0.022534892 0.011591702 0.06620777 0.027459983 0.01151352 0.06286198 0.007924615 0.012576129
0.019316165 0.009106425 0.04594504 0.012668289 0.0145695675 0.044481833 0.0023744572 0.04140099

running_var f4 [64]
00000000: b99e 303c ce35 8b3b 0590 ab3a 576a 1b3c
00000010: 5b74 733a 5d53 503b a5e0 1138 1494 d33b
00000020: 1d3c a63b de87 543b 72bb 2c3b fce7 c33a
00000030: 2092 913a cfe7 c63b 5b90 aa39 b74f 163b
00000040: 3b6b e03a b223 bf34 c318 773b 13b0 8239
00000050: fb77 483b b29c 043b b5dd 822b eb2e 783c
00000060: 2c06 593b ad64 293c f777 903a ad6c fc39
00000070: 90f4 493c b0d4 653b 9e0d f835 a9e5 3a2c
00000080: 0567 ba39 b663 1c3b cd91 933a 6821 5a3c
00000090: dbb1 5d3a a2c8 113a ef92 783a 0543 c73b
000000a0: a4d7 913b 5fb6 433a a57d 373c 16f6 163b
000000b0: 5107 333a dd84 b33b 68ce ae3a baf9 af3a
000000c0: fd23 a43b 4f9a 343b c989 0d3c d779 5d3b
000000d0: b4a2 333b 8d15 e43b 7861 bf3a c451 2c3b
000000e0: 2019 703b 67e3 c23a 4f4f a53b 7065 0e3b
000000f0: 6c04 5b3b 5e08 173c 19ae 153a 52ec 313c
0.01078003 0.0042483574 0.0013089186 0.009485803 0.00092870527 0.003178797 3.477991e-05 0.0064568613
0.005073084 0.0032429616 0.0026356843 0.0014946456 0.0011106171 0.006070114 0.0003253248 0.0022935697
0.0017121801 3.5602494e-07 0.0037703968 0.00024926718 0.0030589092 0.0020235 9.298592e-13 0.015147905
0.003311525 0.010338944 0.001102208 0.00048146155 0.012326375 0.0035069399 1.8481403e-06 2.6559677e-12
0.0003555344 0.0023863143 0.0011258662 0.013313629 0.00084569835 0.00055612077 0.0009482344 0.0060809874
0.004450755 0.0007465835 0.01119939 0.0023034862 0.00068293983 0.005478485 0.001333666 0.0013425865
0.005009173 0.0027557795 0.008638808 0.0033794546 0.002741021 0.006960577 0.0014601192 0.0026293853
0.003663607 0.0014868797 0.0050448547 0.0021727942 0.0033419384 0.0092183035 0.00057098415 0.010859566

weight f4 [128, 64, 5, 5]
00000000: ab96 a6ad 5941 67ac 1bd0 65ad 9471 952d
00000010: b41d 99ad ca1f e2aa ee84 aaad af5b cbad
00000020: bc87 aa2e 8c60 31ad 9ae1 5c2d 1f5e 04ad
00000030: feed baad 7444 742e 3276 fe2d ffec e42d
00000040: 5245 d9ac 88af 492c 2282 6e2e db87 bbab
00000050: 6e8b 3f2e 8608 ce2c f8f0 efac 213b e5ac
00000060: bdf7 95ad e431 98ad b243 fdad 3efa ddad
00000070: c96b 0dae 75a3 24ae 5d11 18ae edae 81ae
00000080: a649 3aae 33a6 6bae 0c54 80ae 43cb 18ae
00000090: 3941 83ae bde8 98ae ab6e 86ae 7ea9 68ae
000000a0: e342 30ae 1094 f5ae da78 a0ae 63d6 00af
000000b0: 43e4 8fae 8689 6eae a65b ddae 6f6b 98ae
000000c0: 3f7e c4ae d6c4 13af ffd0 44ac d1cf a9ac
000000d0: 32b1 b9ac dda3 11ad 2bdb 0dad b20b 86ac
000000e0: 780b 69ad 6632 f6ac a2e3 85ad fb3b 40ad
000000f0: 9e66 b9ac 6c3f 92ad 21a3 adad 816b fbac
00000100: c7ee 0fad 5c08 16ad b2ab 2dad d253 eaad
00000110: 6b1d b3ad b95d b4ac 363d 49ad dcb8 55ad
00000120: ee80 43ad d177 c8ad 9a77 b8ad 766d ca2d
00000130: 6d6d 8a2d 2bb6 182d 0a95 5bad 5f7a dcad
00000140: eb6a 332e 3c25 d12d 6a6e 642c e279 5fad
00000150: aa91 c1ad b5e9 2a2e 5c0a b32e 53bd 942e
00000160: 3f8b 872e e968 b92d e88c 6f2e a5d9 b72e
00000170: 2f49 172e 108f e92d 4029 b42d f9ae 092e
00000180: 7b30 d52d 470e 7f2d 48d7 ba2d 88e5 172d
00000190: 5579 8d2e 15d5 88ad e540 d42e 1b15 362e
000001a0: 69c7 e92c b1b2 072b 4f68 1fae a5e1 932e
000001b0: 31e9 402d d514 6dad 9b93 8e2d 7f81 5aaa
000001c0: 5e52 92ad f98b 13ad 4dbe 652d b8ea 67ae
000001d0: 49a9 bcac f292 71ad 4e28 e02b e980 b22c
000001e0: c7dc e4ad ef94 fa2d ae1f 12ad cad3 b0ad
000001f0: 9df3 3fae a30a aaad b7b1 1a2e a0b1 eead
00000200: 6392 9d2d 3c50 11ae 2126 ccad 08cc 98ad
00000210: 16e9 09ae 2e77 b72d 3e49 a4ab 7cc9 41ad
00000220: ed04 21ad 5b4a fcad 7e56 ca2d 0e62 12ad
00000230: 0ca0 1d2c d4ab 62ad 6d6b 3aae d85c 7e2c
00000240: b148 c42c 05fd 8a2d 1ad1 d1ad 3eaf 122d
00000250: 4828 46ad f843 92ab a49d 4aa8 6fdf 88a7
00000260: 5f2f 7429 d6de f92a e478 362a 8072 04a9
00000270: 6cdd dca9 9240 a5a9 16f5 9e2a 8259 a6a8
00000280: af70 8e28 51d0 cba9 c6a6 f8a8 e43f 532a
00000290: 5c77 aa29 4226 4c29 7662 eaa7 673e 98a8
000002a0: 620e 9c2a 84a7 00a8 3cbd 5a2a 3e13 8a28
000002b0: 8ca2 002a 039f 352a 583d 46a8 14c2 3aae
000002c0: 662f 37ae 9eca 89ae 66ae d4ae d810 a7ae
000002d0: 0a49 e5ad e9ca 05ac abfb 93ad ce91 9bad
000002e0: 2a7b e42c 89cd edae 0be9 93ae 6da6 04af
000002f0: db5b 96ae ce8c c92d 3d92 41ae 953b 50ae
00000300: 63a4 4dae 15b5 ddad ddb7 bbac 5107 06ae
00000310: cbf0 27ae 0718 53ae 1dc8 1bae 4008 e52c
00000320: 4727 b9ad ca82 00ac 4026 79ad 8666 5cad
00000330: b3a4 8fad c988 72ad feae 67ad f977 0b2c
00000340: bf41 202c 641a 2cad 3e25 c62c df1d b9a9
00000350: 486d bcac d724 60ae f50d 1bad 9dbe 60ad
00000360: c82e 06ae d08c 9baf 3a44 9daf e7c3 0b2d
00000370: dc0c dcad d36b 4aae ae4c 8bae 20c5 8aae
00000380: 24af 9f2c b7c5 a7ad f158 b32d 6b62 44ad
00000390: e8fe f12d 0809 63ad ed1f 91ad a041 852c
000003a0: 13db 0dae d263 132e fdb3 b4ad 7802 d9ad
000003b0: 3310 03ad 8adf 3dac 62be 5c2d b2e4 33ae
000003c0: fd53 60ad 5bea 70ad 0beb 5eaf 0dc3 89ae
000003d0: 26a7 66ae 4f5a 84ad da5a 15ae ae91 82ae
000003e0: 0f45 882d 29a6 2bae 51a3 2e2d 066d 92ad
000003f0: 7fe3 732e ddef d72a ed7a e0ad fec9 e9ac
-1.8938925e-11 -3.286335e-12 -1.3063352e-11 1.6989778e-11 -1.7407277e-11 -4.0167723e-13 -1.9385795e-11 -2.3119144e-11
7.754816e-11 -1.0082723e-11 1.2555646e-11 -7.52423e-12 -2.1251442e-11 5.5539975e-11 2.8928946e-11 2.6025846e-11
-6.175207e-12 2.8661257e-12 5.4230516e-11 -1.3324857e-12 4.355221e-11 5.8558184e-12 -6.8195415e-12 -6.515136e-12
-1.7049357e-11 -1.7302555e-11 -2.8792833e-11 -2.5235921e-11 -3.215542e-11 -3.7434462e-11 -3.457622e-11 -5.897314e-11
-4.2356917e-11 -5.358043e-11 -5.835696e-11 -3.474133e-11 -5.968776e-11 -6.9535024e-11 -6.113273e-11 -5.2901232e-11
-4.0077174e-11 -1.1167611e-10 -7.297425e-11 -1.1717698e-10 -6.5434345e-11 -5.423708e-11 -1.00661965e-10 -6.931244e-11
-8.935474e-11 -1.3439502e-10 -2.7969291e-12 -4.826341e-12 -5.277689e-12 -8.278681e-12 -8.063587e-12 -3.8098075e-12
-1.3247063e-11 -6.997336e-12 -1.5221439e-11 -1.0927255e-11 -5.269409e-12 -1.6626443e-11 -1.9740267e-11 -7.1457844e-12
-8.181628e-12 -8.528369e-12 -9.8720355e-12 -2.6639944e-11 -2.0363008e-11 -5.126313e-12 -1.1439119e-11 -1.2148695e-11
-1.1113095e-11 -2.2790577e-11 -2.0971492e-11 2.3013352e-11 1.5737378e-11 8.680649e-12 -1.2481802e-11 -2.5065448e-11
4.079485e-11 2.3777084e-11 3.246204e-12 -1.2703146e-11 -2.2006248e-11 3.88611e-11 8.141818e-11 6.7638915e-11
6.163824e-11 2.1078654e-11 5.446746e-11 8.360538e-11 3.4398425e-11 2.6552566e-11 2.048195e-11 3.13056e-11
2.4236826e-11 1.4498242e-11 2.1241356e-11 8.634322e-12 6.4334905e-11 -1.5556037e-11 9.6521714e-11 4.1400754e-11
6.6443973e-12 4.820962e-13 -3.624506e-11 6.7248686e-11 1.0965715e-11 -1.3476516e-11 1.6209081e-11 -1.9407218e-13
-1.6634857e-11 -8.387063e-12 1.3059398e-11 -5.273179e-11 -5.362076e-12 -1.3731892e-11 1.5927344e-12 5.073376e-12
-2.6018644e-11 2.848785e-11 -8.3061735e-12 -2.0102937e-11 -4.3644744e-11 -1.9331486e-11 3.517339e-11 -2.7136349e-11
1.7913842e-11 -3.3040445e-11 -2.3209048e-11 -1.7371007e-11 -3.1357215e-11 2.0857618e-11 -1.167323e-12 -1.1015518e-11
-9.152884e-12 -2.8682104e-11 2.3003151e-11 -8.320912e-12 2.2399886e-12 -1.2884766e-11 -4.2386917e-11 3.614711e-12
5.5787254e-12 1.5801147e-11 -2.3853409e-11 8.338051e-12 -1.1263941e-11 -1.0392789e-12 -1.1247435e-14 -3.798983e-15
5.421997e-14 4.438591e-13 1.620679e-13 -2.94092e-14 -9.808373e-14 -7.338673e-14 2.82365e-13 -1.846852e-14
1.5814036e-14 -9.051148e-14 -2.7605857e-14 1.8762731e-13 7.570222e-14 4.5330283e-14 -6.50548e-15 -1.6902453e-14
2.7721147e-13 -7.1417515e-15 1.9427943e-13 1.5329423e-14 1.1425079e-13 1.6131198e-13 -1.100451e-14 -4.246388e-11
-4.165148e-11 -6.266031e-11 -9.671623e-11 -7.597273e-11 -2.6066722e-11 -1.9013075e-12 -1.6823728e-11 -1.768621e-11
6.4938237e-12 -1.08140226e-10 -6.726183e-11 -1.2064456e-10 -6.837527e-11 2.2913584e-11 -4.4013005e-11 -4.7346644e-11
-4.6757608e-11 -2.5205208e-11 -5.3352726e-12 -3.047457e-11 -3.818527e-11 -4.7997186e-11 -3.5420656e-11 6.5094874e-12
-2.1049508e-11 -1.8262497e-12 -1.41625045e-11 -1.2528317e-11 -1.6330359e-11 -1.378648e-11 -1.3169686e-11 1.9819686e-12
2.2773864e-12 -9.782928e-12 5.631633e-12 -8.220832e-14 -5.355414e-12 -5.0964424e-11 -8.813829e-12 -1.27752505e-11
-3.0509623e-11 -2.829439e-10 -2.8606612e-10 7.944734e-12 -2.5016815e-11 -4.602525e-11 -6.334609e-11 -6.31053e-11
4.5384963e-12 -1.9073505e-11 2.0389442e-11 -1.1163163e-11 2.7511729e-11 -1.2905461e-11 -1.649877e-11 3.787373e-12
-3.2254265e-11 3.351259e-11 -2.0543562e-11 -2.467114e-11 -7.450085e-12 -2.6982605e-12 1.2547826e-11 -4.090301e-11
-1.2751575e-11 -1.3694458e-11 -2.0274286e-10 -6.264687e-11 -5.2444403e-11 -1.5046768e-11 -3.395937e-11 -5.9375935e-11
1.5492078e-11 -3.902848e-11 9.927018e-12 -1.6646694e-11 5.545386e-11 3.835811e-13 -2.5520442e-11 -6.644684e-12

bias f4 [128]
00000000: 67d3 23af 3df0 9337 cb18 90bd 1672 abaa
00000010: b54a fbbd 3ab5 debd 10ce 2fbe 10fa 06bd
00000020: 3785 a7bc 387c 16b8 9801 0080 9451 c1ba
00000030: 6044 39bd e259 40bd 2dd8 97aa 95ea d3bd
00000040: aea9 25bd 43fc 3dbb 9fc1 9bbd 0937 0139
00000050: 6efc 3ebe e060 8fbd 97f1 c0bb e295 5abb
00000060: a902 0000 72f2 7ab6 6e07 2bbd 3648 f4bc
00000070: 13f3 6a3b a7a3 97bd 8ee7 18be 01ff e73a
00000080: c32d bc3a a6f6 fdb7 5507 9cbc 822e 472e
00000090: bd50 cabc d48a 4db6 5746 2dbb b7b3 d3bd
000000a0: bb1f 24ba 9213 15be 3033 503b 36e1 4abb
000000b0: 1c51 bebd 5116 d3ba a52c fbbc 8395 11be
000000c0: 4c73 37be 770d 03bd abb5 82b9 03b3 e0bd
000000d0: 444f 5dbe 7667 593a c061 fcbb 3c29 53b0
000000e0: 3ab3 75bd 4729 133b 45a0 f6bd 52cd bdbd
000000f0: 80bb 40be 83eb cebc 9250 37bd dbf8 feba
00000100: d2c7 2bbe f185 dd37 5de8 0dbd 0ba4 3e39
00000110: 3bfd 85bd 6a02 db9a fcfa 663c da4a 19bb
00000120: 5a02 0000 90d9 6c3b 75c4 018c 705f 7abd
00000130: dee9 a7bd 8a74 96bd 035e 8fbb cf43 07ba
00000140: bb3a 71b5 0f3a cebd 2ed1 453a d150 32ba
00000150: cd15 19be a1b6 88bd 0249 deb9 9d2d a1bd
00000160: 4962 47bb b194 3bbc 714b 2dbc d4b9 48be
00000170: 8e14 f3b8 f5d3 07bd 2be6 07bd 9dc8 94b9
00000180: 6f62 c9bd bb3d b2bd 73a4 1e3b 029c 0c3a
00000190: 4ccb 1fb5 70d7 08bd b8b4 3fbc 5198 c1bd
000001a0: 5d89 bbbd abd5 d4bd 90e6 aebc 2c73 41bd
000001b0: 3177 963b 7703 0000 0684 5e3b dce1 643b
000001c0: ec19 da36 018c 3520 6f9e 5ebd e5b3 55bb
000001d0: 7055 4dba 57fe e3bd 9ad4 e4bb 12fb 723a
000001e0: 8e0c 1dbc b946 b5bd 0e73 bbbc 9a80 4eba
000001f0: 7406 b7bd 5f94 e0bd 0942 18bd 3bf4 17bd
-1.4899869e-10 1.7635635e-05 -0.07035979 -3.0454865e-13 -0.122701086 -0.1087441 -0.1716845 -0.032953322
-0.020449264 -3.5878475e-05 -5.72e-43 -0.0014749044 -0.045231223 -0.04696072 -2.697299e-13 -0.10347477
-0.040445022 -0.002898947 -0.0760529 0.00012322901 -0.18650982 -0.07000899 -0.0058881748 -0.0033353497
9.54e-43 -3.7394025e-06 -0.041755132 -0.02981959 0.003585045 -0.07404261 -0.14932081 0.0017699898
0.00143569 -3.0274805e-05 -0.019046465 4.528867e-11 -0.024696702 -3.062819e-06 -0.002643963 -0.10337012
-0.0006260832 -0.14558247 0.0031768791 -0.003095699 -0.09292814 -0.0016104673 -0.030660937 -0.1421719
-0.17915076 -0.031995263 -0.00024930885 -0.10971644 -0.21612269 0.000829331 -0.0077020824 -7.681995e-10
-0.059985377 0.0022455023 -0.12042288 -0.09267677 -0.18821526 -0.025258785 -0.044754572 -0.0019452827
-0.16775444 2.6407624e-05 -0.034645427 0.00018180923 -0.065424405 -9.058018e-23 0.014097925 -0.0023390562
8.44e-43 0.003614042 -9.996918e-32 -0.061126173 -0.081989035 -0.07346447 -0.0043752207 -0.00051599456
-8.986496e-07 -0.100696675 0.0007546124 -0.0006802204 -0.14949723 -0.06675459 -0.00042397535 -0.07870028
-0.0030423573 -0.011449025 -0.010577069 -0.19602138 -0.000115909716 -0.033161122 -0.03317849 -0.00028378228
-0.09833228 -0.087031804 0.0024206906 0.0005363823 -5.952795e-07 -0.033408582 -0.011700802 -0.0945288
-0.09157059 -0.103923164 -0.021350175 -0.047228977 0.0045918454 1.243e-42 0.0033953204 0.0034924662
6.499924e-06 1.537762e-19 -0.054350313 -0.0032608446 -0.00078328606 -0.11132496 -0.006983352 0.000926898
-0.009585513 -0.0885138 -0.02288201 -0.00078774395 -0.08936778 -0.109657995 -0.03717235 -0.03709815

weight f4 [128]
00000000: 14c4 a236 910f 0b3b f8f1 313f cadd f62f
00000010: f2ab 073f 722b d33e 3b8f 173f 3085 c23e
00000020: 9e36 9c3e 6c4c fa38 6000 0080 486b 73bb
00000030: f7f1 213e b41a 9d3e f094 5133 b793 f23e
00000040: 939b 5a3f 6ba9 873b 204b cb3e fba6 88bb
00000050: c8ce 113f bd5b 833e 24a4 fb3d 6acf b7b9
00000060: 4102 0080 a9e9 b2b5 d4d8 6f3e e3cc f23d
00000070: 3338 603a 3d7f dd3e 12e0 ec3e 7f6f fd39
00000080: 10a4 723a 1d37 b936 5472 e03e d564 9a35
00000090: bd24 9c3e d374 0a36 7649 2cbb d532 253f
000000a0: 6840 403b 48c0 3d3f ec64 413b 7880 57bb
000000b0: 9185 f23e 951d 043c 14d2 5e3e 8af7 503f
000000c0: 3116 5c3f 5f68 3e3e eb9b 283d 3632 2e3f
000000d0: 7209 2d3f 5767 283b 561a 283e 5340 a335
000000e0: 2713 273f 7ad2 8fba f59c 093f ce10 203f
000000f0: 461c 743f 01cf 0c3e 6ad1 2b3f 710d 5f3b
00000100: c83d 5f3f 8065 52b9 70bf 313e 04bc aa3a
00000110: 2c0e 0c3f 7673 d223 72a2 f83e b52a 353c
00000120: ba00 0080 df22 613a 7d0d a019 0942 c13e
00000130: da71 273f 4694 573f d21c c0ba 626c 0f3b
00000140: 1724 133e 8f0e 6a3f 99fa 933b d76e 2fbb
00000150: a4f6 573f 788c da3e 3a1c 183b 11cc 0b3f
00000160: 1e4f 323d 7ad9 923e 7b88 3e3f 0d9b 6e3f
00000170: 8734 4d3a 1e4e ab3e 397c 283f 9aab 33b8
00000180: d595 283f be02 0c3f 5329 373b f2f6 ef3a
00000190: a695 463a b92e 163f 55bd d93e 36be 453f
000001a0: 82f7 193f e3fe 403f d0a1 063f b90a 033f
000001b0: aab4 8fbb 8801 0000 acea 5a3b 1ff5 033a
000001c0: fb6c f138 83e3 2326 3d5e b53e 6fd6 9239
000001d0: 1f89 d83b d3dc 1c3f b501 793d f86e 0c3e
000001e0: 47fb 5c3d ac40 da3e 8890 3c3e 5976 3f39
000001f0: afbb f63e da7e 0f3f 5a53 bb3e b83f a93e
4.8508027e-06 0.0021218995 0.6950984 4.490473e-10 0.5299674 0.41244084 0.5920293 0.3799224
0.3051042 0.00011935164 -1.35e-43 -0.0037142802 0.15814959 0.30684435 4.8797062e-08 0.47378322
0.8539364 0.0041400692 0.39705753 -0.0041702962 0.5695615 0.25655928 0.12287167 -0.00035059015
-8.09e-43 -1.3330038e-06 0.23422557 0.11855485 0.0008553296 0.43261138 0.46264702 0.00048338991
0.00092560146 5.5198457e-06 0.43837225 1.150324e-06 0.3049678 2.0631603e-06 -0.0026288903 0.6453069
0.0029335264 0.7412152 0.0029509617 -0.003288297 0.47367528 0.0080636935 0.21759826 0.81627715
0.8597136 0.18594502 0.04116432 0.68045366 0.6759254 0.002569636 0.16416296 1.2163167e-06
0.652636 -0.0010972761 0.5375512 0.6252564 0.9535564 0.1375084 0.67116416 0.0034035111
0.87203646 -0.00020064972 0.17358184 0.0013026004 0.54709125 2.2817145e-17 0.48561436 0.011057545
-2.6e-43 0.0008588265 1.654906e-23 0.37745693 0.654081 0.8421062 -0.0014657027 0.002188467
0.14369236 0.91428465 0.0045159576 -0.0026768947 0.8436072 0.42685294 0.0023210184 0.54608256
0.043532483 0.28681546 0.74427 0.9320534 0.00078279566 0.33458036 0.6581455 -4.2836742e-05
0.65853626 0.54691684 0.0027948215 0.0018307848 0.00075754 0.58665043 0.4252726 0.77243364
0.6014329 0.75388926 0.52590656 0.51188236 -0.0043855505 5.5e-43 0.0033404035 0.00050337793
0.00011512075 5.686032e-16 0.3542346 0.00028007056 0.006608143 0.6127445 0.060792644 0.13714206
0.053950574 0.42627466 0.1841451 0.00018259267 0.48190066 0.56052935 0.3658703 0.33056426

bias f4 [128]
00000000: f79f 9335 9a9a ff3d b160 20be 42b1 a935
00000010: 0979 4fbe b1a1 4cbe 0871 62be 4723 323e
00000020: 69d2 4f3e 463c 79ba bfc6 c99c a11f e1bd
00000030: b55e 60be 01a3 4f3e e21c b5b2 19ab 06be
00000040: 0cb1 6a3e 61c6 b63d 04ea 1fbe 1319 ad3c
00000050: a7d6 56be 16e2 44be 0031 0e3e c831 c5bd
00000060: 1783 061b c497 623d cbe6 433e c58e 173e
00000070: e100 1a3e 6f09 54be a31d 6cbe e242 83bd
00000080: f99a 00be 6285 f53c bc9a 453e 337e efb3
00000090: 2b05 1d3e 08f9 5fba 4d09 e33d 4599 2bbe
000000a0: fcf0 523d 6c07 48be 20b3 143e d917 1c3e
000000b0: c6c6 07be 205d fd3d ca21 bebd f9b5 28be
000000c0: f982 41be dc96 1abe a1a9 ffbc e1ce 4dbe
000000d0: f32a 5abe c51b f03d dd07 113e f6e1 2c36
000000e0: 2556 5cbe f678 813d f381 55be 4f68 3c3e
000000f0: a1e6 54be 917f de3d 4c39 4c3e 2087 0e3e
00000100: 3e1c 46be c07e c63d 1071 153e 42c6 d73b
00000110: 5cf3 453e ead2 2432 8841 25be d29f 1fbd
00000120: d0c5 809c 455a e33d 5d92 062d d128 433e
00000130: e0f5 14be 8ade 2fbe 469c 2a3e b9c9 043e
00000140: 3901 7dbd 4fcd 57be f87f e33d 501a db3d
00000150: 02ad 43be 3432 483e a9b8 0a3e 297f 373e
00000160: 2ed0 d43d 8488 62bd 2d15 44be 5c2d 5abe
00000170: 8f58 9e3b 5c2e b9bd 4d93 43be 2676 b43c
00000180: 0d7b 2cbe 11ba 4dbe 7254 ab3d b3f0 0e3e
00000190: 6b83 0eb8 7ee1 573e a684 343e d472 653e
000001a0: d33d 1abe 1438 5b3e 235e 5b3e 7b2e 3e3e
000001b0: c19a 2fbe 7d33 ca27 4a10 1fbd 71e5 13be
000001c0: 6565 2abb ee7a 0eb5 ae06 533e daa4 2f3e
000001d0: e595 893d 311c 31be 1ab3 93bd 13ee 0cbd
000001e0: 7306 ec3d 54cf 1bbe 0369 fd3d 7b3c 203d
000001f0: 9a31 57be 9074 21be 6b2e 14be b8a3 0f3e
1.0998909e-06 0.1248066 -0.15661885 1.264307e-06 -0.20261015 -0.19983555 -0.2211343 0.1739627
0.20295109 -0.00095075776 -1.3352439e-21 -0.10992361 -0.21911128 0.20277025 -2.1084308e-08 -0.13151206
0.229191 0.089245565 -0.15616614 0.02113012 -0.20980321 -0.1922687 0.1388588 -0.09628636
1.1126578e-22 0.055320516 0.1913101 0.14800556 0.15039398 -0.20706724 -0.2305818 -0.06409241
-0.12559117 0.029970828 0.19297308 -1.115226e-07 0.15334003 -0.00085438835 0.11085758 -0.16757686
0.05149935 -0.19534081 0.14521456 0.15243472 -0.1325942 0.12371278 -0.092837885 -0.16475667
-0.18897618 -0.15096611 -0.031208815 -0.2009845 -0.21305446 0.117240466 0.14163156 2.5761524e-06
-0.21517237 0.063218996 -0.20850353 0.18399166 -0.20791103 0.10864175 0.19943732 0.13918734
-0.19346711 0.096921444 0.14593911 0.0065849135 0.19331115 9.594013e-09 -0.1613828 -0.038970776
-8.521463e-22 0.11101202 7.649517e-12 0.19058539 -0.14546919 -0.17174736 0.16661176 0.12967576
-0.061768744 -0.21074413 0.111083925 0.10698378 -0.19108966 0.19550401 0.13547005 0.17919602
0.103912696 -0.055305973 -0.19148703 -0.21306366 0.0048323344 -0.090420455 -0.1909916 0.022028994
-0.16843815 -0.2009051 0.08365716 0.13959007 -3.397783e-05 0.21082112 0.17628726 0.22407085
-0.15062647 0.21408111 0.21422629 0.18572418 -0.17148878 5.6122086e-15 -0.038833894 -0.14442994
-0.0026000377 -5.307801e-07 0.20608017 0.1715273 0.06718043 -0.1729591 -0.07211895 -0.034406733
0.115246676 -0.15215808 0.12373545 0.03912018 -0.21015015 -0.15767121 -0.14470832 0.14027297

running_mean f4 [128]
00000000: de66 7cae 05ef 8a3d 817f 44bc bba0 ef29
00000010: 77d9 43bc 898e c73d 7d57 793c c7ff 753d
00000020: 1e40 783d 1770 5e38 c015 0000 2eb6 303b
00000030: 9e5a 013d d529 043c 8d68 1b2a a2a9 d03c
00000040: 8c80 823d 11a2 713d d09b ab3d e043 273c
00000050: 0324 62bc a30d 28bc f63c ae3e 6eb4 c03a
00000060: db12 0000 4b55 ad35 c514 173d a810 023d
00000070: 77a8 613d 99a3 c9bc a0b3 9ebc 355e e83d
00000080: fc97 e63d b97c f5b6 94c3 7e3e 94c2 bb2f
00000090: cb5a 9a3e 4b5a cc35 1d9b 8e3b 52a2 663c
000000a0: 59d7 fa3c 48ee efbc 4866 913e 7f50 fe3c
000000b0: d8a1 33bb cb14 dc3d 19fd 203e 3d0a 49bc
000000c0: f54e 2c3c 4f44 9d3e 867c 8e3d e083 123d
000000d0: 01a4 66ba ed71 9f3c 8fc0 d03d d4dc ab2f
000000e0: 1ee0 9a3c 9894 8c3d be07 d2bc c6ff 0abd
000000f0: 95e4 9d3c de87 6fba 2275 d83d cfa6 3e3c
00000100: e945 bcbc 6533 8e3c 849c 44bc 4352 a53c
00000110: e812 1b3d 22b4 cf1a 4cbf ea3e d519 4a3d
00000120: c516 0000 49fc 343e 4b4d 250e b892 053c
00000130: 34d8 8cbb db00 25bc 7c26 273d 015e 983d
00000140: aea1 b33e 25e1 af3c e5fa de3d 22c2 213c
00000150: af29 09bc cc88 43bc 3f70 2a3d 5e2e bb3b
00000160: c0b4 863e 8629 043e a973 063d b0cd bebc
00000170: 4eb8 b63b 7b13 6e3e a529 f03d 7254 a43b
00000180: 29df 97bc cdc7 d4bc c72f 103e 3e5c ad3d
00000190: 44ad c2b3 52d1 493e de11 ee3d c018 ad3c
000001a0: 9971 903d bcc0 26bc 9ddb 133c 1479 e1ba
000001b0: fe78 d63d 5511 0000 cc77 553d 51ac ff3d
000001c0: 60d5 fc39 097d cd21 adb8 a0bc ef86 ea3c
000001d0: 5944 e53c 1274 8e3b 7d92 ce3d 4265 393e
000001e0: 0731 843b b884 3e3d 56af a23e 5bfd feb7
000001f0: e076 d9bc 903c 1e3c 8e13 953e c665 99bb
-5.738953e-11 0.067838706 -0.01199329 1.06416144e-13 -0.011953703 0.09743983 0.015218613 0.06005838
0.060608022 5.3033316e-05 7.802e-42 0.0026964056 0.03158056 0.008066614 1.3803039e-13 0.025471512
0.063721746 0.05899245 0.08379328 0.010209054 -0.013802531 -0.0102571575 0.34030885 0.001470221
6.764e-42 1.2914328e-06 0.03688504 0.031754166 0.0550923 -0.024614142 -0.019372761 0.113460936
0.112594575 -7.3160886e-06 0.24879295 3.4153358e-10 0.30147395 1.5225463e-06 0.004351987 0.014076786
0.030620264 -0.029288426 0.28398347 0.031044243 -0.0027409699 0.107461534 0.15721549 -0.012270507
0.010516872 0.30716178 0.06957345 0.035770297 -0.0008798242 0.019463504 0.10192978 3.1261627e-10
0.018905696 0.068642795 -0.025638457 -0.03393533 0.019274035 -0.0009137372 0.10569216 0.01163645
-0.022982555 0.017358491 -0.012000207 0.020180827 0.037859827 8.5904214e-23 0.45849073 0.04934104
8.168e-42 0.17674364 2.0375035e-30 0.008152656 -0.0042982344 -0.010071005 0.040808186 0.07439805
0.3508429 0.021469662 0.10887698 0.009872945 -0.008371755 -0.01193447 0.041610952 0.0057123145
0.26309776 0.12906465 0.032825146 -0.023291439 0.00557617 0.23249619 0.11726693 0.0050149495
-0.018539028 -0.025974179 0.14080726 0.084648594 -9.065346e-08 0.19708756 0.11624502 0.021129966
0.07052917 -0.010177787 0.009024528 -0.0017202222 0.10472296 6.218e-42 0.0521162 0.124840386
0.00048224162 1.3924437e-18 -0.01961931 0.028628794 0.027986692 0.0043473328 0.10086534 0.18105033
0.004034165 0.04651329 0.31774396 -3.0397137e-05 -0.026545942 0.009657994 0.29116482 -0.004681322

running_var f4 [128]
00000000: cc53 431f 77bd 423c ed49 d93c 06ba 0818
00000010: 1abd af3c 117a 4a3e 5cf8 6f3d 8b34 8b3d
00000020: 88d6 9f3d 70ea 5632 0400 0000 b117 6439
00000030: 1277 5a3d 616e e23c e71b 0319 2429 a83d
00000040: 62b7 153e 60e6 403c e3f9 473e 1f09 8439
00000050: 4963 523c 2c56 943c b74a 983e fbd7 1b39
00000060: 0400 0000 b1a9 022e cc5c 673d 4398 093d
00000070: d653 5e3c 8186 eb3b 2e75 683c d86e d33c
00000080: 3ffd 983c 9733 8030 4e90 ec3e f731 8320
00000090: 73a8 eb3e 11bd 232f 50db 8939 4986 643d
000000a0: a9cf 653b 2020 953b 08c6 c03d a310 5d3b
000000b0: 4cc7 b83c a642 143d 791d 193e dc00 9f3c
000000c0: 652a 6f3d 46d2 ec3e 13e5 203c a7a7 713d
000000d0: 8aa0 103d 32f2 3b3b b652 c43d 11bf 4124
000000e0: e5c5 9f3d 4083 8b3c 79db 5c3b a9de 283a
000000f0: c3cd e83d 7b73 a13b fc15 573e 9d82 b93a
00000100: 5b53 da3b 24f6 ed3a 7f6e 0f39 e1d9 223a
00000110: db25 ec3d 9b02 0000 88f7 e53e ffd3 233c
00000120: 0400 0000 64cc 1b3d 0400 0000 213e 353d
00000130: 6138 473c 2879 da3c 876a 583c c41f 5f3c
00000140: 20ed 543e c0a5 9a3d 80a3 a03c 6c00 9639
00000150: 49b1 b03c 3d7a 043c 5600 e83b 3bb8 093d
00000160: 3208 2d3e 9161 113e 23d1 883d fe78 0b3c
00000170: 5ee7 0c39 a2f3 aa3e 3ff5 823d 16aa 8839
00000180: 86c8 5b3c 076a 623b 0a2d 043d bb21 533c
00000190: 184a 5b2b 47c4 9f3e c1c4 3d3e 3929 933d
000001a0: ead7 223e 359a 093d 9449 393d 13f5 b83c
000001b0: 1cb9 273d 0400 0000 1815 863b 5707 203d
000001c0: 3138 5834 498d a304 b631 443b 7d01 7c3b
000001d0: 9fe0 863b 5c18 663d cf6a 453d d3d8 783d
000001e0: f97e 1d3b 2e16 ed3d 77df c93e 326c 8534
000001f0: 698e 543b 4cbf 6e3d 6c32 0c3f d3ec fd3b
4.136217e-20 0.011885992 0.026524508 1.7671506e-24 0.021452475 0.19773127 0.058586463 0.06797131
0.078045905 1.2509744e-08 6e-45 0.000217526 0.05333621 0.027640523 6.778176e-24 0.08210972
0.14620736 0.011773676 0.19528918 0.00025183798 0.012841054 0.018107496 0.29744503 0.00014862411
6e-45 2.9709294e-11 0.056484982 0.033592474 0.013569793 0.007187665 0.014188094 0.02580969
0.018675445 9.327888e-10 0.46203846 2.2225327e-19 0.46026954 1.4891934e-10 0.00026294077 0.055792127
0.0035066402 0.0045509487 0.094127715 0.003373184 0.02255597 0.036196373 0.14952649 0.01940959
0.05839004 0.46254176 0.009820241 0.058997776 0.035309352 0.0028678295 0.09586088 4.2012043e-17
0.07801417 0.017030358 0.0033700152 0.00064418704 0.11367371 0.0049270964 0.2100448 0.0014153306
0.006662769 0.0018155021 0.00013678706 0.0006212276 0.11530658 9.35e-43 0.44915414 0.009999274
6e-45 0.03803672 6e-45 0.044248704 0.012159438 0.0266691 0.013208992 0.013618413
0.20793581 0.075511456 0.019609213 0.00028610544 0.021568911 0.0080857845 0.007080118 0.03362296
0.16897658 0.14197375 0.06680515 0.0085127335 0.00013437631 0.33389002 0.06394433 0.00026066665
0.013414508 0.003454806 0.032269515 0.01288646 7.7907255e-13 0.31204435 0.18532087 0.07185597
0.15902677 0.03359433 0.045236185 0.022577798 0.04094802 6e-45 0.00409187 0.0390695
2.013701e-07 3.8450866e-36 0.0029936857 0.0038453036 0.0041161324 0.056175575 0.048197564 0.060753655
0.002403198 0.11576496 0.39428303 2.4851903e-07 0.0032433516 0.058287904 0.5476444 0.007749179

weight f4 [1, 128, 1, 1]
00000000: 0a4c 6eb5 e824 00be 6f4f 9a3e 5fea 62b5
00000010: e801 f33e ca4b ce3e 26a7 0c3f 3139 a6be
00000020: 24da c9be 9774 513a 31eb 801b 1a20 d83d
00000030: 704a c43e c72b c8be 3e64 7c32 4f1a 4d3e
00000040: 5fe8 20bf 107e a4bd 3bb4 7a3e 1507 93bc
00000050: 9a6e f73e 7a5a c03e d5fc 13be 4d22 bc3d
00000060: dd06 2819 f720 57bd d451 9bbe cf1d 2abe
00000070: 53d6 0fbe f4ac ee3e 1b8d e43e 7702 6f3d
00000080: 28f4 ed3d 9312 03bd d97c c0be 8a78 aa33
00000090: 7554 51be 1a8f 513a 93b7 dbbd f21b a43e
000000a0: b2c5 36bd f6d0 e13e ee3b 1bbe ebcf 2fbe
000000b0: 6c97 803e 2f32 fbbd b1ef b13d 3072 ab3e
000000c0: ad1d d13e de42 3d3e 28e8 033b b835 f73e
000000d0: ed98 103f eb97 efbd 0103 33be addd 0eb6
000000e0: ad25 0b3f cd91 65bd b280 f33e cc94 b7be
000000f0: 5385 073f 514d 0bbe d329 ecbe f8b1 1ebe
00000100: a770 d53e 7b5b bebd 367c 37be 4e7c 88bb
00000110: 5004 d3be b289 a6b1 9ab4 853e dda2 e33c
00000120: 48f5 621b 2ff5 d7bd 0386 6fac 6f16 c2be
00000130: 4007 933e b94b b93e c412 40be 4748 08be
00000140: 2023 df3c a122 0a3f ab77 d8bd d79b dbbd
00000150: d97b e03e 97f7 c4be 741a 04be 4e78 aebe
00000160: 56af ccbd 8195 343d ff7d d93e 1f56 eb3e
00000170: f11f 66bb d8b7 b03d 9738 d63e b835 89bc
00000180: 1767 aa3e 074a e53e 5035 99bd edca 11be
00000190: de05 bbb6 1895 03bf c724 a9be e5ee 1bbf
000001a0: f77d 7e3e ad83 06bf 367f edbe 9752 d2be
000001b0: 98aa 263e caa4 10a7 d68c 013d 2305 173e
000001c0: 860e cb3a 8534 c134 3219 e7be 53e7 49be
000001d0: 8784 80bd ae60 b53e c061 633d ae70 e13b
000001e0: f1d0 e5bd 4197 6b3e d234 17be 8b8a 1cbd
000001f0: 87a7 f33e 66d8 8c3e 7a9b 3c3e d204 63be
-8.877256e-07 -0.12514079 0.30138728 -8.4532616e-07 0.47462392 0.40292197 0.5494255 -0.3246551
-0.3942424 0.00079900905 2.1327813e-22 0.10552998 0.3833804 -0.390959 1.4691123e-08 0.20029567
-0.6285457 -0.08031857 0.24482815 -0.017947713 0.4832657 0.37569028 -0.14451917 0.0918623
8.6867825e-24 -0.052521672 -0.30335867 -0.16612934 -0.14046602 0.46616328 0.44638905 0.05835196
0.11618835 -0.032000136 -0.3759525 7.938168e-08 -0.20442374 0.0007994041 -0.107283734 0.3205257
-0.04462213 0.44104737 -0.1515958 -0.17169158 0.25115526 -0.12265431 0.08688296 0.33485556
0.40842953 0.18482539 0.002012739 0.48283172 0.56483346 -0.11698898 -0.17481615 -2.1288681e-06
0.54354364 -0.05604725 0.47559124 -0.3585571 0.5293781 -0.13603713 -0.4612566 -0.15497577
0.4168751 -0.09294792 -0.17918476 -0.004165209 -0.41214228 -4.84689e-09 0.2611435 0.02778762
1.8773536e-22 -0.10544812 -3.4038334e-12 -0.3790774 0.2871647 0.36190584 -0.18757159 -0.13308822
0.027238429 0.5395909 -0.105697 -0.107230835 0.43844488 -0.38470146 -0.12900716 -0.3407616
-0.0999438 0.04408789 0.4247894 0.45964143 -0.0035114253 0.086288154 0.4184005 -0.016749248
0.33281776 0.4478304 -0.07480872 -0.14237566 -5.5737173e-06 -0.51399374 -0.3303587 -0.609114
0.2485274 -0.5254467 -0.46386117 -0.41078636 0.16276014 -2.0073347e-15 0.031628452 0.14748053
0.0015491999 3.5987264e-07 -0.4513641 -0.1971715 -0.062752776 0.35425323 0.055513144 0.0068798875
-0.11221493 0.23006918 -0.14766243 -0.038218062 0.4758875 0.2750885 0.18418685 -0.22169808
