ball_data/model_3000.pth (torch_old, 853498 bytes, 13 tensors)

weight f4 [64, 1, 5, 5]
0	0xbd868b31	-0.065695174
1	0x3d06c773	0.032905053
2	0x3d1df984	0.038568035
3	0x3cc2989c	0.02375441
4	0x3d80ff81	0.062987335
5	0xbdaca93c	-0.084307164
6	0xbd8baa46	-0.068195865
7	0x3de49f54	0.11163202
8	0x3d6c4241	0.057680372
9	0x3da2e621	0.0795405
10	0xbddec0b2	-0.108765975
11	0x3c398d3d	0.011325178
12	0xbd90da92	-0.07072939
13	0x3d6632c3	0.056200754
14	0x3dbeec4b	0.09322413
15	0xbe1b9a54	-0.1519559
16	0xbdf2b184	-0.11850265
17	0x3d56d0d7	0.05244526
18	0xbd51598f	-0.0511108
19	0x3d898950	0.067156434
20	0x3d478d83	0.04871894
21	0xbd59729a	-0.05308781
22	0x3b0d4e5d	0.00215616
23	0xbcc29667	-0.023753358
24	0x3b0643a8	0.0020487104
25	0x3e0e06b1	0.1386974
26	0xbde523ca	-0.11188467
27	0x3cf577e8	0.029964402
28	0xbd2989a5	-0.041391034
29	0x3c558293	0.01303162
30	0x3db9ccd9	0.09072275
31	0x3d4b6e96	0.04966601
32	0xbda30647	-0.07960182
33	0xbdc2f928	-0.09520179
34	0x3d7f6954	0.062356308
35	0x3db06e9d	0.08614848
36	0x3cbc0442	0.022951249
37	0xbdbf4952	-0.093401566
38	0xbd29dcae	-0.041470222
39	0xbd16b558	-0.036794037
40	0xbd8354bc	-0.06412646
41	0x3d2eddcf	0.042692002
42	0x3b49077b	0.0030674625
43	0xbcf435f0	-0.029810876
44	0x3d8d9f7f	0.06915187
45	0x3cab10c4	0.020882018
46	0x3da62d60	0.08114123
47	0xbb919cab	-0.004443725
48	0xbd6e5498	-0.058186144
49	0x3c868754	0.016421951
50	0x3dc092b9	0.09402985
51	0x3cd4610d	0.025925184
52	0xbbcb0ded	-0.0061967284
53	0xbdadabc0	-0.08480024
54	0x3c159868	0.009130575
55	0xbccac872	-0.024753783
56	0x3e04d1f2	0.12970713
57	0x3de5eb9e	0.11226581
58	0xbdd04c53	-0.10170808
59	0xbd8d7952	-0.06907906
60	0x3d5b7155	0.05357488
61	0x3dad1b17	0.084524326
62	0x3d225eea	0.0396413
63	0xbda7941a	-0.08182545
64	0xbb6a4c97	-0.0035751218
65	0x3d2f3db2	0.042783447
66	0xbd74e04d	-0.059784222
67	0xbd9b0f6c	-0.07571301
68	0x3d603dab	0.05474631
69	0xbdbbc830	-0.09169042
70	0x3d66db5d	0.056361545
71	0x3d194cb2	0.037426658
72	0x3e1598a1	0.14609005
73	0xbd4935dd	-0.049123634
74	0x3d334234	0.043764308
75	0xbd8fc941	-0.07020808
76	0xbd9b85ad	-0.07593856
77	0x3cca6804	0.024707802
78	0xbc62898f	-0.013826742
79	0xbdea29a2	-0.11433722
80	0x3d2ebe84	0.04266216
81	0xbcc2fe36	-0.023802858
82	0xbaabf83c	-0.0013120244
83	0xbd95f535	-0.0732216
84	0xbe056430	-0.130265
85	0xbd28a0e7	-0.041169073
86	0x3bed2124	0.0072366167
87	0xbd770b8f	-0.060313758
88	0xbc7a7e32	-0.015288876
89	0x3cd27d84	0.025694616
90	0x3cc0149e	0.023447331
91	0xbd5d2813	-0.053993296
92	0xbd988861	-0.07447887
93	0xbc713bbb	-0.0147237135
94	0xbd44782e	-0.047966175
95	0x3d9e51cc	0.07730445
96	0xbd760095	-0.06005915
97	0x3db22f38	0.087004125
98	0x3d42e9c6	0.047586225
99	0xbd266011	-0.04061896
100	0xbccbcad7	-0.024876995
101	0x3c6b1767	0.014348841
102	0x3ba13d2c	0.0049206223
103	0x3d6c7626	0.057729863
104	0x3d5eb1f4	0.054368928
105	0xbd0e7e98	-0.034788698
106	0x3c077e80	0.008269906
107	0x3d3f7571	0.04674286
108	0xbdcbf000	-0.09957886
109	0xbd51ddf7	-0.051237073
110	0xbd83df2d	-0.06439052
111	0x3e36d390	0.17854142
112	0xbadf332a	-0.0017028798
113	0xbda41a30	-0.08012807
114	0x3da769bb	0.08174463
115	0x3d4bacf8	0.049725503
116	0x3dd4d4bb	0.103921376
117	0xbda4aeda	-0.08041163
118	0xbdfdb051	-0.12387145
119	0xbd624650	-0.055242836
120	0xbd5d41e0	-0.0540179
121	0xbd26b35f	-0.040698405
122	0xbda5395d	-0.08067582
123	0x3c68390c	0.014173757
124	0x3dff2f7f	0.12460231
125	0x3d97857d	0.07398508
126	0x3bd5d998	0.0065261833
127	0xbdbb88d5	-0.09156958
128	0x3cb85a35	0.022503952
129	0xbc16f425	-0.009213482
130	0x3d1e0f88	0.03858903
131	0x3945c8d7	0.00018862203
132	0xbd87b8aa	-0.06627019
133	0x3d833138	0.06405872
134	0x3d454eab	0.048170727
135	0xbd010aa3	-0.031504285
136	0xbc9e1151	-0.019295366
137	0x3def1096	0.116730854
138	0x3e05d790	0.13070512
139	0x3ca91dc2	0.020644072
140	0xbd66db84	-0.05636169
141	0xbe2994d1	-0.16560675
142	0xbdfe4796	-0.12415998
143	0xbd5fcd2f	-0.054639038
144	0xbd26e4ef	-0.04074567
145	0x3d612140	0.05496335
146	0xbd98dffc	-0.07464597
147	0x3d857a33	0.06517448
148	0x3de41381	0.111365326
149	0xbd6f6829	-0.058448944
150	0xbd97343a	-0.07383008
151	0x3c96803f	0.0183717
152	0xbb9c6d07	-0.0047737393
153	0xbd9043fe	-0.070442185
154	0x3a165df4	0.0005736046
155	0xbb040435	-0.002014411
156	0x3d56de86	0.05245831
157	0x3bfc00e9	0.007690538
158	0x3d9e1ed4	0.07720724
159	0x3dba1a48	0.09087044
160	0x3c5d1202	0.013493063
161	0xbd47fa0e	-0.048822455
162	0xbcd55a77	-0.026044114
163	0x3dc0bcd1	0.09411014
164	0x3c9bdc89	0.019026058
165	0xbd57746e	-0.05260127
166	0xbb7278bf	-0.003699824
167	0x3c6e226c	0.014534574
168	0x3d6289dc	0.055307254
169	0x3d8af67e	0.06785296
170	0xbdf0c958	-0.11757153
171	0xbe2f0acf	-0.17093967
172	0xbda24df9	-0.07925028
173	0xbd67d9ec	-0.05660431
174	0x3d02e5d0	0.031957448
175	0xbd886aee	-0.0666102
176	0x3d9289a7	0.07155161
177	0xbdc8e2a4	-0.09808853
178	0xbd82f36c	-0.06394085
179	0xbdbae31f	-0.09125351
180	0xbdb99e05	-0.09063343
181	0xbd33677a	-0.043799855
182	0x3caceb34	0.021108247
183	0xbca7d03d	-0.020485038
184	0x3d93203b	0.07183882
185	0x3db9d958	0.09074658
186	0x3ddfc661	0.1092651
187	0x3ca9e239	0.020737754
188	0x3de2729f	0.110570185
189	0xbbb4563f	-0.0055034454
190	0x3b867eec	0.0041044857
191	0x3d74f5a9	0.059804592
192	0x3d45dc8a	0.048306026
193	0xbbaab834	-0.005209947
194	0x3d022913	0.031777453
195	0xbdcfbca7	-0.101434045
196	0xb989bba8	-0.0002627049
197	0xbda5e968	-0.08101159
198	0x3d094ee9	0.03352252
199	0x3d817141	0.063204296
200	0x3d505c3a	0.050869204
201	0x3d9235b9	0.07139153
202	0x3dc8a8d4	0.097978264
203	0x3d0b3422	0.033985265
204	0x3de3438d	0.11096869
205	0x3c0c6e95	0.008571287
206	0xbd91db2c	-0.07121882
207	0xbd428acf	-0.04749566
208	0xbd701064	-0.05860938
209	0x3d843561	0.06455494
210	0xbd9e1cd6	-0.07720344
211	0xbc3648f2	-0.01112579
212	0xbd74e87e	-0.059792034
213	0xbde47ad5	-0.11156241
214	0xbd2b290b	-0.04178719
215	0xbe07eb7b	-0.13273422
216	0xbdbd3272	-0.09238137
217	0xbd3c9c15	-0.04604729
218	0x3c94081a	0.01807027
219	0xba03a1ad	-0.0005021345
220	0x3cfcf42b	0.030878147
221	0x3dd818c7	0.10551601
222	0x3cdf1914	0.027233638
223	0x3d3e9968	0.04653302
224	0x3d9781ec	0.073978275
225	0x3ddbc5d8	0.10731095
226	0xbd096758	-0.033545822
227	0x3dea2df1	0.11434544
228	0x3e19cc0f	0.15019248
229	0x3d06d5ec	0.032918856
230	0x3d2ee63b	0.042700034
231	0xbe213cae	-0.15745804
232	0xbdc4781c	-0.095932215
233	0xbd21224f	-0.03933936
234	0xbd971003	-0.07376101
235	0xbc983d6f	-0.018583981
236	0xbdf8a46c	-0.12140736
237	0xbb40720b	-0.002936485
238	0x3c980b66	0.018560123
239	0x3cd19b22	0.025586668
240	0x3dcdb583	0.10044386
241	0xbddd6a93	-0.10811343
242	0xbd9a6b90	-0.07540047
243	0x3d6e6c60	0.058208823
244	0x3d1f2102	0.038849838
245	0x3d6d624b	0.057955068
246	0xbd4ea24c	-0.050447747
247	0x3c8429f2	0.016133282
248	0xbd05d806	-0.03267672
249	0xbca8ece5	-0.020620773
250	0xbd99e1be	-0.0751376
251	0xbd2c57be	-0.042075865
252	0x3d024119	0.031800363
253	0xbb6e20be	-0.0036335434
254	0xbd22cc10	-0.03974539
255	0x3d385f95	0.04501303

bias f4 [64]
0	0xbdd2baa4	-0.10289505
1	0xbc3dc4b4	-0.011582542
2	0xbd86e990	-0.06587517
3	0xbe0f93d8	-0.14021242
4	0xbdafad73	-0.08578005
5	0xbd21b1e7	-0.0394763
6	0xbda70024	-0.08154324
7	0x3d0b16fd	0.03395747
8	0xbd95502c	-0.07290682
9	0xbcf1b30c	-0.029504322
10	0xbd7733fd	-0.060352314
11	0xbdac6b76	-0.08418934
12	0xbdc7e8b6	-0.09761183
13	0xbdcd326b	-0.10019382
14	0xbdf3d218	-0.119053066
15	0xbd68e472	-0.056858487
16	0xbdc07eba	-0.09399171
17	0xbd39dc6e	-0.045376234
18	0xbde1a539	-0.11017842
19	0xbdd5c336	-0.10437624
20	0xbbca30ce	-0.0061703688
21	0xbcd23363	-0.025659269
22	0xbe3232eb	-0.17402236
23	0xbbcd4fdb	-0.006265623
24	0xbd8dffb8	-0.0693354
25	0x3ce5bf69	0.028045373
26	0xbcf0315c	-0.029320411
27	0xbe2657ed	-0.16244479
28	0xbce67109	-0.028130071
29	0xbe15d9e3	-0.14633898
30	0xbd155653	-0.03645928
31	0x3d249eed	0.040190626
32	0x3cf4735e	0.029840168
33	0xbda0da4d	-0.078541376
34	0xbdacec85	-0.0844355
35	0xbbd8a512	-0.006611475
36	0xbe1ea4db	-0.15492575
37	0xbd9953b6	-0.0748667
38	0xbe211a58	-0.15732706
39	0xbd0c7da2	-0.0342995
40	0x3c8fe30e	0.017564323
41	0xbd98c4e6	-0.074594304
42	0x3c7609bb	0.015016968
43	0xbdaa40cd	-0.08313141
44	0xbd66ff4e	-0.05639582
45	0xbcf4e778	-0.02989553
46	0xbe4c0e5f	-0.19927357
47	0xbd15be42	-0.036558397
48	0xbdca148e	-0.09867202
49	0xbdb9ab5b	-0.090658866
50	0x3d4aeaa7	0.04954019
51	0xbb9fbe79	-0.004875001
52	0xbe5bf893	-0.21481542
53	0x3cc84247	0.024445666
54	0xbdcf1ec7	-0.10113292
55	0xbd39581e	-0.04525005
56	0xbd3b2979	-0.04569385
57	0xbd8fd566	-0.070231244
58	0xbb38cb5f	-0.002819739
59	0xbd5c7348	-0.05382088
60	0xbe26032d	-0.16212149
61	0x3b9eeb57	0.004849832
62	0xbdad3b64	-0.084585935
63	0xbcb53f6d	-0.02212497

weight f4 [64]
0	0x3ee0000e	0.43750042
1	0x3f0f10f7	0.5588526
2	0x3ecdde0d	0.40208474
3	0x3f10009f	0.5625095
4	0x3ee9174e	0.45525593
5	0x3f019283	0.50614184
6	0x3e2ef93e	0.17087266
7	0x3f33dde5	0.7026046
8	0x3f35a500	0.70954895
9	0x3f0dd84a	0.55408156
10	0x3f04ee7f	0.51926416
11	0x3f3bb3b8	0.73321104
12	0x3ed7f4f6	0.42179078
13	0x3f321031	0.69555956
14	0x3e08ad1a	0.13347283
15	0x3f0489b9	0.5177265
16	0x3ef5c6a0	0.480031
17	0x3ce6df89	0.028182762
18	0x3f40e078	0.7534251
19	0x3dd46b4d	0.103720285
20	0x3f22636b	0.6343295
21	0x3f1c1b4f	0.6097917
22	0x3d1c3435	0.038135726
23	0x3f3c1286	0.73465765
24	0x3f61c60c	0.8819282
25	0x3ef7866f	0.48344752
26	0x3e931f00	0.2873459
27	0x3d4433af	0.04790085
28	0x3f429592	0.76009476
29	0x3f5b2841	0.856083
30	0x3dd4eb79	0.10396475
31	0x3d1b3da9	0.0379006
32	0x3e5bc789	0.21462835
33	0x3f2eaa04	0.68228173
34	0x3f239af0	0.6390829
35	0x3f475f3d	0.778797
36	0x3e70e4c3	0.23524766
37	0x3e927b1e	0.28609556
38	0x3d1ebb8e	0.038753085
39	0x3f523bcf	0.8212251
40	0x3ef6e93b	0.48224816
41	0x3e7ff7a7	0.24996816
42	0x3eb5094d	0.35358658
43	0x3e8df870	0.27728605
44	0x3eb9d182	0.36292654
45	0x3f3f6bef	0.7477407
46	0xbd807aad	-0.062733985
47	0x3f35491d	0.70814687
48	0x3e9356b3	0.28777084
49	0x3f36b2d6	0.7136663
50	0x3efedb57	0.49776718
51	0x3ec5ef19	0.3865898
52	0x3ea815fe	0.3282928
53	0x3de93cc3	0.113885425
54	0x3eccb7e9	0.39984062
55	0x3f2c0ac6	0.6720394
56	0x3f0ed606	0.55795324
57	0x3ec4b730	0.3842101
58	0x3f4277a5	0.75963813
59	0x3eadcf4e	0.33947223
60	0x3f211bae	0.6293286
61	0x3f375316	0.71611154
62	0x3f1e4b0c	0.6183326
63	0x3f5e4042	0.868168

bias f4 [64]
0	0xbbbc6885	-0.0057497644
1	0x3c72a304	0.014809374
2	0x3b6ce965	0.0036149856
3	0x3e4e73a7	0.20161305
4	0x3e1777cf	0.14791797
5	0x3dfb0f2b	0.122587524
6	0x3dc3ed22	0.09566714
7	0x3dd617d9	0.10453767
8	0x3e3bf0e1	0.18353607
9	0x3e1642e0	0.14673948
10	0x3e12cfd7	0.14337097
11	0x3e85444b	0.26028666
12	0xbc811a2f	-0.015759556
13	0x3d33f802	0.04393769
14	0x3e9bad7b	0.30405793
15	0x3d040663	0.032232653
16	0x3e4c42e3	0.1994739
17	0xbd6cc530	-0.05780524
18	0x3dc43d94	0.095820576
19	0x3cc7650c	0.024340175
20	0xbd937929	-0.07200844
21	0x3e310feb	0.17291228
22	0xbe826cb7	-0.25473568
23	0x3de01335	0.109411635
24	0x3e15a8ab	0.14615123
25	0xbe0d486b	-0.13797157
26	0x3de59491	0.112099774
27	0xbd77f69d	-0.060537923
28	0xbe1ffcf9	-0.15623845
29	0x3d8464fc	0.06464574
30	0xbd934afd	-0.07192037
31	0xbd3c74c7	-0.046009805
32	0xbce35b47	-0.027753485
33	0x3d030489	0.031986747
34	0xbd335634	-0.04378338
35	0x3d06d1c2	0.032914884
36	0x3e5b1d4e	0.21397898
37	0xbd805b78	-0.06267446
38	0xbe91c80c	-0.28472936
39	0x3d019804	0.031639114
40	0xbcfccc4b	-0.030859133
41	0xbe27b203	-0.163765
42	0x3ddbab5f	0.10726046
43	0xbdeb3aa2	-0.11485793
44	0x3e3e0e80	0.18560219
45	0xbda9f09a	-0.08297844
46	0xbec14c4a	-0.37753516
47	0x3e837de2	0.25681978
48	0xbdbe38f8	-0.0928821
49	0x3b876503	0.0041319146
50	0x3e00fa55	0.12595494
51	0x3d1fb419	0.038990114
52	0x3e2088e4	0.1567722
53	0x3c9d09de	0.019169744
54	0x3e3c4045	0.18383892
55	0x3d1990e3	0.03749169
56	0xbd49ebdb	-0.049297195
57	0x3b5cfd13	0.003372018
58	0x3e3277a3	0.1742845
59	0xbc841ec6	-0.016127955
60	0xbe004873	-0.12527637
61	0x3df54490	0.11975968
62	0x3d3366b8	0.043799132
63	0x3ce78c94	0.028265275

running_mean f4 [64]
0	0x3cc516ae	0.024058666
1	0x3cb60ad0	0.022221953
2	0x3ce1c759	0.027560877
3	0x3d32819b	0.043580633
4	0x3bb28db9	0.0054490236
5	0x3c6d6b4d	0.0144909145
6	0x3cbf5872	0.023357604
7	0x3d5076ed	0.050894666
8	0x3ca3fdce	0.020018484
9	0x3caf62f6	0.021409493
10	0x3c07ada4	0.008281145
11	0x3c13cceb	0.009021024
12	0x3c4b9b29	0.01242713
13	0x3c98473a	0.018588651
14	0x3b391408	0.00282407
15	0x3c8b7873	0.017025208
16	0x3bd76964	0.006573843
17	0x3c557027	0.0130272275
18	0x3c5ddc45	0.013541286
19	0x3a9a8005	0.001178742
20	0x3cf5c5c4	0.030001529
21	0x3c534719	0.012895369
22	0x3c449e54	0.012000639
23	0x3d3ce9de	0.04612147
24	0x3c95de1a	0.018294383
25	0x3d9e01b4	0.077151686
26	0x3c466e2f	0.012111231
27	0x3b83f20b	0.0040266565
28	0x3d113970	0.035455167
29	0x3c94633c	0.018113725
30	0x3bb6392d	0.005561015
31	0x3d4893e4	0.048969164
32	0x3d4f800b	0.05065922
33	0x3c293750	0.010328129
34	0x3c0fccaa	0.008776823
35	0x3d830fb5	0.0639948
36	0x3c111753	0.008855659
37	0x3c84d6f3	0.016215777
38	0x3cb8d8ad	0.022564257
39	0x3cd9143c	0.026498906
40	0x3d124380	0.035708904
41	0x3bd2136a	0.0064110057
42	0x3d62f233	0.05540676
43	0x3c9c83ef	0.01910588
44	0x3baf7a9a	0.0053551914
45	0x3ce12ca5	0.027487108
46	0x3b398629	0.0028308725
47	0x3c362d18	0.01111915
48	0x3c899ef3	0.016799426
49	0x3caf8cd6	0.02142946
50	0x3d8e8e62	0.06960751
51	0x3cf4a160	0.029862106
52	0xb9811b08	-0.00024624937
53	0x3d1de373	0.03854699
54	0x3b895c14	0.004191885
55	0x3ccfa903	0.025349146
56	0x3cc6a130	0.024246782
57	0x3c9b23ad	0.01893791
58	0x3d17d41c	0.037067518
59	0x3cee752d	0.029108608
60	0x3c8b4ece	0.01700535
61	0x3d132084	0.03591968
62	0x3b843cd2	0.0040355707
63	0x3cf27ec2	0.029601458

running_var f4 [64]
0	0x3bd4e9b8	0.006497588
1	0x3b43d18f	0.0029879545
2	0x3bacc43e	0.0052724173
3	0x3c1b5672	0.009481059
4	0x3a3d4450	0.0007219957
5	0x3b038b01	0.0020071866
6	0x3b9c5d14	0.004771838
7	0x3bb79876	0.0056028916
8	0x3b808316	0.0039218767
9	0x3b4e7081	0.0031500163
10	0x3a833cfe	0.0010012684
11	0x3ac534b5	0.0015045615
12	0x3ae63030	0.0017561968
13	0x3b6fdecd	0.0036601305
14	0x39d13864	0.000399056
15	0x3b13a9a5	0.0022531536
16	0x3a91656e	0.001109285
17	0x3aa3a387	0.0012484648
18	0x3b4636a1	0.0030244964
19	0x39627383	0.00021596071
20	0x3b19262a	0.0023368695
21	0x3ac94233	0.0015354812
22	0x3af4d265	0.0018678425
23	0x3c088318	0.008332036
24	0x3b2db075	0.0026502882
25	0x3c93833a	0.01800691
26	0x3a80ad1e	0.0009817218
27	0x3a1d6f83	0.0006005691
28	0x3c0c3685	0.00855792
29	0x3b5403ab	0.003235082
30	0x39f8a403	0.00047424444
31	0x3b7ac522	0.0038264473
32	0x3b9ed810	0.004847534
33	0x3af24320	0.001848314
34	0x3a89881c	0.0010492834
35	0x3c089272	0.0083356965
36	0x3abc2be7	0.0014356346
37	0x3b15f13f	0.002287939
38	0x3b97c3c1	0.00463149
39	0x3b8dd31b	0.0043281442
40	0x3b5934b7	0.0033142993
41	0x3a8249d3	0.0009940214
42	0x3c11fd84	0.0089105405
43	0x3b5f0c37	0.003403438
44	0x3a0e46bd	0.0005427411
45	0x3b9d9020	0.004808441
46	0x3a314ed9	0.00067637634
47	0x3ab2f42f	0.0013653095
48	0x3b47b089	0.0030470213
49	0x3b8cb82b	0.0042944155
50	0x3bf6ea43	0.0075352504
51	0x3b660970	0.003510084
52	0x3940c2b2	0.00018383077
53	0x3b50649d	0.0031798251
54	0x3a240f37	0.00062583707
55	0x3b788ba9	0.003792504
56	0x3b6ad834	0.0035834434
57	0x3b06bba3	0.0020558618
58	0x3b71f139	0.0036917462
59	0x3b9e207c	0.00482565
60	0x3b4307d5	0.0029759307
61	0x3ba41bea	0.0050082104
62	0x3a158a55	0.0005704512
63	0x3bc11365	0.0058922046

weight f4 [128, 64, 5, 5]
0	0x3c2fff23	0.010741982
1	0xba82035a	-0.0009919212
2	0x3b010e5d	0.00196924
3	0xb9eebb1c	-0.00045534305
4	0xbbb690cb	-0.00557146
5	0x3bb246cb	0.005440568
6	0xba93d708	-0.0011279294
7	0x3b065138	0.0020495187
8	0xbc1a5ed6	-0.009422025
9	0xbc284a7b	-0.010271664
10	0x3a14b5ee	0.00056728616
11	0xbbb66363	-0.005566047
12	0xbb58ee33	-0.0033100962
13	0xbc09f830	-0.008420989
14	0xbbe29454	-0.0069146547
15	0xbb713bbd	-0.0036809288
16	0x3b2e8131	0.0026627297
17	0xbc13695a	-0.008997286
18	0xbc2036f8	-0.009778731
19	0xbc592272	-0.013252841
20	0xbc71435f	-0.014725535
21	0xbc111046	-0.008853978
22	0xbc07b272	-0.008282291
23	0xbcbfd5ae	-0.02341732
24	0xbca57750	-0.020198494
25	0x3ca8f807	0.020626081
26	0x3b3b76b8	0.0028604697
27	0xbc9e34b3	-0.019312238
28	0xbbb47159	-0.005506676
29	0x3b4f6109	0.003164353
30	0x3c5294f3	0.012852895
31	0x3b9f772f	0.0048665027
32	0xbc505b4f	-0.012717082
33	0xbb9e2878	-0.0048266016
34	0x3ba3853f	0.0049902494
35	0x3be561fa	0.007000205
36	0xbb3de2ea	-0.0028974363
37	0xbc5e0f43	-0.013553443
38	0xbad096cd	-0.0015914083
39	0xbb32109e	-0.002717055
40	0xbc37b7c0	-0.011213243
41	0xbb5f0bfc	-0.0034034243
42	0xbcbab6d7	-0.022792263
43	0x3c2d2e87	0.010570175
44	0xbb0f53c7	-0.0021870004
45	0xbbfc0a7d	-0.00769168
46	0x3b95efdf	0.004575714
47	0xbc0d987c	-0.008642312
48	0xbae6fc3e	-0.0017622781
49	0xbbc8f9ee	-0.0061333096
50	0x3b602755	0.0034203131
51	0xbbaf6c7b	-0.005353508
52	0xbb866140	-0.0041009486
53	0x3c2e10f7	0.010624162
54	0xba171156	-0.0005762776
55	0x3c29e1a7	0.010368741
56	0x3bcef69f	0.0063160206
57	0xb903dbc9	-0.0001257501
58	0x3b8c75d4	0.004286507
59	0xbaf3de8f	-0.0018605756
60	0x3b82c372	0.003990584
61	0x3a923cc1	0.0011157022
62	0x3b723170	0.0036955737
63	0x3bc5f8cc	0.006041622
64	0xbc15188c	-0.009100091
65	0x39e1be45	0.00043057106
66	0x3b89aaa9	0.0042012525
67	0x3c323112	0.010875957
68	0x3b1e5cd7	0.0024164224
69	0x3bdc0f1d	0.006715669
70	0xbc8544f1	-0.016268225
71	0x3baf96a5	0.0053585344
72	0x3b1f0037	0.0024261603
73	0x3a9c6df3	0.0011934623
74	0xbb924a2b	-0.004464408
75	0xbb879bcb	-0.004138445
76	0xbc7defe9	-0.015499094
77	0xbc877670	-0.016535968
78	0xbc9719a4	-0.018444844
79	0xbc87919e	-0.016548928
80	0xba85d4e9	-0.0010210547
81	0xbc2f7757	-0.010709605
82	0xbc51e88f	-0.012811794
83	0xbc2c6fe1	-0.010524721
84	0xbcae5dd1	-0.02128497
85	0x3be2e51e	0.0069242856
86	0x3b39de7d	0.0028361373
87	0xbb0a38b4	-0.0021090927
88	0xbaecafd4	-0.0018057772
89	0xbc3074a7	-0.01077
90	0xbc1ecfbd	-0.009693083
91	0xbc00901f	-0.007846861
92	0xbb671837	-0.0035262236
93	0xbb43e193	-0.0029889091
94	0xbbbf2a69	-0.005833913
95	0xbc32c55a	-0.01091131
96	0xbc68c7d5	-0.0142078
97	0xbc102bc0	-0.008799493
98	0xbbc60af2	-0.0060437853
99	0xbb70d6ae	-0.0036749053
100	0xbadb3f9b	-0.001672733
101	0x3bb3b8a6	0.0054846583
102	0x3a9ded5f	0.0012048892
103	0x3b8b5713	0.0042523234
104	0x3afa5af0	0.0019100588
105	0xb89f8769	-7.606933e-05
106	0x3a26acc3	0.0006358141
107	0x3a0ae4fb	0.0005298403
108	0x3b8d2e40	0.004308492
109	0x3bd1a98b	0.006398385
110	0x3c3557b8	0.011068277
111	0xbc11eb4a	-0.008906195
112	0x3b9dc04a	0.0048141824
113	0x3a272eb9	0.00063775067
114	0xb9393961	-0.0001766435
115	0xbcaf217e	-0.021378275
116	0x3ba501bb	0.0050356067
117	0x3bc06987	0.005871955
118	0xbab9397c	-0.0014131512
119	0xbbfc29cc	-0.0076954123
120	0xbbcdd48c	-0.006281441
121	0x3b851a07	0.0040619406
122	0x3c08234d	0.008309198
123	0xbbcea2d7	-0.006306033
124	0x3c584240	0.013199389
125	0x3c2ac860	0.01042375
126	0xbb984062	-0.004646347
127	0xbb894cc1	-0.004190058
128	0xbafc0225	-0.0019226713
129	0x3af1059c	0.0018388513
130	0xbb8d578d	-0.0043134154
131	0x3b6f11f4	0.0036479207
132	0xbb624322	-0.0034524878
133	0xbb7456d9	-0.003728321
134	0xbc4e40f3	-0.012588727
135	0x3c37959a	0.011205101
136	0x3c1a28cd	0.009409142
137	0x3adae3b3	0.001669994
138	0xbbf1d870	-0.0073805377
139	0xbbf2534a	-0.0073951827
140	0xbb3c35de	-0.002871863
141	0x3c1f3d8c	0.009719264
142	0xbc3ccafe	-0.0115230065
143	0x3bde9812	0.0067930305
144	0x3b2672a9	0.0025397933
145	0xbc22bacb	-0.00993223
146	0xbc8110a1	-0.015755
147	0xbcbb09ba	-0.022831786
148	0x3b0aeaf0	0.0021197163
149	0xbc36867e	-0.011140464
150	0x3bc41146	0.0059835045
151	0x3bab855f	0.005234405
152	0x3b82072e	0.003968141
153	0xbafefc60	-0.0019453876
154	0xb906cead	-0.00012856229
155	0xbb6dbfdc	-0.0036277687
156	0xbb1ab34a	-0.00236054
157	0x3a21fa63	0.0006178973
158	0xbb63a6c7	-0.0034736858
159	0x3b016ac9	0.0019747487
160	0xbb597205	-0.0033179533
161	0x3b3f7c93	0.002921854
162	0x3a7901e7	0.00094988797
163	0xbbbd00f7	-0.0057679373
164	0xba09f8ce	-0.000526321
165	0xbb48a1ac	-0.0030613942
166	0xbb810c31	-0.003938221
167	0xbb561a66	-0.0032669543
168	0xbb9310cd	-0.004488087
169	0xba97d60c	-0.0011584177
170	0xbbaa9395	-0.0052055814
171	0xbac21593	-0.0014807455
172	0x39adb4ff	0.00033131984
173	0x3b944ced	0.004525772
174	0x39c8e7a5	0.0003831956
175	0xbac4e4d9	-0.0015021815
176	0x3b1454a4	0.0022633458
177	0x3c5ab771	0.0133494
178	0x3c846310	0.016160518
179	0x3caa782a	0.020809252
180	0xbb2f71a1	-0.002677061
181	0x3b5f8906	0.0034108772
182	0xb81de3ae	-3.764376e-05
183	0xbc4aaf94	-0.012370963
184	0x3bb20624	0.005432861
185	0xba2f8737	-0.0006695869
186	0x3c3cd9a3	0.011526498
187	0x397728ed	0.00023571002
188	0x3c1b8360	0.009491771
189	0x3c5dc131	0.01353483
190	0x3b8b83e5	0.0042576664
191	0x3ba22151	0.0049478193
192	0xba8fcb09	-0.0010970543
193	0xbcbec372	-0.023286555
194	0xbc28227e	-0.01026213
195	0x3af5b382	0.0018745514
196	0x3bca44fb	0.006172774
197	0x3a9f4ebe	0.0012154204
198	0xbc6eed0e	-0.014582885
199	0xbcabe755	-0.020984331
200	0x3c88d846	0.01670469
201	0x3bebb8ce	0.0071936613
202	0x3b8efd77	0.0043637115
203	0xbbdc1d10	-0.0067173317
204	0xbb91cac1	-0.004449219
205	0x3ca38950	0.019962937
206	0x3baa4913	0.0051966994
207	0x3c0603c9	0.008179613
208	0x3c07d5d5	0.008290728
209	0xbb8ea994	-0.0043537114
210	0xbac0cdf9	-0.0014709822
211	0x3c04786d	0.008085352
212	0xbc074571	-0.008256302
213	0xbc3b5b2a	-0.011435309
214	0xbb08d44b	-0.002087849
215	0x3cfb1d81	0.030653717
216	0x3ca69f0c	0.020339511
217	0xbb146ee5	-0.0022649106
218	0xbc24a057	-0.010047994
219	0xbadbf959	-0.0016782685
220	0x3c23f5ea	0.010007361
221	0xbb4eb7c3	-0.0031542636
222	0xbb97883b	-0.0046243942
223	0x3bb160cf	0.005413152
224	0x3bbe44a7	0.005806524
225	0x3c4d6ad1	0.012537674
226	0x3c11d03b	0.008899744
227	0x3c1ec133	0.009689617
228	0x39ee4579	0.0004544666
229	0xbbcfe263	-0.006344126
230	0x3a1dd257	0.0006020418
231	0x3a0496e7	0.00050578866
232	0x3b92afdd	0.004476531
233	0xbc04991e	-0.008093147
234	0xbb94da3f	-0.0045426185
235	0xbc1bbc57	-0.009505353
236	0xbae2acf4	-0.0017293976
237	0xbc49554a	-0.012288401
238	0xbaa27c7b	-0.0012396717
239	0x3a5c31ac	0.00083997357
240	0x3c622aca	0.013804147
241	0x3b96312a	0.0045834975
242	0x3abdd722	0.001448367
243	0xbc4ad220	-0.012379199
244	0xbb246853	-0.0025086596
245	0xbac22d9c	-0.0014814618
246	0x3b9715b6	0.0046107424
247	0x3bbcd866	0.0057631014
248	0x3cae6d6e	0.021292415
249	0x3c8131a3	0.015770739
250	0x3bf2e05a	0.0074119987
251	0x3ad163d0	0.0015975181
252	0xbc697857	-0.014249883
253	0xbbc642a2	-0.0060504237
254	0x3b9e4069	0.0048294556
255	0x3c1a41c0	0.00941509

bias f4 [128]
0	0x3be27d11	0.0069118817
1	0xbd194e98	-0.03742847
2	0xbd454ff2	-0.048171945
3	0x3bb1aa27	0.005421895
4	0xbd928eda	-0.07156153
5	0xbd945ef8	-0.07244676
6	0xbd8c6e39	-0.06856961
7	0xbd0e125d	-0.03468548
8	0xbd07ad34	-0.033124164
9	0xbc676008	-0.014122017
10	0xba1c11d8	-0.00059535867
11	0xbd837e2b	-0.06420549
12	0xbdf5401f	-0.11975121
13	0xbd859a47	-0.06523567
14	0xbb5b9b9e	-0.0033509503
15	0xbdb47846	-0.08812003
16	0xbd594f8d	-0.05305438
17	0xbbeda057	-0.00725178
18	0xbd5ecc9f	-0.05439436
19	0xbc56a460	-0.0131007135
20	0xbe13db10	-0.14439034
21	0xbd8455e1	-0.064616926
22	0xbd8eb866	-0.06968765
23	0xbb9a7a22	-0.0047142664
24	0xb6114d5e	-2.1651717e-06
25	0x3a659794	0.00087582436
26	0xbd5578c2	-0.052117117
27	0xbd0f8e21	-0.035047654
28	0x3aa49c3d	0.001255877
29	0xbdb8c943	-0.090227626
30	0xbe1f672b	-0.15566699
31	0xbc3427da	-0.0109958295
32	0x3b5f3b55	0.0034062464
33	0xbd35c7e4	-0.044380084
34	0x3c2f5c0b	0.010703097
35	0xbc218c46	-0.009860104
36	0xbd8b2396	-0.06793897
37	0xbc4b6c8b	-0.012416015
38	0xbc211bb5	-0.009833266
39	0xbd893606	-0.06699757
40	0xbcdfe4a6	-0.027330708
41	0xbdcf2f6c	-0.10116467
42	0xbd3e13fa	-0.04640577
43	0xbcb11c2b	-0.021619877
44	0xbddfd35b	-0.10928985
45	0xbc8299c5	-0.015942464
46	0xbd9625f9	-0.073314615
47	0xbe106212	-0.14099911
48	0xbdda6ae2	-0.106649175
49	0xbd897990	-0.06712639
50	0xba9c9542	-0.0011946338
51	0xbd4d614e	-0.050141625
52	0xbdb0cf3d	-0.086332776
53	0xbbca6878	-0.0061770044
54	0x3c9c1e13	0.01905731
55	0x3b1f52f9	0.002431093
56	0xbd9e144e	-0.077187166
57	0x3bc03d0b	0.005866652
58	0xbdff99c2	-0.12480499
59	0xbc82fdd7	-0.01599018
60	0xbd88367a	-0.066510156
61	0xbc2f4a81	-0.010698915
62	0xbc9f1751	-0.019420298
63	0x3bc2baf8	0.0059426986
64	0xbe0304a5	-0.1279474
65	0xbd521213	-0.05128677
66	0xbc989f32	-0.018630598
67	0xbd037249	-0.032091413
68	0xbd50757c	-0.05089329
69	0x3ae410f4	0.0017400072
70	0x3d0efe02	0.03491021
71	0xbddb35f6	-0.107036516
72	0xb7bbc322	-2.2383003e-05
73	0xbd214cac	-0.03937976
74	0xb9e51e09	-0.00043700662
75	0xbd45024a	-0.048097886
76	0xbd9eced1	-0.07754291
77	0xbd8eee2e	-0.06979023
78	0xbd0cd369	-0.034381304
79	0x3c051064	0.008121584
80	0xbd67c394	-0.056583002
81	0xbd35f8d7	-0.044426765
82	0xbd53d92a	-0.051720776
83	0x3cfe2878	0.031025156
84	0xbdaf6f40	-0.08566141
85	0xbcfe32df	-0.031030117
86	0xbcffe384	-0.031236418
87	0xbdaa67da	-0.08320589
88	0xba257804	-0.0006312134
89	0xbd2c6923	-0.042092454
90	0x3c09d5de	0.008412806
91	0xbe3803bd	-0.17970176
92	0xbbdd5cc9	-0.0067554456
93	0xbd0f640f	-0.035007533
94	0x3cc1915c	0.023628883
95	0x3be8278c	0.0070847925
96	0xbd936ab8	-0.07198089
97	0xbd96cc12	-0.07363142
98	0xb9eb0c71	-0.00044831962
99	0xbd8a27f8	-0.06745905
100	0xbd023e7e	-0.03179788
101	0xbd29de6f	-0.041471895
102	0xbc2ee365	-0.010674332
103	0xbd690497	-0.056889143
104	0xbde448a5	-0.11146668
105	0xbd8ffd41	-0.07030726
106	0xbcb76981	-0.022389175
107	0xbb86e697	-0.004116844
108	0xbb86c31d	-0.004112615
109	0xb8b2aa52	-8.519426e-05
110	0x3acc9ee7	0.0015611321
111	0xba226a43	-0.0006195644
112	0x3add5899	0.0016887366
113	0xbc8c77ef	-0.017147033
114	0xbd9a7459	-0.07541723
115	0xbda6755f	-0.081278555
116	0x3c3ee727	0.011651791
117	0xbc327fc4	-0.0108947195
118	0xbd3429d9	-0.04398522
119	0xbc940f5c	-0.01807373
120	0x3c3172b0	0.010830566
121	0xbd8bd5b9	-0.06827874
122	0xbd3d0328	-0.04614559
123	0xbca4537f	-0.020059345
124	0xbdda86cf	-0.10670244
125	0xbd7c3c33	-0.061580848
126	0xbca38740	-0.019961953
127	0x3bf168ec	0.007367244

weight f4 [128]
0	0x3f04a7b3	0.5181839
1	0x3e34258f	0.17592452
2	0x3f4dcf8c	0.80394816
3	0x3e945e89	0.28978375
4	0x3eefe1f3	0.46852073
5	0x3edad651	0.42741635
6	0x3f06db77	0.52678627
7	0x3f1a37fa	0.60241663
8	0x3e89ec40	0.26938057
9	0x3ddc8af3	0.1076869
10	0xb9ab1b86	-0.00032636168
11	0x3e2b1d6b	0.16710441
12	0x3e298860	0.16555929
13	0x3e913309	0.2835925
14	0x3e09c7ab	0.13455074
15	0x3f3e5701	0.7435151
16	0x3f733442	0.95001614
17	0x3ce1abb6	0.027547698
18	0x3f15d749	0.58531624
19	0x3e1b2a62	0.15152887
20	0x3f0082f5	0.50199825
21	0x3e489054	0.19586307
22	0x3ebf65e6	0.3738243
23	0x3d60cfe6	0.054885767
24	0x37ef1fef	2.850589e-05
25	0x3e0858b2	0.13315085
26	0x3e90d87b	0.28290161
27	0x3ec9558e	0.39323086
28	0x39d290d3	0.00040162224
29	0x3ebc92c1	0.36830714
30	0x3ebb9fb0	0.3664527
31	0x3dcdcdbe	0.10049008
32	0xbb85b933	-0.0040809154
33	0x3ed2f8dc	0.4120549
34	0x3f3a0e0e	0.72677696
35	0x3eb0310c	0.3441242
36	0x3f56c5d9	0.8389564
37	0x3e6fc065	0.23413236
38	0x3e657a73	0.22409992
39	0x3f3edd53	0.74556464
40	0x3e28910f	0.16461585
41	0x3f394bd6	0.7238134
42	0x3e188130	0.14893031
43	0x3e079e3a	0.13243952
44	0x3f1cbe98	0.61228323
45	0x3e886bb6	0.26644677
46	0x3f14cbe5	0.5812362
47	0x3f694bbc	0.91131186
48	0x3f63b531	0.8894835
49	0x3eab43a6	0.3345005
50	0x3ede4b2c	0.43416727
51	0x3f34007c	0.7031324
52	0x3f124ef0	0.571517
53	0x3e85d13f	0.26136205
54	0x3efa31cc	0.48866117
55	0x3e73d268	0.23810732
56	0x3f0d1f25	0.5512565
57	0x3d2419ed	0.040063787
58	0x3ee9b018	0.4564216
59	0x3f6697be	0.9007529
60	0x3f6cd3d3	0.9251072
61	0x3f0cd0ef	0.5500631
62	0x3f73c50c	0.95222545
63	0x3e5a4d91	0.21318652
64	0x3f61defc	0.8823087
65	0x3e77190a	0.24130645
66	0x3f03e40e	0.5151986
67	0x3ec59886	0.3859293
68	0x3f2dfef4	0.6796715
69	0x3eab13e9	0.33413628
70	0x3f42b726	0.7606071
71	0x3f0c49c6	0.5480007
72	0x393a2d2c	0.0001775517
73	0x3e292c03	0.16520695
74	0x3df19c88	0.11797434
75	0x3ef33765	0.475032
76	0x3f4c3953	0.7977497
77	0x3f6a4dfd	0.9152525
78	0x3dff3588	0.12461382
79	0x3d197f53	0.03747494
80	0x3f2bec01	0.6715699
81	0x3f60d451	0.8782397
82	0x3e2d2373	0.16908054
83	0x3e895229	0.26820496
84	0x3f5cb2d0	0.86210346
85	0x3f2cdbae	0.67522705
86	0x3e982754	0.29717505
87	0x3f457985	0.7713855
88	0x3ed25b59	0.41085318
89	0x3f564989	0.83705956
90	0x3f530e17	0.82443374
91	0x3f6b239e	0.9185122
92	0x3eae5859	0.3405178
93	0x3f570af4	0.8400109
94	0x3f5a738f	0.8533258
95	0x3f2ff724	0.6873648
96	0x3f2d4812	0.67688096
97	0x3ee7f3a3	0.45303068
98	0xbaef7ee3	-0.0018272068
99	0x3e22a4fc	0.15883249
100	0x3f1cd4b1	0.6126204
101	0x3f2f8b58	0.68571997
102	0x3f61dee1	0.8823071
103	0x3f3f53f9	0.7473751
104	0x3f5d0c2a	0.86346686
105	0x3f60071a	0.87510836
106	0x3f35c3ae	0.7100171
107	0x3f3efc85	0.74604064
108	0x3a913381	0.0011077971
109	0x3c3dd8a3	0.011587295
110	0x3b9bfe99	0.004760575
111	0xb99bf67d	-0.00029747552
112	0x3e150665	0.1455322
113	0x3df5cde7	0.120021634
114	0x3e98071f	0.29692933
115	0x3e47a6f4	0.19497281
116	0x3e922624	0.28544724
117	0x3f33db2e	0.70256317
118	0x3eb45037	0.3521745
119	0x3f4b46cf	0.7940492
120	0x3ef01d4d	0.46897355
121	0x3f1c91fd	0.6116026
122	0x3f27b4ec	0.6551044
123	0x3ea2852b	0.31742224
124	0x3ebf5b05	0.3737413
125	0x3f3e99c4	0.7445338
126	0x3f216223	0.6304037
127	0x3f3db052	0.7409717

bias f4 [128]
0	0x3df22f04	0.11825374
1	0x3e19ad37	0.15007482
2	0xbe04f4c1	-0.12983991
3	0x3ddf226e	0.10895239
4	0xbe12ef94	-0.14349204
5	0xbe1776bf	-0.14791392
6	0xbe191f2c	-0.14953297
7	0x3e1cf770	0.15328765
8	0x3e26f1c6	0.16303167
9	0xbded3c43	-0.1158376
10	0x3bd9244f	0.006626643
11	0xbe2bbea7	-0.16771947
12	0xbe2fadc1	-0.17156126
13	0x3e292bfb	0.16520683
14	0xbe0e9e62	-0.13927606
15	0xbe0cd0b6	-0.13751492
16	0x3e1dd306	0.1541253
17	0x3e35eeb9	0.17766847
18	0xbe0fedb7	-0.14055525
19	0x3e25056f	0.16115354
20	0xbe1f927b	-0.15583222
21	0xbe14b7cf	-0.14523242
22	0x3e28e7a7	0.16494618
23	0xbe160955	-0.14651997
24	0xba332f2a	-0.0006835336
25	0x3e1b119b	0.15143435
26	0x3e2db8b2	0.16964987
27	0x3e2cb6e4	0.16866642
28	0x3e802ee3	0.25035772
29	0xbe194312	-0.14966992
30	0xbe547aca	-0.20749965
31	0xbe0cdddc	-0.13756508
32	0xbe62430b	-0.22095887
33	0x3e1c8773	0.15286045
34	0x3e171ad1	0.14756323
35	0xbdc5dd51	-0.096613534
36	0x3e37cdd2	0.17949608
37	0xbe057577	-0.1303309
38	0x3e15cd6c	0.14629143
39	0xbe07268d	-0.131983
40	0x3e3cf7ca	0.18453899
41	0xbe1353c8	-0.14387429
42	0x3e29b221	0.16571857
43	0x3e25285c	0.16128677
44	0xbe0f6e84	-0.14007002
45	0x3e13edcf	0.14446186
46	0xbe0a1bad	-0.1348712
47	0xbe1e7b4b	-0.1547672
48	0xbe18f0db	-0.14935629
49	0xbe127e97	-0.14306103
50	0xbdff3ea8	-0.124631226
51	0xbe11b6e3	-0.14229922
52	0xbe11fc80	-0.14256477
53	0x3e1563e8	0.14588892
54	0x3e1251ec	0.14289063
55	0x3df85e83	0.12127402
56	0xbe17488c	-0.14773768
57	0x3e23de2d	0.16002722
58	0xbe1ace6d	-0.15117808
59	0x3e10a114	0.14123946
60	0xbe0eec09	-0.13957228
61	0x3e101e33	0.1407402
62	0x3e1583a5	0.14601
63	0x3e16bf4c	0.14721411
64	0xbe20cbe8	-0.15702784
65	0x3e2824ed	0.16420336
66	0x3e16f2f5	0.14741118
67	0x3df0c81a	0.11756916
68	0x3e185701	0.1487694
69	0x3d8a67e2	0.06758095
70	0xbe0ee502	-0.13954547
71	0xbe06402f	-0.13110422
72	0xbb6b9727	-0.0035948248
73	0x3e2c3f27	0.16820966
74	0x3d26da8e	0.040735774
75	0x3e19352c	0.1496169
76	0xbdfea39f	-0.12433552
77	0xbe08878e	-0.1333296
78	0x3e2e7037	0.17034994
79	0x3e1de6d3	0.15420084
80	0xbdfa5dd9	-0.12224931
81	0xbe1487bd	-0.14504905
82	0x3e321cf7	0.17393862
83	0x3e0e277e	0.13882253
84	0xbe12dfc8	-0.14343178
85	0x3e162266	0.1466156
86	0x3e2542a3	0.16138701
87	0x3e2d1daf	0.16905855
88	0x3e1076a4	0.14107758
89	0xbdf0a855	-0.11750857
90	0xbe0e23a3	-0.13880782
91	0xbe39bae2	-0.18137696
92	0x3e03d6b4	0.12874871
93	0xbdfc7308	-0.12326628
94	0xbe11b701	-0.14229967
95	0x3e037d08	0.12840664
96	0xbe07e4bf	-0.13270853
97	0xbe19a2ee	-0.15003559
98	0x3e6b7df3	0.22997265
99	0x3e2dfab3	0.16990165
100	0xbde3a325	-0.11115102
101	0x3e1b9fa1	0.15197612
102	0x3e0ee19f	0.13953255
103	0x3e1e4bc5	0.15458591
104	0xbe2a4687	-0.16628467
105	0x3e1c2271	0.15247513
106	0x3e2222e8	0.15833628
107	0x3e116080	0.14196968
108	0xbe8737d9	-0.26409796
109	0xbc1b99f8	-0.009497158
110	0xbe0b8173	-0.136236
111	0xbe372253	-0.17884187
112	0xbe0e6b0a	-0.1390802
113	0xbda6a0a2	-0.08136107
114	0x3e201af1	0.15635277
115	0x3e305617	0.1722034
116	0x3e13e716	0.14443621
117	0xbe0cd17c	-0.13751787
118	0xbe05e62a	-0.13076082
119	0xbdf84f93	-0.121245526
120	0x3e0efaad	0.13962813
121	0xbe080077	-0.13281427
122	0x3e12e16e	0.14343807
123	0x3e2823db	0.16419928
124	0xbe217255	-0.1576627
125	0xbe08f048	-0.1337291
126	0xbe08d6ef	-0.1336324
127	0x3e0de70b	0.13857667

running_mean f4 [128]
0	0x3ee21d4c	0.44162977
1	0x3da65f9a	0.08123703
2	0x3cce78a4	0.02520401
3	0x3e88260a	0.26591522
4	0xbaf8627d	-0.001895025
5	0x3cff7c96	0.031187337
6	0xbcacc24b	-0.02108874
7	0x3d605701	0.054770473
8	0x3d814786	0.0631247
9	0x3e4120f1	0.18860222
10	0x3c7594df	0.014989107
11	0x3d8c9342	0.06864025
12	0xbcc6c4db	-0.02426379
13	0x3d64969f	0.055807706
14	0x3e36e9ef	0.17862676
15	0x3c9bb78e	0.019008424
16	0x3d28bb4c	0.041194245
17	0x3d90771a	0.07053967
18	0x3de4eead	0.11178336
19	0x3e93a873	0.28839454
20	0xbbd0729f	-0.00636132
21	0xbb6a625a	-0.0035764189
22	0xbc02ed02	-0.007991077
23	0x3ebb238d	0.3655056
24	0x36ac1e48	5.1295247e-06
25	0x3e81b0f6	0.25330323
26	0x3d68d888	0.056847125
27	0x3e057b67	0.13035356
28	0x3dd6df3b	0.104917966
29	0xbceb43fe	-0.028718945
30	0xbc41d1a2	-0.0118297655
31	0x3ea1588d	0.3151287
32	0x3d9750c4	0.07388452
33	0x3cda7d91	0.026671203
34	0x3ebfde8b	0.37474474
35	0x3e9b3fa6	0.30321997
36	0x3d9da58c	0.07697591
37	0x3e6db283	0.23212628
38	0x3e3ea78d	0.18618603
39	0x3d0d7f93	0.034545492
40	0x3d4cca9d	0.049997915
41	0xbc0eb842	-0.008710923
42	0x3d50bfc9	0.05096415
43	0x3e706f8c	0.23480052
44	0xbcadf211	-0.02123359
45	0x3e227446	0.15864667
46	0x3e234e23	0.15947776
47	0xbce2e85a	-0.027698684
48	0x3cfb8b32	0.030706022
49	0x3d82b849	0.06382806
50	0x3e811500	0.25211334
51	0x3d4886a0	0.048956513
52	0x3c87746a	0.016535003
53	0x3ec4fc88	0.38473916
54	0x3f27ad9b	0.65499276
55	0x3e7719ec	0.24130982
56	0xbc2cdf5c	-0.0105513
57	0x3e681530	0.22664332
58	0xbd139e9c	-0.036039934
59	0x3e1a20d8	0.15051591
60	0x3cf5a255	0.029984633
61	0x3edefe1c	0.43553245
62	0x3e6912af	0.22761033
63	0x3ed60c3c	0.4180621
64	0xbc543e4e	-0.012954308
65	0x3db721d3	0.08941998
66	0x3e760532	0.2402542
67	0x3d8db1c9	0.069186755
68	0x3d03880a	0.03211216
69	0x3e2ce625	0.16884668
70	0x3ed69589	0.4191096
71	0xbc884c92	-0.016638074
72	0x379ab728	1.844352e-05
73	0x3d21cdd4	0.039502934
74	0x3cc5ad62	0.024130527
75	0x3d6e2c8e	0.05814796
76	0xbc61678f	-0.0137576
77	0x3cc1c46d	0.023653233
78	0x3e30a16a	0.17249075
79	0x3ea0e7f9	0.3142698
80	0x3e5325ff	0.20619963
81	0x3b8f11ad	0.004366121
82	0x3e0e3016	0.13885531
83	0x3f48bc55	0.7841237
84	0x3d484ad2	0.04889948
85	0x3b0b6482	0.0021269624
86	0x3e129806	0.14315805
87	0x3d829854	0.063767105
88	0x3e4b7682	0.19869426
89	0x3d399caf	0.04531544
90	0x3dd0f85f	0.10203623
91	0xbc9759e2	-0.018475477
92	0x3e7b2430	0.24525523
93	0x3e0b5946	0.13608274
94	0x3f093eda	0.5361153
95	0x3edd8512	0.43265587
96	0x3c7236e3	0.014783594
97	0xbd0fbbfc	-0.035091385
98	0x3d88e167	0.06683617
99	0xbc8ab2be	-0.016930934
100	0x3e8c84d8	0.27445102
101	0x3d84d1c8	0.06485325
102	0x3f10051e	0.5625781
103	0x3d880c60	0.06642985
104	0x3d007977	0.031365838
105	0x3d9439cf	0.072375886
106	0x3d1072ac	0.03526561
107	0x3e3fb232	0.1872032
108	0x3de95270	0.11392677
109	0x3a9cf471	0.0011974705
110	0x3e03efa5	0.12884386
111	0x3d0e42b4	0.03473158
112	0x3e85acae	0.26108307
113	0x3c06a97c	0.008219119
114	0x3ac5d00b	0.0015091909
115	0xbc66c853	-0.014085847
116	0x3f2d1702	0.6761323
117	0x3dace8b2	0.084428206
118	0x3ce6a5ac	0.02815517
119	0x3ea7a9df	0.3274679
120	0x3f0dd4f2	0.55403054
121	0x3d685836	0.05672475
122	0x3cae30f3	0.021263575
123	0x3e3347ba	0.1750783
124	0xbcca48af	-0.024692861
125	0x3db5d7d1	0.08879054
126	0x3ebd7328	0.3700192
127	0x3f150c4e	0.582219

running_var f4 [128]
0	0x3f17d9f3	0.5931694
1	0x3df550c3	0.11978295
2	0x3dca0793	0.09864726
3	0x3e97d648	0.2965567
4	0x3d2dac84	0.04240085
5	0x3dce30bf	0.10067891
6	0x3c8ead4a	0.017416615
7	0x3d851d08	0.06499678
8	0x3dd11165	0.10208396
9	0x3e18f44d	0.14936943
10	0x3a936ea1	0.001124818
11	0x3d428608	0.047491103
12	0x3bc94c3c	0.006143121
13	0x3dac0e59	0.08401174
14	0x3e20c1d8	0.15698946
15	0x3da0fea4	0.07861069
16	0x3deedc50	0.11663115
17	0x3d8ce41d	0.06879447
18	0x3e7ca6b5	0.24672969
19	0x3edbead3	0.42952594
20	0x3d024901	0.031807903
21	0x3ccd4e43	0.025061732
22	0x3c8481d8	0.016175196
23	0x3f0c5fbf	0.54833597
24	0x2f1d55cb	1.4309547e-10
25	0x3eb36912	0.350411
26	0x3de226fd	0.11042593
27	0x3e56709b	0.20941393
28	0x3d11b0cf	0.03556901
29	0x3bc5c2e2	0.0060351947
30	0x3cde808e	0.027160909
31	0x3f09b5e3	0.5379316
32	0x3c1fc070	0.0097504705
33	0x3d6584c1	0.056034807
34	0x3f503854	0.8133595
35	0x3ecbc0a3	0.39795408
36	0x3e2c6332	0.16834715
37	0x3ea696b8	0.32536864
38	0x3e9e4515	0.3091208
39	0x3de319be	0.11088894
40	0x3d3e1cd4	0.04641421
41	0x3ccfb1a3	0.025353258
42	0x3dca470d	0.09876833
43	0x3e5a3da1	0.21312572
44	0x3c2a4a26	0.010393655
45	0x3e125188	0.14288914
46	0x3e3ce334	0.18446046
47	0x3c3c456f	0.011491164
48	0x3dc096b6	0.09403746
49	0x3de683ed	0.112556316
50	0x3e7728f4	0.24136716
51	0x3ddc260f	0.107494466
52	0x3daa0cdf	0.08303236
53	0x3ee91416	0.45523137
54	0x3f865bdd	1.0496784
55	0x3e850842	0.25982863
56	0x3d063d60	0.032773376
57	0x3e670a17	0.22562443
58	0x3aebc772	0.0017988516
59	0x3e70f0fb	0.23529427
60	0x3dce2ba6	0.10066919
61	0x3eed0410	0.46292162
62	0x3ed50274	0.41603434
63	0x3f2e5ae5	0.68107444
64	0x3c746a9b	0.014917995
65	0x3e1dd48c	0.15413111
66	0x3e5d3802	0.21603397
67	0x3dcf7f10	0.10131657
68	0x3dabd6f3	0.08390608
69	0x3e07ba8a	0.13254753
70	0x3eb4a97b	0.35285553
71	0x3ca4866f	0.020083634
72	0x31dfee09	6.5172157e-09
73	0x3d284ce8	0.04108897
74	0x3b7daee7	0.0038708986
75	0x3e08b9be	0.13352105
76	0x3c86ab17	0.016439004
77	0x3df7fc28	0.12108642
78	0x3ea5da02	0.3239289
79	0x3eca2f60	0.3948927
80	0x3f016282	0.50540936
81	0x3d501483	0.05080081
82	0x3e7afbf6	0.24510178
83	0x3fd2d7b0	1.6472073
84	0x3dc76578	0.097361505
85	0x3d3546b2	0.044256873
86	0x3e6f9fe2	0.23400834
87	0x3e1bcd23	0.15214972
88	0x3e9d1267	0.30678102
89	0x3dc7d2be	0.09756993
90	0x3dfcccb3	0.12343731
91	0x3cb02ef6	0.021506768
92	0x3ea898e0	0.32929134
93	0x3e9b45cf	0.30326697
94	0x3ed96459	0.42459372
95	0x3f21959a	0.631189
96	0x3d96f3bd	0.07370708
97	0x3b43a961	0.0029855596
98	0x3c9248b8	0.01785694
99	0x3af0d81c	0.0018374952
100	0x3efec0f4	0.49756587
101	0x3e25197d	0.16123004
102	0x3f5129b7	0.81704277
103	0x3e39f1df	0.18158673
104	0x3db000e4	0.0859392
105	0x3e77a9c8	0.2418586
106	0x3db60246	0.088871524
107	0x3ea078f3	0.31342277
108	0x3d6fe9d5	0.05857261
109	0x3700eee4	7.685016e-06
110	0x3d81ca93	0.06337466
111	0x3bd3678c	0.0064515527
112	0x3e81a9ec	0.25324953
113	0x3b9fda50	0.00487832
114	0x3cc88175	0.024475792
115	0x3bf4c632	0.007469916
116	0x3f71ba7c	0.9442518
117	0x3e3a3fdd	0.18188424
118	0x3d958cfe	0.07302283
119	0x3f510768	0.81651926
120	0x3f975a73	1.1824478
121	0x3e576761	0.2103553
122	0x3d8236d4	0.06358114
123	0x3e879699	0.26482084
124	0x3c1848d2	0.009294705
125	0x3e9a501d	0.30139247
126	0x3f5464d7	0.8296637
127	0x3f630fb9	0.88695866

weight f4 [1, 128, 1, 1]
0	0xbd612016	-0.05496224
1	0xbe9bac56	-0.3040492
2	0x3e5b90ca	0.21441951
3	0xbd0ab493	-0.033863615
4	0x3eb6a79a	0.35674745
5	0x3ec3739a	0.38174134
6	0x3ee3bf78	0.44482017
7	0xbe8b52a3	-0.27211484
8	0xbed876f9	-0.4227827
9	0x3d7f772d	0.062369514
10	0xbbccb5c9	-0.0062472564
11	0x3e73960b	0.23787706
12	0x3f177f9e	0.59179103
13	0xbed320fe	-0.4123611
14	0x3d174b25	0.036936898
15	0x3e28d485	0.1648732
16	0xbef30721	-0.47466376
17	0xbe45f63a	-0.19332209
18	0x3e8310a8	0.25598645
19	0xbdd4689d	-0.10371516
20	0x3eb25b70	0.34835386
21	0x3ebd17c3	0.3693219
22	0xbe5e8c14	-0.21733123
23	0x3e8a89cd	0.2705826
24	0x38e425fd	0.00010878963
25	0xbe28546d	-0.16438456
26	0xbeb4f0a2	-0.35339838
27	0xbe794b5b	-0.24345152
28	0xbe7313b5	-0.23737986
29	0x3ec895e3	0.39176854
30	0x3e9ca22b	0.30592474
31	0x3e563c7f	0.20921515
32	0x3e622684	0.22085005
33	0xbdc9d3e4	-0.09854868
34	0xbec715ac	-0.38883722
35	0x3d2abb3a	0.04168246
36	0xbe469186	-0.1939145
37	0x3db34cdf	0.087548964
38	0xbe9ce93a	-0.30646688
39	0x3e86aebd	0.2630519
40	0xbe13735f	-0.1439948
41	0x3ea51321	0.32241157
42	0xbec81fe1	-0.39086822
43	0xbeda3926	-0.42621726
44	0x3dfc5928	0.12321693
45	0xbe878271	-0.26466706
46	0x3e0a2c22	0.13493398
47	0x3e1a924b	0.15094869
48	0x3e6585f1	0.22414376
49	0x3e8c1390	0.27358675
50	0x3e12afe1	0.14324905
51	0x3ebff669	0.37492684
52	0x3eca1e1d	0.394761
53	0xbe9097e0	-0.2824087
54	0xbe9c1473	-0.30484352
55	0xbd6625bc	-0.05618833
56	0x3ec019bd	0.37519637
57	0xbe1e653d	-0.15468307
58	0x3ebcea71	0.36897615
59	0xbe967b53	-0.29390964
60	0x3ebc22cf	0.36745307
61	0xbe400ad2	-0.18754128
62	0xbebd6e4d	-0.36998215
63	0xbeb56317	-0.35427162
64	0x3e862280	0.26198196
65	0xbe6d6d3b	-0.231862
66	0xbe750e21	-0.23931171
67	0xbd9bd86b	-0.07609638
68	0xbea6a56b	-0.3254808
69	0xbc4e5b40	-0.012594998
70	0x3e8e58dc	0.2780217
71	0x3dc1d464	0.094643384
72	0x3915ae3a	0.00014274652
73	0xbe8fda4c	-0.28096235
74	0xba06bfdb	-0.0005140283
75	0xbeb0e56a	-0.3455003
76	0x3e1ee2a9	0.15516151
77	0x3e76e725	0.24111612
78	0xbef35b10	-0.47530413
79	0xbeadbcef	-0.33933207
80	0x3e178434	0.14796525
81	0x3eb16b5d	0.34652224
82	0xbe85c8cc	-0.26129758
83	0xbe8f35da	-0.27970773
84	0x3e70e77c	0.23525804
85	0xbed9dde6	-0.42552108
86	0xbea62fa7	-0.3245823
87	0xbe5dfa89	-0.21677603
88	0xbe5004a3	-0.20314269
89	0x3df1cfe7	0.11807232
90	0x3ea91a9d	0.33028117
91	0x3e697458	0.22798288
92	0xbda0b48d	-0.07846937
93	0x3e1f5edd	0.15563531
94	0x3ebb5ad8	0.36592746
95	0xbdf0175a	-0.11723204
96	0x3e7d5e79	0.2474307
97	0x3ea2df96	0.31811208
98	0xbe14c21b	-0.1452717
99	0xbebd9755	-0.3702952
100	0x3d8b36e7	0.06797581
101	0xbed432da	-0.41445047
102	0xbea116f8	-0.31462836
103	0xbed4a20f	-0.4152989
104	0x3e1b08aa	0.15140024
105	0xbebe7898	-0.3720138
106	0xbee1ca35	-0.44099584
107	0xbea1f50e	-0.31632274
108	0x3e877a98	0.2646072
109	0xb88ef103	-6.8159796e-05
110	0x3e088982	0.13333705
111	0x3eaf06e7	0.34184954
112	0x3da6970d	0.081342794
113	0x3cd831b3	0.026390886
114	0xbee050c2	-0.43811613
115	0xbef27091	-0.47351506
116	0xbe49ec23	-0.19718985
117	0x3e887ab0	0.26656103
118	0x3e1cf1fb	0.15326683
119	0x3e07d432	0.1326454
120	0xbe92b229	-0.2865155
121	0x3e7e6241	0.24842168
122	0xbe2ffdbd	-0.17186637
123	0xbdf2d9da	-0.11857958
124	0x3eb108cf	0.34577033
125	0x3e7205eb	0.2363507
126	0x3e8ebc74	0.27878153
127	0xbe6c7476	-0.23091301
