ball_data/model_7000.pth (torch_old, 853498 bytes, 13 tensors)

weight f4 [64, 1, 5, 5]
00000000: 27e2 94bd 691c f83c bc8c ad3c 1b69 693c
00000010: 5136 363d c817 b6bd 1214 a4bd 8827 063e
00000020: eb9b 7a3d 3a6d a53d 6ee4 21be 3e14 bebc
00000030: 657b 9fbd cfd0 6b3d 1c9c 853d 40d9 54be
00000040: bb6b 18be 7bb4 413d afb7 f1bc 61a2 453d
00000050: 246a 153d d9d6 abbd 232c 363c 4760 dd3b
00000060: ea31 b43c 8ccf 453e fde8 f8bd e827 1b3d
00000070: c928 37bd 397f f73b 6085 0b3e 8246 573d
00000080: 5a17 c9bd 9d23 01be 1fe4 a43d a4e2 d23d
00000090: 77db 373d 7bc0 dfbd 7150 71bd 626c 81bd
000000a0: b522 dbbd bd77 1b3d e67b 64bc 62ad 2abd
000000b0: c270 c83d e887 b039 9878 b73d 1f30 36bb
000000c0: d654 90bd 1bad 0f3c a913 d73d 276f 4f3d
000000d0: 9b8f f7bb e5fc cdbd e3a1 8a3a 2631 40bd
000000e0: ff41 073e f9df e63d 5f59 07be ed8f 9abd
000000f0: 9294 1a3d 191c 8d3d 38ba cf3c 84e9 c6bd
00000100: b582 ad3b f1e1 cb3c 32bb bbbd af62 b0bd
00000110: 7606 a53c a2ea b9bd e31d 163d 352d 193d
00000120: 7d95 373e a398 23bd dd13 813d 9c77 9ebd
00000130: ea2b acbd 5ab6 3c3d 7138 6fbd d653 28be
00000140: 08c3 713d 0c82 06bd d776 bb3c e0cc 66bd
00000150: 4178 f9bd 1c0c 15bc 88fe 10ba 1f08 cdbc
00000160: d3df 9cbc 87ff 7e3d 63f3 c93c 8407 b5bd
00000170: ce47 96bd d241 5cbd f244 8fbd 1ab8 a93d
00000180: c278 44bd b2b7 cd3d de8d fb3c 3c17 79bd
00000190: 8548 38bd 8dfc fbbc e630 7b3a ca8d 963d
000001a0: edbd ea3c 0c59 39bd 836f 4b3b 8d77 8e3d
000001b0: 061d d6bd f10c 71bd 2c93 58bd 9843 653e
000001c0: ae86 873c 9018 e5bd 6839 b53d c18a f93c
000001d0: d1fc ef3d 64b6 02be 9788 2dbe f67e 63bd
000001e0: 3289 35bd fcf9 1cbd ef85 d2bd 158f 103d
000001f0: 9e88 2e3e 26b6 c33d 5497 f43b 98c8 b5bd
00000200: 28e3 fb3c bb83 9ebc ab5b 4c3d a9c8 423c
00000210: 33bd 2ebd d35b c13d 05ce 5c3d ce3a 14bd
00000220: f9bb b6bb 0ae9 193e 01b3 203e b83c 0c3d
00000230: 7171 b3bd 3cd5 6abe 6525 22be 2aff 71bd
00000240: aa65 6dbd 40a4 be3d f2ec 61bd 3825 643d
00000250: dd46 f53d f74c 51bd 9a13 9cbd 2a98 f53b
00000260: f171 503b c6dc 2fbd 4f0b 983b d267 2ebc
00000270: 5219 6a3d 9fc5 0c3d 2080 903d 5c51 c03d
00000280: 0580 323c 8927 efbc de03 b2bc 8b13 8d3d
00000290: 8ef4 363b 9b13 9ab9 981f 813c fe91 c63c
000002a0: 25c1 ef3c 465b 8f3c b471 c0bd 2335 05be
000002b0: 03ab 58bd 8271 dabc a575 783c 1f58 8bbd
000002c0: 1db6 953d 7d17 f9bd 4348 bbbd a4c9 d9bd
000002d0: b564 d2bd dac3 28bd 08e9 3a3c f022 cfbb
000002e0: b089 f03d 7966 e83d 08db 233e 1408 383d
000002f0: 15b2 093e 3284 d4ba 4e42 303c 91a9 a93d
00000300: 76da 063d cba1 f8bc 93ba 033d 8e1b 08be
00000310: 8cb8 40bc f862 08be c103 dc3c c5dc ab3d
00000320: 4f6f 3b3d ccb6 de3d 04d4 ed3d f778 983d
00000330: 0fd4 013e e94b a2bc 05e6 81bd 7bc9 4fbd
00000340: 22ef aebd 4f24 833d accf dabd d885 c8bc
00000350: 1a73 b7bd 9244 ffbd 8263 4dbd 6e8e 31be
00000360: d386 cebd 7e71 49bd 4ffe dd3c 887e 52bc
00000370: 6b54 523d 4b21 083e f015 293d ffeb 403d
00000380: 3ea9 c73d 36f0 fb3d 600f 42bd 1ac6 113e
00000390: a2c4 423e 270d 383d 5c02 463d f516 4ebe
000003a0: 28c4 c4bd be4f 3bbd 8e8a 86bd 2e28 23bc
000003b0: 6628 16be 183e e43b 5b5d be3c 681c 5d3c
000003c0: 2173 0e3e 8519 10be 3a66 8bbd 674c 923d
000003d0: 2a50 393d fb87 253d 6b52 7ebd ebc6 593c
000003e0: 5f96 1dbd cc6b 4bbb 77c4 c0bd 1740 5abd
000003f0: ae77 003d fe22 7cbc ceae 49bd 91e8 f63c
-0.07269698 0.030286985 0.021185271 0.0142462505 0.044485394 -0.08891255 -0.080116406 0.13101017
0.06118385 0.08077474 -0.15809795 -0.023203012 -0.077872075 0.057572182 0.06523916 -0.20786
-0.14884846 0.04729126 -0.029506532 0.04825056 0.036478177 -0.08390588 0.011118921 0.006755862
0.021996457 0.19317454 -0.12153814 0.037879854 -0.04471663 0.007553008 0.13625097 0.052557476
-0.09818907 -0.12611242 0.08051323 0.102971345 0.044887032 -0.109253846 -0.058914606 -0.063195005
-0.10699979 0.03795599 -0.013945555 -0.041669257 0.09787132 0.00033670594 0.08958548 -0.0027799679
-0.07047431 0.008769299 0.10501797 0.050643113 -0.007554961 -0.100580014 0.001057681 -0.04692187
0.1320877 0.11273188 -0.13217686 -0.07546983 0.037739344 0.06890125 0.02535735 -0.09712508
0.0052951225 0.02488801 -0.09166564 -0.086125724 0.020144682 -0.09077956 0.036649596 0.03739663
0.17928119 -0.039940488 0.06302617 -0.077376574 -0.084068134 0.04607234 -0.058403436 -0.16438231
0.059023887 -0.032838866 0.022883816 -0.056347728 -0.1218114 -0.009097125 -0.0005531092 -0.025028287
-0.019149696 0.06225541 0.024652189 -0.08839324 -0.073379144 -0.05377371 -0.06995572 0.08287068
-0.047966726 0.10044803 0.030707296 -0.060813174 -0.044991035 -0.030760074 0.00095821766 0.07351263
0.028655017 -0.045250937 0.0031041808 0.06956396 -0.104547545 -0.058850233 -0.05287473 0.22389066
0.016543712 -0.111863256 0.0884884 0.03046167 0.11718143 -0.12764889 -0.16946636 -0.055541
-0.044320293 -0.03832434 -0.10279452 0.035292704 0.17044303 0.095562264 0.007464329 -0.08876151
0.030747965 -0.019349923 0.04989211 0.011888661 -0.042660903 0.09441342 0.053907413 -0.036188893
-0.0055766073 0.15030304 0.15693285 0.034237593 -0.087618716 -0.22932905 -0.15834577 -0.059081234
-0.057958283 0.09308672 -0.05515761 0.055699557 0.11976407 -0.05109879 -0.07620926 0.007494946
0.0031806196 -0.042935155 0.00464002 -0.01064487 0.057153054 0.034368154 0.07055688 0.09390518
0.01089478 -0.029193657 -0.02173036 0.06888493 0.0027916762 -0.00029387776 0.015762135 0.024239536
0.029266903 0.017499577 -0.09396687 -0.13008551 -0.052897464 -0.026665453 0.015164767 -0.06803917
0.07310126 -0.12162683 -0.09144642 -0.10634163 -0.102731146 -0.041202404 0.011408098 -0.0063213035
0.11745012 0.1134767 0.16001523 0.04492958 0.13446839 -0.0016213714 0.010757996 0.08284295
0.032923184 -0.030350586 0.032160353 -0.13291761 -0.011762749 -0.13319004 0.026857259 0.08391718
0.04576045 0.108747095 0.116127044 0.07444947 0.1267855 -0.019811587 -0.06342701 -0.050729256
-0.08541705 0.0640341 -0.106841415 -0.024477884 -0.08957501 -0.124642506 -0.050143726 -0.17339489
-0.100843094 -0.0491805 0.027098803 -0.01284755 0.05135004 0.1329395 0.041280687 0.047100063
0.09749077 0.12301676 -0.047377944 0.14235726 0.19020322 0.044934418 0.048342094 -0.20125945
-0.09607726 -0.045730345 -0.06569396 -0.00995831 -0.14663848 0.00696541 0.023237875 0.013495542
0.13911106 -0.14072235 -0.068066075 0.07143479 0.045242466 0.040412884 -0.06209032 0.013292055
-0.038473483 -0.0031039594 -0.09412473 -0.053283777 0.031364135 -0.015389202 -0.049238972 0.030140193

bias f4 [64]
00000000: f1e4 16be 5200 7bbc bf8a c0bd fecd 3dbe
00000010: f308 acbd 2001 56bd 84ac b7bd 93c7 023d
00000020: a444 a2bd 7c67 3dbd cadd a2bd c63a f3bd
00000030: c99e 0bbe 2922 f1bd 86cc 08be 9371 71bd
00000040: ad08 20be 7067 4ebc 66cb 08be 3163 fabd
00000050: c027 d4bc 230d fdbc 14cc 93bd 8fa7 1cbc
00000060: 4dba cdbd c597 d73c 3b2f d2bd c078 63bd
00000070: f203 21bd e432 47be 3d17 a7bd f2b7 233c
00000080: ed09 7e3c ded8 9dbd 0eb4 10be 6ae9 11b9
00000090: afb7 3dbe 37a7 03be 2133 37be c151 f6bc
000000a0: e822 803c 37b3 dabd 3680 083c 1011 aabd
000000b0: 3ce6 9dbd 08ea dcbc 08d0 7dbe e152 4bbd
000000c0: 6663 fabd 0fdd e7bd 3d73 543d 7a92 1dbb
000000d0: 0cd7 8dbe 21d4 033c 70b0 eebd 0cbe 92bd
000000e0: 6f42 83bd 0e7a 16be 0bee 1dbc 0db0 c8bd
000000f0: 12a9 6bbe 19b1 2a3c b91a 06be 7ce1 41bc
-0.14735772 -0.015319901 -0.09401464 -0.18535611 -0.084001444 -0.052247167 -0.089684516 0.03192861
-0.079232484 -0.04624127 -0.07952459 -0.118764445 -0.1363479 -0.11774094 -0.1335927 -0.058946203
-0.1562831 -0.012597904 -0.1335884 -0.122259505 -0.02589786 -0.030890053 -0.07216659 -0.009561433
-0.100453 0.026317487 -0.10262915 -0.055535078 -0.039310403 -0.19453007 -0.08158729 0.009992586
0.015505296 -0.0770738 -0.14131185 -0.00013915231 -0.18527101 -0.12856756 -0.17890598 -0.03006828
0.015641645 -0.10678714 0.008331349 -0.08304036 -0.07709929 -0.026967064 -0.24786389 -0.049639586
-0.1222599 -0.113214605 0.051867712 -0.0024043606 -0.2770313 0.008046181 -0.116547465 -0.07165155
-0.064091556 -0.14694998 -0.009639273 -0.09799204 -0.23013714 0.0104182 -0.13096131 -0.011833545

weight f4 [64]
00000000: 5cda cf3e 5c60 d93e b33c 423e d5d0 ef3e
00000010: cb34 043f 5be2 f63e ffd9 143d b6fe 093f
00000020: 0f94 2d3f 5d6b 093f 94df 153f 7ceb 273f
00000030: 9927 db3e 44b3 173f 665d 603e 3592 cd3e
00000040: 0a5c 0b3f fa71 cc39 24c5 3a3f 99de ed3c
00000050: 142f f23e a98b 133f c451 c0ba 84db 203f
00000060: ee64 4c3f 6663 933e b228 a33e 563c 9f3b
00000070: bf50 183f a55b 4d3f 8269 c43c 587b 8db9
00000080: beb4 3e3d 114b 143f af68 d73e 6b2b 303f
00000090: 0fff a33e 9874 833e dcbb f13c 4767 373f
000000a0: 4a3a ef3e fb8c 773e 28f9 723e 39a6 263e
000000b0: fa8f df3e 5b06 263f 88c6 fbbd d63e 3a3f
000000c0: daac 593e 4c64 103f 164a c43e 0fb9 833e
000000d0: 0aee c83e a35b 403c f05a 013f 81bd ff3e
000000e0: 3d3e ed3e 1eeb 633e ee45 123f 2be4 8e3e
000000f0: 3c42 093f 56e4 1a3f 0b66 123f a47e 433f
0.40596282 0.4245633 0.18968467 0.46839014 0.51643056 0.4821957 0.03634071 0.53904283
0.67804044 0.5367945 0.5854428 0.65593696 0.42803648 0.5925791 0.21910629 0.4015061
0.54437315 0.0003899483 0.7295706 0.029036807 0.47301543 0.5763498 -0.0014672806 0.62834954
0.79841506 0.28786772 0.31866986 0.0048594875 0.5949821 0.80217963 0.023976091 -0.00026985514
0.046559088 0.5792704 0.42072055 0.6881625 0.32030532 0.2567489 0.029508524 0.71641964
0.4672416 0.24174874 0.23727858 0.16274346 0.43664533 0.6485345 -0.12293726 0.7275213
0.21257344 0.5640304 0.38337773 0.25727126 0.3924411 0.011740598 0.50529385 0.49949268
0.46336547 0.22257659 0.57137954 0.27908453 0.5361669 0.60504663 0.57186955 0.76365113

bias f4 [64]
00000000: 82e3 553d e27e 933d 2005 e7bb 721b 873e
00000010: 01b9 2a3e ea0b 1b3e 08f8 5b3c f357 f93d
00000020: de88 5f3e 9850 433e 236a 343e ad3d 903e
00000030: 19bc c63c c91c 203e 57ff 893e f3c9 c93d
00000040: 2c8e 643e a655 783b 7a3c 4a3e 0b27 0d3b
00000050: bbc1 8c3c 44d3 753e 142a cbbd 6561 123e
00000060: 21e0 523e d123 1cbe fc67 f33d a0a9 913a
00000070: 674d c9bd 9ce5 273e 8a15 b3ba 4691 113b
00000080: 0bb6 c7bb 877e 803d 98f8 193b e24a 2b3e
00000090: 4bff 233e c81e 023c f97f 44be fa6c d03d
000000a0: f2ea a9bc 9396 bebd 23c5 093e 2d39 20bd
000000b0: 6c07 4b3e 6ebf a8bd 7011 bdbe 6663 a63e
000000c0: 91c3 c1bc 6ec2 ca3d 7c6c 103e 6139 c53c
000000d0: a424 0b3e 3453 f33a 3da3 503e 2362 9b3d
000000e0: 10e2 ae3d 0203 5c3d 2e24 823e 2cce 123c
000000f0: a9f3 1ebe 87fc 023e 6672 7d3d e203 b13d
0.05221892 0.07201935 -0.0070501715 0.26388127 0.16672136 0.15141264 0.0134258345 0.12174978
0.21829554 0.19073713 0.17618613 0.28172055 0.024259614 0.1563598 0.2695262 0.09852972
0.2231986 0.0037892847 0.19749632 0.0021538164 0.017182222 0.24006373 -0.09920135 0.14294966
0.20593311 -0.15248038 0.11885068 0.0011113174 -0.098292165 0.16396183 -0.0013663035 0.0022211834
-0.0060946993 0.06274133 0.002349412 0.16727784 0.16015355 0.007941909 -0.19189443 0.10177036
-0.020741913 -0.093060635 0.13454108 -0.039117027 0.1982705 -0.08239637 -0.36927366 0.3249771
-0.023652824 0.09900366 0.14103884 0.024075212 0.13588196 0.0018564225 0.2037477 0.075870775
0.08539212 0.053713806 0.25418228 0.008960288 -0.15522636 0.12791644 0.061876677 0.08643319

running_mean f4 [64]
00000000: 89a9 e53c 7c43 ce3c e221 1b3c 6ad1 193d
00000010: c1a7 283c 560f 893c b181 083c 9a6f 4a3d
00000020: 4156 b33c ed9c 7b3c fd8b 0a3c f0a2 ab3b
00000030: cf06 933b a52c b23c 13e4 3d3b a8a3 3a3c
00000040: 5e27 a13b d373 c139 0381 583c f5aa 9437
00000050: 560f d73c 2c41 4c3c 6857 33ba 3c6b 6a3d
00000060: feda 6e3c ad58 783d 2ad8 453c 821e 09ba
00000070: 2b3a 3e3d 520d 513c fb3a e4b9 5880 4a3c
00000080: 231e ec3c 004e 673c b959 213c a3d7 793d
00000090: 678d c03b e142 9d3a d28d 4b3c 8835 183d
000000a0: 1947 0d3d a182 9d3b 4c14 b93d 6ef1 7d3c
000000b0: 633b 9d3b 78a5 c63c 7bbb 253b 3835 2f3c
000000c0: 3fba 453c ec25 ab3c 1598 9f3d d34c fd3c
000000d0: e36b ce3b 5ce6 823c 7194 033c f2f1 a43c
000000e0: 9007 aa3c a3e2 5d3c 6542 263d b83c 603c
000000f0: f0f5 0f3c 0825 423d 81e5 3d3b 7e70 233d
0.028034942 0.025178663 0.0094685275 0.03755323 0.010293902 0.016730946 0.008331702 0.049422838
0.021891715 0.015357238 0.008456227 0.0052379295 0.0044868956 0.021749804 0.0028975054 0.011391558
0.004918023 0.00036898124 0.013214353 1.7722583e-05 0.02625243 0.01246671 -0.00068413327 0.057231173
0.014578579 0.060631443 0.012075463 -0.0005230681 0.046442192 0.0127595235 -0.00043531493 0.012359701
0.028822964 0.014117718 0.009848052 0.060996663 0.0058762315 0.0011998081 0.012423949 0.037160426
0.034491632 0.004806832 0.090370744 0.015499456 0.004798339 0.024248824 0.002528875 0.010693841
0.01206833 0.020892106 0.07792679 0.030920422 0.006299482 0.015978985 0.008030997 0.0201349
0.02075556 0.013542804 0.040590663 0.0136863515 0.008786663 0.047398597 0.0028975906 0.039902203

running_var f4 [64]
00000000: eb7d f23b d0ca 823b f6c9 f73a 1588 063c
00000010: db7e a73a 891f 333b c738 9c3a ea55 b73b
00000020: 4be0 993b 3893 303b 10cd ad3a e48f 8a3a
00000030: 1198 593a 42a1 af3b 2c19 0c3a e152 cf3a
00000040: beb4 983a 5327 d036 240b 593b be8c d438
00000050: 2ee7 1f3b d269 df3a a700 0533 190b 4c3c
00000060: 8cf6 2f3b 6df7 503c 4815 da3a 51d9 a833
00000070: 0e36 463c f1f6 233b 4d7b 9737 4920 2439
00000080: 8a51 f33a a14e 323b 5bf6 c43a 0aca fb3b
00000090: b857 ae3a aa25 bf39 8642 153b d9f2 e13b
000000a0: 76e9 743b 628f 693a a002 6b3c 32ef 533b
000000b0: a7ad 293a e36f 943b 786a 7d3a 865a bb3a
000000c0: 7aef 3e3b 52ea 9b3b 65bb 1e3c f29a 733b
000000d0: 6f72 b33a 96cd 123a b695 a73a e0a6 6a3b
000000e0: 0439 653b 76e6 fd3a a074 903b 6764 1f3b
000000f0: a374 d93a 677e 0f3c d580 1f3a 0939 1d3c
0.0074002645 0.0039914623 0.0018904794 0.008211155 0.0012778895 0.002733203 0.0011918776 0.0055949586
0.0046959273 0.0026943218 0.0013259966 0.0010571447 0.0008300553 0.0053597996 0.0005344327 0.0015817547
0.0011650545 6.203461e-06 0.0033118213 0.00010135163 0.0024399268 0.0017045087 3.096707e-08 0.012453818
0.0026849834 0.012754303 0.0016638422 7.862639e-08 0.012097849 0.0025019015 1.805802e-05 0.00015652286
0.0018563729 0.002720751 0.0015027033 0.007683997 0.0013301289 0.0003645842 0.0022775247 0.006895405
0.00373706 0.00089096103 0.014343888 0.0032338616 0.00064727146 0.0045299395 0.0009667049 0.0014293946
0.0029134438 0.004758158 0.009688233 0.0037171212 0.001369072 0.00056000927 0.0012785706 0.0035805032
0.003497661 0.0019371051 0.004408434 0.002432132 0.0016590547 0.008758164 0.0006084566 0.009596118

weight f4 [128, 64, 5, 5]
00000000: ae89 9939 efaa 3f3a 9454 aa39 e1db 8d3a
00000010: cec1 e238 fea3 4839 4e29 9439 49fe 01b9
00000020: cd85 b639 e82a b6b7 bcf1 9139 7891 8838
00000030: a472 5bba e781 b239 0495 2d3a aa8b 6339
00000040: 2a3c aa38 0a5c bdb9 e6ac 3539 c824 503a
00000050: c969 5937 450f a139 2bff 4439 9d47 3c3a
00000060: cb6c 713a a81e 9138 9c00 bbb9 604d 34b8
00000070: e62e 8e38 7980 f138 f4e7 a6b9 2389 e0b9
00000080: 97ac b6b8 fb8f 8039 f773 ab38 e4e3 9339
00000090: cfbf a0b9 c893 2b39 05e0 c5b9 49c2 cdb8
000000a0: 45b3 22b9 312a b0b9 b7cf 9339 d2ef cdb8
000000b0: ca3e d1b8 9e57 4e38 0ab1 b5b9 e031 3eb8
000000c0: 9b62 23b9 78f9 3e39 c9e1 1ab8 487f a7b9
000000d0: 01f5 1f35 7af4 ceb6 7869 1637 bc5e bfb9
000000e0: f7f0 23b9 be1e 24b8 5e1b c2b6 4e32 94b8
000000f0: 0637 89b5 4bec 7fb9 3914 91b9 c344 6fb9
00000100: ecee 58b8 7ec1 88b8 ae0e 4db9 10f8 1f38
00000110: 29bc fbb9 5279 b7b8 3351 74b9 4655 29b9
00000120: d909 fcb6 ae27 8fb9 9bd7 8fb9 488b c139
00000130: fb16 27b9 20b6 aeb9 afd9 4eba 231a 22ba
00000140: 0bda b739 9358 5439 d834 cc38 3f13 03ba
00000150: ddec 5db9 e06f a938 3a93 9839 a25f ba39
00000160: bc98 b6b8 5150 ddb9 ee0c b939 e91b 273a
00000170: 3ecc 4e3a 26ae 243a 6dd3 2f39 b9ec 8a3a
00000180: deb3 1b3a 0660 933a 1973 6b3a 3153 c83a
00000190: f6a8 4a3a af4b b4b8 69d6 1939 6824 363a
000001a0: b52e bcb8 4b09 9339 fa9f bcb9 b020 8cba
000001b0: fa48 bc3a 1912 4138 5a5c 373a dc26 1aba
000001c0: ead8 70ba 0a17 aab8 915b 9237 1bbe dfb9
000001d0: 9008 28b9 1912 0ab9 d2e3 073a c87c 143b
000001e0: 4afb 7f3a 5240 7bb9 1046 393a 6669 773a
000001f0: 08fc 0d3b 687d 133a bf3d 1e3a b08a 68ba
00000200: 90e0 3aba 4781 75b9 be8f ed38 1356 a8b8
00000210: 5dfe 7837 f223 1e35 cb86 47b9 f92b 0a3a
00000220: 2d44 eab8 edfe a6b9 dbe0 8a38 50da 8b3a
00000230: 48b7 6a3a e360 e639 1b9b d339 c07d eb39
00000240: 5760 323a 5b6f 21b8 310b 0d3a 1530 b139
00000250: 6241 4c3a 9ecb 9739 e31f 1b38 a8e9 9c38
00000260: 06f2 5839 d436 0639 7184 b437 bc19 5438
00000270: bb0d 8d37 494a 20b8 ca6a b138 abea ae37
00000280: 9e4a 9438 d2bd c5b6 5b11 1bb9 e636 0139
00000290: 5b48 2239 92b1 5538 4233 f437 5119 45b6
000002a0: 402a 6739 9d99 7039 99c0 bab8 8f54 0738
000002b0: 2f58 b836 c8a2 9538 4e92 4db8 237b eb38
000002c0: 48f2 df38 e0c1 3a39 0a42 2339 9e5e ef37
000002d0: 0081 a9b8 aca5 68b9 11b7 b1b8 0b86 80b8
000002e0: 5e57 df38 226a a0b9 8f53 80b9 b982 2cba
000002f0: 520e 04b9 b302 73b7 3619 feb9 1b5f 03ba
00000300: 3e7b 35ba 8817 28ba bb36 33b9 74b0 45ba
00000310: 7e7d 38ba 0a15 dcb9 2789 e4b9 f91c 18ba
00000320: b3e9 5939 a703 8039 e57c 0d3a c623 a039
00000330: edfe 44b9 7050 1fb9 da89 7138 55c4 0339
00000340: 37b4 6bb8 1caf a7b8 7e72 99b8 1a9c 8cb9
00000350: 2c2d 7cba adbb 39ba 63ad 67b9 74ad 3b38
00000360: 401d 8eb9 c324 07ba b93c 66b9 aa49 6739
00000370: e113 c338 32be 9f38 5240 adb9 50f9 6139
00000380: ccf2 c039 19b9 1f3a def6 623a f22a ce38
00000390: 8c66 6f3a 5217 8c39 39eb a539 3d87 6b39
000003a0: 47e7 d8b9 eabe 74b9 1d72 c339 40d9 17b8
000003b0: 3765 81b8 510b 8ab9 9a62 68b9 c6f5 adb9
000003c0: fe22 a639 cd71 1bb9 b387 ebb9 6c5f bb39
000003d0: cf97 183a 3332 0a3a 6923 db39 b3b2 dcb8
000003e0: 9712 203a ea93 373a aa44 023a c9d3 ea37
000003f0: abe2 a8b9 aa7d 9739 5707 25b9 4a69 8539
0.00029285013 0.0007311543 0.00032487942 0.0010822975 0.00010812619 0.00019134578 0.00028259534 -0.00012397127
0.00034813434 -2.171607e-05 0.0002783666 6.512081e-05 -0.000837127 0.0003404759 0.00066216313 0.00021700436
8.117438e-05 -0.00036117464 0.00017325915 0.0007940051 1.2958838e-05 0.0003071969 0.00018787074 0.0007182302
0.0009209632 6.919849e-05 -0.00035667873 -4.2987405e-05 6.779823e-05 0.000115157054 -0.00031834806 -0.00042826784
-8.710584e-05 0.00024521336 8.1755155e-05 0.00028207817 -0.00030660487 0.00016362884 -0.00037741676 -9.81135e-05
-0.00015516307 -0.0003360077 0.00028192785 -9.819832e-05 -9.977592e-05 4.9195827e-05 -0.00034654915 -4.534598e-05
-0.00015581625 0.00018212746 -3.692674e-05 -0.00031947554 5.9588643e-07 -6.1677392e-06 8.965253e-06 -0.00036500941
-0.00015634658 -3.9129278e-05 -5.7848365e-06 -7.06656e-05 -1.0223309e-06 -0.00024406721 -0.00027671622 -0.00022818432
-5.1720926e-05 -6.521026e-05 -0.00019555792 3.813958e-05 -0.0004801464 -8.748718e-05 -0.00023299902 -0.00016148863
-7.5113317e-06 -0.0002730465 -0.00027435724 0.000369156 -0.00015934922 -0.0003332356 -0.0007890714 -0.0006183704
0.00035066935 0.00020250892 9.737321e-05 -0.00050001213 -0.00021164441 8.079386e-05 0.00029101392 0.00035547937
-8.706885e-05 -0.00042212245 0.00035295583 0.00063747034 0.0007888711 0.00062820537 0.00016768063 0.0010599113
0.0005939583 0.0011243827 0.00089816895 0.0015283582 0.00077308656 -8.597166e-05 0.00014671091 0.0006948174
-8.9732384e-05 0.0002804495 -0.00035977346 -0.0010690894 0.001436501 4.603164e-05 0.00069946575 -0.0005880424
-0.0009187596 -8.110523e-05 1.7447195e-05 -0.00042675514 -0.00016024918 -0.00013167447 0.0005183789 0.0022657383
0.0009764923 -0.00023961187 0.000706763 0.0009438008 0.0021665115 0.0005626292 0.00060364226 -0.00088707637
-0.00071287993 -0.0002341318 0.00011327815 -8.026897e-05 1.48411755e-05 5.8911894e-07 -0.00019028333 0.00052708347
-0.00011170688 -0.00031851922 6.6222354e-05 0.0010669921 0.00089537026 0.00043941205 0.0004036062 0.00044916384
0.0006804517 -3.84891e-05 0.0005380391 0.00033795895 0.0007791725 0.0002895267 3.6984577e-05 7.4821815e-05
0.00020689526 0.00012799661 2.1519345e-05 5.0568706e-05 1.6814904e-05 -3.8216156e-05 8.459909e-05 2.0851692e-05
7.0710885e-05 -5.8931555e-06 -0.00014788417 0.0001232285 0.00015476478 5.0948533e-05 2.9110935e-05 -2.9370024e-06
0.00022045616 0.00022945409 -8.905045e-05 3.226526e-05 5.4938932e-06 7.135194e-05 -4.9012066e-05 0.00011228609
0.00010678597 0.00017810566 0.00015569493 2.853508e-05 -8.082576e-05 -0.00022186962 -8.4741165e-05 -6.128483e-05
0.00010649742 -0.00030596653 -0.00024476319 -0.00065807585 -0.00012593836 -1.4484557e-05 -0.0004846544 -0.0005011425
-0.00069229666 -0.0006412198 -0.00017091159 -0.0007541247 -0.0007037743 -0.00041977345 -0.00043589735 -0.0005802657
0.00020781792 0.00024416784 0.0005397334 0.0003054423 -0.00018786984 -0.00015193387 5.7587262e-05 0.00012566273
-5.6196204e-05 -7.995797e-05 -7.316934e-05 -0.00026819186 -0.0009619768 -0.0007085156 -0.00022094468 4.4745815e-05
-0.00027106144 -0.0005155319 -0.0002195713 0.00022057319 9.302027e-05 7.6171375e-05 -0.00033045054 0.00021550548
0.00036801992 0.00060929504 0.0008658002 9.830845e-05 0.0009132407 0.00026720256 0.00031646507 0.00022461727
-0.00041371046 -0.00023340774 0.0003727832 -3.6203535e-05 -6.170052e-05 -0.00026329843 -0.00022161976 -0.00033180247
0.00031688059 -0.00014824346 -0.00044923797 0.00035738514 0.0005820961 0.00052717625 0.00041797318 -0.00010523703
0.0006106286 0.0007002937 0.0004969338 2.7993594e-05 -0.00032212338 0.0002889459 -0.0001573836 0.00025446183

bias f4 [128]
00000000: 2546 a9b8 46bd c9bc 279b 71bd a08a 5638
00000010: 5488 d6bd 8b3b fcbd fe77 0dbe ea69 47bd
00000020: 886e 4bbd 06f8 c8ba 3ee3 d99e 1528 88bc
00000030: db22 88bd c1fe 86bd d0fb 08b9 3d5d acbd
00000040: 0274 60bd 6590 b03a 5eaf babd 1e01 26bc
00000050: 82e5 19be c687 5dbd 2645 3ebd 428f 45ba
00000060: 3901 0080 db28 8b3a bf8c 2ebd e344 d7bc
00000070: 49d6 c2bb 04d2 cbbd e2ae 10be 696d 62bb
00000080: 7a41 1ebc 75e2 13bb 7057 06bd ba60 3ab9
00000090: a57a 40bd 3762 a7ba 5d16 33bc a7d7 bfbd
000000a0: 4b8c 4abb 5cdc 08be f8db 79bc 2035 903b
000000b0: 448a bebd 318a cabc 1a79 8bbd d0d0 13be
000000c0: 0d7e 2cbe 7b6d 41bd 9095 e0bc 743f babd
000000d0: 0814 2dbe 6be0 6c3c 7f0c c03c c7d2 f438
000000e0: 7d6b 96bd 6fb8 dcbb 3a7e 05be 1e97 90bd
000000f0: f44d 0bbe 0abe eebc c54a 39bd c72e f9b9
00000100: 2d44 12be b0f3 54bc 435e 9dbc d3e3 76b8
00000110: 0ec7 8abd 23e6 b4b1 9fbe 513c edf3 45bd
00000120: 8200 0080 f089 20bb 607c 9fb2 19f9 d4bc
00000130: db1e bdbd 70c8 a8bd f9cd 1ebc 5792 d2b9
00000140: 0c86 e0bc 3983 bcbd d670 173a 928c 473c
00000150: 7885 ffbd 14b9 9dbd 8ddb abbc 1382 b5bd
00000160: 668f 90bc 9272 11bd 2bc4 17bc 96cb 46be
00000170: e855 10ba 1294 89bd 8e8e b9bc 7062 5a3a
00000180: 5823 c3bd 43da a4bd 6028 bfb8 f3ec 05bc
00000190: 73a6 deba 677a 07bd d589 e6bb c8af adbd
000001a0: fd9f e5bd 8891 b8bd 2e89 bcbc 28d5 c4bc
000001b0: c76d 853a 3976 699b 430a 4439 f4b7 9cbb
000001c0: d3e8 743a 2b51 a7b7 f66e 7bbd b423 bdbc
000001d0: 4f73 743b 09f0 64bd 54c8 13bd 92f4 a2bc
000001e0: ccc0 113b 3240 b1bd 1e6d 60bd 72d1 94bb
000001f0: 672f bebd 2f6e d3bd fb9a 23bd ef80 8f3c
-8.0716134e-05 -0.024626385 -0.058985855 5.115068e-05 -0.10475221 -0.123160444 -0.13815305 -0.048684992
-0.049665958 -0.0015332706 -2.3069754e-20 -0.016620675 -0.06647273 -0.06591559 -0.00013063778 -0.08416221
-0.054798134 0.0013470767 -0.0911548 -0.010132102 -0.15028957 -0.05408456 -0.046452664 -0.00075363007
-4.39e-43 0.0010617034 -0.042614695 -0.026277965 -0.005945955 -0.09952167 -0.14129212 -0.0034550077
-0.0096591655 -0.0022565399 -0.03279823 -0.00017774376 -0.046991963 -0.0012770359 -0.010930625 -0.09367304
-0.0030906375 -0.1336531 -0.015250199 0.0044008642 -0.09303716 -0.024724098 -0.06810208 -0.14435124
-0.1684496 -0.04722355 -0.027415067 -0.09094134 -0.16902173 0.014457802 0.023443459 0.00011674087
-0.073447205 -0.0067358534 -0.13036433 -0.07060073 -0.13603956 -0.029143352 -0.04523732 -0.00047527833
-0.1428382 -0.012997553 -0.019209987 -5.886315e-05 -0.06776248 -5.264853e-09 0.012801795 -0.04832833
-1.82e-43 -0.002449628 -1.8566595e-08 -0.025997685 -0.09234401 -0.082413554 -0.009692662 -0.00040163353
-0.027407669 -0.09204716 0.0005777007 0.012179511 -0.12476629 -0.077013165 -0.020978713 -0.088627
-0.017646503 -0.035509653 -0.009263079 -0.194136 -0.0005505965 -0.06717695 -0.022650983 0.00083307084
-0.09528226 -0.080494426 -9.11511e-05 -0.008174169 -0.0016986862 -0.033075716 -0.007035474 -0.08480793
-0.11212156 -0.09012133 -0.023014631 -0.024027422 0.0010179811 -1.9311508e-22 0.0001869584 -0.004782671
0.0009342555 -1.9945748e-05 -0.061385117 -0.023088314 0.0037300175 -0.055892978 -0.03607972 -0.01989201
0.002224016 -0.086548224 -0.054791562 -0.0045415694 -0.09286385 -0.1032375 -0.039942723 0.017517535

weight f4 [128]
00000000: ba97 363d 65f8 d93d f96b 3d3f 6c96 943b
00000010: 89dc ff3e ec8c e03e d309 183f 3210 df3e
00000020: c10c 9d3e 1c5a a0bb f496 aaa0 89b8 a73d
00000030: 8f9f 373e b1cb a33e 7258 773b 4f23 183f
00000040: 4ddf 6e3f 9a10 8d3a ef07 f63e 550f 813c
00000050: 5888 0a3f 29ac 813e 0656 8c3e 09ee cd38
00000060: 7900 0080 cbdc 393a e55e 8b3e e859 8b3e
00000070: 720a d53a 8751 d33e 9800 de3e 3509 d6ba
00000080: c963 2b3a c806 8a3d 158c 143f 10ae c43c
00000090: 30e8 083f 8a71 203c c5f7 743d 164e 303f
000000a0: 0985 7abb c29e 3b3f 691e 9e3d 6633 903c
000000b0: 0fb2 023f 6fb0 303e 868a db3e 3068 5a3f
000000c0: e151 613f 082a 963e 2537 6a3e 1084 2f3f
000000d0: 60c4 263f d762 0e3e 4739 aa3e eabc 5e3c
000000e0: f0cf 1f3f 0bf6 b339 ef96 013f 45a7 433f
000000f0: 31fd 743f 3b96 943e baf8 4b3f 69ba e33d
00000100: 2119 5f3f 3b08 663d ef39 b73e 39e2 aabb
00000110: 76e1 1c3f 257b b839 f349 1a3f 423b 9e3e
00000120: ee00 0000 516d 243b 7646 8137 7432 e33e
00000130: d7c4 333f f81c 613f cf35 383d 323b ad3a
00000140: 4213 cd3e d12e 693f c451 4d3a d89c e43d
00000150: d353 5e3f 06d4 083f 689c 213e 6d71 253f
00000160: 0094 673e abe8 0f3f ee9f 463f fb98 763f
00000170: d67f 22b9 d2cf 163f 0246 393f 4258 6a3e
00000180: e79e 2c3f 91ae 043f 31c1 c63a b115 003d
00000190: adfa e33d d2b0 1a3f 47b8 1c3f 1090 453f
000001a0: 5992 363f 3419 503f 0e2b 203f 9a87 133f
000001b0: 4f66 063c 7014 cc9c c00e bc3b f732 73ba
000001c0: 2089 83bb 641c 4cb8 3e11 aa3e 494f c73d
000001d0: b9a7 b13d 54d3 243f 8400 5b3e 5d43 ed3e
000001e0: 017b 7b3e dcb9 083f 27be cc3e 31b3 3b3c
000001f0: a921 df3e 2384 273f a2c3 013f c982 053f
0.04457829 0.106430806 0.7399288 0.0045345332 0.49972942 0.43857515 0.5938999 0.43567044
0.30673793 -0.0048935544 -2.8899013e-19 0.08189494 0.1793196 0.31991342 0.0037741926 0.59428877
0.9330948 0.0010762394 0.48052928 0.015754381 0.54114294 0.2532666 0.2740938 9.819499e-05
-1.7e-43 0.00070900907 0.27220836 0.2721703 0.0016253723 0.41273138 0.43359828 -0.0016329648
0.00065380015 0.06739575 0.5802625 0.02400878 0.5347929 0.009792695 0.059806604 0.6886915
-0.0038226268 0.7328912 0.07720644 0.017602634 0.51052946 0.17254804 0.42879122 0.8531523
0.8801556 0.29328942 0.22872598 0.68560886 0.65143394 0.13904892 0.33246824 0.013594845
0.6242666 0.00034324857 0.5062093 0.7642711 0.9569884 0.29020867 0.796764 0.11119539
0.8714772 0.056160193 0.35786387 -0.005214956 0.61281526 0.00035186965 0.6026909 0.30904585
3.34e-43 0.0025089572 1.541081e-05 0.4437443 0.7022223 0.8793483 0.04497319 0.0013216494
0.40053755 0.9108706 0.00078323134 0.11162728 0.86846656 0.5344852 0.1578232 0.646262
0.22615051 0.562144 0.77587783 0.9632718 -0.00015497147 0.5891086 0.7237245 0.2288523
0.67429966 0.5182887 0.0015163777 0.031270687 0.11131797 0.60426056 0.61218685 0.77172947
0.7131706 0.81288457 0.62565696 0.57628787 0.008203103 -1.3504871e-21 0.005739063 -0.0009277309
-0.0040141493 -4.866383e-05 0.3321628 0.09731919 0.08674569 0.6438496 0.21386915 0.46340457
0.24558641 0.534086 0.39988825 0.011456297 0.43580368 0.65436 0.50689137 0.5215269

bias f4 [128]
00000000: 9320 ea3b 4a94 223e 8659 15be 973b 503a
00000010: a744 38be ff27 3bbe e3a6 46be c72c 2c3e
00000020: 335f 453e 2bbe 0dbd bf92 d437 0747 21be
00000030: ee09 56be d53d 463e 8a88 adba a703 0cbe
00000040: 03d0 4c3e f27c 123e 559c 20be 5350 a13d
00000050: 4380 43be 9a94 36be f0a6 243e fc14 0ebe
00000060: 5245 c5b3 765c e13d 936f 443e 9aa7 2f3e
00000070: 6a7a 523e 0b48 3fbe 68df 64be df64 ecbd
00000080: 7a70 38be ca46 a73d fcad 373e f1d1 f8ba
00000090: 94a9 2e3e 164a 07bd 57c8 193e 2228 1fbe
000000a0: 3b07 e73d 5f1a 34be baea 333e cfe5 333e
000000b0: a835 04be a1ba 1b3e 6614 f0bd 7140 1fbe
000000c0: 2f10 2fbe b8e0 24be c984 c8bd 2677 36be
000000d0: 71c5 3cbe cc86 1a3e 82ba 1f3e 1316 f73b
000000e0: b6ef 40be d10a f13d ae7b 40be d521 2d3e
000000f0: 20a4 37be 1250 083e ddbd 383e a17a 253e
00000100: 6815 38be b219 173e 16cd 1f3e 7004 473d
00000110: ec7a 353e d42e b035 a6ba 23be 2057 b8bd
00000120: 83d2 22b7 46e2 203e 967d 19b6 80a2 363e
00000130: f15a 0abe 492c 20be de6e 413e a381 243e
00000140: defc ddbd 46ad 3dbe 580d 223e bae0 103e
00000150: 35c8 2fbe 15ed 393e b2e6 2e3e 13e4 323e
00000160: 80c6 0b3e ce67 c0bd b460 2fbe 5b36 4abe
00000170: c1e0 253d 9a57 edbd be4c 32be ef91 aa3d
00000180: e985 1fbe 39fd 3abe 9376 173e 8dc7 323e
00000190: e14f 02bd 239c 413e 8403 2a3e 85e2 493e
000001a0: 14f3 1abe 727b 433e 7fa4 493e fbc7 2d3e
000001b0: 710a 66be 5f73 c1b7 8dcf c3bd ac8b 37be
000001c0: 4d7e 3bbd f739 5bbb c73b 423e fe9a 443e
000001d0: cca3 f93d b2d0 25be 6f00 ebbd 61d9 c6bd
000001e0: ceaa 153e 89ce 1abe 0ca1 0e3e 8829 c73d
000001f0: c76f 43be 3715 1bbe 254a 1abe 0573 153e
0.0071449964 0.1587688 -0.14584932 0.000794345 -0.17994939 -0.18276976 -0.193996 0.16813956
0.19274597 -0.034605186 2.5340703e-05 -0.15749751 -0.20902225 0.19359525 -0.0013239544 -0.13673268
0.20001225 0.14305475 -0.15684636 0.07876649 -0.19091897 -0.17830124 0.16079307 -0.13875192
-9.186137e-08 0.11003964 0.19183187 0.17153779 0.2055451 -0.18679826 -0.22350848 -0.11542677
-0.18011656 0.08167799 0.17937464 -0.0018983466 0.17056876 -0.03302964 0.1501783 -0.15542653
0.11280676 -0.17588185 0.1757001 0.17568134 -0.12911093 0.15207912 -0.11722641 -0.15551926
-0.17096017 -0.16101348 -0.09790952 -0.17818889 -0.18434693 0.15090483 0.15598491 0.0075404732
-0.18841442 0.11769641 -0.1879718 0.16907437 -0.17933702 0.13311794 0.18041177 0.1616006
-0.17976916 0.14755896 0.15605578 0.048588216 0.17722672 1.3126651e-06 -0.1598917 -0.09000993
-9.704966e-06 0.15711316 -2.2871877e-06 0.17835426 -0.13511254 -0.15641893 0.18889949 0.16065077
-0.10839246 -0.1852313 0.15825403 0.14148226 -0.17166217 0.18156846 0.17080191 0.17469816
0.1364994 -0.09394799 -0.17126733 -0.19747297 0.040497545 -0.11588974 -0.17412087 0.08328616
-0.15578426 -0.1826066 0.14791326 0.17458935 -0.03181446 0.18907218 0.16602904 0.19715317
-0.1513179 0.1909006 0.19691657 0.16970818 -0.2246492 -2.3061117e-05 -0.095610715 -0.17924374
-0.045774747 -0.0033451298 0.18968116 0.1919975 0.12189445 -0.16192892 -0.11474692 -0.097094305
0.14615938 -0.1511785 0.13928622 0.09724718 -0.19085608 -0.15144812 -0.15067346 0.14594658

running_mean f4 [128]
00000000: dc98 253c 0f5b 8b3d a018 033c cea4 d73a
00000010: 7d83 663b 7672 653d 9d81 0cbc b587 1e3d
00000020: fbf5 a43c 302b 093d f011 ab20 6299 a73e
00000030: def2 5c3e 8cb6 433c d283 2bb6 4734 603d
00000040: ef29 be3d 0b4b 053e f535 983d 04bb 1d3a
00000050: 266c 0d3d 252e 583d a770 833b 364a d03d
00000060: 1209 0000 14c4 fb3d 3aed 313c ef82 b53d
00000070: c39e 503c 844a bfbc 866d 8bbc 6206 0a3d
00000080: e274 5c3a 1ed2 873d d9df ca3c c165 2db8
00000090: 12b3 b03d 7f01 073d 217c b13e 8321 fe3c
000000a0: 007d 9b3c 0244 edbc 9199 633d 4c85 d73d
000000b0: 635f 653b ba48 4d3d 56c1 b43c 471a abbc
000000c0: 6009 4a3b 5909 9b3d f70d ca3c 5553 383d
000000d0: 53da 8abc 27d8 af3e 728c c03e 8d34 693c
000000e0: 7bea 363c 3da8 e0ba f2d5 02bd 7d07 d9bc
000000f0: 789a 8a3c 701d 7a3c a9a8 b43d abbf c13d
00000100: abf2 afbc bc56 0f3d d166 1f3e ae24 e33d
00000110: 87a1 6fbc 7d1f beb0 21f7 ba3e e9cc 2f3e
00000120: ba08 0000 988c 673d 14e2 3034 41b6 843e
00000130: 84f2 68bc cc02 0f3c fd55 6a3e 3e36 b93d
00000140: 94e8 7d3e f9af 02b9 a55e 0a3e 42ca 6c3e
00000150: 22f7 363d 6946 ca3c 6f5a 4c3e 8493 2d3c
00000160: 3781 e53d 69aa 9e3d 8481 363d cf56 9bbc
00000170: 4d6d bcb8 f2a3 443e 4d54 313e 7c5c ca3d
00000180: ba4f 80bb 843a d0bc 73c9 913d 0727 2a3e
00000190: 92a8 823e 083d 193e b6c8 493e 9228 713d
000001a0: a0a1 eb3c d7c3 abbc b78d 703d 02ac 553d
000001b0: 2a84 713d b888 a81b a921 403d 6225 093d
000001c0: dc3d 863d 048e 5037 b776 b23a 69b4 233e
000001d0: dfcb 053e 18a3 fb3c 3bef c33c fed6 f53e
000001e0: 931d 2b3e f6ee bc3c 3117 903c 9835 703c
000001f0: 9227 b3bc 4cbc 633d b562 613e 68c2 b13e
0.010107245 0.068044774 0.0080014765 0.0016452314 0.0035173588 0.05601736 -0.008575824 0.03870364
0.020136824 0.033488452 2.8980397e-19 0.3273421 0.21577021 0.011945378 -2.5557715e-06 0.054737356
0.09285342 0.13016908 0.074321665 0.0006016942 0.034526967 0.05277838 0.004011232 0.101704046
3.254e-42 0.12293258 0.010859782 0.08862864 0.012733164 -0.023350962 -0.017019998 0.033697493
0.0008409751 0.066318735 0.024764942 -4.134118e-05 0.08627905 0.03296041 0.34665015 0.031021839
0.018980503 -0.028963093 0.055566374 0.10523471 0.0034999482 0.050118186 0.022064846 -0.020886553
0.0030828342 0.07570142 0.024664862 0.045001347 -0.016949808 0.343446 0.3760715 0.0142337205
0.011164303 -0.0017139983 -0.031942315 -0.026492829 0.01691936 0.0152658075 0.08821232 0.09460386
-0.021478018 0.034994826 0.15566565 0.110909805 -0.014625913 -1.3833269e-09 0.3651667 0.17168011
3.13e-42 0.056530565 1.6473524e-07 0.259203 -0.0142179765 0.008728694 0.22884364 0.09043549
0.24795753 -0.00012463321 0.13512667 0.2312403 0.044669278 0.024691777 0.19956373 0.0105942525
0.112062864 0.07747347 0.04455711 -0.018962292 -8.9848974e-05 0.19203165 0.17317314 0.09880921
-0.003915754 -0.025418527 0.071185015 0.1661645 0.25519234 0.14964688 0.19705471 0.05887658
0.028763592 -0.020967407 0.0587289 0.052165993 0.058963932 2.788162e-22 0.0469071 0.033482917
0.065547675 1.2430832e-05 0.0013615702 0.1598679 0.13066052 0.030717418 0.023917785 0.4801559
0.167105 0.023063164 0.017589184 0.014661215 -0.021869455 0.055599496 0.2201031 0.34718633

running_var f4 [128]
00000000: ecc1 6f39 e3a4 953d cc58 883d 778b fe35
00000010: 143d 813d 383c 213e 46a6 313d c813 8e3d
00000020: 81e4 3d3d b262 603b fe46 1603 8612 b03e
00000030: 4ea1 083e b7c8 323d bd7c 6033 a85c 3c3e
00000040: 3401 803e 773d 203d 3e4b 513e 9b1b 3c3a
00000050: d926 863d 816a 013e 9666 073d 053e d43c
00000060: 0400 0000 30d6 a53d 4654 0c3d fe88 063e
00000070: 2238 af3a 1e85 f23b a4f5 923c 9e56 b43b
00000080: 4872 a939 cfb1 283d 58db 6a3d fc61 ac30
00000090: 7c11 283e 948f 5b3b d771 9d3e 5351 ac3d
000000a0: 92f4 963b 1dac a63b ee3b 4f3d cba2 963d
000000b0: 1e69 db3c 2f45 793d c92d 923c 92ed 393c
000000c0: cc5e 403d ecb5 b33d b3b7 073d 1795 ed3d
000000d0: 222f c73c 5160 e23e cbc0 193f 3064 fb39
000000e0: a096 c23d accb af36 2df0 723b ea00 e73b
000000f0: 0e94 903d a701 343c b03c 523e f3a7 c03d
00000100: 44f4 fa3b e5f6 b73c 86ff 3b3e 731e c63c
00000110: 8f00 953c 12c0 af22 369c ca3e fd56 463e
00000120: 0400 0000 18de 5c3c aafa f329 b4aa 073f
00000130: 1d56 783c b9c4 903d 6f22 313e f6c6 8b3c
00000140: ab5e eb3e 8199 623d 6e14 fb3c c8c5 7c3e
00000150: d830 cd3d c04a 933d 83cc a63e 2d83 653d
00000160: 7d9c 0a3e b629 113e ae20 993d fc34 a63c
00000170: e0e7 ba33 ccdf ba3e e9df e63d 1db6 a53d
00000180: 3ad4 1c3d 96da f03b 204e 363c 9483 093e
00000190: a497 e43d 68c0 353e 8c2c a33e 9d2d 313e
000001a0: 55a8 883d 5e3f c43c 6482 023e fc7a eb3d
000001b0: eac3 d63c 2506 0000 87eb a03b 35dc a63b
000001c0: 1d1d d13b edb9 6732 233b fd3c a00b 6a3e
000001d0: 986b f83d 5a0f be3d 9814 663d 7564 4d3f
000001e0: 18b3 543e 592a d33d 8c8d 223d a7e4 443b
000001f0: 3f59 f93b 6ec5 3c3e 92ab f43e a434 dd3e
0.00022865058 0.0730684 0.06657562 1.8965064e-06 0.06310478 0.15745628 0.04337146 0.06937367
0.046360496 0.0034238514 4.4162533e-37 0.34389132 0.13342783 0.043648448 5.2267513e-08 0.1839472
0.25000918 0.039121117 0.20438859 0.00071757444 0.06550378 0.12638284 0.033056818 0.02590848
6e-45 0.08097494 0.034260057 0.13138196 0.0013368169 0.0074011227 0.017939396 0.0055034896
0.00032319338 0.041185196 0.05733809 1.2542496e-09 0.1641292 0.0033502327 0.30750915 0.08413949
0.004606792 0.0050864355 0.050594263 0.07355269 0.026783522 0.060856994 0.017844098 0.011348145
0.046965405 0.08774933 0.033134174 0.11600702 0.024314467 0.4421411 0.60059804 0.00047949096
0.09501386 5.239117e-06 0.0037069425 0.0070496695 0.07059489 0.010986722 0.20530963 0.09407034
0.0076585133 0.022456596 0.18359193 0.024184441 0.018188743 4.7637207e-18 0.39572304 0.19369121
6e-45 0.013480686 1.0834851e-13 0.5299485 0.01515725 0.07068772 0.17298292 0.017062645
0.45970663 0.055322174 0.03064939 0.24684823 0.10019082 0.07191992 0.32577905 0.056033302
0.13536258 0.14176068 0.07476936 0.020288937 8.703478e-08 0.36498868 0.11273176 0.08091376
0.038288333 0.007350276 0.011127025 0.134291 0.11161736 0.17749178 0.31869924 0.17302556
0.06672732 0.023955997 0.12745053 0.11498067 0.026216466 2.204e-42 0.0049108895 0.0050921687
0.0063816444 1.3488244e-08 0.030911988 0.22855997 0.12129897 0.09280272 0.056171983 0.8023141
0.20771444 0.103108115 0.03968577 0.0030043514 0.007609516 0.18434688 0.47787148 0.43204224

weight f4 [1, 128, 1, 1]
00000000: 1a4e 7d3a 25ac 5bbe f36a 883e e050 11b7
00000010: 6327 d83e e611 d43e 2bc9 083f ad24 98be
00000020: 1240 d5be 0ee2 003d d052 b6b7 21d1 2b3e
00000030: e090 f93e d5d1 d4be 9553 5d38 7b35 513e
00000040: 1214 1abf 3332 10be 83b2 813e 148f 8cbd
00000050: d962 db3e 636c cc3e 781b 5bbe f0f9 213e
00000060: 0e41 7e33 3cf6 cbbd 6e25 afbe 2482 7cbe
00000070: 2eda 46be 58a9 e23e 4a90 cc3e 77fb e63d
00000080: 5de6 303e 1565 72bd dc6f d6be 074d ba38
00000090: 385f 72be 755b 1a3c eec1 36be 9661 973e
000000a0: 268d c5bd cc5a c83e 0149 79be e387 84be
000000b0: dc93 493e e734 5cbe 2874 233e 2e9c 883e
000000c0: 78fa ad3e 9401 873e f549 ac3d a7c2 de3e
000000d0: 6791 033f c518 4abe b539 81be 2e40 f8b9
000000e0: 857f f93e c696 e5bd 05ef dd3e f9bb bebe
000000f0: 4b50 f33e 3e2a 31be e9d4 e0be 7b7f 7bbe
00000100: be94 b43e 10b4 15be 1f64 80be f6f6 33bd
00000110: c16a cdbe e656 d1b4 6acb 8c3e 4286 b33d
00000120: c357 2a37 b6b3 29be 45fc 3d36 92b4 c6be
00000130: 5cb1 733e 82b4 a23e 0125 93be d95d 5fbe
00000140: 83d3 df3d ae16 f23e c3f6 29be d65c 35be
00000150: 80db c03e c28b d6be bdeb 69be ad54 9dbe
00000160: c443 37be 31e7 c83d e625 c83e 2836 cf3e
00000170: 6337 eebc 18b6 0d3e 22a0 c53e d5d2 80bd
00000180: 97ad 9b3e 265b ce3e f5f3 fcbd 0e9c 5fbe
00000190: 65ff 3a3c e35e ebbe a6df b3be 3dcd 0abf
000001a0: 32e4 653e 2c5a f6be 0e6d f7be 0824 bbbe
000001b0: 72bc 5f3e e733 dd37 698a b63d ae25 673e
000001c0: 5037 1f3d 0d3e 873b 0cea e3be 40cc 99be
000001d0: 66bf dfbd 3cd4 9f3e 114c fe3d e7fc aa3d
000001e0: cf15 49be 63b9 853e 54c7 49be 496a a5bd
000001f0: f3de d73e f79f 8a3e e15a 7a3e e50a 6dbe
0.0009662822 -0.21452387 0.26644096 -8.661504e-06 0.4221755 0.41419905 0.5343196 -0.2971548
-0.41650444 0.031465583 -2.1734653e-05 0.16778995 0.48743343 -0.4156634 5.2768348e-05 0.20430557
-0.60186875 -0.1408165 0.25331506 -0.068632275 0.42848852 0.39926443 -0.21397197 0.15818
5.919815e-08 -0.09959075 -0.34208244 -0.2465902 -0.19419166 0.44269824 0.39953834 0.11278432
0.17275377 -0.05917843 -0.41882217 8.8835186e-05 -0.23669136 0.009421219 -0.17847416 0.2956664
-0.096460626 0.39131773 -0.24344255 -0.25884923 0.1968531 -0.21504556 0.15962279 0.26681656
0.33980155 0.26368392 0.08412544 0.43507883 0.5139374 -0.19736011 -0.2523934 -0.00047350064
0.48730102 -0.112103984 0.4334642 -0.37252787 0.47522196 -0.1730127 -0.43912438 -0.24560349
0.3526973 -0.1461947 -0.25076386 -0.043936692 -0.4012051 -3.899251e-07 0.27498943 0.08765842
1.0153223e-05 -0.1657246 2.8310035e-06 -0.3880964 0.23798126 0.31778342 -0.2873917 -0.21813144
0.109290145 0.47282928 -0.16598038 -0.17711195 0.37667465 -0.41903502 -0.22843833 -0.30728665
-0.17896944 0.09809721 0.39091414 0.40471005 -0.029079145 0.13838995 0.38598734 -0.06290213
0.30405876 0.40303916 -0.123512186 -0.21836874 0.01141343 -0.4597083 -0.35131568 -0.5421942
0.22450331 -0.4811567 -0.4832539 -0.36550927 0.2184923 2.6369422e-05 0.089131184 0.22572967
0.03887111 0.00412727 -0.445145 -0.30038643 -0.10925178 0.3121661 0.12416852 0.083490185
-0.19637226 0.26118 -0.19704944 -0.08076913 0.42162284 0.27075168 0.2444873 -0.23148687
