ball_data/model_4500.pth (torch_old, 853498 bytes, 13 tensors)

weight f4 [64, 1, 5, 5]
000000 08 de 92 bd 57 b3 c9 3c 1c af b3 3c d0 e8 86 3c
       -0.07171255 0.024621649 0.021934085 0.016468436
000010 32 c7 55 3d ca d2 bf bd 09 0f ab bd f3 71 ec 3d
       0.05219192 -0.09366377 -0.08352477 0.115451716
000020 89 b6 82 3d d4 93 ac 3d eb 1b 0b be 78 1a 22 bc
       0.06382472 0.084266335 -0.13584869 -0.009894006
000030 18 4a a8 bd 29 29 5d 3d d0 ae a3 3d 2a 03 38 be
       -0.08217257 0.05399433 0.07992327 -0.17969957
000040 ca 8e 08 be c2 03 32 3d 83 80 3d bd 50 90 73 3d
       -0.1333572 0.043460615 -0.046265136 0.0594638
000050 9c ca 03 3d 67 f6 9a bd e2 c1 90 bb bd c1 84 bc
       0.032175645 -0.07566529 -0.004417644 -0.016205663
000060 2b 86 52 3c 5b 52 22 3e 50 08 ed bd 70 d1 1b 3d
       0.012849371 0.15851729 -0.11573851 0.038041532
000070 24 ae 40 bd ec 4a 1d 3b 0d cd d3 3d 6e 1a 45 3d
       -0.047041073 0.0024000956 0.10341845 0.04812091
000080 25 22 bf bd 67 4e e8 bd e4 aa 80 3d 9b 93 b1 3d
       -0.093326844 -0.11343079 0.06282595 0.08670732
000090 4a 23 ab 3c 27 ba d3 bd 50 58 5e bd c1 a8 31 bd
       0.02089085 -0.1033824 -0.05428344 -0.043373827
0000a0 63 12 c1 bd f4 bb f0 3c ac bf a2 bb d3 9e f7 bc
       -0.09427335 0.029386498 -0.0049666967 -0.0302271
0000b0 5d 7e 9a 3d 5d 37 60 3c 76 9c b3 3d 0d 65 aa bb
       0.07543633 0.013685075 0.08770077 -0.0052000345
0000c0 7d 6d 7d bd 67 aa 83 3c e9 9c ed 3d f5 2f 1e 3d
       -0.061871994 0.016072465 0.11602194 0.038619954
0000d0 cd 02 29 bc 6a 79 ca bd f0 45 41 3c e9 ae f3 bc
       -0.010315609 -0.09886439 0.01179646 -0.02974649
0000e0 fc 7c 04 3e 78 db e6 3d dd 97 ec bd 3e 3b 8a bd
       0.12938303 0.11272329 -0.11552403 -0.06749581
0000f0 97 ad 45 3d ab 0e 9d 3d de 93 22 3d 11 fb b7 bd
       0.04826125 0.07668813 0.0396918 -0.08983434
000100 16 df 30 39 da 11 be 3c 31 6e 9a bd 8d c4 9b bd
       0.00016867774 0.023201872 -0.075405486 -0.076058485
000110 55 e1 1c 3d c3 0b b1 bd a5 1a 58 3d 2f 68 25 3d
       0.03830083 -0.086448215 0.052759785 0.04038256
000120 75 05 30 3e 7d e4 3e bd 70 a8 55 3d 4b 0d a8 bd
       0.17189582 -0.046604622 0.052162588 -0.082056604
000130 0a 42 b3 bd cc d4 fe 3c 35 12 3b bd 6f 35 1b be
       -0.0875283 0.031107329 -0.04567166 -0.15157102
000140 88 31 32 3d ce 75 0b bd 6c c2 01 3b 33 86 7f bd
       0.043504268 -0.034047894 0.0019799722 -0.06238384
000150 0b 8f 11 be b4 27 da bc 5d db 00 3c 97 f7 13 bd
       -0.14214723 -0.02663026 0.0078648 -0.036124792
000160 5f f1 b6 bb ba 90 29 3d 99 9d 0f 3c bf 53 8b bd
       -0.005582973 0.041397788 0.008765602 -0.06803083
000170 e6 57 86 bd 69 24 3d bc 98 be 2d bd f6 55 86 3d
       -0.06559734 -0.011544325 -0.042418092 0.065593645
000180 6e 0a 74 bd df b8 e1 3d b2 69 7f 3d 0d 8c c0 bc
       -0.05958026 0.110215895 0.06235666 -0.023504281
000190 2b 11 20 bd 3c e8 d7 bb 0f ef cc bb b3 24 4c 3d
       -0.039078873 -0.006588964 -0.006254084 0.049839687
0001a0 98 b8 40 3d 39 6c 13 bd fa cd 60 3c 40 30 64 3d
       0.047051042 -0.03599188 0.013720984 0.055710077
0001b0 73 35 d6 bd 5e 8a 16 bd b0 cf 65 bd 79 2c 4e 3e
       -0.104594134 -0.03675305 -0.05610627 0.20134152
0001c0 d6 45 77 3c 3c 4a bf bd 6c 04 d3 3d 1c 8e 21 3d
       0.015092334 -0.09340331 0.10303578 0.039442167
0001d0 f6 43 f9 3d e8 db c0 bd 8c d5 07 be 01 a5 0d bd
       0.12171166 -0.09416944 -0.13265055 -0.034581188
0001e0 98 4a 50 bd 78 d4 02 bd 37 97 a8 bd 4f 1e 10 3d
       -0.05085239 -0.031940907 -0.08231967 0.035185155
0001f0 2d 25 21 3e 6b 13 9a 3d a4 d9 c4 bb b2 3f c8 bd
       0.15736838 0.07523235 -0.00600739 -0.09777774
000200 e0 bd d4 3c a9 49 54 bc 8b fd 28 3d 7c a2 2b bb
       0.025969446 -0.012957015 0.041257422 -0.0026189378
000210 50 58 85 bd 7d e1 95 3d ef 4e 32 3d d1 05 d1 bc
       -0.06510985 0.07318399 0.04353231 -0.025515469
000220 ba cf 7a bc 3a 9f 07 3e 16 39 14 3e 09 5f fc 3c
       -0.015308315 0.13244334 0.14474902 0.030807035
000230 19 be 95 bd 9f d7 4c be ed 8a 0a be 79 d4 3c bd
       -0.07311649 -0.20004128 -0.13529558 -0.046101067
000240 16 02 38 bd 18 72 7b 3d 81 fc 85 bd 8c 2c 80 3d
       -0.044923864 0.061388105 -0.06542302 0.06258497
000250 77 8a e8 3d 90 e4 54 bd 59 7d aa bd 28 ae ae 3b
       0.11354535 -0.051975787 -0.083246894 0.0053308196
000260 23 4f 86 bb 04 60 4b bd e0 08 80 3c d5 de b8 bc
       -0.0040987893 -0.049652115 0.015629232 -0.022567192
000270 d2 b7 6b 3d 4c e1 fd 3c e8 62 b1 3d 18 83 c8 3d
       0.05754835 0.030991219 0.08661443 0.09790629
000280 17 f1 85 3b 84 22 39 bd ce d8 c5 bc 0d 76 c8 3d
       0.004087578 -0.045198932 -0.024151232 0.097881414
000290 25 55 29 3c fc 2a 1a bd 30 22 f7 39 b9 58 7f 3c
       0.010335241 -0.03763865 0.00047136983 0.015585118
0002a0 f1 8a 4f 3d b1 7b 41 3d e5 a8 f4 bd 98 28 2f be
       0.050669614 0.047237102 -0.119462766 -0.17105329
0002b0 b7 29 a6 bd 82 c5 38 bd c4 6f 09 3d 7d 83 82 bd
       -0.08113425 -0.045110233 0.033553854 -0.06372736
0002c0 0f 3e 85 3d 44 68 e3 bd 39 6a bc bd 71 fc d8 bd
       0.06505977 -0.111038715 -0.09199948 -0.105950244
0002d0 b4 e8 c9 bd 23 d2 58 bd 79 12 4d 3c bd ed bb bc
       -0.09858838 -0.052934777 0.012516611 -0.02294051
0002e0 24 01 ad 3d 2c 2c bd 3d a4 e1 f6 3d 21 0f f9 3c
       0.08447483 0.09236941 0.12054756 0.030402722
0002f0 65 31 e9 3d f2 16 a2 bb b7 0d 03 3c 7d 01 9c 3d
       0.113863744 -0.004946583 0.007998875 0.07617471
000300 9f 70 2c 3d a9 a0 69 bc b3 7d cb 3c 67 f0 e8 bd
       0.04209959 -0.014259496 0.024840211 -0.11373978
000310 5f 72 b3 bb fd f9 d8 bd 08 38 f3 3c 31 26 8a 3d
       -0.0054762806 -0.105945565 0.029689804 0.06745566
000320 32 9d 49 3d ba ff b9 3d 17 eb e6 3d cd 6a 6a 3d
       0.04922218 0.09081979 0.112753086 0.05723076
000330 55 75 05 3e 22 5d c1 ba 9a 25 79 bd 8a 1f 39 bd
       0.1303304 -0.0014752487 -0.060826875 -0.045196094
000340 65 cf 69 bd a1 cc 9c 3d 52 0f a0 bd 5e 3a 01 bc
       -0.057082552 0.07656217 -0.07815422 -0.007887451
000350 cf 54 a0 bd 68 49 f9 bd 51 1e 5a bd fe 67 0f be
       -0.07828676 -0.12172204 -0.05325157 -0.14004514
000360 72 3b c2 bd 36 80 54 bd 19 ab 76 3c 01 e7 ed bb
       -0.094839945 -0.051880084 0.015055441 -0.007260204
000370 cb f8 2e 3d 68 57 ef 3d 7f cf fb 3c bf a1 3b 3d
       0.042717736 0.11686593 0.03073859 0.04580855
000380 c9 ea a5 3d f9 54 dc 3d 41 1a 36 bd 9e 63 01 3e
       0.08101422 0.10758395 -0.04445863 0.12635657
000390 11 70 2f 3e d4 05 23 3d dc ec 10 3d a8 bf 2e be
       0.17132594 0.03980048 0.035382137 -0.17065299
0003a0 11 70 b0 bd 28 88 18 bd a5 f8 97 bd c0 ce 88 bc
       -0.08615125 -0.037239224 -0.07420472 -0.016700149
0003b0 da 06 05 be 9f 14 49 bb a4 97 9e 3c 29 81 86 3c
       -0.12990895 -0.0030682457 0.019359417 0.01641901
0003c0 12 c6 fe 3d 01 29 00 be d6 21 94 bd c4 a9 85 3d
       0.12440123 -0.12515642 -0.07233016 0.06526521
0003d0 da b8 19 3d 8a 8c 72 3d d4 7d 6a bd dc e4 4f 3c
       0.037529804 0.05921606 -0.057248905 0.012688842
0003e0 bf 45 1f bd bb a1 85 bc 9f b3 b9 bd 43 bf 81 bd
       -0.038884874 -0.01631247 -0.09067463 -0.063353084
0003f0 c2 26 6f 3c 45 bd 9e bc 62 19 42 bd 33 20 04 3d
       0.014596643 -0.01937736 -0.04738749 0.03225727

bias f4 [64]
000000 4a e4 e4 bd 3a d5 ec bb 07 94 98 bd 89 66 11 be
       -0.11176355 -0.007227567 -0.07450109 -0.1419927
000010 a1 82 9d bd b3 45 49 bd c7 5d a9 bd f0 d5 0a 3d
       -0.07690931 -0.049138736 -0.0826984 0.033895433
000020 e9 18 91 bd 76 37 08 bd c7 ef 94 bd 5a fc bc bd
       -0.07084829 -0.033256017 -0.072722964 -0.0922782
000030 e1 58 08 be 52 aa b2 bd 49 b5 21 be d7 fb 36 bd
       -0.13315155 -0.08723892 -0.15791811 -0.044673767
000040 02 32 ed bd ad 2f 1d bd 84 4f ff bd 88 64 db bd
       -0.11581804 -0.038375545 -0.12466338 -0.10712534
000050 cc 21 64 bc 7f cd 23 bd ad 90 10 be f2 90 79 bb
       -0.013924073 -0.0399909 -0.1411769 -0.003808078
000060 e1 71 91 bd eb fa 0b 3d d6 46 7c bd af d1 11 be
       -0.07101799 0.03417484 -0.061590992 -0.14240144
000070 5f 53 96 bc 22 8d 26 be bf ce 78 bd 48 cf ec 3c
       -0.018350301 -0.16264775 -0.060744043 0.028907433
000080 84 02 c9 3c ca 6d 98 bd 2a b0 f8 bd 0f de b0 bc
       0.024537332 -0.074428156 -0.12142976 -0.02159026
000090 68 de 2b be 2d 30 b1 bd 83 b2 2a be 76 ac 03 bd
       -0.1678406 -0.08651767 -0.1666966 -0.032146893
0000a0 70 28 f5 3b d4 96 be bd c5 d1 c6 3b 43 dd bb bd
       0.007481627 -0.09306112 0.006067487 -0.09173062
0000b0 01 2d 83 bd 9a 13 fb bc 1d ea 54 be 0a e3 5b bd
       -0.06405068 -0.030648995 -0.20792432 -0.05368332
0000c0 2f 65 dd bd 73 0c b2 bd 5b a2 57 3d 08 7c bd bb
       -0.10810315 -0.08693781 0.05264507 -0.005782608
0000d0 c7 bd 64 be e8 28 d8 3b 1e 89 05 be a8 f0 90 bd
       -0.2233802 0.0065966733 -0.13040587 -0.070771515
0000e0 d5 b0 15 bd 46 ba fc bd cf 74 6e bc 94 d8 cd bd
       -0.036545593 -0.12340216 -0.0145542165 -0.100510746
0000f0 f0 bf 45 be 2b 32 04 ba 16 c1 c8 bd 30 d4 68 bc
       -0.193115 -0.0005042876 -0.09802453 -0.014210746

weight f4 [64]
000000 0e 53 d8 3e 07 91 05 3f df 0b a5 3e d3 d5 06 3f
       0.42250866 0.5217442 0.3223562 0.5267002
000010 22 ad f4 3e e1 cb f2 3e d3 48 f7 3d 98 8e 21 3f
       0.4778834 0.47421172 0.12074437 0.63108206
000020 ed cc 33 3f 05 d6 0e 3f ca 64 05 3f da 17 32 3f
       0.70234567 0.5579532 0.52106917 0.69567645
000030 ef 2d d8 3e 5b b2 27 3f 91 7e 2f 3e eb a1 fc 3e
       0.42222545 0.65506524 0.17138125 0.49342284
000040 53 38 f9 3e cc f1 a7 3b a0 18 43 3f 62 de 7b 3d
       0.48675784 0.00512526 0.7620945 0.061491378
000050 45 b2 0f 3f 6d 13 1c 3f 2b 1e 11 3c 11 42 2e 3f
       0.5613139 0.6096714 0.00885729 0.6806956
000060 24 90 5c 3f 24 bb c9 3e bd cd 9e 3e 8f 9b 84 3c
       0.8615744 0.3940059 0.3101634 0.016187457
000070 ae a5 33 3f 06 58 52 3f a1 44 98 3d 99 dc ac 3b
       0.7017468 0.82165563 0.07434965 0.0052753207
000080 1b ed 0c 3e ec 9a 22 3f 26 ea 0c 3f 87 dc 3c 3f
       0.13762324 0.6351764 0.5504478 0.73774
000090 f7 c6 91 3e 4b d2 85 3e f1 63 17 3d e2 23 4b 3f
       0.2847211 0.26137003 0.036960546 0.7935163
0000a0 3b 9d f8 3e 6c d1 83 3e cf 11 9f 3e a3 db 72 3e
       0.48557457 0.25745714 0.31068274 0.23716597
0000b0 c5 63 c8 3e 57 60 31 3f 82 bb ad bd 05 c7 3b 3f
       0.39138618 0.6928763 -0.0848303 0.73350555
0000c0 fc 70 82 3e 7e ea 25 3f 23 ef e5 3e 81 89 b0 3e
       0.25476825 0.6481093 0.4490901 0.34479907
0000d0 16 13 bb 3e 5e 58 9b 3d fd a4 e0 3e 8c c6 18 3f
       0.36538 0.07585214 0.43875876 0.5967796
0000e0 fa d0 07 3f 44 e4 9b 3e c8 f8 2d 3f 46 8c a4 3e
       0.5305325 0.3044759 0.67957735 0.3213827
0000f0 e2 ef 15 3f 24 bc 27 3f f0 e8 18 3f 3c ec 58 3f
       0.5856916 0.65521455 0.59730434 0.84735465

bias f4 [64]
000000 5e b5 60 3c 3f cb 30 3d f8 cc 3d 3c be 1d 7b 3e
       0.013715116 0.04316258 0.011584513 0.24523064
000010 56 15 1d 3e d5 64 0c 3e 5a 58 7c 3d 70 aa d8 3d
       0.1534017 0.1371034 0.061607696 0.105793834
000020 da 85 4b 3e d4 0c 35 3e 16 e3 26 3e e7 56 91 3e
       0.19875279 0.17680675 0.16297564 0.28386614
000030 44 aa 2c 3b 56 01 b2 3d 26 0a 9a 3e fe eb 98 3d
       0.0026346603 0.08691661 0.30085868 0.07466887
000040 8b dc 5e 3e 71 0c d9 bb 3c 32 1e 3e 69 7d 30 3c
       0.21763818 -0.0066237976 0.1544885 0.010772088
000050 d6 21 2c bd 7d d5 49 3e de 6f 55 be 98 82 00 3e
       -0.042024456 0.19710346 -0.20843455 0.12549818
000060 b8 fd 2c 3e d1 4b 14 be 25 c1 d8 3d 81 2f 51 bb
       0.16893661 -0.14482047 0.105837144 -0.0031919184
000070 9f 40 12 be db fe d3 3d 4a d5 71 bc ef f3 78 bb
       -0.14282463 0.10351344 -0.014760325 -0.0037987193
000080 7b 56 be bc d5 0e 50 3d 06 07 9d bb fc 8d b0 3d
       -0.023234596 0.050795395 -0.004792097 0.08620831
000090 c6 53 43 3e 03 a7 00 bd f9 00 87 be 24 15 66 3d
       0.19074926 -0.031409275 -0.2636793 0.056172505
0000a0 4b 23 01 bd e5 64 0f be ca 32 f6 3d b8 6f ac bd
       -0.0315278 -0.14003332 0.12021406 -0.08419746
0000b0 64 5d 47 3e d1 81 9c bd 0d 16 c4 be 20 ac 93 3e
       0.1946922 -0.07641948 -0.38298073 0.28842258
0000c0 3e ae 6a bd 20 21 31 3d 38 6a 12 3e 9b db 20 3d
       -0.057295077 0.04324448 0.14298332 0.039271932
0000d0 cd 3a 1b 3e fe 29 26 3c 01 e1 41 3e e8 22 84 3d
       0.1515915 0.010141848 0.18933488 0.0645197
0000e0 9e a3 42 3c fb e9 ba 3c 66 c4 58 3e c0 ba 96 bb
       0.01187983 0.022816649 0.2116867 -0.004599899
0000f0 2f 6d 09 be 80 b2 08 3e dc c7 69 3d 96 4a 13 3d
       -0.13420556 0.13349342 0.057075366 0.035959803

running_mean f4 [64]
000000 a8 ac 19 3d e3 bc df 3c f0 8a b5 3c c7 0a 21 3d
       0.037518173 0.027311748 0.022160977 0.03931692
000010 2e b7 96 3b 83 9b 61 3c 3f 94 bd 3c 0b d9 51 3d
       0.0045994734 0.013769987 0.023141978 0.05123238
000020 8f fd a9 3c 72 76 99 3c e9 6c 0b 3c fb 54 1e 3c
       0.020750789 0.018733237 0.008509853 0.009663816
000030 84 d3 d2 3b 64 3d de 3c e6 ed cd 3a 3f 68 81 3c
       0.006433906 0.027128883 0.0015711158 0.015796779
000040 d2 ac 68 3b b2 19 dc 3b fb de 41 3c ed 7d f2 3a
       0.00355034 0.0067169303 0.011832948 0.0018500664
000050 61 14 a5 3c c3 1b 27 3c 64 73 96 3c 94 33 67 3d
       0.020151319 0.01019949 0.01836557 0.056445673
000060 7f 41 8e 3c af 98 8d 3d 7f 4a 01 3c 40 10 1d b9
       0.017365215 0.06913888 0.007891296 -0.0001497874
000070 34 13 3e 3d ab f1 97 3c ba ff fe 3b 88 e2 06 3d
       0.046405032 0.018547853 0.00778195 0.03293088
000080 8a 90 32 3d d4 ba 83 3c 87 70 a0 3b be db 9a 3d
       0.043594874 0.016080298 0.004896227 0.07561444
000090 ed 3e 28 3c d5 8e 86 3b 1f 37 e2 3c c1 08 f3 3c
       0.010268909 0.0041063824 0.027614174 0.02966726
0000a0 25 ec f2 3c 28 5a bd 3b 20 76 6a 3d d6 d8 7e 3c
       0.029653618 0.0057785697 0.05724156 0.015554627
0000b0 e8 7f a1 3b 75 72 dd 3c fe aa de 3b 32 57 0b 3c
       0.0049285777 0.027032116 0.006795286 0.008504676
0000c0 31 61 90 3c d7 2d ed 3c 00 8f 96 3d 68 d9 f0 3c
       0.01762447 0.028952522 0.07351494 0.029400542
0000d0 46 14 93 3c 33 ff a6 3c 66 5c 3e 3b e3 e3 9e 3c
       0.017954003 0.02038536 0.0029046773 0.019395774
0000e0 ca 95 d3 3c d4 38 7e 3c ba 07 03 3d 80 46 45 3c
       0.02582826 0.015516479 0.03198979 0.012040734
0000f0 27 e0 c5 3c 68 0e 13 3d ed cd d7 3b bc f8 0d 3d
       0.024154736 0.03590241 0.0065858276 0.03466104

running_var f4 [64]
000000 af e7 18 3c b1 0a 6f 3b f3 dc 86 3b 42 68 04 3c
       0.009332581 0.0036474878 0.0041156947 0.008081498
000010 31 88 1c 3a 80 d4 0b 3b 41 03 94 3b 0c 45 aa 3b
       0.0005971222 0.0021336377 0.0045169895 0.0051962193
000020 80 8e 8c 3b 7c 98 41 3b fd 99 99 3a 21 db da 3a
       0.0042894483 0.002954035 0.0011718866 0.0016697386
000030 03 f0 71 3a 2e ac c2 3b 5f 5b 9d 39 82 03 03 3b
       0.0009229185 0.0059409356 0.0003001345 0.0019991104
000040 b5 62 2b 3a 9e dd dc 39 c0 30 32 3b 1e 35 82 39
       0.0006537841 0.00042126788 0.0027189702 0.00024835108
000050 95 0a f4 3a 58 db b4 3a 24 fb 2b 3b eb 6e 2a 3c
       0.0018618876 0.001379828 0.002624222 0.0104024215
000060 06 34 3a 3b f7 3f 7c 3c 13 ab 54 3a 8e b9 ac 38
       0.0028412356 0.01539611 0.000811265 8.2361614e-05
000070 9f a4 37 3c 83 ce 5d 3b b4 8e 13 3a aa 1b c5 3a
       0.011208682 0.0033845014 0.00056288694 0.0015038152
000080 fe 24 79 3b 2b 83 35 3b f9 a6 46 3a b0 58 2f 3c
       0.0038016434 0.002769659 0.00075779815 0.010702297
000090 f6 6d f1 3a 0f 5b 29 3a 5f 0f da 3b 9f a9 a4 3b
       0.0018419612 0.0006460407 0.0066546644 0.005025103
0000a0 bb fe 56 3b ed 2a 6a 3a db c9 12 3c e5 35 49 3b
       0.003280564 0.0008932788 0.008959259 0.003070229
0000b0 0a 4d 13 3a c8 bb a0 3b ad b0 c6 3a a1 5c 89 3a
       0.00056190847 0.004905198 0.0015158855 0.0010479876
0000c0 46 d5 6e 3b 62 b2 c1 3b e9 b5 0e 3c db ac 69 3b
       0.003644304 0.0059111575 0.008710363 0.0035656008
0000d0 dd 3e 75 3b 62 90 93 3a b3 24 07 3a 53 8b 46 3b
       0.0037421503 0.0011258239 0.000515531 0.0030295446
0000e0 b0 1f 84 3b cc db 0b 3b c8 b3 80 3b 9a 4a 10 3b
       0.0040320978 0.0021340726 0.0039276816 0.0022017122
0000f0 ae 3f bb 3b 81 37 bc 3b f1 61 78 3a fa 74 ee 3b
       0.0057143783 0.0057439213 0.00094750436 0.0072771283

weight f4 [128, 64, 5, 5]
000000 31 0b a5 3b d2 36 0b 3b 4f 59 a7 3b b3 f5 d2 3b
       0.0050367345 0.0021242392 0.005107082 0.006437981
000010 16 ce 14 3b 05 79 09 3c b1 b0 1c 3b 8e fe 6f 3b
       0.0022705845 0.00839067 0.0023909027 0.0036620232
000020 04 00 9b 3b df 45 53 3b b2 02 cf 3b ca 4e 0e 3b
       0.0047302265 0.0032237691 0.00631746 0.0021714442
000030 59 63 72 bb 2f 16 ff ba d5 f0 6a bb fd a7 0b 3b
       -0.0036985485 -0.0019461567 -0.0035849113 0.0021309846
000040 92 21 8e b9 34 ea 10 bc be d9 23 bc f4 f4 a0 ba
       -0.00027109362 -0.008844901 -0.010000644 -0.0012280033
000050 e7 8b 8d 3a b2 86 0f 3b a9 76 3f bb 62 0c 5a bc
       0.001079914 0.0021900353 -0.0029215014 -0.013308616
000060 7c c8 e9 39 a3 17 2e bb 27 66 36 3a 71 c1 2a bb
       0.00044590596 -0.0026564382 0.0006957971 -0.0026055241
000070 08 3a 5d 3b 37 4e 26 3a 7d 41 ea 3a 74 1d 36 3b
       0.0033756513 0.00063440524 0.00178723 0.0027788552
000080 db aa fe 3a 49 d0 6b 3b 2b ad bd ba 52 30 24 ba
       0.0019429581 0.0035982302 -0.0014471164 -0.0006263304
000090 2d b7 b6 bb b0 71 1c bb 4d d3 b2 3a 2f 21 cf 3a
       -0.0055760355 -0.0023871474 0.0013643295 0.0015802736
0000a0 d3 c8 4b bc 57 fa 03 bc 4b ef 4e bc 73 86 87 3b
       -0.012438017 -0.008055291 -0.012630294 0.0041359006
0000b0 a3 ba c9 3b d2 af 38 bc 0b a2 40 bb a3 16 5a bc
       0.006156282 -0.011272388 -0.002939346 -0.013311061
0000c0 00 60 6d 39 98 14 fd 3a b5 75 7d 3b f3 7b 08 ba
       0.00022637844 0.0019308506 0.0038674895 -0.0005206458
0000d0 88 0f 96 3b 38 8c 14 bb 07 cc 10 3b c6 b1 a6 ba
       0.004579488 -0.0022666585 0.0022094266 -0.0012717776
0000e0 f6 6c a9 3b ce 7d 8a 3b d7 7e 5f 3a 72 b4 05 bb
       0.00517046 0.004226423 0.00085256755 -0.0020401743
0000f0 52 63 27 3b 5c 2d b5 39 8b 68 09 3c d0 01 a3 3b
       0.0025541377 0.00034556806 0.008386741 0.0049745813
000100 ee 97 ac 3a b2 14 8e bb 98 3b 05 ba f4 dc 04 3c
       0.0013167837 -0.004335963 -0.00050824275 0.00810932
000110 bd c1 05 3c 74 f6 70 3b cf d9 66 bc 42 a0 d0 b9
       0.008163867 0.0036767991 -0.014090016 -0.00039792253
000120 7a 62 c8 3a 9c 41 ac 3b 78 b0 bf 3a 05 e9 19 ba
       0.0015288137 0.0052568447 0.0014624735 -0.00058712094
000130 c3 f7 0e bb 38 93 42 b9 c7 87 0c bc 22 d4 05 bc
       -0.0021815158 -0.00018556125 -0.008577294 -0.008168252
000140 a7 8a 3b 3a e0 fa ce bb 1e 37 04 bc f8 b7 df bb
       0.00071541447 -0.0063165277 -0.008069782 -0.0068273507
000150 37 4c 0b bc 8c d3 e1 bb 07 a3 d8 bb 13 72 fe bb
       -0.008502058 -0.0068916734 -0.0066112312 -0.0077650636
000160 b5 76 b1 bb c9 17 af bb db 6d 35 ba a5 cd 27 bb
       -0.0054157623 -0.0053434116 -0.0006920972 -0.0025604751
000170 ae b7 6b bb e4 f2 26 bb 94 74 92 bb 24 44 36 bb
       -0.0035967636 -0.0025474364 -0.0044694636 -0.002781161
000180 c1 2d 86 bb 09 36 47 bb 5a 9f d1 ba 80 cf 33 bb
       -0.0040948098 -0.0030397198 -0.0015992925 -0.0027436912
000190 4d d1 86 3a a9 5e dd bb 5e 0c 13 3b d0 c1 79 bb
       0.0010285765 -0.006755669 0.0022437791 -0.0038109906
0001a0 31 e7 94 b9 29 86 84 b9 18 c2 20 3a a7 1a 53 bb
       -0.0002840101 -0.0002527696 0.0006132438 -0.003221193
0001b0 d0 2e 07 bc 2a 01 e4 bb c1 9f af bb c4 92 f0 bb
       -0.008250907 -0.0069581466 -0.0053596203 -0.0073417146
0001c0 27 2e ed bb 66 0d b1 bb 93 6b d1 3b 29 0f 00 bc
       -0.007238168 -0.0054032085 0.0063909977 -0.007816114
0001d0 a5 a2 9e bb 86 a9 4b bc 7a 3b 67 3a 03 d8 b3 3a
       -0.004841166 -0.012430554 0.00088208134 0.0013720993
0001e0 2d aa df 3a 48 ec 17 bc 69 25 71 bc 18 6e 5b 37
       0.0017064266 -0.009272642 -0.014718392 1.307905e-05
0001f0 25 0c 79 3c 16 f8 3e 3b 19 9b 6f 3b 80 06 d8 b9
       0.015200649 0.002913957 0.0036560951 -0.00041203573
000200 cc 7f 04 3c cd 8e 68 bb 93 e9 78 3a 71 7c e5 ba
       0.00808711 -0.0035485507 0.00094952545 -0.00175084
000210 af 81 05 bb 30 79 56 3b 66 d6 52 bb fb de da 3a
       -0.0020371487 0.0032726042 -0.0032171248 0.0016698533
000220 89 bc b9 bb b6 39 37 bc e9 b2 a9 bb 93 63 d6 bb
       -0.005668227 -0.011183193 -0.0051787985 -0.006542632
000230 02 ad 05 3b 29 6d ae bb 34 97 67 bc a3 11 56 bc
       0.002039731 -0.0053230715 -0.014135171 -0.013065728
000240 ee 98 6a ba 47 76 d9 3b 63 83 18 bb 1c df 4d bc
       -0.000894918 0.006636414 -0.0023271672 -0.0125654
000250 9c 3c 8d bc 42 bc 09 3b 7a b9 01 3a 1c 27 56 3a
       -0.017240815 0.0021016751 0.00049485976 0.000816928
000260 88 82 34 3a 38 df 07 3b f8 c9 24 3b 91 82 2c ba
       0.0006885906 0.0020732414 0.0025144797 -0.0006580735
000270 eb 62 06 bb 77 d5 9f ba c5 ef 77 ba 38 57 a5 ba
       -0.0020505737 -0.0012194355 -0.00094580307 -0.0012614494
000280 8a 47 a4 b9 2c 23 2f ba 1c 1d d3 bb 7e 0e aa bb
       -0.00031333818 -0.0006680961 -0.006442679 -0.005189716
000290 95 9e a7 ba da e0 24 3b 27 d6 1e 3a 80 59 74 bb
       -0.001278835 0.0025158436 0.0006059133 -0.0037284791
0002a0 ee 88 af bb f4 cc 88 ba 09 f4 99 3a 1a 58 94 bb
       -0.0053568995 -0.0010437057 0.0011745702 -0.004527104
0002b0 ea ec c5 bb 46 88 f9 bb 5a bb 64 ba d7 a6 d9 3a
       -0.0060402052 -0.007615122 -0.00087254273 0.0016605508
0002c0 94 59 5f ba 30 10 0f 3c 93 a3 89 3c 75 2e 90 3c
       -0.0008520123 0.008731887 0.016801631 0.017600277
0002d0 07 b7 d3 bb 71 d6 c3 bb 45 11 ce bb 27 15 f7 bb
       -0.0064610275 -0.005976491 -0.00628868 -0.0075403634
0002e0 71 43 a9 bb bb 82 9e 3a e8 7e 26 3c ea 85 96 3b
       -0.0051655103 0.0012093404 0.010162093 0.0045936005
0002f0 e0 48 75 bb e9 36 88 3b 73 69 2c 3b 0f df 8d ba
       -0.003742747 0.0041569364 0.002630797 -0.0010823923
000300 94 67 90 bb c6 c2 2d bc d6 2b fe bb 7f 66 dc bb
       -0.0044068787 -0.01060552 -0.0077566905 -0.0067260857
000310 9c be 94 bb 63 5a a9 bb d1 e5 60 b9 73 6d 81 bb
       -0.004539324 -0.0051682456 -0.00021447918 -0.003949815
000320 95 3f 59 3b 71 a5 82 3a 5f 61 ea 3a 67 75 fa 39
       0.003314947 0.0009967518 0.0017881802 0.00047771187
000330 f9 3a b2 bb ed 44 53 3c f2 4b be 3b 59 cf cc 3b
       -0.005439159 0.012894851 0.005807393 0.0062503037
000340 f6 82 36 3b 2f 3f 98 3a 50 9b 83 3b b6 36 b6 ba
       0.0027849055 0.001161551 0.0040163174 -0.0013901803
000350 06 f5 87 bb 93 9f ec bb 71 e8 97 bb 13 4a d8 ba
       -0.004149082 -0.007221171 -0.0046358635 -0.0016501568
000360 75 5f 07 bc 93 23 4f bc 14 5b 79 bc 40 7e 71 3a
       -0.008262505 -0.012642759 -0.015219469 0.0009212233
000370 1e 5e 84 3b 1a 04 f9 ba 32 52 98 bc f8 90 64 bc
       0.00403954 -0.0018998415 -0.018593881 -0.013950579
000380 fb e8 ae ba 47 ba ad 3b 47 06 b7 3b 60 a9 28 3b
       -0.001334458 0.005301747 0.005585465 0.002573572
000390 fa 98 e0 3a 55 0f 2d bb c2 cf 2c 3b 0f 19 9e 3a
       0.0017135434 -0.0026406844 0.002636895 0.0012061911
0003a0 49 6d e7 3a 5c 5a 2f 3b de 10 28 bb 1f 84 1a 3b
       0.0017656471 0.002675674 -0.002564482 0.0023577285
0003b0 aa ce 72 bb 50 05 b3 bb 54 20 56 bb 2f c3 b6 ba
       -0.003704945 -0.00546328 -0.0032673078 -0.0013943667
0003c0 0c 51 2c 3a 1a 26 1a bc 47 23 05 bc d8 6c e3 bb
       0.0006573356 -0.009408498 -0.008126087 -0.0069404654
0003d0 20 91 b3 b7 34 f1 f2 3b 68 3f 66 bb 70 a0 bf bb
       -2.1406042e-05 0.0074140076 -0.0035133008 -0.005847983
0003e0 1c 38 83 38 11 5a cf b9 a4 50 fd 3a d6 f3 d4 39
       6.257018e-05 -0.0003954922 0.0019326401 0.00040617463
0003f0 7e 67 c3 bb 30 c5 6c bb 7a 4c 23 3c 94 f0 f6 b9
       -0.005963265 -0.0036128275 0.009966964 -0.0004710002

bias f4 [128]
000000 5f 21 c9 ba ff fe 5c bd c2 93 18 bd 48 95 95 3a
       -0.0015345028 -0.05395412 -0.037250288 0.0011412287
000010 21 5f c6 bd bf 97 c0 bd 65 7a b8 bd de 34 39 bd
       -0.09686113 -0.09403943 -0.0900772 -0.045216434
000020 8d e8 2c bd ba a2 23 bb b9 92 91 38 35 8d 1e bd
       -0.042213965 -0.0024968819 6.941468e-05 -0.038708884
000030 fc 50 cd bd 4b d6 81 bd 36 70 85 bb 14 f9 b4 bd
       -0.10025212 -0.06339701 -0.0040722145 -0.088365704
000040 ed 1d 50 bd 3c fa 3d bb a7 2c 96 bd 5d 20 39 bc
       -0.05080979 -0.0028988263 -0.073327355 -0.01129922
000050 0e 10 1b be 6e 64 83 bd dc ef 5c bd a4 ed 6d bb
       -0.15142843 -0.0641564 -0.053939685 -0.0036304975
000060 02 75 e5 a1 fd 27 4a 3b b6 ce 05 bd b7 e7 56 bd
       -1.5548615e-18 0.0030846589 -0.032667838 -0.052467074
000070 e0 d4 77 bb 4c d3 bf bd 0f aa 10 be 73 75 31 bb
       -0.0037816092 -0.093664736 -0.14127372 -0.0027078062
000080 8b 8b d5 b9 14 64 21 bd c2 97 95 ba 98 09 17 bb
       -0.00040730493 -0.039402083 -0.0011413025 -0.002304649
000090 c6 e5 90 bd 73 84 16 bc 2f 14 be bc d4 f8 95 bd
       -0.07075076 -0.009186852 -0.023202984 -0.07322851
0000a0 06 c4 02 bc 34 f1 e2 bd ba e1 0c bd 9e 34 fb ba
       -0.007981306 -0.11081162 -0.034394957 -0.0019165461
0000b0 25 eb e5 bd d8 a3 cc bc 08 bc a9 bd e8 d8 05 be
       -0.11226491 -0.02498047 -0.08287817 -0.13071024
0000c0 0a 71 09 be 5f ad 8e bd ce 2a 44 bb e6 82 9b bd
       -0.13422027 -0.06966662 -0.002993274 -0.07593326
0000d0 88 e4 0a be df 78 d9 3a 3f 6c a1 3c bd c8 a6 ba
       -0.1356374 0.0016591809 0.019704936 -0.001272462
0000e0 75 ca b8 bd b1 fe de ba e3 35 05 be a9 13 13 bd
       -0.090229906 -0.001701316 -0.13008837 -0.03590742
0000f0 bd 7a c8 bd d2 2b 8c bc 67 a5 06 bd d3 ea b2 3b
       -0.097890355 -0.017110739 -0.032872584 0.005460122
000100 de 09 0c be 7a 60 73 bd f6 60 b2 bc 10 9a a0 bc
       -0.13675639 -0.05941818 -0.02177475 -0.019604713
000110 e2 46 41 bd 2d ca f5 b8 77 85 5e 3c 23 7e 0b be
       -0.04718674 -0.000117201685 0.013581625 -0.13622336
000120 ba e1 ce a9 06 b9 c2 bc ca a1 d2 b9 1e fb 08 bd
       -9.187395e-14 -0.023769867 -0.00040174864 -0.03344261
000130 f6 4b ab bd bc d5 9d bd 9f f3 23 bd 57 60 a7 ba
       -0.08364098 -0.07706782 -0.040027257 -0.00127698
000140 d6 ca 65 bd 7a c2 79 bd 1a 23 14 bd 84 7b c9 3c
       -0.056101643 -0.060976483 -0.036166288 0.02459503
000150 e7 15 e7 bd 27 82 76 bd 96 85 18 bd a2 43 b9 bd
       -0.112834744 -0.060182717 -0.037236772 -0.09046103
000160 6a b8 9c b9 15 59 24 bd e3 42 8b bc 32 3b 3a be
       -0.00029892038 -0.040124018 -0.016999668 -0.18186644
000170 1b df c3 bb d4 1d 82 bd 15 d8 85 3b be a7 32 bc
       -0.005977524 -0.063533455 0.004084597 -0.010904251
000180 61 2e a4 bd dd dc 9d bd 77 df bb bb 83 2d b1 bc
       -0.080166586 -0.07708142 -0.005733426 -0.021628147
000190 e2 3f bb bc 68 af b4 bc b6 31 61 bc 25 9c 8f bd
       -0.02285761 -0.022056296 -0.013744762 -0.07012204
0001a0 c5 4d 01 be 0a 4e bd bd c9 a8 3e bc f0 17 d1 bc
       -0.12627323 -0.092434004 -0.011636921 -0.02552411
0001b0 9f 9f 16 bb aa 38 99 b5 df 26 e3 ba 91 28 a5 bb
       -0.0022983325 -1.141588e-06 -0.001733031 -0.0050402363
0001c0 bd 1b 2c bc 84 52 2d ba ab 12 82 bd bb fc 12 bd
       -0.01050466 -0.0006611722 -0.06351217 -0.035885554
0001d0 cc 87 f1 3a 9e 08 00 bd bf 2f 3b bd a0 21 1a bd
       0.0018427311 -0.031258218 -0.04569983 -0.037629724
0001e0 a6 ce 70 3b 7b 72 ac bd 40 68 55 bd 24 75 82 bc
       0.0036744266 -0.08420273 -0.052101374 -0.015924998
0001f0 cb de ce bd ba fe b0 bd 5d 93 47 bd 9b 63 7b 3c
       -0.10101088 -0.08642335 -0.04872452 0.015343572

weight f4 [128]
000000 11 87 9d 3e 9d 65 33 3e 71 6a 47 3f 9e 98 fd 3d
       0.3076711 0.17519231 0.7789679 0.12382625
000010 86 77 f8 3e d1 2e e3 3e 75 d6 0f 3f 9b 4f 06 3f
       0.4852869 0.44371656 0.5618661 0.5246522
000020 a1 ce 88 3e af 12 4f 3c 4e 1e cc 39 26 91 1d 3e
       0.26720145 0.012638732 0.0003893249 0.15387401
000030 92 ef 35 3e 26 fa 96 3e 29 3b 77 3d 3e bd 2f 3f
       0.1776717 0.29487723 0.060359154 0.68648136
000040 72 45 77 3f 58 1d 2c bb b2 c5 0b 3f d4 64 3b 3d
       0.9659034 -0.0026262607 0.54598534 0.045750454
000050 c3 18 08 3f 49 d3 6d 3e 80 6d af 3e b2 50 97 3c
       0.53162783 0.2322513 0.3426323 0.018471096
000060 ca 62 9a 23 49 64 88 3d 7c 29 8f 3e 28 b4 bb 3e
       1.6738552e-17 0.06659753 0.27961338 0.36660886
000070 f6 a0 08 bc fd 91 c0 3e 24 8c ca 3e 76 e4 3d 3d
       -0.008339157 0.3761138 0.39560044 0.046360455
000080 05 90 95 ba 1e d2 87 3e 1c 04 2b 3f 19 23 47 3e
       -0.0011410719 0.26527494 0.66803145 0.19446982
000090 0e 4d 38 3f 66 6a 0b 3e c5 e0 37 3e d8 32 39 3f
       0.71992576 0.13614807 0.17956837 0.72343206
0000a0 ab 4d 5f 3d da 45 3b 3f 02 a9 00 3e 4c 71 cf 3d
       0.05451743 0.7315346 0.12564471 0.101290315
0000b0 40 cd 13 3f ac 16 85 3e cc 18 06 3f 07 08 64 3f
       0.5773506 0.2599386 0.5238159 0.8907475
0000c0 9f 46 66 3f 6e 05 a9 3e 88 57 bb 3e 32 ff 34 3f
       0.8995151 0.33011955 0.3659022 0.707019
0000d0 94 41 1c 3f a7 3d 66 3e b0 a1 dd 3e 83 fd f3 3d
       0.61037564 0.22484456 0.4328742 0.11913588
0000e0 77 4c 15 3f 52 8c 3f 3b c1 a8 f4 3e bd d6 56 3f
       0.583198 0.0029227925 0.47785 0.83921415
0000f0 1e ab 70 3f ce 93 e8 3e bb 16 60 3f 01 ae 37 3e
       0.94011104 0.45425266 0.87534684 0.17937471
000100 11 03 63 3f 63 66 49 3e 88 2b eb 3e cd a3 22 3e
       0.88676554 0.19667964 0.4593165 0.15882798
000110 fa d8 23 3f d0 1d c9 3d b3 27 37 3f 7e 98 03 3f
       0.64002955 0.098201394 0.7154495 0.5140456
000120 1b 58 48 2b 40 cf ea 3d fc 42 cf 3c 45 32 f0 3e
       7.1176544e-13 0.11465311 0.025300495 0.46913353
000130 21 fa 44 3f ae f5 66 3f 89 72 02 3e e4 47 17 3a
       0.76944166 0.9021863 0.12739004 0.00057709054
000140 df ed 14 3f f5 af 66 3f bb f6 02 3e d9 66 5c 3e
       0.5817546 0.9011224 0.12789433 0.21523608
000150 91 d9 5f 3f cd e4 21 3f 13 07 86 3e 25 3d 3b 3f
       0.87441355 0.6323975 0.26177272 0.73140174
000160 1c 01 b3 3e 81 69 3e 3f f6 47 4d 3f f8 73 70 3f
       0.34961784 0.74379736 0.8018793 0.93926954
000170 a0 44 42 3e c2 35 42 3f 01 02 52 3f 9b 0d 08 3f
       0.18971491 0.7586328 0.8203431 0.5314576
000180 be 89 2b 3f 26 94 fa 3e af 46 e6 ba 74 f1 ee 3d
       0.6700705 0.48941153 -0.0017568673 0.11667147
000190 75 d6 d6 3e 7b b5 28 3f 92 05 48 3f 42 42 45 3f
       0.41960493 0.6590192 0.781335 0.77054226
0001a0 94 3c 4f 3f c5 cc 5a 3f e6 46 33 3f e6 14 2f 3f
       0.8095181 0.85468704 0.7003006 0.68391263
0001b0 61 f0 57 3b cd c1 81 37 f1 b5 2d ba fd ea 54 ba
       0.0032949673 1.5468244e-05 -0.00066265377 -0.0008122174
0001c0 a4 4f 88 3d 52 b6 2e 3c 0d af 98 3e 33 71 38 3e
       0.06655815 0.010663586 0.29821053 0.18011932
0001d0 97 1d 63 3e 5a a1 31 3f fe a6 9e 3e 94 49 32 3f
       0.22179256 0.6938683 0.3098678 0.6964352
0001e0 db 22 ce 3e ac f7 15 3f 06 92 10 3f 27 b1 43 3e
       0.40260968 0.5858104 0.56472814 0.19110547
0001f0 af f8 cb 3e 4f d5 37 3f c6 f7 16 3f 93 e2 29 3f
       0.39838168 0.7180986 0.5897182 0.6636135

bias f4 [128]
000000 2c 41 a1 3d 8f 58 23 3e 5a 5f 0d be 13 88 54 3d
       0.07873759 0.15951751 -0.13805905 0.051887583
000010 69 c5 22 be d4 ec 27 be 15 d2 2b be 6a 53 27 3e
       -0.15895618 -0.16398937 -0.16779359 0.16340414
000020 a6 55 36 3e 34 5f b2 bd f6 ba cf 3a a0 cf 2f be
       0.1780611 -0.08709565 0.0015848565 -0.17169046
000030 8e 2b 42 be cf 38 38 3e f0 00 88 bd 83 26 0f be
       -0.18961927 0.17990421 -0.06640804 -0.13979535
000040 25 99 31 3e ad 67 30 3e 1c dc 19 be 3b ae 09 3e
       0.17343576 0.17227049 -0.15025371 0.1344537
000050 8b 4f 30 be c7 1a 24 be a3 ec 2b 3e b3 31 1b be
       -0.17217843 -0.1602584 0.16789488 -0.15155677
000060 63 5c 23 b8 16 c2 14 3e a4 01 3b 3e 4c 03 33 3e
       -3.894827e-05 0.14527163 0.18262345 0.17481726
000070 fa 67 76 3e 48 f4 2a be 71 8d 5e be 57 3d 0e be
       0.24063101 -0.16694748 -0.21733643 -0.13890587
000080 d3 fd 59 be 37 45 03 3e f5 b0 26 3e d0 02 6c bd
       -0.21288233 0.12819372 0.16278441 -0.05761987
000090 32 3b 37 3e 10 92 da bd 0a a1 1e 3e 5d a9 12 be
       0.17893675 -0.106723905 0.15491119 -0.1432242
0000a0 6a 4f 28 3e 44 62 22 be 2c cb 34 3e 28 42 31 3e
       0.16436544 -0.15857798 0.17655629 0.17310393
0000b0 5d dc 09 be 6e 70 1c 3e 91 10 07 be f6 93 1f be
       -0.13462968 0.15277264 -0.13189913 -0.15583786
0000c0 9e e5 24 be 5a 0e 1e be 15 43 fc bd 39 28 21 be
       -0.16103217 -0.15435162 -0.123174824 -0.15738
0000d0 3b 45 23 be 70 cc 1d 3e 9c 19 1c 3e cf 4b a7 3d
       -0.15944378 0.15410018 0.15244144 0.08168756
0000e0 e9 28 29 be 2f 1e 1b 3e 16 49 2c be ae d9 1c 3e
       -0.16519512 0.15148233 -0.16824755 0.15317413
0000f0 ff 93 1f be fa c2 13 3e 0f dc 24 3e df c1 21 3e
       -0.155838 0.14429846 0.1609957 0.15796612
000100 52 1f 2d be 35 f2 2a 3e 4b e0 1e 3e ca 12 c4 3d
       -0.16906479 0.16693957 0.15515248 0.09573896
000110 15 07 26 3e e2 ca 37 3c 04 f8 19 be 5c 57 f3 bd
       0.16213639 0.011217805 -0.15036017 -0.11881897
000120 fc 09 62 b9 09 c2 31 3e 78 64 4c 3b ac 26 27 3e
       -0.00021556759 0.17359175 0.0031187814 0.16323346
000130 8a 91 04 be 56 7d 13 be 0b 32 3c 3e 1e f9 26 3e
       -0.12946144 -0.1440328 0.18378465 0.16305968
000140 66 50 fd bd 3b e0 25 be 72 e5 35 3e 34 bb 15 3e
       -0.123688504 -0.16198818 0.17763308 0.14622194
000150 73 f7 1f be 23 ce 26 3e 0e b5 30 3e 16 36 31 3e
       -0.15621738 0.16289572 0.17256567 0.17305788
000160 9e 7d 14 3e 5f 0e ea bd d8 1e 1d be 5f 99 41 be
       0.14501044 -0.11428522 -0.15343797 -0.18906163
000170 f4 da cf 3d f4 b1 00 be 94 57 20 be 2e fa f3 3d
       0.10149184 -0.12567884 -0.15658408 0.11912952
000180 e1 f6 12 be 17 1a 29 be b7 15 4f 3e 2e 12 38 3e
       -0.1435199 -0.16513859 0.20223127 0.17975685
000190 98 e4 b4 bd ba cd 2c 3e ec b8 1b 3e b7 34 31 3e
       -0.08832663 0.16875353 0.15207261 0.17305265
0001a0 26 22 25 be a1 04 2d 3e 32 0d 34 3e b2 73 1e 3e
       -0.16126308 0.16896297 0.17583159 0.15473822
0001b0 05 50 83 be 03 f3 d2 b9 e0 98 03 be 09 d9 3e be
       -0.25646988 -0.0004023538 -0.12851286 -0.1863748
0001c0 25 65 dc bd 31 b2 08 bd fd 05 30 3e 2a cd 3e 3e
       -0.10761479 -0.03337306 0.17189784 0.18632951
0001d0 be b4 14 3e 5c 50 19 be c8 23 05 be c4 87 f5 bd
       0.14522073 -0.14972061 -0.1300193 -0.11988786
0001e0 29 69 17 3e 5a 13 12 be 60 c9 15 3e 4f cb 14 3e
       0.14786209 -0.14265195 0.146276 0.14530681
0001f0 e9 a5 31 be 85 8b 12 be 4d 7b 13 be 91 e0 14 3e
       -0.17348446 -0.14311035 -0.14402504 0.1453879

running_mean f4 [128]
000000 ba 4a b0 3d 7c 31 96 bc 05 09 0a 3d 07 7a 5f 3d
       0.08608003 -0.018334143 0.033700008 0.054559734
000010 15 39 36 bc 11 c3 89 3d 24 3d da bb 59 05 fd 3c
       -0.011122008 0.06726659 -0.0066601206 0.030886339
000020 ec d1 6e 3d 75 6d cb 3d 39 5b a4 3b dd 73 3a 3e
       0.058305666 0.09932987 0.0050157574 0.18208261
000030 c5 9b 90 3d 19 20 be 3c af e6 5d 3d 7a 50 a3 3d
       0.07060961 0.023208665 0.054175075 0.07974334
000040 f7 fd 33 3d 7c 07 91 3d 65 77 d8 3d 85 f6 96 3d
       0.04394337 0.07081506 0.10569648 0.073712386
000050 04 47 13 bb e5 b7 b2 3c 75 cc a6 3b 24 fa 63 3e
       -0.0022472749 0.021816203 0.005090291 0.2226339
000060 d1 1a 0c 24 2b 6f 0e 3e 13 7b 3d 3e 0a 12 aa 3d
       3.0380375e-17 0.13909595 0.1850398 0.08304222
000070 0e e8 01 3e 1d 00 de bc 26 cf 7a bc bb b4 5b 3e
       0.12686178 -0.027099663 -0.015308177 0.21455662
000080 24 14 01 3d c9 e7 e0 39 44 3a 21 3e 48 0c 69 3e
       0.03151335 0.00042897303 0.15744883 0.22758591
000090 9d 78 e6 3b 1f af 26 3e 62 ad 0d 3e 29 1d 68 3d
       0.007033421 0.16277741 0.13835672 0.056668434
0000a0 00 84 98 3d 52 9d b1 ba 4b 6b 3d 3d ba 19 1f 3e
       0.07447052 -0.0013550913 0.0462449 0.15537158
0000b0 65 3f 25 bc 5b 36 33 3e 76 44 cc 3c 40 0e 74 bc
       -0.010085915 0.17501204 0.024934988 -0.014895976
0000c0 e9 ce d2 3c 71 2d 5a 3d d5 31 94 3e 4f da 1c 3d
       0.025733428 0.053265993 0.2894427 0.038294133
0000d0 31 b5 80 bc ef 69 a5 3e df 14 02 3f 52 6b 3f 3d
       -0.015711399 0.32307383 0.50813097 0.046733208
0000e0 70 db ce bb 0b 97 e4 3c 13 c1 13 bd a3 23 d5 3b
       -0.00631278 0.027904054 -0.0360728 0.0065044924
0000f0 39 34 13 3d e9 5d 92 3e f8 77 1f 3e 8b 14 a0 3e
       0.035938475 0.28587273 0.15573108 0.31265673
000100 25 4b f2 bc 94 64 1f bc 2d 58 e1 3d ef db 68 3c
       -0.029576847 -0.00972857 0.11003146 0.0142125925
000110 89 81 83 3d 9f f9 81 3c ec d7 81 3e 18 8b f9 bc
       0.06421191 0.015866099 0.25360048 -0.030461833
000120 d8 54 aa 2d 1e f6 27 3e c6 c9 f4 3b e2 e8 ff 3d
       1.936444e-11 0.1640248 0.0074703423 0.12495591
000130 6b bf b0 3a 40 d3 09 3c 7e 20 2b 3d 77 1a cf 3c
       0.0013484781 0.008412182 0.041779034 0.025281174
000140 8e bf 71 3e 4a e6 9f 3c 17 bf e9 3c 9e f9 0b 3f
       0.23608229 0.01951899 0.028533502 0.5467776
000150 a4 6a b6 3c 10 a2 a8 bc b4 ce d9 3d 39 e2 15 3c
       0.022267647 -0.02058509 0.106351286 0.009148174
000160 8e e5 4b 3e 65 87 b6 3d d1 32 48 3c 97 84 b1 bc
       0.19911787 0.08912543 0.012219147 -0.02166967
000170 35 00 d2 3d 1d 6b fa 3d 55 af d8 3e 66 09 da 3d
       0.10253946 0.122274615 0.42321268 0.10646324
000180 68 15 68 bb 86 a5 0a bd eb de 96 3d 8f ca 22 3e
       -0.003541315 -0.03384926 0.07366737 0.15897582
000190 f9 f2 ad 3e 11 04 51 3e 49 db 8c 3e 56 dd 39 3d
       0.33974436 0.20411707 0.2751105 0.045377098
0001a0 68 b8 cf 3b 53 bd 81 bc 41 a4 b9 3d 3e 7d 7a 3d
       0.0063391216 -0.015837347 0.09064532 0.061154597
0001b0 a2 db f9 3d 8c 96 88 35 7e bf 1e 3c aa 1b ad 3c
       0.12200095 1.0176605e-06 0.00968921 0.021131355
0001c0 ab 78 be 3c ce 26 00 3d dc 1b c5 3c fb ff 9d 3e
       0.023250898 0.031287007 0.024061136 0.3085936
0001d0 56 49 6f 3e 1c 47 6a 3d ed ac 38 3b 23 ba 9b 3e
       0.23367819 0.05719672 0.0028179244 0.3041545
0001e0 80 3f db 3e 9e 99 80 3d c3 9c 2c 3c 4e 80 bb 3d
       0.42821884 0.062793 0.010535422 0.091553316
0001f0 11 f1 5c bc fa 3e 20 3d 59 d8 29 3e cb b5 0d 3f
       -0.013485209 0.03912256 0.16586436 0.5535552

running_var f4 [128]
000000 4a b7 93 3d 7a 12 fc 3a f8 ac c8 3d c8 72 aa 3c
       0.07212694 0.0019231581 0.09798616 0.020806685
000010 a2 c0 c8 3c be 3d 3b 3e 4a 1d f9 3c c6 82 86 3d
       0.024505917 0.18285272 0.030409474 0.06567912
000020 26 00 e0 3d 74 23 14 3d 9d b5 94 38 d7 89 a1 3d
       0.10937528 0.036166623 7.091018e-05 0.07887619
000030 cc 26 bd 3d fd a1 4d 3d 26 e5 86 3c 61 c0 6a 3e
       0.092359155 0.050203312 0.016466688 0.22924949
000040 a6 32 00 3e 31 1c 9b 3c 76 a7 74 3e b1 0b 27 3d
       0.12519321 0.018934341 0.23892006 0.040782634
000050 4f 14 b9 3c f4 4c 63 3d a7 19 04 3d 47 44 2d 3e
       0.022592692 0.05549331 0.032251026 0.16920577
000060 da 3c 5d 09 b1 39 04 3e 19 5e a4 3e 35 86 2b 3e
       2.663052e-33 0.12912633 0.3210304 0.16750415
000070 a9 c7 93 3d 55 cf c6 3b c7 80 a6 3c 68 ca 7a 3e
       0.072158165 0.0060671964 0.020325078 0.24491274
000080 f8 c3 0d 3b f4 c9 e7 3b 59 74 a0 3e d5 31 26 3e
       0.00216317 0.0070736352 0.31338766 0.16229947
000090 61 aa 2f 3d b3 48 1b 3e d6 4b 6c 3e 52 d3 14 3e
       0.042887095 0.15164451 0.23075804 0.14533737
0000a0 a4 b7 14 3d 12 a8 1d 3d dc a9 90 3d d5 2b 2b 3e
       0.036307946 0.038490362 0.07063648 0.1671594
0000b0 c4 d2 86 3c f9 a5 8d 3e 88 b2 8d 3d d3 d4 ac 3c
       0.016457923 0.2766569 0.06918818 0.021097576
0000c0 a2 45 a1 3d 05 76 08 3e ec c8 a7 3e 00 15 d7 3d
       0.078746095 0.13326271 0.3277048 0.10502052
0000d0 ad 13 e4 3c df 2a b8 3e 30 69 79 3f fa e9 cd 3c
       0.027841413 0.35970208 0.9742613 0.025135983
0000e0 a3 dc 6a 3d 85 04 bd 3b a3 1a 34 3b 00 76 fd 3c
       0.05733932 0.005768361 0.0027481697 0.030940056
0000f0 2a 85 0b 3e d1 a7 95 3e 06 23 a0 3e 57 53 11 3f
       0.13625017 0.29229596 0.3127672 0.5676779
000100 1c ab 07 3c 55 04 84 3b 2a d4 db 3d 6a 1b fb 3b
       0.008280542 0.0040288367 0.107338265 0.00766318
000110 ef 93 03 3e ce 76 af 3a fe 72 4d 3e 90 31 f1 39
       0.12849401 0.0013386847 0.20063397 0.0004600403
000120 06 6b fa 1b 52 2c 5c 3e 0d b2 4b 39 25 a4 71 3e
       4.1428193e-22 0.21501282 0.00019425918 0.23597772
000130 58 c6 9a 3c 75 5e 9b 3d 7d 8c 84 3d 9c a8 b4 3b
       0.018893406 0.075863756 0.064721085 0.005513264
000140 52 32 12 3f fc 99 b8 3d 66 5a 25 3d 13 42 7a 3f
       0.5710803 0.09013745 0.040369414 0.9775707
000150 fb d6 c4 3d de ae 28 3c 17 fc 0c 3e fb 71 74 3d
       0.09611317 0.010295598 0.1376804 0.059679013
000160 49 43 a5 3e 41 be 44 3e c4 77 91 3d 90 58 39 3c
       0.32277897 0.19213201 0.071029216 0.011312619
000170 a6 15 bb 3d a6 15 a0 3e 9e d4 b3 3e b3 7a f6 3d
       0.091349885 0.31266516 0.35123152 0.12035122
000180 e4 b7 0f 3d 15 17 c0 3b e7 65 0f 3d 8d 52 58 3e
       0.03508748 0.0058621266 0.03500929 0.2112524
000190 de 97 ec 3e f2 6a 9e 3e 71 e8 b7 3e a5 eb 0c 3e
       0.46209615 0.30940968 0.35919526 0.13761766
0001a0 81 f2 65 3d 4c 0e 09 3d b3 a9 60 3e 3d 0c e6 3d
       0.056139473 0.0334609 0.21939735 0.11232803
0001b0 6b 12 1c 3d ea b1 2f 2d 22 cc 3a 3a ad a4 38 3b
       0.038103502 9.987103e-12 0.0007125755 0.0028174326
0001c0 19 6a 2d 3c 6c 3d e3 3a 67 fc a3 3d cb 57 6b 3e
       0.010584378 0.0017337031 0.08007126 0.22982709
0001d0 c9 da 9a 3e 4b 97 21 3e c7 81 00 3d ca f4 39 3f
       0.30245045 0.1578037 0.031373765 0.72639143
0001e0 71 b4 57 3f 98 9d 74 3e c8 a8 45 3d d6 50 04 3e
       0.84259707 0.23888242 0.048256665 0.12921461
0001f0 a4 da 48 3c 1c 5c 26 3e 70 5e cb 3e 13 bd 5e 3f
       0.012259159 0.16246074 0.39720488 0.87007254

weight f4 [1, 128, 1, 1]
000000 95 d3 dd bc d0 57 95 be 05 a3 6f 3e b9 44 01 bc
       -0.02707843 -0.29168558 0.23402031 -0.00788992
000010 b7 49 c6 3e 74 0e d0 3e c7 1e fa 3e 82 51 8a be
       0.38728115 0.40636027 0.48851606 -0.2701531
000020 55 75 d0 be b8 a2 3a 3d cb fc db ba 12 89 68 3e
       -0.40714517 0.045565337 -0.0016783712 0.22708538
000030 94 f6 0e 3f ba 07 d3 be 61 c1 6a 3c 67 86 36 3e
       0.55845 -0.41216832 0.014328332 0.17824708
000040 74 8e 0a bf 57 75 38 be ee 83 82 3e 6d 16 b1 bd
       -0.54123616 -0.18013512 0.2549128 -0.086468555
000050 10 38 c9 3e a3 f2 cb 3e 3e dd 6a be 5d 81 5f 3e
       0.39300585 0.39833555 -0.2293596 0.21826692
000060 eb 3c 8a 38 3c af 06 be 57 c8 b3 be a4 60 88 be
       6.5917e-05 -0.13152784 -0.35113785 -0.2663623
000070 f8 17 6a be 3c 13 ce 3e 11 b7 b0 3e a8 4d 23 3e
       -0.22860706 0.4024905 0.3451467 0.15947592
000080 fd 3d 57 3e b8 a9 d2 bd 2d 2d cd be dd de 9c 3c
       0.2101974 -0.102862775 -0.4007353 0.019149238
000090 26 ce 62 be 7c 54 5b 3d 19 94 89 be 20 78 8c 3e
       -0.22148952 0.053547367 -0.26870802 0.27435398
0000a0 76 c1 f4 bd 0c f2 b4 3e 53 aa ab be 2b f2 b9 be
       -0.11950962 0.35340917 -0.33528385 -0.36317572
0000b0 f1 b5 26 3e 7a a3 8a be d9 92 13 3e aa c6 4e 3e
       0.16280343 -0.27077848 0.14411487 0.20192972
0000c0 a1 7a 8e 3e f9 4f 8f 3e 73 c7 fc 3d 43 a6 d0 3e
       0.27827933 0.27990702 0.123427294 0.40751848
0000d0 e9 0a e6 3e 77 dc 83 be ff 94 91 be 9f 4e c1 bc
       0.449302 -0.2575414 -0.28433987 -0.02359706
0000e0 bf 8a d7 3e 28 df 12 be 7f e6 ca 3e cb e8 a3 be
       0.42098042 -0.1434294 0.3962898 -0.32013544
0000f0 32 98 d1 3e 9c 7c 3e be 1e d4 c4 be a1 10 a3 be
       0.40936428 -0.18602222 -0.38443083 -0.31848624
000100 e9 27 9d 3e 31 22 5a be d7 2d 80 be e2 2a 88 bd
       0.30694512 -0.21302105 -0.25034973 -0.06648804
000110 ae 2b b0 be b7 b8 f5 b9 74 ab 92 3e 50 d9 eb 3d
       -0.34408325 -0.00046867665 0.28646433 0.115160584
000120 3a 2a 65 39 3e 03 75 be d3 7d 25 b8 da 18 bc be
       0.00021854872 -0.23927018 -3.945625e-05 -0.3673771
000130 b7 1e 4d 3e 09 9a 8a 3e 22 22 d6 be c6 39 97 be
       0.20031248 0.27070644 -0.41822916 -0.29536265
000140 e0 b5 0f 3e 35 a4 ce 3e 18 a3 70 be 9f e6 7a be
       0.14034224 0.40359655 -0.23499715 -0.24502037
000150 66 71 98 3e 94 8e dc be 7f b8 9b be 05 61 84 be
       0.29774016 -0.43077528 -0.30414197 -0.2585527
000160 fb ba 4d be 76 d5 e9 3d 43 85 b2 3e b8 61 97 3e
       -0.20090859 0.114176676 0.34867296 0.2956674
000170 41 67 6d bd 36 9d 1c 3e 1b 5f c6 3e c5 6d d8 bd
       -0.0579598 0.15294346 0.38744435 -0.10567812
000180 70 be 86 3e 00 1a b9 3e 0a 9a 16 be 8b 70 9e be
       0.26317167 0.3615265 -0.14707199 -0.30945238
000190 d9 98 57 3d 2a 10 e0 be 0a 79 a7 be dd 6c f3 be
       0.052636 -0.43762332 -0.32709533 -0.47543994
0001a0 f2 1b 3f 3e 57 3f d6 be b1 66 f4 be 72 03 af be
       0.18663004 -0.418452 -0.47734597 -0.34182316
0001b0 58 eb 81 3e 59 d2 01 39 20 22 00 3e c3 c1 99 3e
       0.25374866 0.0001238076 0.12513018 0.3003064
0001c0 a5 40 74 3d fe da 3a 3c f4 f8 db be 20 f4 d7 be
       0.059631962 0.011404751 -0.42963374 -0.4217844
0001d0 54 83 2e be 5d 2c 97 3e e1 44 1a 3e 7b 73 fc 3d
       -0.17042285 0.29526034 0.15065338 0.12326714
0001e0 cd 62 86 be 4d 7a 82 3e 12 43 4a be 2d d1 ee bd
       -0.26247254 0.25483933 -0.19752148 -0.11660991
0001f0 2a ae c0 3e 36 b3 81 3e 27 c1 89 3e a6 3a 6c be
       0.37632877 0.2533204 0.26905176 -0.23069248
