ball_data/model_5000.pth (torch_old, 853498 bytes, 13 tensors)

weight f4 [64, 1, 5, 5]
-0.06790309 0.028144823 0.03199041 0.02196489 0.052946493 -0.095075235 -0.08420847 0.119036384
0.06865306 0.08275016 -0.15109138 -0.018715732 -0.086447105 0.053735465 0.07065056 -0.17771335
-0.13260217 0.039917123 -0.047249738 0.047427934 0.041822266 -0.06802544 -0.0031303596 -0.017395167
0.009636931 0.17272486 -0.111046955 0.046219934 -0.03421685 0.024951087 0.11528163 0.057734475
-0.08333825 -0.108952984 0.073289715 0.09051361 0.022993656 -0.099200755 -0.04572616 -0.03410896
-0.0902685 0.031391427 0.0061023505 -0.019013 0.093091995 0.013585534 0.0925746 0.0049504875
-0.058754105 0.015700266 0.10532173 0.030727947 -0.018941935 -0.10531825 0.0018266146 -0.0355696
0.123410314 0.10511765 -0.12503077 -0.073334575 0.03446078 0.06270098 0.029435977 -0.098616205
-0.0066896826 0.014136683 -0.08866391 -0.08644355 0.02823856 -0.09609643 0.04113841 0.025888916
0.16124451 -0.055335652 0.042559598 -0.068975955 -0.0825643 0.03844167 -0.04526821 -0.1482629
0.06406577 -0.023509283 0.018159682 -0.05880056 -0.124700405 -0.015169873 0.016031276 -0.01788704
-0.0067888773 0.05271022 0.0014313747 -0.07602732 -0.07202446 -0.025289297 -0.06240011 0.059135117
-0.06244121 0.10358289 0.047798965 -0.037630633 -0.029215721 0.0015202706 0.0010006023 0.06256179
0.048582412 -0.026917784 0.021919204 0.054761432 -0.101233445 -0.047221906 -0.055376336 0.20357114
0.015627887 -0.10022065 0.08753223 0.022742994 0.110637344 -0.097867414 -0.13386609 -0.045934632
-0.05523956 -0.047539957 -0.0956133 0.03986037 0.16265596 0.08057617 -0.004871664 -0.09347812
0.024278851 -0.025911732 0.04286977 -0.0008484983 -0.0623935 0.07797361 0.04121406 -0.023777993
-0.0065611587 0.13813575 0.14714386 0.030408079 -0.06715578 -0.19949214 -0.14008921 -0.05164155
-0.04833551 0.07641017 -0.054222275 0.06626668 0.12265814 -0.046074316 -0.09023491 -0.007007552
-0.009859762 -0.049013164 0.017776547 -0.025057495 0.055866867 0.025932033 0.08373693 0.104266666
0.012415751 -0.042449046 -0.024927428 0.09402508 0.011761507 -0.019453151 0.010473938 0.016380562
0.047010925 0.040202107 -0.115266375 -0.15719935 -0.07392177 -0.04152526 0.030566087 -0.074114434
0.062648036 -0.106000766 -0.086374275 -0.10626159 -0.09368182 -0.04603057 0.023146253 -0.014223728
0.088890254 0.10150717 0.13140483 0.04410307 0.12730786 -0.007927116 0.0072881198 0.07425102
0.04568592 -0.017903503 0.025598187 -0.115699075 -0.004121178 -0.11373363 0.025080226 0.058461342
0.0444115 0.08492202 0.10110475 0.042693008 0.10954784 -0.0025724738 -0.07190114 -0.05815735
-0.07591503 0.05717216 -0.08226607 -0.016275488 -0.082594685 -0.12572272 -0.06625489 -0.14755988
-0.09809316 -0.053430587 0.01664711 -0.011345168 0.046082795 0.123242825 0.033068743 0.043568376
0.07478869 0.108723916 -0.047218617 0.1315513 0.17493589 0.043536033 0.043447357 -0.17438835
-0.08898343 -0.037755523 -0.07073922 -0.0204538 -0.13194461 -0.0011317813 0.025378644 0.017872477
0.12915237 -0.12891826 -0.0730918 0.06783262 0.04401195 0.05034595 -0.06434701 0.012921206
-0.037455313 -0.012226033 -0.083894 -0.062413048 0.020441065 -0.013361098 -0.04890888 0.038371895
00000000: c610 8bbd f98f e63c 6008 033d b7ef b33c
00000010: 6cde 583d ceb6 c2bd 7e75 acbd 59c9 f33d
00000020: fa99 8c3d ea78 a93d b3b7 1abe bc51 99bc
00000030: 2e0b b1bd b819 5c3d 3eb1 903d 7dfa 35be
00000040: ddc8 07be 2380 233d f188 41bd cb43 423d
00000050: d34d 2b3d ec50 8bbd b826 4dbb 4f80 8ebc
00000060: 38e4 1d3c c9de 303e 966c e3bd 1d51 3d3d
00000070: f826 0cbd 3966 cc3c c618 ec3d fc7a 6c3d
00000080: 3fad aabd be22 dfbd eb18 963d 335f b93d
00000090: 315d bc3c c429 cbbd 5b4b 3bbd d6b5 0bbd
000000a0: b1de b8bd 4c94 003d 3af6 c73b 27c1 9bbc
000000b0: 04a7 be3d dc95 5e3c c097 bd3d b337 a23b
000000c0: 25a8 70bd d89d 803c ebb2 d73d 2db9 fb3c
000000d0: 1e2c 9bbc 18b1 d7bd 046b ef3a 6eb1 11bd
000000e0: 8cbe fc3d ec47 d73d 1108 00be 7030 96bd
000000f0: bf26 0d3d 5f69 803d b823 f13c 4bf7 c9bd
00000100: 2035 dbbb 8c9d 673c 6d95 b5bd 5109 b1bd
00000110: 8d54 e73c 35ce c4bd c080 283d fe14 d43c
00000120: 481d 253e a3a7 62bd f952 2e3d 4443 8dbd
00000130: 7917 a9bd 0375 1d3d 296b 39bd 3bd2 17be
00000140: ea34 833d 8a96 c0bc 9dc3 943c dbd8 70bd
00000150: ed62 ffbd 0f8b 78bc 0654 833c d787 92bc
00000160: 3b75 debb ace6 573d f79c bb3a 36b4 9bbd
00000170: 8f81 93bd 802b cfbc 4297 7fbd aa37 723d
00000180: 5bc2 7fbd 4423 d43d d9c8 433d 9422 1abd
00000190: cf55 efbc d143 c73a a426 833a 6520 803d
000001a0: 5afe 463d af82 dcbc e78f b33c 864d 603d
000001b0: 7b53 cfbd c26b 41bd 4cd2 62bd f474 503e
000001c0: 0e06 803c 7c40 cdbd 1944 b33d 844f ba3c
000001d0: d595 e23d b66e c8bd 3114 09be f425 3cbd
000001e0: e042 62bd 42b9 42bd e8d0 c3bd a144 233d
000001f0: 498f 263e 1e05 a53d 7ba2 9fbb 7571 bfbd
00000200: 71e4 c63c d744 d4bc 3698 2f3d c26d 5eba
00000210: 5490 7fbd a1b0 9f3d 13d0 283d 11ca c2bc
00000220: fdfe d6bb 7573 0d3e e1ac 163e 5d1a f93c
00000230: f888 89bd ab47 4cbe 8c73 0fbe 1786 53bd
00000240: 75fb 45bd ef7c 9c3d 2d18 5ebd d3b6 873d
00000250: 3134 fb3d 6cb8 3cbd 15cd b8bd 9b9f e5bb
00000260: d78a 21bc 07c2 48bd 1fa0 913c 6045 cdbc
00000270: a8d4 643d 6a6f d43c 447e ab3d c389 d53d
00000280: 6f6b 4b3c 0ddf 2dbd 9b34 ccbc 3990 c03d
00000290: 56b3 403c 375c 9fbc e19a 2b3c 8730 863c
000002a0: 878e 403d f7aa 243d c710 ecbd def8 20be
000002b0: 4c64 97bd 6416 2abd bb65 fa3c 4fc9 97bd
000002c0: 9d4d 803d ee16 d9bd ffe4 b0bd ad9f d9bd
000002d0: 41dc bfbd 8d8a 3cbd 369d bd3c a40a 69bc
000002e0: 180c b63d fee2 cf3d fd8e 063e 6ca5 343d
000002f0: fe5c 023e bce0 01bc 2ed1 ee3b eb10 983d
00000300: 2921 3b3d 5eaa 92bc 4ab3 d13c a3f3 ecbd
00000310: f20a 87bb 2ded e8bd 0c75 cd3c 2975 6f3d
00000320: d5e8 353d 99eb ad3d 0210 cf3d ddde 2e3d
00000330: 9e5a e03d f396 28bb e840 93bd 6736 6ebd
00000340: 5779 9bbd 5b2d 6a3d 1d7b a8bd 2c54 85bc
00000350: 6727 a9bd 75bd 00be a5b0 87bd f019 17be
00000360: 11e5 c8bd 08da 5abd 855f 883c 15e1 39bc
00000370: 50c1 3c3d bc66 fc3d 1773 073d c174 323d
00000380: d02a 993d a5aa de3d 4f68 41bd 62b5 063e
00000390: 6522 333e d752 323d dbf5 313d dc92 32be
000003a0: f23c b6bd 89a5 1abd b9df 90bd ba8e a7bc
000003b0: 7d1c 07be 4758 94ba e0e6 cf3c 4d69 923c
000003c0: 8540 043e 2603 04be 27b1 95bd d4eb 8a3d
000003d0: e045 343d 8e37 4e3d 5dc8 83bd 77b3 533c
000003e0: be6a 19bd b34f 48bc 9ed0 abbd d3a4 7fbd
000003f0: 0574 a73c 82e8 5abc ae54 48bd d92b 1d3d

bias f4 [64]
-0.12309357 -0.01766042 -0.098684944 -0.15511543 -0.0896348 -0.042613104 -0.09206872 0.041302048
-0.090257205 -0.038785037 -0.076336026 -0.101218626 -0.12526083 -0.095898755 -0.13756451 -0.04496404
-0.11920705 -0.034593508 -0.11562511 -0.093119316 0.00074771093 -0.035585687 -0.13160981 -0.020622322
-0.10345959 0.031971063 -0.06369553 -0.12685141 -0.035753485 -0.1683871 -0.056904785 0.024724301
0.01811302 -0.07840622 -0.11916262 -0.011281699 -0.17462389 -0.08885489 -0.18007366 -0.032488532
0.020365128 -0.0965383 0.014943233 -0.08371994 -0.06672142 -0.029930916 -0.23063879 -0.04865566
-0.10358585 -0.10285358 0.0577653 -0.004535627 -0.24480276 0.017851966 -0.107917756 -0.063232966
-0.059787456 -0.10967872 -0.009690609 -0.09997263 -0.20075764 0.0139248045 -0.107003525 -0.026233844
00000000: 7b18 fcbd 96ac 90bc 551b cabd 94d6 1ebe
00000010: 7392 b7bd 148b 2ebd 868e bcbd 562c 293d
00000020: c5d8 b8bd 0fdd 1ebd 1056 9cbd b64b cfbd
00000030: 6044 00be 9166 c4bd b6dd 0cbe 372c 38bd
00000040: d322 f4bd ecb1 0dbd dccc ecbd 57b5 bebd
00000050: 0802 443a 4cc2 11bd b9c4 06be 25f0 a8bc
00000060: 9fe2 d3bd 17f4 023d cd72 82bd 56e5 01be
00000070: 3f72 12bd ab6d 2cbe fe14 69bd 9e8a ca3c
00000080: c261 943c 7193 a0bd 880b f4bd e0d6 38bc
00000090: 9bd0 32be 8df9 b5bd 3b65 38be b212 05bd
000000a0: c5d4 a63c dfb5 c5bd 76d4 743c 5c75 abbd
000000b0: 3da5 88bd ae31 f5bc 932c 6cbe 284b 47bd
000000c0: d124 d4bd e6a4 d2bd 4f9b 6c3d 999f 94bb
000000d0: 93ad 7abe 493e 923c fc03 ddbd 4980 81bd
000000e0: b1e3 74bd 3d9f e0bd 5cc5 1ebc 73be ccbd
000000f0: 6993 4dbe dd24 643c aa24 dbbd 5ce8 d6bc

weight f4 [64]
0.42934033 0.49637303 0.28826523 0.53897804 0.47620034 0.48126274 0.11220213 0.5954153
0.6992746 0.5638788 0.5457039 0.6939162 0.41541466 0.6253654 0.18005635 0.46029347
0.48692697 0.0009370199 0.7558195 0.076640666 0.54961574 0.603529 0.0045846654 0.66372395
0.86435616 0.36311942 0.30856252 0.015303903 0.6657823 0.8222201 0.07136331 0.00040584162
0.12326598 0.64495236 0.5085933 0.7304589 0.27768487 0.2686993 0.03811819 0.7648983
0.46649075 0.24317901 0.29933852 0.22407323 0.3776954 0.6807988 -0.08985797 0.74184155
0.25803426 0.61211777 0.42326266 0.34279698 0.37725028 0.056346748 0.4472564 0.5793273
0.50426775 0.29731396 0.6425382 0.32647318 0.5771365 0.6383135 0.59114516 0.8180466
00000000: 7fd2 db3e 9b24 fe3e 8097 933e 77fa 093f
00000010: 88d0 f33e 1268 f63e 3bca e53d 236d 183f
00000020: a903 333f 5c5a 103f 40b3 0b3f 7ea4 313f
00000030: 3bb1 d43e f217 203f b160 383e 96ab eb3e
00000040: 7e4e f93e 57a2 753a 637d 413f c8f5 9c3d
00000050: 9eb3 0c3f e080 1a3f f63a 963b d0e9 293f
00000060: 7246 5d3f caea b93e e8fb 9d3e 39bd 7a3c
00000070: b570 2a3f 047d 523f ed26 923d 24c7 d439
00000080: e072 fc3d 991b 253f 2c33 023f 5bff 3a3f
00000090: b62c 8e3e f492 893e d221 1c3d 60d0 433f
000000a0: e0d7 ee3e eb03 793e e642 993e 7473 653e
000000b0: 4b61 c13e d548 2e3f 7507 b8bd 54e9 3d3f
000000c0: 111d 843e c0b3 1c3f e2b5 d83e 1683 af3e
000000d0: f326 c13e d9cb 663d cafe e43e cb4e 143f
000000e0: b117 013f 8939 983e 627d 243f 7e27 a73e
000000f0: 38bf 133f 8368 233f 4a55 173f 816b 513f

bias f4 [64]
0.022419116 0.05744266 0.010004834 0.25325847 0.15994571 0.1414879 0.058534246 0.12513626
0.20971322 0.1818034 0.16765396 0.28971833 0.0011690948 0.10842982 0.30513397 0.08350937
0.22055723 -0.0062546623 0.16754125 0.014950701 -0.043583315 0.21734425 -0.20298639 0.1292298
0.17782891 -0.14577335 0.11724765 -0.0023317903 -0.13497421 0.11866708 -0.015626464 -0.0041314685
-0.020716866 0.0579367 0.0012431522 0.09129154 0.19364333 -0.035317313 -0.26427007 0.07300334
-0.026361888 -0.1416808 0.12749976 -0.09009384 0.19955365 -0.07505159 -0.39119583 0.30196628
-0.047787853 0.057095386 0.14160463 0.031928923 0.15525675 0.015421114 0.19603074 0.06723219
0.0325834 0.042524263 0.22375095 -0.0010492144 -0.13865197 0.13805707 0.071092464 0.060886413
00000000: 4ba8 b73c ff48 6b3d 51eb 233c 18ab 813e
00000010: cfc8 233e 34e2 103e 9bc1 6f3d b823 003e
00000020: 10bf 563e ac2a 3a3e 7bad 2b3e f655 943e
00000030: 503c 993a 7410 de3d 853a 9c3e f606 ab3d
00000040: c1d9 613e e9f3 ccbb ef8f 2b3e c9f3 743c
00000050: 6b84 32bd 7e8f 5e3e aadb 4fbe d154 043e
00000060: c818 363e 9c45 15be 891f f03d f3d0 18bb
00000070: ae36 0abe ba07 f33d 1203 80bc 4561 87bb
00000080: 6bb6 a9bc 084f 6d3d 44f1 a23a 0ff7 ba3d
00000090: 704a 463e e3a8 10bd 684e 87be c682 953d
000000a0: e3f4 d7bc c614 11be 4c8f 023e 1f83 b8bd
000000b0: cb57 4c3e a6b4 99bd d24a c8be 539b 9a3e
000000c0: 32bd 43bd dadc 693d ce00 113e e7c7 023d
000000d0: a0fb 1e3e d7a8 7c3c 48bc 483e 08b1 893d
000000e0: 2c76 053d ec2d 2e3d f81e 653e cb85 89ba
000000f0: c8fa 0dbe d55e 0d3e ed98 913d 0864 793d

running_mean f4 [64]
0.036175683 0.022521347 0.010858375 0.04086306 0.0056365943 0.012806051 0.016424714 0.055303603
0.022140283 0.018611971 0.008210052 0.0073068007 0.008478807 0.027825762 0.010329626 0.016761407
0.004070934 0.0038865423 0.012928425 0.0017447617 0.040924083 0.01052252 0.008421323 0.04731173
0.012453339 0.0812059 0.0053193523 0.0013389132 0.040286753 0.016488474 0.0028255854 0.028720278
0.035007797 0.015316783 0.014733494 0.074224934 0.009878892 0.0042192694 0.014169635 0.032494124
0.03386637 0.0056629507 0.079487175 0.014298395 0.005699789 0.023002269 0.0018680621 0.009755233
0.01973257 0.029676585 0.07720085 0.030666132 0.010353624 0.034377556 0.006289046 0.01960211
0.022619454 0.006331579 0.028961446 0.019241003 0.018796645 0.041532416 0.0031327482 0.031120447
00000000: f42c 143d b07e b83c 53e7 313c 0660 273d
00000010: 2eb3 b83b 79d0 513c 1f8d 863c 0886 623d
00000020: 8a5f b53c 2278 983c 7483 063c e36d ef3b
00000030: b2ea 0a3c daf2 e33c 973d 293c 384f 893c
00000040: 7865 853b 5cb5 7e3b bfd1 533c 7db0 e43a
00000050: 03a0 273d a666 2c3c 97f9 093c f2c9 413d
00000060: 1709 4c3c 474f a63d f64d ae3b 797e af3a
00000070: b903 253d d612 873c 752d 393b ca46 eb3c
00000080: 5664 0f3d 3ff3 7a3c c164 713c 3e03 983d
00000090: 14db 213c cc41 8a3b c227 683c 8f18 053d
000000a0: 76b7 0a3d 4690 b93b 2cca a23d d143 6a3c
000000b0: 4cc5 ba3b 416f bc3c c3d9 f43a 6ad4 1f3c
000000c0: 33a6 a13c 4f1c f33c 7b1b 9e3d 8a37 fb3c
000000d0: 3fa2 293c 7bcf 0c3d 5714 ce3b 9b94 a03c
000000e0: 6f4c b93c 2279 cf3b 8e40 ed3c 4f9f 9d3c
000000f0: 6cfb 993c e51d 2a3d cb4e 4d3b 4ff0 fe3c

running_var f4 [64]
0.009134212 0.002833683 0.0021488084 0.008594175 0.000754185 0.0018840309 0.0031243877 0.0058685443
0.004709905 0.0030321784 0.0012071809 0.0012807959 0.0012522702 0.006315559 0.0012999678 0.0022730783
0.000778802 0.0001893911 0.0029556819 0.00021882892 0.0031120123 0.001347323 0.0009800813 0.010136114
0.0019421398 0.022467982 0.00074951886 0.00016233462 0.010195129 0.0029793938 0.00024203237 0.0011213036
0.0030546135 0.0027461501 0.0022344862 0.010154244 0.0016859806 0.000776294 0.0025021976 0.0059290756
0.003506087 0.00091754005 0.01210455 0.002811412 0.00062194874 0.0041293507 0.00069131085 0.0012760687
0.003912836 0.0061463076 0.008721428 0.0039155055 0.0020258753 0.0014692728 0.0010255142 0.0031791467
0.0035381594 0.0009059814 0.0034149578 0.003113901 0.0039830916 0.0061314804 0.0005546747 0.0067452043
00000000: a9a7 153c 50b5 393b 06d3 0c3b 95ce 0c3c
00000010: 80b4 453a 96f1 f63a 87c2 4c3b eb4c c03b
00000020: 8c55 9a3b 83b7 463b 453a 9e3a 61e0 a73a
00000030: 3723 a43a c0f2 ce3b ae63 aa3a edf7 143b
00000040: 8428 4c3a 4997 4639 1db4 413b 7175 6539
00000050: e7f2 4b3b a898 b03a 1276 803a f211 263c
00000060: 668f fe3a c60e b83c 5c7b 443a 5e38 2a39
00000070: 7809 273c ef41 433b 12ca 7d39 b5f8 923a
00000080: e92f 483b c1f8 333b 7570 123b fc5d 263c
00000090: 1ffc dc3a 3580 4b3a e9fb 233b b148 c23b
000000a0: 61c6 653b 1287 703a 2a52 463c ab3f 383b
000000b0: 460a 233a 814f 873b 1639 353a c341 a73a
000000c0: 3f37 803b f766 c93b 52e4 0e3c a44d 803b
000000d0: 8cc4 043b 9d94 c03a 8c6a 863a 3b59 503b
000000e0: 77e0 673b 627f 6d3a 7ccd 5f3b 9712 4c3b
000000f0: 9884 823b 96ea c83b 9767 113a e006 dd3b

weight f4 [128, 64, 5, 5]
0.0026318654 -0.001195698 0.0009922674 0.0017963839 -0.00014765386 0.0026235103 -0.002531578 -0.0014892138
-0.0024570532 -0.0045153666 -0.00041284488 -0.0045795017 -0.005766181 -0.0051833205 -0.003730374 -0.00068483676
-0.0031502575 -0.0071075056 -0.007516124 -0.007240103 0.00011974605 -0.0017313507 -0.0036179556 -0.00601143
-0.009737603 0.0023393112 0.004401465 0.013002312 0.0034586657 -0.0015554263 0.005202712 0.010421111
0.009824159 0.0024106873 0.0054891137 0.00045315575 0.0056952285 -0.003404803 0.0042564347 0.001953497
-0.008173093 -0.001680317 -0.001296905 -0.0028862755 0.0016715216 -0.0068380246 -0.0037618473 -0.004182845
-0.0034414013 -0.001873586 0.0008380406 0.008232667 0.0050217086 -0.00068600196 -8.7895967e-07 0.004981291
0.0069073224 0.005182216 0.0021503503 0.0037552675 0.0030287846 0.0008494658 0.0010017587 0.003918807
0.0010234733 -0.0018907241 0.0018573839 -0.0036897422 0.0016174158 0.0005569983 -0.01063226 0.00092069356
-0.0013509078 -0.0012712384 0.00058325386 -0.004663289 -0.005411212 -0.0055963094 -0.0039105834 -0.0042397724
0.0007248027 -0.0013471018 -0.0044600926 -0.0033176306 -0.0053392593 -0.0004745021 -0.001044628 -0.0024466382
-0.005072838 -0.0051263394 -0.0005739329 -0.0025154254 -0.0013557646 -0.0025067758 -0.0067353323 -0.0021497156
-0.0022120285 -0.0016486733 -0.00067328627 -0.0067082345 0.002318566 0.010202017 0.0039376416 0.0002055697
-0.0005450538 0.0053951596 0.004015759 -0.0022257504 -0.00345553 0.0017298373 -0.00012306486 -0.007016855
0.0004598575 -0.0013021458 -0.0012789302 -0.002644467 -0.0103743635 -0.006179248 -0.003406071 -0.0016477753
-0.0017040572 -0.0032573615 0.00017500053 -0.0018086873 0.00375039 0.006768478 0.005483887 0.0021680687
0.013312254 0.0027443937 0.004622218 0.004565061 0.0007121421 0.00028396718 -0.006506832 0.0014876156
0.0013192004 -0.0073423525 0.00082018453 -0.004853826 0.0026925202 -0.0002361414 -0.011521357 -0.007882844
-0.008513018 0.0044694315 0.0020162768 -0.006040252 -0.000943399 -0.0019252604 0.0050965715 0.0029739263
6.023022e-05 0.000914286 0.0021851691 0.0034956383 0.0007800743 8.9274574e-05 -0.0022445607 -0.00063315727
0.0014216374 0.0027508242 -0.0006287299 -0.00045070206 -0.002056786 0.0014124676 0.0006671677 -0.0008123776
-0.0002452209 -0.0022933541 -0.00046425505 0.0016025827 -0.00043179642 -0.00020362616 -0.002710129 0.00285839
-0.00067391066 0.0077578723 0.008626845 0.008442305 -0.0015200025 -0.005414616 -0.003229614 -0.0051639606
-0.008031939 0.0059591667 0.0087469295 0.0052209026 -0.0026536174 -0.00049384905 2.4909828e-05 -0.0043589137
-0.0068941386 -0.006445066 -0.002093682 -0.0039625946 -0.0026307115 -0.004624134 -0.00036875333 -0.0011706587
0.0034494111 0.003032435 0.008914954 0.00844637 0.003983327 0.011699078 0.011273213 0.012215502
0.007541881 0.002320233 0.006077666 -0.0011205189 -0.005035147 -0.0066617597 -0.0015591101 0.0039269407
-0.0034478551 -0.008150666 -0.008065635 -0.0015190905 0.0035333529 -0.0033912053 -0.008830887 -0.010128824
-0.007132001 0.0036848413 0.0033095642 0.0067780013 0.013183669 0.0065436326 0.0030610515 0.0055118925
0.00036221414 -4.3138658e-05 0.0013443207 0.00588386 -0.0003715852 -0.0042273668 -0.007853477 -0.0032448035
0.003824317 7.982657e-05 -0.004460704 -0.0031677145 0.00037711166 0.004104072 -0.0020146372 -0.0071185012
-0.0044852337 -0.0047718906 0.0071931444 0.0014397859 0.0057113147 -0.0005423397 0.009618861 -0.00011939654
00000000: 607b 2c3b f8b8 9cba f80e 823a a474 eb3a
00000010: 88d3 1ab9 33ef 2b3b d5e8 25bb b931 c3ba
00000020: 8306 21bb a4f5 93bb 1a73 d8b9 a50f 96bb
00000030: 3bf2 bcbb d8d8 a9bb 4a79 74bb 9e86 33ba
00000040: 8d74 4ebb 14e6 e8bb d149 f6bb 633e edbb
00000050: 2c20 fb38 7dee e2ba 391b 6dbb 88fb c4bb
00000060: 788a 1fbc 214f 193b 2a3a 903b a607 553c
00000070: c8aa 623b 72df cbba 837b aa3b 4fbd 2a3c
00000080: 82f5 203c 9ffc 1d3b 06de b33b 8995 ed39
00000090: 0a9f ba3b 1e23 5fbb 9079 8b3b 3e06 003b
000000a0: 70e8 05bc 153e dcba e9fc a9ba ab27 3dbb
000000b0: f516 db3a 8211 e0bb 5389 76bb 3f10 89bb
000000c0: 2289 61bb 1d93 f5ba f4af 5b3a 4fe2 063c
000000d0: 258d a43b d0d4 33ba a6f1 6bb5 193a a33b
000000e0: d256 e23b 94cf a93b e4ec 0c3b ef1a 763b
000000f0: 937e 463b afae 5e3a 724d 833a 5669 803b
00000100: 1126 863a 2cd2 f7ba 7673 f33a 9acf 71bb
00000110: 78ff d33a 8603 123a ee32 2ebc b35a 713a
00000120: f210 b1ba af9f a6ba 81e5 183a 81ce 98bb
00000130: 8950 b1bb 3f61 b7bb 5a24 80bb caed 8abb
00000140: b000 3e3a 3c91 b0ba f825 92bb 9b6c 59bb
00000150: f4f4 aebb 98c6 f8b9 e6eb 88ba c757 20bb
00000160: 0d3a a6bb dafa a7bb fc73 16ba d6d9 24bb
00000170: e9b3 b1ba b848 24bb 10b4 dcbb 3ee2 0cbb
00000180: aef7 10bb 4c18 d8ba 7a7f 30ba c0d0 dbbb
00000190: 15f3 173b 5c26 273c 5507 813b 328e 5739
000001a0: f1e1 0eba e1c9 b03b a196 833b e5dd 11bb
000001b0: 2c76 62bb b5bb e23a f90a 01b9 a5ed e5bb
000001c0: 0719 f139 c3ac aaba c7a1 a7ba cb4e 2dbb
000001d0: 3cf9 29bc 4a7b cabb 6438 5fbb 2afa d7ba
000001e0: ac5a dfba 7579 55bb 5980 3739 7a11 edba
000001f0: 1ac9 753b 1cca dd3b 2eb2 b33b 2816 0e3b
00000200: a41b 5a3c 49db 333b fa75 973b 8296 953b
00000210: 0caf 3a3a 6ee1 9439 4337 d5bb 19fc c23a
00000220: 05e9 ac3a 1e98 f0bb a701 573a d80c 9fbb
00000230: fe74 303b b99c 77b9 13c4 3cbc 0b27 01bc
00000240: 2f7a 0bbc 4f74 923b 8323 043b 4eed c5bb
00000250: 6f4e 77ba 0559 fcba 2401 a73b 34e6 423b
00000260: b59f 7c38 b2ac 6f3a 0e35 0f3b 1417 653b
00000270: e67d 4c3a ec38 bb38 7b19 13bb 77fa 25ba
00000280: 3c56 ba3a 2c47 343b 59d1 24ba 354c ecb9
00000290: 25cb 06bb 8c22 b93a dee4 2e3a bdf5 54ba
000002a0: fe90 80b9 194c 16bb 4267 f3b9 c10d d23a
000002b0: bc62 e2b9 7b84 55b9 6b9c 31bb d453 3b3b
000002c0: 61a9 30ba c035 fe3b 9c57 0d3c 9851 0a3c
000002d0: d23a c7ba 176d b1bb efa7 53bb 7136 a9bb
000002e0: 6598 03bc 1d45 c33b 484f 0f3c 1b14 ab3b
000002f0: 50e8 2dbb a675 01ba 73f5 d037 38d5 8ebb
00000300: 3ae8 e1bb 2231 d3bb 2836 09bb a7d8 81bb
00000310: 0468 2cbb 0c86 97bb 3c55 c1b9 ca70 99ba
00000320: 840f 623b d1bb 463b 0710 123c a562 0a3c
00000330: 9286 823b 7dad 3f3c 48b3 383c 8723 483c
00000340: e221 f73b 0d0f 183b 2827 c73b 60de 92ba
00000350: e0fd a4bb e44a dabb 0e5b ccba 91ad 803b
00000360: 69f5 61bb 5f8a 05bc ba25 04bc 381c c7ba
00000370: d38f 673b fc3e 5ebb 6daf 10bc 5ef3 25bc
00000380: 90b3 e9bb 617d 713b 46e5 583b ff19 de3b
00000390: 5100 583c f86b d63b ec9b 483b 1b9d b43b
000003a0: 8fe7 bd39 c8ef 34b8 eb33 b03a 65cd c03b
000003b0: 52d1 c2b9 b985 8abb dfab 00bc c5a6 54bb
000003c0: 64a1 7a3b 9068 a738 192b 92bb 6e99 4fbb
000003d0: 12b7 c539 747b 863b 0108 04bb 5142 e9bb
000003e0: def8 92bb 855d 9cbb 78b4 eb3b 33b7 bc3a
000003f0: fb25 bb3b cd2b 0eba 6d98 1d3c 8864 fab8

bias f4 [128]
0.0051515503 -0.04774787 -0.05516166 7.538765e-05 -0.09090634 -0.10493333 -0.10723586 -0.031785887
-0.031874094 -0.00028821887 0.000101385114 -0.057038154 -0.11514285 -0.060385626 -0.0039162547 -0.095804684
-0.057377923 -0.00028460386 -0.070956364 -0.007399644 -0.15480424 -0.06049799 -0.044122115 -0.0009883599
1.11918134e-23 0.0012889188 -0.045640618 -0.01583101 -0.0016783895 -0.09274283 -0.13953704 -0.0017425626
0.0032710587 -0.026009886 -0.01673621 -0.0024655908 -0.066162534 -0.005803721 -0.030660981 -0.08174001
-0.0063800463 -0.11361844 -0.03475545 0.008313544 -0.0954257 -0.018294906 -0.080194116 -0.1412832
-0.13977098 -0.036344398 -0.010514486 -0.07820647 -0.14893052 0.012069687 0.024045384 0.0036222762
-0.08644021 0.0009841988 -0.12044765 -0.042916987 -0.118037134 -0.020475067 -0.04638098 0.011967821
-0.1398007 -0.030999342 -0.032475032 -0.009868676 -0.061271187 -0.0004409762 0.019576166 -0.11250684
5.972414e-17 -0.012590112 -0.000267804 -0.032747846 -0.08146938 -0.07919147 -0.028567875 -0.0004623454
-0.0680679 -0.06556958 -0.0071863243 0.014760488 -0.11440453 -0.06434779 -0.020501535 -0.10504898
0.00063730846 -0.04744779 -0.010831788 -0.18344891 -0.01487752 -0.069618 -0.004771859 0.004649974
-0.083689466 -0.076778926 0.004720909 -0.02238625 -0.012218613 -0.042541005 -0.018336812 -0.07847271
-0.1156079 -0.08206239 -0.030120824 -0.01169305 -0.001988906 -1.5110208e-08 -0.0014052338 -0.0067359423
0.0015619681 0.0002999354 -0.055216517 -0.047249302 0.012723511 -0.044786293 -0.043104135 -0.03859685
0.008620025 -0.089261636 -0.036537778 -0.008476669 -0.10436897 -0.07750015 -0.04234946 0.011114615
00000000: 56ce a83b 4593 43bd 31f1 61bd 7019 9e38
00000010: 1a2d babd 49e7 d6bd 799e dbbd eb31 02bd
00000020: 698e 02bd 151c 97b9 b89e d438 d7a0 69bd
00000030: 04d0 ebbd eb56 77bd ed53 80bb 3f35 c4bd
00000040: 1d05 6bbd e236 95b9 9251 91bd b678 f2bb
00000050: 0185 1ebe becc 77bd 64b9 34bd db8b 81ba
00000060: 2d7b 5819 f0f0 a83a a8f1 3abd 09b0 81bc
00000070: 68fd dbba f4ef bdbd cce2 0ebe b366 e4ba
00000080: 425f 563b af12 d5bc 601a 89bc c095 21bb
00000090: 3980 87bd 242d bebb bd2c fbbc 4e67 a7bd
000000a0: b50f d1bb c9b0 e8bd bb5b 0ebd 8835 083c
000000b0: 8d6e c3bd 33df 95bc d03c a4bd 8bac 10be
000000c0: 2020 0fbe dddd 14bd f344 2cbc b72a a0bd
000000d0: 3e81 18be f0bf 453c d3fa c43c b663 6d3b
000000e0: 9107 b1bd 3b00 813a 42ad f6bd b9c9 2fbd
000000f0: 74bd f1bd 54bb a7bc fcf9 3dbd ae14 443c
00000100: ea27 0fbe 55f2 fdbc 8a04 05bd 3ab0 21bc
00000110: 7ff7 7abd d332 e7b9 325e a03c fc69 e6bd
00000120: e9b6 8924 c246 4ebc 0b68 8cb9 9b22 06bd
00000130: 6bd9 a6bd 232f a2bd 2d07 eabc f366 f2b9
00000140: 2f67 8bbd 5849 86bd 427b ebbb f9d5 713c
00000150: ec4c eabd c6c8 83bd d6f2 a7bc eb23 d7bd
00000160: 0c11 273a 9d58 42bd d077 31bc 08da 3bbe
00000170: d7c0 73bc e293 8ebd 415d 9cbb cf5e 983b
00000180: 6265 abbd 453e 9dbd dbb1 9a3b 5e63 b7bc
00000190: 9430 48bc 7a3f 2ebd 1537 96bc 4db6 a0bd
000001a0: d6c3 ecbd 5410 a8bd f2bf f6bc 3594 3fbc
000001b0: 4e58 02bb b3cb 81b2 d22f b8ba 2eb9 dcbb
000001c0: f4ba cc3a a640 9d39 b72a 62bd 7c88 41bd
000001d0: 4676 503c d571 37bd f68d 30bd bb17 1ebd
000001e0: 013b 0d3c cece b6bd a3a8 15bd bae1 0abc
000001f0: 66bf d5bd 66b8 9ebd a176 2dbd 131a 363c

weight f4 [128]
0.24127056 0.15922806 0.77151775 0.08344488 0.5013083 0.4360133 0.5675742 0.5053474
0.28617653 0.0015325245 0.00056509953 0.15174842 0.18866807 0.29583624 0.04096791 0.67047614
0.96036345 0.000987679 0.5434926 0.02285856 0.53025717 0.24450153 0.34368694 0.0038756952
1.98996e-22 0.04649585 0.30280232 0.34414357 -0.013233686 0.40629408 0.4040259 0.019858565
0.009792533 0.23093751 0.6304833 0.14664935 0.6991871 0.1068645 0.15652247 0.7199248
0.019408748 0.73159915 0.114461355 0.09129853 0.5622022 0.24402335 0.50660974 0.88963705
0.8798705 0.32693917 0.344982 0.7045333 0.6158456 0.21314827 0.41506433 0.08731902
0.5877697 -0.008336887 0.4822339 0.8291309 0.94565076 0.43262956 0.8682418 0.17045446
0.8820669 0.17204405 0.4301599 0.08896831 0.63650674 0.051645935 0.70499027 0.48278
-2.0580657e-17 0.10099721 0.010527646 0.45659333 0.7621292 0.8921318 0.10611553 -0.0019299239
0.5603277 0.90865594 0.08525074 0.19927828 0.86699235 0.60753065 0.2401487 0.71084744
0.33020833 0.7084707 0.79396015 0.91848356 0.14189148 0.7338093 0.80690706 0.47949216
0.6730239 0.47303206 -0.011392905 0.096918054 0.3539888 0.65583134 0.7307414 0.769331
0.7822964 0.8323145 0.69830585 0.6572068 -0.0022532374 3.6898308e-07 -0.0018564038 -0.0020011107
0.03239731 0.00018043573 0.31187156 0.16761981 0.20206532 0.68347996 0.29750094 0.65809053
0.37344542 0.57628596 0.5239309 0.13102737 0.42394754 0.7000542 0.5784968 0.6413617
00000000: a10f 773e ae0c 233e 3082 453f 26e5 aa3d
00000010: be55 003f 233d df3e 8b4c 113f 725e 013f
00000020: bb85 923e fdde c83a 3023 143a f063 1b3e
00000030: 3432 413e d977 973e f8cd 273d 53a4 2b3f
00000040: 61da 753f 0275 813a 5522 0b3f e041 bb3c
00000050: efbe 073f 9c5e 7a3e bcf7 af3e 60ff 7d3b
00000060: 4792 701b 6f72 3e3d e808 9b3e 9633 b03e
00000070: 1ad2 58bc c705 d03e 7cdc ce3e 6eae a23c
00000080: dc70 203c e27a 6c3e 5b67 213f 3f2b 163e
00000090: edfd 323f c6db da3d 6d47 203e fe4c 383f
000000a0: 18ff 9e3c 154a 3b3f b76a ea3d b9fa ba3d
000000b0: 7cec 0f3f 42e1 793e 2db1 013f 41bf 633f
000000c0: 313f 613f 9264 a73e 7ba1 b03e 4b5c 343f
000000d0: 0fa8 1d3f 8a43 5a3e 5083 d43e 50d4 b23d
000000e0: 1378 163f 7097 08bc 5de7 f63e ec41 543f
000000f0: 2b16 723f 9f81 dd3e 1845 5e3f 9d8b 2e3e
00000100: 23cf 613f 512c 303e eb3d dc3e 0435 b63d
00000110: 1bf2 223f b08a 533d 3e7a 343f f12e f73e
00000120: b4d2 bda3 a0d7 ce3d 267c 2c3c 9ac6 e93e
00000130: e61a 433f c062 643f 1953 d93d 80f5 fcba
00000140: a371 0f3f ad9d 683f f197 ae3d 9b0f 4c3e
00000150: 36f3 5d3f 2187 1b3f 8ae9 753e 19fa 353f
00000160: 1111 a93e 565e 353f f940 4b3f bd21 6b3f
00000170: 004c 113e edda 3b3f 7691 4e3f ff7f f53e
00000180: 4b4b 2c3f 4231 f23e 4fa9 3abc f97c c63d
00000190: 053e b53e 90e4 273f de11 3b3f e0f2 443f
000001a0: 9444 483f 9012 553f 2cc4 323f b43e 283f
000001b0: 0dab 13bb a618 c634 9352 f3ba 1125 03bb
000001c0: 0bb3 043d 5933 3d39 a1ad 9f3e 87a4 2b3e
000001d0: 36ea 4e3e 8bf8 2e3f 0b52 983e 9f78 283f
000001e0: 3d34 bf3e 7a87 133f 5620 063f 0a2c 063e
000001f0: a70f d93e c136 333f 5e18 143f 4830 243f

bias f4 [128]
0.06205614 0.1599481 -0.13863246 0.03353439 -0.16233368 -0.16732989 -0.17214848 0.16380936
0.18050629 -0.07417132 0.00025484347 -0.16960002 -0.1935149 0.1823668 -0.044267394 -0.13797879
0.17801063 0.16706179 -0.15101229 0.12197791 -0.17501363 -0.16340251 0.1658811 -0.1501032
7.5987384e-07 0.13914192 0.18415989 0.17404379 0.23396556 -0.1702683 -0.21740317 -0.13569532
-0.20675799 0.11868427 0.16561043 -0.042120423 0.17647049 -0.09375806 0.15495846 -0.14499228
0.15375379 -0.1614747 0.17726737 0.17442513 -0.13222651 0.15310243 -0.12809275 -0.15414722
-0.16224167 -0.1556706 -0.11952699 -0.16073611 -0.16351683 0.15415365 0.15320875 0.064179234
-0.16886139 0.14524016 -0.1715722 0.15518764 -0.15964164 0.14228715 0.16394727 0.15915297
-0.17068258 0.16422147 0.15487583 0.08534299 0.16432305 0.0039448664 -0.15187912 -0.11256195
-6.952824e-05 0.17168081 0.0007543234 0.16563407 -0.12900099 -0.14552024 0.1856301 0.16340315
-0.12101955 -0.16586508 0.17525099 0.14615367 -0.15807639 0.16618547 0.17285845 0.17223972
0.14355858 -0.11011293 -0.15592189 -0.18909475 0.08883033 -0.12356211 -0.1596426 0.1128568
-0.14509602 -0.16800007 0.19061305 0.17961776 -0.07720971 0.17217831 0.15420511 0.17712367
-0.15801783 0.17238265 0.17944737 0.15711248 -0.25047445 -9.550905e-05 -0.12269976 -0.18585946
-0.09383548 -0.020880193 0.17483185 0.18835667 0.14203762 -0.15164977 -0.12698999 -0.11613281
0.14828798 -0.14370357 0.14458443 0.13591135 -0.17610472 -0.14403361 -0.14532316 0.1451106
00000000: 942e 7e3d 6fc9 233e abf5 0dbe 5b5b 093d
00000010: cd3a 26be 8758 2bbe b147 30be a4bd 273e
00000020: a4d6 383e 22e7 97bd 839c 8539 a1ab 2dbe
00000030: c528 46be 5dbe 3a3e ba51 35bd 504a 0dbe
00000040: 6b48 363e 3f12 2b3e f7a2 1abe 8ecf f93d
00000050: c636 33be fd52 27be bcdc 293e a7b4 19be
00000060: 22fa 4b35 387b 0e3e 6994 3c3e 8938 323e
00000070: ab94 6f3e d05a 2ebe f09e 5ebe b7f3 0abe
00000080: 5eb8 53be bd10 f33d c895 293e 7786 2cbd
00000090: aeb4 343e 3a04 c0bd 6ead 1e3e db78 14be
000000a0: a271 1d3e a059 25be 9485 353e 809c 323e
000000b0: 6366 07be e2c6 1c3e bf2a 03be c5d8 1dbe
000000c0: ae22 26be 1d68 1fbe 91ca f4bd 0298 24be
000000d0: f570 27be 74da 1d3e c1e2 1c3e 6770 833d
000000e0: 00ea 2cbe d6b9 143e 9fb0 2fbe 82e9 1e3e
000000f0: 1979 23be b9b3 113e cbe1 273e fff8 223e
00000100: 6ac7 2ebe ac29 283e c597 1e3e 4ec8 ae3d
00000110: 4d44 283e f043 813b 3386 1bbe e186 e6bd
00000120: b1cf 91b8 18cd 2f3e c9bd 453a fa9b 293e
00000130: d618 04be 4203 15be d115 3e3e 2853 273e
00000140: 19d9 f7bd 89d8 29be ff74 333e 4fa9 153e
00000150: c7de 21be 862c 2a3e ce01 313e 9c5f 303e
00000160: 0501 133e e382 e1bd fda9 1fbe 0ea2 41be
00000170: adec b53d 220e fdbd 5a79 23be 7721 e73d
00000180: 0d94 14be 3608 2cbe 1130 433e b8ed 373e
00000190: 2020 9ebd 834f 303e f2e7 1d3e e85f 353e
000001a0: 6dcf 21be 1485 303e 0dc1 373e 18e2 203e
000001b0: 303e 80be 084c c8b8 034a fbbd f151 3ebe
000001c0: d12c c0bd f00c abbc 1f07 333e 92e0 403e
000001d0: 4f72 113e 144a 1bbe aa09 02be 0ad7 edbd
000001e0: ced8 173e 0727 13be f10d 143e 582c 0b3e
000001f0: cc54 34be 8c7d 13be 98cf 14be e097 143e

running_mean f4 [128]
0.13594604 -0.01005142 -0.0179077 0.0329008 0.018045785 0.044400442 -0.0074079237 0.16023059
0.08192388 0.048918482 0.006756084 0.017907055 0.008803088 0.042371586 0.0042480314 0.03225369
0.06001192 0.109231204 0.09403237 0.008907575 -0.015136657 0.0026603132 0.014628119 0.11226181
2.150989e-22 0.12586996 0.033382043 0.27002162 0.09115843 -0.029654196 -0.020090675 0.17765385
0.22490776 0.07674824 0.067778766 0.10618789 0.042643216 0.15585929 0.082846306 0.110625856
0.09085257 -0.019795755 0.046860177 0.22855052 -0.001690771 0.16062853 0.047075655 -0.0028584905
-0.0016361272 0.39903638 0.20792729 0.014968442 -0.01685163 0.44746175 0.49810198 0.09785091
0.009566306 0.10485234 -0.020036336 0.01286583 -0.009843393 0.20148203 0.10354586 0.34894192
-0.027971428 0.14531457 0.06681838 0.14036189 0.032505922 0.005535017 0.59942955 0.04949838
1.3073796e-14 0.25014856 0.0004253407 0.146128 -0.010349326 0.010354919 0.08222081 0.06586758
0.08015902 0.021380588 0.5034005 0.33604857 0.033742074 -0.018212868 0.24866863 -0.022009825
0.22421513 0.07157549 0.02249594 -0.021899568 0.016568732 0.075998075 0.2460166 0.2951467
0.013030575 -0.03454853 0.19554996 0.09477403 0.38128874 0.033872213 0.20970918 0.04523654
0.06511173 0.08736925 0.028634232 0.13978182 0.13257147 3.5259112e-07 0.079087995 0.10411247
0.1316436 0.03265336 0.034267496 0.017783502 0.30553365 0.032145083 0.011360255 0.2726906
0.57317877 0.032580126 0.20021269 0.20037842 -0.02430397 0.072215274 0.22907323 0.447221
00000000: 7035 0b3e b6ae 24bc 2bb3 92bc fdc2 063d
00000010: c1d4 933c 3ddd 353d 2bbe f2bb 7d13 243e
00000020: b5c7 a73d bf5e 483d 2462 dd3b d1b1 923c
00000030: d43a 103c d48d 2d3d 1233 8b3b 721c 043d
00000040: 0fcf 753d 9cb4 df3d 0b94 c03d 14f1 113c
00000050: beff 77bc a658 2e3b c7aa 6f3c 85e9 e53d
00000060: f104 821b 0ee4 003e 9cbb 083d 4640 8a3e
00000070: 45b1 ba3d 5bed f2bc 3395 a4bc e4ea 353e
00000080: 384e 663e 2e2e 9d3d 98cf 8a3d 0979 d93d
00000090: a7aa 2e3d 9499 1f3e 53ab a93d cf8f e23d
000000a0: ea10 ba3d b52a a2bc 75f0 3f3d 2609 6a3e
000000b0: dc9c ddba ce7b 243e 67d2 403d 8355 3bbb
000000c0: 5273 d6ba 7f4e cc3e e4ea 543e 323e 753c
000000d0: 6e0c 8abc b519 e53e 3907 ff3e 0f66 c83d
000000e0: ffbb 1c3c d3bc d63d 3e23 a4bc 34cb 523c
000000f0: 2f46 21bc 4e51 4e3e da0f d43d 84a8 b23e
00000100: 5624 e5bc 58cd 143e 13d8 883d 07bb 0f3e
00000110: ee24 053d 165f b53b 3774 193f d0be 4a3d
00000120: 3e84 6b28 7913 803e 4300 df39 94a2 153e
00000130: 3890 29bc aea7 293c 6263 a83d 95e5 863d
00000140: 6a2a a43d 5826 af3c dbde 003f 8f0e ac3e
00000150: 2135 0a3d 2733 95bc fda2 7e3e f34d b4bc
00000160: a798 653e 2c96 923d 6849 b83c b966 b3bc
00000170: 26bb 873c e1a4 9b3d c7eb 7b3e 781d 973e
00000180: 317e 553c c282 0dbd 403e 483e e318 c23d
00000190: 4738 c33e 97bd 0a3d 01be 563e f349 393d
000001a0: 4c59 853d a6ee b23d 5692 ea3c f722 0f3e
000001b0: d1c0 073e c14b bd34 e3f8 a13d eb38 d53d
000001c0: 94cd 063e 88bf 053d 135c 0c3d b5ae 913c
000001d0: e86e 9c3e 90aa 033d 5d20 3a3c 1a9e 8b3e
000001e0: d8bb 123f bd72 053d 8e04 4d3e 0030 4d3e
000001f0: 1f19 c7bc 9ae5 933d 2c92 6a3e 27fa e43e

running_var f4 [128]
0.08059314 0.006302447 0.012803439 0.0058136303 0.09336252 0.13719137 0.03832297 0.14895774
0.11389687 0.0062346784 0.00015137903 0.029596465 0.046632554 0.06071828 0.00056888483 0.119969994
0.17121948 0.03177297 0.20949738 0.0019390038 0.014108682 0.021595577 0.03184001 0.042687505
1.56e-43 0.09811877 0.07118552 0.43561733 0.058666214 0.002665364 0.007171451 0.1549942
0.17839868 0.09959533 0.14246185 0.047890797 0.09929683 0.105811946 0.13914682 0.2783337
0.05426619 0.021383585 0.05914183 0.19442149 0.015256316 0.21772215 0.09817351 0.048651718
0.026149178 0.3171944 0.276199 0.065475695 0.024936808 0.5536648 0.70978457 0.04739547
0.10077403 0.036991425 0.012284807 0.04723244 0.0390814 0.14867967 0.22349715 0.49542668
0.005231461 0.21092694 0.11216399 0.098089464 0.07785216 0.00024586695 0.4898839 0.09641971
1.9791789e-28 0.29006863 8.06423e-06 0.28167987 0.0175425 0.0875502 0.14192685 0.02613236
0.16225877 0.0931157 0.57425064 0.45307648 0.11100699 0.009131803 0.3231198 0.01490407
0.2948691 0.16419686 0.07637847 0.014875138 0.011249505 0.17093238 0.21075994 0.28744274
0.062453106 0.0035072814 0.083285704 0.12839042 0.46431777 0.08763562 0.35435027 0.15795615
0.13425517 0.25096247 0.09347346 0.26138934 0.065712534 2.6322935e-13 0.018588936 0.07638408
0.07608737 0.0017734026 0.07417904 0.037202004 0.35461673 0.09318861 0.04332182 0.6145466
1.1430925 0.1243522 0.3840832 0.23190768 0.0075921793 0.25001928 0.5411273 0.59958196
00000000: 040e a53d c284 ce3b 84c5 513c 4480 be3b
00000010: d934 bf3d e57b 0c3e 8cf8 1c3d 6188 183e
00000020: c342 e93d 464c cc3b 80bb 1e39 4974 f23c
00000030: c701 3f3d bbb3 783d 3721 153a d4b2 f53d
00000040: 2954 2f3e 6024 023d 7b86 563e 2c26 fe3a
00000050: 1a28 673c 35e9 b03c ac6a 023d 18d9 2e3d
00000060: 6f00 0000 7ef2 c83d b7c9 913d 3c09 df3e
00000070: fc4b 703d 63ad 2e3b 7efe ea3b cdb6 1e3e
00000080: 25ae 363e a3f8 cb3d 85e1 113e 2429 443d
00000090: 235c cb3d efb3 d83d 817c 0e3e c181 8e3e
000000a0: 3946 5e3d a12c af3c b43e 723d 6d16 473e
000000b0: a1f5 793c 8ef2 5e3e 310f c93d 0647 473d
000000c0: cd36 d63c 4e67 a23e f569 8d3e 1f18 863d
000000d0: 4748 cc3c fabc 0d3f 71b4 353f c121 423d
000000e0: 9d62 ce3d 5284 173d 3746 493c ce76 413d
000000f0: d113 203d 7c3f 183e 70dc 643e 91a8 fd3e
00000100: ad6c ab3b 3bfd 573e 3cb6 e53d 21e3 c83d
00000110: f470 9f3d b4e7 8039 10d2 fa3e b277 c53d
00000120: 07e4 7a11 e083 943e 9b4b 0737 5838 903e
00000130: 4ab5 8f3c 854d b33d 4655 113e 8813 d63c
00000140: 2a27 263e 72b3 be3d 1702 133f a4f9 e73e
00000150: a257 e33d 8f9d 153c f56f a53e 3330 743c
00000160: 15f9 963e 3923 283e 516c 9c3d dab6 733c
00000170: d84f 383c e608 2f3e 74d1 573e b22b 933e
00000180: d4ce 7f3d 6bda 653b b291 aa3d c778 033e
00000190: 0fbb ed3e 4e7a b33d 666d b53e 42bf 213e
000001a0: 307a 093e 277e 803e 036f bf3d d3d4 853e
000001b0: 4b94 863d 592f 942a d347 983c 426f 9c3d
000001c0: b2d3 9b3d 8471 e83a 2eeb 973d 2161 183d
000001d0: 5390 b53e acd9 be3d 3972 313d ed52 1d3f
000001e0: db50 923f 5eac fe3d 8ea6 c43e 3579 6d3e
000001f0: d1c7 f83b 8702 803e 5287 0a3f 347e 193f

weight f4 [1, 128, 1, 1]
-0.019137785 -0.27355513 0.24065903 -0.0021159675 0.40749297 0.40081587 0.49686894 -0.2766654
-0.41742077 0.044056688 -0.00076483015 0.22346854 0.55531543 -0.40881214 0.009389224 0.18554719
-0.55395764 -0.17289688 0.26510787 -0.08270593 0.3971497 0.4074788 -0.24059097 0.2024882
4.1398427e-05 -0.12260972 -0.37036046 -0.26086858 -0.22218429 0.43363377 0.3567862 0.14282739
0.20324582 -0.101471744 -0.38893673 0.009017336 -0.2386676 0.043355983 -0.24893904 0.28170103
-0.11284612 0.3611411 -0.3131887 -0.3422941 0.17268941 -0.26045215 0.14861907 0.22309017
0.27597228 0.28013793 0.12057403 0.414608 0.45946595 -0.24900039 -0.27874273 -0.014891609
0.43035674 -0.13782461 0.4023527 -0.3377746 0.42411655 -0.19353636 -0.40542746 -0.3070922
0.3165623 -0.20018715 -0.24442244 -0.0601309 -0.35854322 0.00018702447 0.2949866 0.110032685
0.00017729113 -0.22528291 0.0001652074 -0.36488086 0.21623416 0.27420226 -0.38464049 -0.2793407
0.14727667 0.4224577 -0.2130454 -0.23426601 0.30836472 -0.42340916 -0.2872154 -0.26637965
-0.20109537 0.10984613 0.35437372 0.29631096 -0.05091019 0.15651298 0.39318153 -0.10424278
0.27331176 0.3476605 -0.14393407 -0.28557682 0.045824908 -0.44985166 -0.3182267 -0.48764983
0.18883659 -0.41994926 -0.49011743 -0.3441655 0.24723364 0.00011683548 0.118639655 0.2834684
0.050691735 0.010690035 -0.4387198 -0.3965218 -0.1623741 0.2977666 0.15177135 0.11910636
-0.2498608 0.25700402 -0.1907714 -0.10311 0.40361616 0.2514129 0.26845437 -0.23490824
00000000: d8c6 9cbc 6b0f 8cbe 526f 763e 0bac 0abb
00000010: eba2 d03e bd37 cd3e 9b65 fe3e 16a7 8dbe
00000020: 2db8 d5be c974 343d e27e 48ba f0d4 643e
00000030: 2729 0e3f d34f d1be 43d5 193c 1500 3e3e
00000040: 2bd0 0dbf e10b 31be 38bc 873e ba61 a9bd
00000050: 3557 cb3e 10a1 d03e 7b5d 76be 1159 4f3e
00000060: 39a3 2d38 ce1a fbbd e39f bdbe 9190 85be
00000070: 4784 63be 3f05 de3e aeac b63e 5841 123e
00000080: ac1f 503e 6bd0 cfbd b722 c7be 73bd 133c
00000090: 4865 74be 0b96 313d e0e9 7ebe 1e3b 903e
000000a0: de1b e7bd 7ce7 b83e 455a a0be 2c41 afbe
000000b0: 7ed5 303e fc59 85be 992f 183e c071 643e
000000c0: 3d4c 8d3e 3d6e 8f3e 84ef f63d 8047 d43e
000000d0: 1f3f eb3e f5f9 7ebe 5eb7 8ebe effb 73bc
000000e0: b857 dc3e e521 0dbe 2c01 ce3e cbf0 acbe
000000f0: ce25 d93e 652e 46be 3094 cfbe 303b 9dbe
00000100: 7414 a23e dcfd 4cbe e049 7abe d24b 76bd
00000110: fa92 b7be 001c 4439 7c08 973e d158 e13d
00000120: 3ae7 3939 90b0 66be 863b 2d39 aad1 babe
00000130: 7d6c 5d3e 3d64 8c3e 99ef c4be bf05 8fbe
00000140: b2cf 163e 604c d83e 9328 5abe 6ee3 6fbe
00000150: fbe1 9d3e 16c9 d8be e60d 93be ea62 88be
00000160: f2eb 4dbe 02f7 e03d 7970 b53e 12b6 973e
00000170: 3487 50bd f044 203e 174f c93e 3d7d d5bd
00000180: 85ef 8b3e 8f00 b23e 7463 13be 2037 92be
00000190: e6b2 3b3d f552 e6be 9cee a2be 3dad f9be
000001a0: 615e 413e 9703 d7be acf0 fabe 7636 b0be
000001b0: d12a 7d3e 9205 f538 59f9 f23d c522 913e
000001c0: 23a2 4f3d 4225 2f3c e29f e0be e804 cbbe
000001d0: 6545 26be dd74 983e f369 1b3e 09ee f33d
000001e0: 82db 7fbe 0896 833e 9459 43be 562b d3bd
000001f0: c7a6 ce3e 31b9 803e da72 893e c98b 70be
