ball_data/model_3500.pth (torch_old, 853498 bytes, 13 tensors)

weight f4 [64, 1, 5, 5]
-0.064757146 0.025344947 0.028123729 0.013530615 0.051564872 -0.08493818 -0.08711501 0.11293877
0.054240834 0.077631116 -0.12974256 0.0002070198 -0.08341063 0.050651517 0.07582059 -0.17148449
-0.12660778 0.042441223 -0.06048868 0.054506574 0.033667523 -0.062212475 -0.010315224 -0.029729335
-0.006088515 0.14937377 -0.10609413 0.039794095 -0.044086304 0.008956462 0.10255622 0.05676667
-0.0800031 -0.10044677 0.062071234 0.09142394 0.027867984 -0.08788716 -0.041023836 -0.04668198
-0.076749235 0.040155962 0.0006067482 -0.02917009 0.06382381 0.016656524 0.08513243 2.2849651e-06
-0.05681722 0.01667308 0.091339886 0.026018493 -0.008314241 -0.093270354 0.0021888989 -0.03268891
0.12774023 0.10774773 -0.10685041 -0.07435945 0.040129803 0.07871786 0.036313362 -0.089125276
-0.009435129 0.03218367 -0.06086584 -0.07017511 0.05374626 -0.08860939 0.055090472 0.04389187
0.15411016 -0.047311284 0.053239737 -0.070630595 -0.08254802 0.011919304 -0.031736813 -0.11746822
0.03524421 -0.03070136 -0.01637285 -0.07821939 -0.12832431 -0.032524712 0.009535763 -0.0417171
-0.004257387 0.028352266 0.019273615 -0.05368714 -0.06379336 -0.011416368 -0.041641116 0.07027974
-0.061903834 0.09250462 0.05369597 -0.03742936 -0.049090706 -0.00869075 -0.0107286405 0.044540226
0.03814882 -0.04855334 -0.00080655614 0.044387512 -0.10537281 -0.053049404 -0.07144294 0.1788494
-0.005757438 -0.086567305 0.086255796 0.046348017 0.11537083 -0.085693605 -0.12507632 -0.047998134
-0.045564905 -0.032566447 -0.07426218 0.029313546 0.14143436 0.0778443 -0.00091331283 -0.093788445
0.019178363 -0.012080117 0.039326422 -0.0056717424 -0.06938836 0.058683164 0.04626458 -0.02902485
-0.02101221 0.11756651 0.12950324 0.023722893 -0.059336197 -0.18495904 -0.13329202 -0.057648934
-0.03971185 0.056002192 -0.075302154 0.057502203 0.10663784 -0.054254282 -0.06418636 0.012648325
-0.010801715 -0.06942303 0.010986256 0.008878198 0.054435477 0.009167596 0.067016385 0.09162756
0.023088465 -0.04152242 -0.022502238 0.09574098 0.019491041 -0.041545745 -0.0032605536 0.017681632
0.054096434 0.064310975 -0.12157206 -0.17607829 -0.08957644 -0.06684184 0.020354629 -0.06286705
0.071727216 -0.09917704 -0.06765644 -0.09334773 -0.09039163 -0.04942117 0.021526884 -0.022014592
0.07769422 0.091147244 0.10636367 0.025910957 0.11361871 -0.000605467 0.0024912287 0.055090833
0.041489832 -0.0048042894 0.043347463 -0.113914005 -0.011536915 -0.09056461 0.031298026 0.07711702
0.052163307 0.0800854 0.104892276 0.039750796 0.119523756 0.0079119485 -0.06712073 -0.045429923
-0.062054746 0.06425324 -0.07584865 -0.0101600345 -0.07061 -0.114890344 -0.046132114 -0.13626431
-0.09516103 -0.04803678 0.017852008 -0.0039540557 0.030566713 0.10976903 0.029896583 0.04578241
0.07162992 0.1084778 -0.03452945 0.12252878 0.15478897 0.03561291 0.04842721 -0.15859497
-0.0893484 -0.03934718 -0.0725 -0.01101004 -0.11897343 0.0013562237 0.02293838 0.022817817
0.10904515 -0.11167816 -0.07475508 0.063442245 0.0434796 0.048005342 -0.057626776 0.01087806
-0.03559806 -0.019396208 -0.08010832 -0.047242034 0.03626526 -0.009045023 -0.0425262 0.035424624
00000000: 659f 84bd 35a0 cf3c bc63 e63c 83af 5d3c
00000010: b035 533d 12f4 adbd 5b69 b2bd 714c e73d
00000020: a32b 5e3d 10fd 9e3d 3cdb 04be 7413 5939
00000030: 31d3 aabd f777 4f3d d347 9b3d a199 2fbe
00000040: 78a5 01be d9d6 2d3d fac2 77bd 4942 5f3d
00000050: f5e6 093d 82d2 7ebd 2f01 29bc ef8a f3bc
00000060: 2a82 c7bb 70f5 183e e147 d9bd 22ff 223d
00000070: d793 34bd 20be 123c ff08 d23d 2b84 683d
00000080: aad8 a3bd 09b7 cdbd 683e 7e3d 7a3c bb3d
00000090: 664b e43c 2ffe b3bd 9c08 28bd 9b35 3fbd
000000a0: b42e 9dbd 947a 243d 2f0e 1f3a 1df6 eebc
000000b0: 0fb6 823d 4373 883c e959 ae3d 6757 1936
000000c0: 2cb9 68bd fc95 883c 6810 bb3d bc24 d53c
000000d0: 7438 08bc 8704 bfbd a173 0f3b cee4 05bd
000000e0: 56ce 023e d8aa dc3d 63d4 dabd c449 98bd
000000f0: 265f 243d d436 a13d 52bd 143d 5087 b6bd
00000100: cd95 1abc 06d3 033d 764e 79bd f8b7 8fbd
00000110: 0a25 5c3d d778 b5bd 8ca6 613d f6c7 333d
00000120: 0ecf 1d3e 7ac9 41bd e911 5a3d c6a6 90bd
00000130: f00e a9bd 2f49 433c 76fe 01bd 2e93 f0bd
00000140: 3c5c 103d 6b81 fbbc 5b20 86bc 7d31 a0bd
00000150: 7367 03be a238 05bd e43b 1c3c 8ddf 2abd
00000160: 8d81 8bbb 0343 e83c b3e3 9d3c 0ce7 5bbd
00000170: 18a6 82bd b80b 3bbc e08f 2abd d3ee 8f3d
00000180: e08e 7dbd 1073 bd3d 4ef0 5b3d 874f 19bd
00000190: 5613 49bd a663 0ebc 2ec7 2fbc d06f 363d
000001a0: f041 1c3d dedf 46bd 116f 53ba aecf 353d
000001b0: b3cd d7bd 554a 59bd ad50 92bd 4c24 373e
000001c0: e4a8 bcbb 334a b1bd e1a6 b03d 6bd7 3d3d
000001d0: 8b47 ec3d 2180 afbd 0214 00be b199 44bd
000001e0: 44a2 3abd 6564 05bd c516 98bd f622 f03c
000001f0: 2bd4 103e d56c 9f3d 636b 6fba 2814 c0bd
00000200: f11b 9d3c afeb 45bc be14 213d 06da b9bb
00000210: 7c1b 8ebd c25d 703d ee7f 3d3d 86c5 edbc
00000220: cc21 acbc b6c6 f03d 7f9c 043e 8356 c23c
00000230: 830a 73bd e765 3dbe b47d 08be 4a21 6cbd
00000240: e5a8 22bd 8e62 653d 0438 9abd 6e87 6b3d
00000250: f164 da3d bd39 5ebd 2374 83bd ec3a 4f3c
00000260: adf9 30bc a92d 8ebd b3ff 333c dd75 113c
00000270: bcf7 5e3d af33 163c e33f 893d 3ba7 bb3d
00000280: 0524 bd3c 6a13 2abd 9d56 b8bc d913 c43d
00000290: adab 9f3c df2b 2abd 03af 55bb 12d9 903c
000002a0: 3994 5d3d 79b5 833d c6fa f8bd de4d 34be
000002b0: da73 b7bd 60e4 88bd c0be a63c 71c0 80bd
000002c0: b8e5 923d 551d cbbd 768f 8abd 182d bfbd
000002d0: 3f1f b9bd da6d 4abd 2659 b03c f257 b4bc
000002e0: 261e 9f3d 68ab ba3d 32d5 d93d 3743 d43c
000002f0: edb0 e83d 34b8 1eba e243 233b eda6 613d
00000300: 3ef1 293d 4d6d 9dbb 1c8d 313d bf4b e9bd
00000310: 5405 3dbc f079 b9bd 5c32 003d 87ef 9d3d
00000320: 31a9 553d d003 a43d c3d1 d63d bbd1 223d
00000330: dfc8 f43d 1ea1 013c 9876 89bd ba14 3abd
00000340: 1e2d 7ebd 3497 833d 8956 9bbd 4676 26bc
00000350: fa9b 90bd a14b ebbd 07f5 3cbd df88 0bbe
00000360: c9e3 c2bd 37c2 44bd 603e 923c 0691 81bb
00000370: 0b67 fa3c 96ce e03d aee9 f43c 5686 3b3d
00000380: b5b2 923d 9c29 de3d c16e 0dbd 5ef0 fa3d
00000390: 0081 1e3e d8de 113d 9c5b 463d b866 22be
000003a0: 4bfc b6bd 822a 21bd e17a 94bd 7463 34bc
000003b0: 57a8 f3bd 51c3 b13a 45e9 bb3c 6eec ba3c
000003c0: 1053 df3d 85b7 e4bd 3119 99bd 02ee 813d
000003d0: aa17 323d 40a1 443d 0e0a 6cbd e439 323c
000003e0: 45cf 11bd cce4 9ebc d50f a4bd dd80 41bd
000003f0: e28a 143d 9331 14bc f42f 2ebd 6919 113d

bias f4 [64]
-0.10611005 -0.01434364 -0.08720935 -0.15384981 -0.09080987 -0.042750064 -0.08255848 0.030455828
-0.06311835 -0.027219338 -0.05258435 -0.09478763 -0.122351475 -0.07870901 -0.13794442 -0.058215987
-0.10971084 -0.043861832 -0.12465091 -0.11021419 0.0028519316 -0.021833958 -0.16142237 -0.014942988
-0.07701806 0.03650058 -0.038209483 -0.15508029 -0.025290953 -0.15334734 -0.048451595 0.03382237
0.039183114 -0.07541535 -0.110398225 -0.00016549359 -0.16204324 -0.07645102 -0.16636083 -0.031615235
0.009028723 -0.059360903 0.016594602 -0.09509275 -0.05266794 -0.02063312 -0.20705308 -0.039491642
-0.094911374 -0.09342719 0.0637262 0.0053627696 -0.22174264 0.014288113 -0.102255814 -0.05202487
-0.04882272 -0.10044012 -0.008583773 -0.066262074 -0.16114439 0.0011046269 -0.115911976 -0.026301822
00000000: 3a50 d9bd 9601 6bbc d19a b2bd ce8a 1dbe
00000010: 86fa b9bd b11a 2fbd 6c14 a9bd 807e f93c
00000020: 3244 81bd 17fb debc b062 57bd 0420 c2bd
00000030: 6993 fabd 3032 a1bd 4d41 0dbe e373 6ebd
00000040: 14b0 e0bd 77a8 33bd fa48 ffbd fab7 e1bd
00000050: 79e7 3a3b 21dd b2bc e84b 25be 6fd3 74bc
00000060: a5bb 9dbd a281 153d 8c81 1cbd 5ecd 1ebe
00000070: f92e cfbc 1607 1dbe 2e75 46bd 5389 0a3d
00000080: 797e 203d 5d73 9abd 7718 e2bd 5988 2db9
00000090: aaee 25be 5a92 9cbd 7e5a 2abe fa7e 01bd
000000a0: 36ed 133c 6b24 73bd 67f1 873c fdbf c2bd
000000b0: 56ba 57bd ca06 a9bc b905 54be fdc1 21bd
000000c0: e560 c2bd c156 bfbd e282 823d 2cba af3b
000000d0: 8110 63be b118 6a3c 7f6b d1bd 0818 55bd
000000e0: 55fa 47bd 8db3 cdbd f4a2 0cbc 69b4 87bd
000000f0: 0903 25be 21c9 903a 4263 edbd eb76 d7bc

weight f4 [64]
0.4380903 0.54832023 0.37711692 0.55257314 0.4645672 0.49225187 0.15273693 0.67717546
0.6986953 0.5677869 0.52075535 0.7065639 0.42306876 0.6877139 0.14264235 0.5104712
0.48970178 0.019010276 0.7692818 0.060344484 0.60950065 0.6184623 0.02836841 0.710804
0.87107724 0.45371896 0.29024988 0.02990685 0.7447103 0.84581983 0.090481095 0.023799641
0.18513536 0.6742725 0.6256338 0.7818549 0.23812187 0.27655727 0.039879628 0.8035461
0.49077696 0.25349337 0.3454821 0.26592672 0.3797426 0.72868997 -0.07455334 0.69666445
0.2869188 0.6715872 0.48548386 0.36976102 0.33600682 0.11203785 0.41127545 0.641983
0.57036227 0.37666824 0.7118934 0.3368477 0.6171594 0.7050286 0.6161431 0.8528622
00000000: 5f4d e03e b75e 0c3f 7815 c13e 6f75 0d3f
00000010: c1db ed3e 7008 fc3e 1267 1c3e 5f5b 2d3f
00000020: b2dd 323f 7b5a 113f 3950 053f 5fe1 343f
00000030: 789c d83e 050e 303f d610 123e 3eae 023f
00000040: 31ba fa3e 70bb 9b3c a7ef 443f c72b 773d
00000050: 3c08 1c3f 8c53 1e3f de64 e83c 40f7 353f
00000060: ebfe 5e3f da4d e83e a29b 943e 36ff f43c
00000070: 56a5 3e3f a687 583f 274e b93d 77f7 c23c
00000080: 2094 3d3e 1f9d 2c3f 8929 203f a527 483f
00000090: 38d6 733e ea98 8d3e d258 233d 32b5 4d3f
000000a0: 1e47 fb3e e2c9 813e 08e3 b03e 8c27 883e
000000b0: 9f6d c23e 6d8b 3a3f 6caf 98bd 9a58 323f
000000c0: 05e7 923e 24ed 2b3f 5791 f83e 5151 bd3e
000000d0: 1609 ac3e 1a74 e53d b292 d23e ff58 243f
000000e0: 4303 123f a9da c03e a53e 363f 4d77 ac3e
000000f0: 29fe 1d3f c17c 343f 8ebb 1d3f 2d55 5a3f

bias f4 [64]
-0.0037175517 0.01748683 0.004603953 0.22678167 0.14516388 0.12374597 0.08471876 0.100504056
0.1823753 0.15070464 0.14200874 0.2679976 -0.011181298 0.055200104 0.30277565 0.04005805
0.20386983 -0.03739454 0.11428516 0.01721372 -0.06153279 0.17871875 -0.23758829 0.11205405
0.15271014 -0.13724226 0.11215796 -0.03276293 -0.152912 0.07351221 -0.055945218 -0.029005757
-0.028330984 0.0374958 -0.03662897 0.04843243 0.20272031 -0.05760426 -0.27687898 0.03420995
-0.034708094 -0.15618078 0.10430606 -0.10580658 0.18353507 -0.08211749 -0.37912557 0.26522252
-0.07617703 0.016987279 0.1268836 0.034038533 0.15196793 0.008290828 0.18070765 0.04614321
-0.02462059 0.025636004 0.18868238 -0.011118797 -0.12070555 0.12072554 0.0417077 0.031076498
00000000: 2ba2 73bb 8a40 8f3c c2dc 963b 7439 683e
00000010: d7a5 143e 876e fd3d 0781 ad3d 12d5 cd3d
00000020: 97c0 3a3e 5152 1a3e bd6a 113e fb36 893e
00000030: c331 37bc 8119 623d 6905 9b3e e913 243d
00000040: 41c3 503e 042b 19bd 570e ea3d ca03 8d3c
00000050: cf09 7cbd 0c02 373e 584a 73be 987c e53d
00000060: 0c60 1c3e 3c89 0cbe 13b3 e53d 6c32 06bd
00000070: f794 1cbe 928d 963d d026 65bd 7b9d edbc
00000080: 6116 e8bc 3295 193d 4208 16bd 1561 463d
00000090: ea95 4f3e 72f2 6bbd 15c3 8dbe bc1f 0c3d
000000a0: 132a 0ebd dbed 1fbe 6a9e d53d 1fb1 d8bd
000000b0: 9ef0 3b3e 372d a8bd bf1c c2be 3fcb 873e
000000c0: b402 9cbd e828 8b3c c6ed 013e fd6b 0b3d
000000d0: 7b9d 1b3e 41d6 073c 6d0b 393e aa00 3d3d
000000e0: 1fb1 c9bc 9902 d23c f435 413e 9d2b 36bc
000000f0: 7934 f7bd f43e f73d b1d5 2a3d 2494 fe3c

running_mean f4 [64]
0.039747026 0.022797944 0.018475838 0.042003874 0.005111272 0.016921058 0.025087053 0.045120288
0.02122707 0.017893383 0.010148742 0.007964116 0.0043501463 0.027372118 0.0016123999 0.014240839
0.002951775 0.013240115 0.0103567485 0.0002795926 0.040158864 0.015617601 0.028368907 0.041211292
0.016495686 0.08680582 0.007218177 0.0059426697 0.038399603 0.01598679 0.005671119 0.04136278
0.05371658 0.020350844 0.004100379 0.09127571 0.008547162 0.003816661 0.022692148 0.02893524
0.029522903 0.011597809 0.06593793 0.01958754 0.00626895 0.024751786 0.0013746314 0.010470248
0.02275365 0.02218687 0.08348805 0.033925235 0.019173905 0.027822081 0.0049543693 0.018590987
0.021659767 0.008192003 0.04332649 0.025682937 0.024782503 0.035556946 0.0019066198 0.027810046
00000000: c7cd 223d c1c2 ba3c a45a 973c 410c 2c3d
00000010: 757c a73b 089e 8a3c 5d83 cd3c 0dd0 383d
00000020: 64e4 ad3c 2595 923c e946 263c ec7b 023c
00000030: ac8b 8e3b 7e3b e03c 2a57 d33a 6852 693c
00000040: 9172 413b 11ed 583c 5aaf 293c 4996 9239
00000050: 9f7d 243d f7e0 7f3c e965 e83c 2ccd 283d
00000060: f621 873c 40c7 b13d 7586 ec3b baba c23b
00000070: e748 1d3d bbf6 823c cbd4 b93b 056c 293d
00000080: eb05 5c3d d0b6 a63c 795c 863b c2ee ba3d
00000090: 6509 0c3c f220 7a3b e2e4 b93c 9909 ed3c
000000a0: 04da f13c bd04 3e3c 770a 873d 0c76 a03c
000000b0: c46b cd3b 42c4 ca3c fa2c b43a 678b 2b3c
000000c0: dd65 ba3c 3dc1 b53c c8fb aa3d 30f5 0a3d
000000d0: 9812 9d3c 22eb e33c 4358 a23b 204c 983c
000000e0: d36f b13c c037 063c 1e77 313d 0665 d23c
000000f0: ad04 cb3c 29a4 113d 8be7 f93a e5d1 e33c

running_var f4 [64]
0.009191702 0.0031859402 0.0034105817 0.009375943 0.00062239036 0.002204287 0.004683696 0.004896805
0.0040727807 0.0026699237 0.001242917 0.0013383855 0.0007362324 0.005334921 0.00028469073 0.0018904959
0.00050112343 0.0012314679 0.0022198232 0.0001081736 0.0029934652 0.0016132263 0.0052819485 0.007901225
0.0024924322 0.024043338 0.0006134687 0.00080908055 0.0090561295 0.0028099697 0.0004925365 0.0023882517
0.0047213957 0.0034133517 0.00064308144 0.01353219 0.0015063252 0.00069142715 0.004806439 0.0049243895
0.0032034968 0.0014497761 0.009979386 0.0035318565 0.00060646405 0.0041609495 0.0004933455 0.0013050154
0.0041984012 0.0047104107 0.007963746 0.003686682 0.004205884 0.0018608145 0.00073164195 0.0029741493
0.0031524324 0.0008822086 0.004489858 0.0041465517 0.005344604 0.005530123 0.00036155235 0.0054257046
00000000: cb98 163c 35cb 503b 1184 5f3b 8e9d 193c
00000010: e927 233a cd75 103b b179 993b 6175 a03b
00000020: f674 853b e3f9 2e3b 60e9 a23a c46c af3a
00000030: b8ff 403a 90d0 ae3b 8b42 9539 84ca f73a
00000040: d35d 033a 3569 a13a 747a 113b 42db e238
00000050: 032e 443b e472 d33a 3214 ad3b 2474 013c
00000060: 1358 233b 89f6 c43c 30d1 203a 7a18 543a
00000070: 2960 143c 7827 383b 911d 013a 3784 1c3b
00000080: f0b5 9a3b 8ab2 5f3b 7794 283a 1eb6 5d3c
00000090: e36f c53a e440 353a 557f 9d3b c65c a13b
000000a0: c2f1 513b 6a06 be3a 9480 233c b876 673b
000000b0: 1dfb 1e3a 9358 883b db53 013a 0d0d ab3a
000000c0: be92 893b ca59 9a3b 5f7a 023c 439c 713b
000000d0: 83d1 893b 93e6 f33a a9cb 3f3a f2e9 423b
000000e0: 0a99 4e3b 0444 673a a91f 933b ccdf 873b
000000f0: ca21 af3b 0936 b53b bc8e bd39 1cca b13b

weight f4 [128, 64, 5, 5]
-9.2098344e-05 -0.003516809 0.0008415454 -0.0045980224 -0.00716299 -0.003205921 -0.0074196756 0.00059597817
-0.0031896548 -0.0063748206 -0.0007099179 -0.014080137 -0.010499756 -0.009176112 -0.010908009 -0.00757231
-0.012807758 -0.011184325 -0.011094718 -0.009520828 -0.015426264 -0.012442789 -0.006222474 -0.012545372
-0.011843066 0.0038175308 0.0062601403 -0.009550199 -0.010082666 -0.006164704 0.009883245 0.011088732
-0.0050652963 -6.845397e-05 -0.0039860546 0.010297149 0.001509769 -0.00863975 -0.0033819936 -0.009623094
-0.011997296 0.0038871542 -0.016397394 0.007356612 -0.007890798 -0.003861037 0.010215496 -0.007785256
-0.00060714345 -0.008284278 0.0048475973 0.0037441007 -0.0032091823 -0.008936531 0.002498193 0.007715981
0.008649706 0.0085454825 0.0027647158 0.0010969593 0.014190351 0.0057674926 0.00299888 0.010486613
-0.0007296612 0.010891804 0.006587801 0.0021309974 0.0074581676 0.005607536 -0.010595328 0.0070732166
0.004531165 -0.0008051884 -0.005114838 -0.0053500007 -0.009034304 -0.011871699 -0.011413891 -0.011595567
-0.0031957962 -0.0040986296 -0.0068533607 -0.011155556 -0.009603172 0.0012340976 -0.0025849347 -0.0013816967
-0.0034946331 -0.0075251446 -0.0060833157 -0.00076699833 0.00017486671 -0.00089232664 -4.468856e-05 -0.009285562
-0.0074631283 -0.0032093145 -0.0018006242 -0.0039782617 0.0050623496 -0.005494107 0.003970309 -0.0008519564
0.0046183188 0.001604575 0.0031433569 -0.0007377445 -0.00044579033 -0.0004853455 0.00051542826 -0.004580336
-0.014974025 -0.0012258424 -0.004618171 -0.0012673066 -0.015172603 0.0016598678 0.0026960135 -0.0033836965
-0.008111798 5.5383076e-05 0.0050421925 0.008153726 0.012613183 0.0008691073 -0.0019099859 0.0020900783
0.004618178 -0.000117262694 -0.00086967356 0.00024006031 -0.0019203074 -0.003469918 -0.014957482 -0.0038405212
-0.0074287327 -0.019208895 -0.015229843 -0.0073920214 -0.0038887213 0.011267248 -0.012552174 -0.00823439
-0.008583613 -0.0084998375 -0.0066833585 -0.017954933 0.006759342 -0.0059780334 0.0022081942 0.0024337468
0.0020951598 0.006131553 0.0037977165 -0.0010668404 0.00061381835 0.0042966823 0.0014501119 -0.001915875
-0.001145267 -0.0033913143 -0.0029271052 -0.003530194 0.00031389348 -0.0024111385 -0.00015822772 -0.0013003955
-0.0006928096 0.0013778125 0.0023178211 0.0013947203 0.004218593 0.00089125783 0.0019194571 0.013595999
0.0038074467 0.01228055 0.022275431 0.022664908 -0.0009756245 0.0017932385 -0.0015959518 -0.0123203965
-0.0012432047 0.0030852137 0.012527065 0.00740158 0.008221329 0.008601303 -0.0053142672 -0.007270445
-0.006793619 -0.01827025 -0.0065407883 0.0038628962 0.00046631764 0.0026155484 -0.0016372484 -0.005897645
0.014886379 0.0012963718 0.0018751048 -0.012709911 -0.0044415453 0.016352326 0.0038459653 0.0155355465
0.015457225 -0.00026750946 0.0010559838 0.007640203 -0.009095342 -0.01963784 -0.010749055 0.014274719
0.011050829 -0.003951991 -0.009711619 -0.0063709486 0.0077865086 0.0014424041 -0.011400316 0.002395697
0.0024027978 0.0007634275 0.009451221 0.0019877655 -0.006333061 -0.012033592 -0.010535395 0.0011920142
0.008399019 0.00013963948 0.0032395371 -0.001967343 0.0016670176 -0.009625221 -0.009288626 -0.0010072533
0.001190342 -0.005419508 -0.0015069684 -0.012658373 0.004039958 0.009163489 0.008416716 0.0066689746
0.018751698 0.008562468 0.002680754 0.013984224 -0.001849326 0.0059437575 0.008429433 0.0033698361
00000000: ec24 c1b8 447a 66bb 289b 5c3a 02ab 96bb
00000010: 84b7 eabb 6e1a 52bb c020 f3bb 6b3b 1c3a
00000020: 8709 51bb dfe3 d0bb c919 3aba 60b0 66bc
00000030: 2b07 2cbc 6757 16bc 81b7 32bc 2421 f8bb
00000040: a1d7 51bc 763e 37bc 9fc6 35bc 3ffd 1bbc
00000050: 71be 7cbc d7dc 4bbc e5e5 cbbb 1b8b 4dbc
00000060: 6b09 42bc 8a2f 7a3b dd21 cd3b 7078 1cbc
00000070: c431 25bc 4901 cabb 56ed 213c 83ad 353c
00000080: c9fa a5bb f28e 8fb8 739d 82bb 60b5 283c
00000090: 71e3 c53a bd8d 0dbc 70a4 5dbb 2faa 1dbc
000000a0: 4e90 44bc a0bf 7e3b d453 86bc bc0f f13b
000000b0: 6848 01bc 7409 7dbb e55e 273c 761b ffbb
000000c0: b528 1fba c8ba 07bc 98d8 9e3b 965f 753b
000000d0: 2551 52bb 876a 12bc b9b8 233b 57d6 fc3b
000000e0: 7fb7 0d3c 5a02 0c3c 3c30 353b d9c7 8f3a
000000f0: a57e 683c 3cfd bc3b dc88 443b 0bd0 2b3c
00000100: bc46 3fba 8973 323c 7bde d73b 34a8 0b3b
00000110: a563 f43b 6cbf b73b 0798 2dbc 71c6 e73b
00000120: 2b7a 943b 4713 53ba 5f9a a7bb 0f4f afbb
00000130: 9e04 14bc 8481 42bc 5401 3bbc 55fb 3dbc
00000140: 9070 51bb cc4d 86bb 2892 e0bb cbc5 36bc
00000150: 9f56 1dbc 72c1 a13a 0268 29bb 0c1a b5ba
00000160: 3706 65bb 7d95 f6bb 8d56 c7bb 6310 49ba
00000170: 6d5c 3739 07eb 69ba fa6f 3bb8 7822 18bc
00000180: 428d f4bb 5d53 52bb ec02 ecba 145c 82bb
00000190: 11e2 a53b e907 b4bb 5e19 823b d455 5fba
000001a0: 4455 973b 9a50 d23a c700 4e3b 3265 41ba
000001b0: f7b8 e9b9 f875 feb9 ce1d 073a a516 96bb
000001c0: 9d55 75bc 72ac a0ba 0754 97bb c11b a6ba
000001d0: 8296 78bc ec8f d93a 9aaf 303b 02c1 5dbb
000001e0: 59e7 04bc 204b 6838 fa38 a53b 3597 053c
000001f0: 86a7 4e3c ced4 633a 7e58 faba b2f9 083b
00000200: 1654 973b eeea f5b8 cefa 63ba b3b8 7b39
00000210: d3b2 fbba 9067 63bb 3a10 75bc 41b1 7bbb
00000220: ba6c f3bb f95b 9dbc 9786 79bc c538 f2bb
00000230: ebd9 7ebb 439a 383c a2a7 4dbc 89e9 06bc
00000240: 48a2 0cbc e742 0bbc 1300 dbbb 3916 93bc
00000250: 787d dd3b 61e3 c3bb 5ab7 103b 7f7f 1f3b
00000260: f34e 093b 32eb c83b 1ce3 783b 39d5 8bba
00000270: a7e8 203a 2fcb 8c3b ae11 be3a 191e fbba
00000280: c91c 96ba d040 5ebb add4 3fbb d45a 67bb
00000290: 1292 a439 3104 1ebb eee9 25b9 0872 aaba
000002a0: aa9d 35ba b797 b43a 96e6 173b 0ccf b63a
000002b0: 1f3c 8a3b 4da3 693a 4b96 fb3a c1c1 5e3c
000002c0: 5b86 793b 5c34 493c f77a b63c c2ab b93c
000002d0: 0dc1 7fba 190b eb3a 422f d1ba 7ddb 49bc
000002e0: 07f3 a2ba 4c31 4a3b 523e 4d3c f488 f23b
000002f0: c1b2 063c 7bec 0c3c 4e23 aebb ea3c eebb
00000300: 029d debb 7eab 95bc 1c54 d6bb a528 7d3b
00000310: 187c f439 9f69 2b3b f198 d6ba 0841 c1bb
00000320: 00e6 733c 05eb a93a 14c6 f53a 3b3d 50bc
00000330: 628a 91bb 50f5 853c 970c 7c3b ce88 7e3c
00000340: 4d40 7d3c 8340 8cb9 f068 8a3a ab5a fa3b
00000350: a104 15bc 89df a0bc ce1c 30bc 83e0 693c
00000360: 890e 353c b47f 81bb 7b1d 1fbc 64c3 d0bb
00000370: f825 ff3b 0d0f bd3a 64c8 3abc 2001 1d3b
00000380: 4278 1d3b c120 483a 4bd9 1a3c 2c45 023b
00000390: 9185 cfbb 8b28 45bc a69c 2cbc 5c3d 9c3a
000003a0: 0a9c 093c 306c 1239 6a4e 543b 8aee 00bb
000003b0: d47f da3a 1ab3 1dbc 522f 18bc d005 84ba
000003c0: 4005 9c3a 2196 b1bb 7885 c5ba 1165 4fbc
000003d0: a061 843b 7522 163c 44e6 093c 6a87 da3b
000003e0: 299d 993c 9849 0c3c 97af 2f3b 161e 653c
000003f0: 1565 f2ba dac3 c23b 9b1b 0a3c 78d8 5c3b

bias f4 [128]
0.0075031826 -0.046966955 -0.037042513 -0.0011077682 -0.08066696 -0.07472278 -0.07359541 -0.039086696
-0.034909002 -0.01040769 -0.0003644482 -0.06752967 -0.12685826 -0.058368802 -0.0069725034 -0.08911446
-0.052082546 -0.006658107 -0.061616987 -0.013073961 -0.15294947 -0.056383267 -0.055451352 -0.0032836676
-3.1779535e-08 0.0028882574 -0.048276998 -0.04398487 -0.0031620986 -0.0892844 -0.15101732 -0.01387165
-0.0030702746 -0.031612985 -0.00031406496 -0.0047411215 -0.05935723 -0.0011677924 -0.01845036 -0.074915305
-0.023537833 -0.1063456 -0.042401172 -0.012054206 -0.10672141 -0.02955217 -0.08108938 -0.14351085
-0.11401827 -0.06974872 -0.0028160186 -0.06071859 -0.1033906 -0.0024495039 0.023398055 -0.003069601
-0.07533113 0.0022849918 -0.1181325 -0.02514406 -0.07841781 -0.017195348 -0.029162582 -7.859267e-05
-0.13680361 -0.043653972 -0.024040753 -0.019490397 -0.05140856 0.0016934625 0.02350804 -0.10621279
-2.6557657e-07 -0.0345235 -0.00038880025 -0.05020409 -0.07561345 -0.07532284 -0.034197558 -0.0020293305
-0.06295655 -0.052951623 -0.037850443 0.02868818 -0.105184376 -0.029735839 -0.02574948 -0.091884226
0.0041052774 -0.041216902 0.0015402766 -0.18629849 -0.010324513 -0.040694166 0.018493095 0.005568487
-0.07634836 -0.06649591 -0.0049502715 -0.042538907 -0.030759582 -0.041553415 -0.011143808 -0.0677157
-0.12448965 -0.08362481 -0.02363224 -0.011420873 -0.0048554116 -0.00015863717 -0.0016402424 -0.005476928
-0.002593363 -0.0033373293 -0.060894664 -0.076919146 0.0044608237 -0.019043004 -0.042450603 -0.027210288
0.0070985546 -0.07454729 -0.04860284 -0.023533529 -0.104948625 -0.072382525 -0.032364547 0.0037567536
00000000: 42dd f53b 6c60 40bd e4b9 17bd 8832 91ba
00000010: b834 a5bd 4208 99bd 31b9 96bd 5f19 20bd
00000020: befc 0ebd 0485 2abc 6913 bfb9 ff4c 8abd
00000030: 22e7 01be 2014 6fbd 9979 e4bb a481 b6bd
00000040: 8254 55bd 402c dabb 1862 7cbd 2b34 56bc
00000050: c99e 1cbe 24f2 66bd f520 63bd cd32 57bb
00000060: f87d 08b3 eb48 3d3b 1abe 45bd 7b29 34bd
00000070: 363b 4fbb bdda b6bd 49a4 1abe eb45 63bc
00000080: a936 49bb 9e7c 01bd 16a9 a4b9 695b 9bbb
00000090: 9120 73bd 9c10 99ba 3625 97bc 326d 99bd
000000a0: 6ad2 c0bc b9cb d9bd daac 2dbd 017f 45bc
000000b0: c190 dabd 6417 f2bc 3012 a6bd 82f4 12be
000000c0: 6982 e9bd 6bd8 8ebd f48c 38bb 0eb4 78bd
000000d0: 73be d3bd db87 20bb 47ad bf3c 5c2b 49bb
000000e0: 3547 9abd cdbf 153b 74ef f1bd eafa cdbc
000000f0: 8499 a0bd 42dd 8cbc 5ee6 eebc 1ed2 a4b8
00000100: 3f16 0cbe 82ce 32bd 1df1 c4bc 53aa 9fbc
00000110: c891 52bd 2cf7 dd3a ef93 c03c 1786 d9bd
00000120: 9194 8eb4 8368 0dbd e3d7 cbb9 cea2 4dbd
00000130: 39db 9abd dc42 9abd bd12 0cbd 84fe 04bb
00000140: 5def 80bd cde3 58bd 1109 1bbd 7903 eb3c
00000150: e86a d7bd 9398 f3bc 93f0 d2bc cc2d bcbd
00000160: 9085 863b 0ed3 28bd 1be3 c93a 08c5 3ebe
00000170: 2528 29bc edae 26bd d57e 973c db77 b63b
00000180: 875c 9cbd 022f 88bd e335 a2bb 473d 2ebd
00000190: 85fb fbbc ea33 2abd 8594 36bc 87ae 8abd
000001a0: 6ef4 febd 7c43 abbd 6698 c1bc 9d1e 3bbc
000001b0: 251a 9fbb d757 26b9 67fd d6ba cd77 b3bb
000001c0: 69f5 29bb 18b7 5abb af6c 79bd c987 9dbd
000001d0: 1a2c 923b 1300 9cbc afe0 2dbd 1ce8 debc
000001e0: fe9a e83b 40ac 98bd c613 47bd 63c9 c0bc
000001f0: 4eef d6bd 4a3d 94bd b090 04bd de33 763b

weight f4 [128]
0.45115858 0.1707339 0.78830695 0.2288851 0.46870726 0.43375054 0.5437605 0.5854231
0.28117383 0.0864627 0.0029075926 0.17845228 0.16203927 0.29114857 0.106220886 0.7192685
0.95781314 0.006137851 0.5740379 0.11320141 0.5119955 0.20865642 0.3510068 0.042804927
2.1335953e-07 0.11537177 0.28464043 0.38767943 1.0793047e-05 0.3706191 0.38870275 0.08442658
-0.0023473615 0.36029208 0.7040857 0.29435015 0.7915177 0.19997656 0.20926389 0.74335855
0.13009423 0.7230069 0.12793662 0.12135945 0.5976836 0.26950473 0.55581075 0.9185532
0.90321845 0.336732 0.41635308 0.7053047 0.5786962 0.25506896 0.4697313 0.2011596
0.5657157 0.016391352 0.4548378 0.8884263 0.9295691 0.5330927 0.92659545 0.20552742
0.8783227 0.22811 0.4962297 0.30064553 0.67077875 0.24157876 0.7526854 0.5442348
4.0194827e-08 0.15370837 0.07993674 0.47815868 0.79505575 0.9114273 0.12933636 0.019928295
0.6415435 0.8873998 0.1601872 0.253807 0.8783606 0.66377354 0.28650534 0.7458505
0.39668074 0.80318296 0.8172527 0.9308206 0.28999722 0.81281626 0.8409174 0.6378224
0.6786061 0.46192077 -0.0015378582 0.13608155 0.54875535 0.6877552 0.85521394 0.75262004
0.84091145 0.87090343 0.69996446 0.71555054 6.973546e-05 0.0026062785 0.00061963394 -0.00079058134
0.11405899 0.07188494 0.28589812 0.18454327 0.2676363 0.70576996 0.33531994 0.75950307
0.44671583 0.6049353 0.6273575 0.27850655 0.3752016 0.7355999 0.61706424 0.7227139
00000000: 42fe e63e ded4 2e3e 7cce 493f db60 6a3e
00000010: 66fa ef3e 8d14 de3e e333 0b3f 4ade 153f
00000020: 04f6 8f3e 5b13 b13d 4f8d 3e3b 32bc 363e
00000030: 9fed 253e 6d11 953e 568a d93d fb21 383f
00000040: 3e33 753f 0720 c93b 26f4 123f 24d6 e73d
00000050: 2312 033f 07aa 553e 2ab7 b33e 3854 2f3d
00000060: d217 6534 0948 ec3d 64bc 913e eb7d c63e
00000070: c913 3537 c9c1 bd3e 0c04 c73e d8e7 ac3d
00000080: 31d6 19bb 3478 b83e f63e 343f 10b5 963e
00000090: e7a0 4a3f a8c6 4c3e 4649 563e bf4c 3e3f
000000a0: 6c37 053e fb16 393f d101 033e 4e8b f83d
000000b0: cb01 193f 86fc 893e 9d49 0e3f 4d26 6b3f
000000c0: 5339 673f 2368 ac3e 3b2c d53e d98e 343f
000000d0: 6f25 143f 6698 823e 9f80 f03e c8fc 4d3e
000000e0: bed2 103f 2847 863c 80e0 e83e e86f 633f
000000f0: 3ef8 6d3f c378 083f 5c35 6d3f c875 523e
00000100: c2d9 603f ab95 693e d211 fe3e 36ee 993e
00000110: 28b8 2b3f 6c60 773e feaf 403f f952 0b3f
00000120: aea2 2c33 ba65 1d3e e0b5 a33d 37d1 f43e
00000130: c688 4b3f 4d53 693f c070 043e aa40 a33c
00000140: 323c 243f a22c 633f 1d08 243e fef2 813e
00000150: 3edc 603f 10ed 293f d4b0 923e 0ff0 3e3f
00000160: bd19 cb3e 669d 4d3f 7937 513f 424a 6e3f
00000170: 847a 943e ba14 503f 5d46 573f 5448 233f
00000180: 21b9 2d3f e180 ec3e f591 c9ba f658 0b3e
00000190: 3b7b 0c3f ba10 303f 4def 5a3f b5ab 403f
000001a0: f945 573f 87f3 5e3f df30 333f 522e 373f
000001b0: f13e 9238 19ce 2a3b ee6e 223a 043f 4fba
000001c0: c297 e93d 6938 933d 3d61 923e e9f8 3c3e
000001d0: a007 893e 57ad 343f 0eaf ab3e cb6e 423f
000001e0: f0b7 e43e 0add 1a3f 809a 203f 6998 8e3e
000001f0: 6d1a c03e 4650 3c3f ecf7 1d3f c703 393f

bias f4 [128]
0.1083522 0.15523452 -0.13386573 0.09235024 -0.15010315 -0.15501018 -0.15710835 0.15917522
0.17025945 -0.10914272 0.005969317 -0.17186697 -0.17944491 0.17237902 -0.117071286 -0.14045195
0.16208287 0.17868297 -0.14566256 0.15510695 -0.16343884 -0.15168698 0.16837399 -0.1504376
-0.00019757183 0.15220629 0.17616998 0.17321534 0.2500627 -0.15754247 -0.21344644 -0.14033782
-0.22124027 0.14675196 0.15438122 -0.08632129 0.1817203 -0.1262688 0.15112396 -0.13717896
0.18152829 -0.1503712 0.17160265 0.16729195 -0.13991836 0.14912239 -0.13592471 -0.15683754
-0.15564609 -0.14859386 -0.12638398 -0.14881968 -0.14962071 0.1506159 0.14789174 0.11170942
-0.1552844 0.15982799 -0.1586578 0.14673749 -0.14638415 0.14397572 0.15287481 0.15259397
-0.16341463 0.16797337 0.15190743 0.11284052 0.155407 0.04540888 -0.14484823 -0.12869266
-0.0014651958 0.17279644 0.021158494 0.15608361 -0.12782696 -0.13825543 0.17679292 0.15909818
-0.124345094 -0.15247367 0.17789708 0.1431285 -0.14976579 0.15363412 0.16739751 0.17284648
0.14448938 -0.118237935 -0.14508486 -0.18634696 0.12279466 -0.12559864 -0.1486385 0.12777333
-0.1377617 -0.15683244 0.22326715 0.17575303 -0.106324114 0.15938787 0.1451584 0.16266884
-0.1667921 0.15978733 0.1660965 0.14776412 -0.2644901 -0.0042073303 -0.13614348 -0.18371741
-0.1319605 -0.06661316 0.16349883 0.17916748 0.14709151 -0.14307609 -0.13272944 -0.12245588
0.14406419 -0.1376641 0.1468277 0.16042025 -0.1646776 -0.1384664 -0.13840108 0.14277631
00000000: c2e7 dd3d ccf5 1e3e 1914 09be 1f22 bd3d
00000010: a4b4 19be fdba 1ebe 03e1 20be d4fe 223e
00000020: 7e58 2e3e 3886 dfbd 439a c33b e5fd 2fbe
00000030: 68c0 37be 2084 303e 12c3 efbd a3d2 0fbe
00000040: 0df9 253e abf8 363e 9128 15be 5bd4 1e3e
00000050: 835c 27be d553 1bbe 3b6a 2c3e 500c 1abe
00000060: 492b 4fb9 f7db 1b3e e765 343e 5d5f 313e
00000070: 3808 803e d052 21be b491 5abe b8b4 0fbe
00000080: cf8c 62be 2546 163e 1c16 1e3e 37c9 b0bd
00000090: e314 3a3e 9c4c 01be 3dc0 1a3e a478 0cbe
000000a0: 8de2 393e e8fa 19be 9bb8 2f3e 954e 2b3e
000000b0: c246 0fbe 8ab3 183e d92f 0bbe 059a 20be
000000c0: b061 1fbe fd28 18be cd6a 01be 3064 18be
000000d0: 2c36 19be 0e3b 1a3e ef70 173e e9c7 e43d
000000e0: e002 1fbe f3a9 233e 3177 22be 5a42 163e
000000f0: bae5 15be 5f6e 133e 378b 1c3e 9841 1c3e
00000100: 2a56 27be 3601 2c3e 9f8d 1b3e ee18 e73d
00000110: 0323 1f3e a9fe 393d 1853 14be 02c8 03be
00000120: d00b c0ba 8df1 303e 9454 ad3c 62d4 1f3e
00000130: 12e5 02be d592 0dbe 3409 353e a2ea 223e
00000140: a4a8 febd 0f22 1cbe a72a 363e 4790 123e
00000150: 345c 19be 4352 1d3e 416a 2b3e abfe 303e
00000160: 06f5 133e bb26 f2bd 2091 14be bdd1 3ebe
00000170: c47b fb3d ee9c 00be b134 18be 03d7 023e
00000180: 6711 0dbe af98 20be 25a0 643e 9af8 333e
00000190: 75c0 d9bd 9336 233e 67a4 143e a992 263e
000001a0: 8ccb 2abe 4a9f 233e 3315 2a3e 7a4f 173e
000001b0: 3f6b 87be a5dd 89bb 3269 0bbe 6b20 3cbe
000001c0: a720 07be 7b6c 88bd 3d6c 273e ae77 373e
000001d0: 289f 163e 8a82 12be 3aea 07be 26ca fabd
000001e0: 9085 133e d1f7 0cbe 005a 163e 3545 243e
000001f0: 3fa1 28be 23ca 0dbe 03b9 0dbe f433 123e

running_mean f4 [128]
0.40350342 0.034130603 0.04478874 0.1131773 -0.0037908119 0.084223 -0.0037736967 0.08350894
0.048407346 0.09116904 0.022003049 0.04779959 -0.023303073 0.14651401 0.15697296 0.053998828
0.050716307 0.06455353 0.08905044 0.18880259 -0.012807615 0.026189595 0.01334704 0.33591458
3.1037135e-07 0.31370547 0.032293938 0.104076706 0.14298855 -0.019950643 -0.008882277 0.25789684
0.19875701 0.09468949 0.21814972 0.28646016 0.14363383 0.3898702 0.22764277 0.044323232
0.11360775 0.010641891 0.12438949 0.27161512 -0.0069433814 0.14007133 0.043559887 -0.018727846
0.03450511 0.06675404 0.279929 0.006033864 0.0013073891 0.5165211 0.727699 0.14695673
0.008396883 0.14237513 -0.019596087 0.19190276 0.034911294 0.33759657 0.13397355 0.4387625
-0.022571743 0.18181808 0.15885174 0.27365047 0.09179488 0.12640342 0.38399532 -0.009877334
6.350941e-06 0.118273884 0.02498268 0.047808893 0.026066372 0.014140617 0.17123492 0.16467378
0.18553315 0.021615466 0.23219262 0.5811525 0.0083371755 0.090816386 0.25863048 -0.0015794472
0.24297912 0.077134825 0.050325274 -0.013226929 0.15954778 0.1568794 0.6009289 0.42514268
0.013516643 -0.029921472 0.024538347 0.25308666 0.2713455 0.057036057 0.45670202 0.03447223
0.006707013 0.036689106 0.03606087 0.11344879 0.05981092 5.538851e-05 0.05606903 0.07559587
0.21574277 0.19241016 0.10601419 0.04746877 0.37396914 0.09670678 -0.0041414853 0.27746922
0.5378 0.045589205 0.022518545 0.046045434 -0.021623656 0.052867085 0.3175799 0.547521
00000000: 0098 ce3e 88cc 0b3d 6674 373d 80c9 e73d
00000010: 456f 78bb 1c7d ac3d 2050 77bb bc06 ab3d
00000020: c846 463d d5b6 ba3d bd3f b43c 81c9 433d
00000030: 16e6 bebc c507 163e 85bd 203e e02d 5d3d
00000040: e7bb 4f3d a434 843d 1460 b63d 7755 413e
00000050: 08d7 51bc 908b d63c 8bad 5a3c fffc ab3e
00000060: 1da1 a634 019e a03e a646 043d 2b26 d53d
00000070: 976b 123e 886f a3bc f886 11bc 0e0b 843e
00000080: f586 4b3e 90ec c13d a462 5f3e e8aa 923e
00000090: bf14 133e 119d c73e 301b 693e 478c 353d
000000a0: 2eab e83d 535b 2e3c ebbf fe3d 2311 8b3e
000000b0: 4e85 e3bb dc6e 0f3e da6b 323d 246b 99bc
000000c0: 3b55 0d3d 58b6 883d db52 8f3e b8b7 c53b
000000d0: b35c ab3a ba3a 043f 7b4a 3a3f d37b 163e
000000e0: 1493 093c c9ca 113e f987 a0bc 2882 443e
000000f0: 25ff 0e3d 75d9 ac3e 5d30 093e 7aa5 e03e
00000100: 60e8 b8bc 852e 3a3e 08aa 223e ea1b 8c3e
00000110: f4fe bb3d e66f 013e 099b c43e 8bd4 21bc
00000120: 2b1a d536 9439 f23d 7aa8 cc3c 42d3 433d
00000130: 2589 d53c 0cae 673c 3558 2f3e 3ea0 283e
00000140: 67fc 3d3e eb12 b13c e7c3 6d3e 69c6 143f
00000150: a698 083c f1fd b93d 376b 843e 7405 cfba
00000160: 85cf 783e ddf8 9d3d e021 4e3d c3b5 58bc
00000170: 7e60 233e fea4 203e 7ad6 193f 4dac d93e
00000180: e974 5d3c e01d f5bc a504 c93c 9394 813e
00000190: cced 8a3e a49e 693d d9d4 e93e c132 0d3d
000001a0: 81c6 db3b 5147 163d 90b4 133d d757 e83d
000001b0: 4cfc 743d f650 6838 a4a8 653d 02d2 9a3d
000001c0: aceb 5c3e 2b07 453e f81d d93d 9d6e 423d
000001d0: e278 bf3e 340e c63d 4cb5 87bb 7210 8e3e
000001e0: 43ad 093f bfbb 3a3d d078 b83c 239a 3c3d
000001f0: 1824 b1bc 288b 583d d599 a23e 562a 0c3f

running_var f4 [128]
0.4815264 0.05916755 0.121698566 0.099663325 0.04123004 0.1999959 0.04357503 0.10963487
0.07538375 0.04479222 0.0023624033 0.056823682 0.0089871455 0.27085957 0.110471494 0.1545869
0.14994109 0.04818586 0.19255692 0.17253044 0.02062218 0.05935505 0.044328522 0.41664138
4.3228515e-13 0.38992694 0.080184236 0.19141737 0.104438916 0.014447028 0.02904408 0.40776297
0.12975702 0.13308507 0.48530227 0.34235913 0.33796367 0.46790966 0.41121942 0.11524571
0.12834384 0.06731858 0.18730454 0.27805552 0.028617194 0.2322381 0.10305924 0.021163488
0.08922022 0.10592223 0.35423478 0.039301954 0.044881072 0.692698 1.266651 0.113055944
0.075949214 0.095845275 0.02618419 0.42979363 0.12044201 0.2527046 0.2666602 0.8382504
0.012986206 0.2660588 0.18426567 0.42574874 0.19077528 0.06666144 0.33505175 0.023003004
8.8609425e-11 0.16275108 0.0019755044 0.105177835 0.05782385 0.101740934 0.2987197 0.17737064
0.43678057 0.06758897 0.40902925 1.0918043 0.051084995 0.21071911 0.23483445 0.037555482
0.3436166 0.15184055 0.123219304 0.02570383 0.21136232 0.33605802 0.52547807 0.67889124
0.06471399 0.0069445423 0.0056893 0.2077472 0.45698053 0.1452283 0.7397366 0.11440026
0.05829998 0.14403203 0.09560204 0.20627941 0.02297053 1.2041312e-07 0.010487197 0.034559518
0.21876928 0.10656916 0.10403133 0.1446756 0.48936117 0.17336364 0.008403788 0.6896643
1.0455922 0.15988043 0.06331231 0.0536473 0.012017615 0.19649266 0.6974503 0.9534572
00000000: a18a f63e ac59 723d 193d f93d 491c cc3d
00000010: d5e0 283d bacb 4c3e bb7b 323d 3f88 e03d
00000020: cc62 9a3d 0c78 373d 8dd2 1a3b f3bf 683d
00000030: d23e 133c 1bae 8a3e e13e e23d 074c 1e3e
00000040: 288a 193e 895e 453d a42d 453e d2ab 303e
00000050: d9ef a83c 481e 733d d391 353d 0552 d53e
00000060: db5a f32a 81a4 c73e a237 a43d ea02 443e
00000070: 12e4 d53d 3ab3 6c3c daed ed3c 4fc6 d03e
00000080: 06df 043e 7447 083e 8a79 f83e b249 af3e
00000090: 9309 ad3e db91 ef3e 5a8b d23e f105 ec3d
000000a0: 916c 033e 53de 893d c3cc 3f3e 4b5d 8e3e
000000b0: 9b6e ea3c d3cf 6d3e b910 d33d 0d5f ad3c
000000c0: 17b9 b63d c1ed d83d 435e b53e 16fb 203d
000000d0: 37d5 373d a854 313f 9f21 a23f e089 e73d
000000e0: 438b 9b3d 874a c43d 3a80 d63c e90d dc3e
000000f0: 4daa f63d 7f62 813e b087 883e 9497 563f
00000100: 19c4 543c dc38 883e 24b0 3c3e bdfb d93e
00000110: 985a 433e cb85 883d e78b ab3e cc70 bc3c
00000120: acda c22e 38a8 263e 7777 013b 7a67 d73d
00000130: b4d8 6c3d 8d5d d03d caf1 983e a6a0 353e
00000140: b4a1 df3e 166c 8a3d 486c d13e 3ec0 8b3f
00000150: 803e 513d c0c6 573e 7178 703e c7d3 193d
00000160: 84ee af3e 177c 1b3e 675a fc3d d790 d23c
00000170: 5d6f 583e cc0f ac3e bb85 063f d1cb 2d3f
00000180: c588 843d 0b8f e33b 4f6d ba3b afbb 543e
00000190: 5af9 e93e bab6 143e 615f 3d3f af4a ea3d
000001a0: f6cb 6e3d 227d 133e 01cb c33d e93a 533e
000001b0: b12c bc3c e84a 0134 7ed2 2b3c 488e 0d3d
000001c0: 0e05 603e ef40 da3d 610e d53d d725 143e
000001d0: 8c8d fa3e 3d86 313e 0bb0 093c d78d 303f
000001e0: f7d5 853f b2b7 233e e2a9 813d 45bd 5b3d
000001f0: 88e5 443c 5f35 493e 1a8c 323f c515 743f

weight f4 [1, 128, 1, 1]
-0.048411906 -0.2978862 0.21384329 -0.023652585 0.3619669 0.39114335 0.46494138 -0.27921298
-0.42984077 0.061114084 -0.0049439273 0.2491305 0.57218874 -0.4171878 0.027198076 0.16533774
-0.49956244 -0.19064681 0.25766063 -0.09797209 0.3634549 0.3806873 -0.21358344 0.25329533
0.00011587373 -0.15593319 -0.35631147 -0.25650954 -0.23758432 0.3954367 0.33158213 0.19415155
0.22041929 -0.103080794 -0.3890053 0.035573997 -0.20072326 0.076496586 -0.29530048 0.27167732
-0.13903494 0.32979417 -0.36574048 -0.4054096 0.13504367 -0.27192473 0.13298284 0.17948002
0.25101835 0.27964953 0.1411937 0.38654077 0.40758342 -0.27950716 -0.2975338 -0.04849809
0.39419848 -0.15077075 0.36966783 -0.3093878 0.38080043 -0.19734973 -0.37573683 -0.34609896
0.2719171 -0.22748299 -0.24340542 -0.072908685 -0.33531097 -0.00641689 0.28702056 0.107613154
0.0002449534 -0.27230552 -0.000108631204 -0.35795313 0.17538105 0.2513335 -0.46040472 -0.3251235
0.14420764 0.36691132 -0.25726095 -0.2711831 0.2663545 -0.42995328 -0.32008484 -0.2227687
-0.20722567 0.1133489 0.3371861 0.25459972 -0.07239941 0.1534595 0.3713693 -0.114768386
0.25660244 0.32959482 -0.14852765 -0.34605873 0.06457271 -0.43148005 -0.32215142 -0.43338853
0.16080366 -0.39065826 -0.44754893 -0.3165098 0.26411122 7.160504e-05 0.13311876 0.33034754
0.071956225 0.019699398 -0.4255912 -0.45265102 -0.1911832 0.2817726 0.15007147 0.12492518
-0.27765152 0.2522466 -0.18525277 -0.12196313 0.3495476 0.24143158 0.2755994 -0.23652607
00000000: 904b 46bd 8a84 98be bcf9 5a3e 11c3 c1bc
00000010: ba53 b93e f143 c83e cc0c ee3e 01f5 8ebe
00000020: 1714 dcbe c352 7a3d ab00 a2bb 111c 7f3e
00000030: f67a 123f a499 d5be 80ce de3c 4c4e 293e
00000040: a6c6 ffbe eb38 43be 18ec 833e 97a5 c8bd
00000050: c316 ba3e 72e9 c23e 9eb5 5abe edaf 813e
00000060: 3c01 f338 f3ac 1fbe 756e b6be 3855 83be
00000070: 4e49 73be ae76 ca3e 22c5 a93e aacf 463e
00000080: 98b5 613e 061c d3bd b42b c7be 0ab6 113d
00000090: 668a 4dbe 3eaa 9c3d a031 97be 4a19 8b3e
000000a0: 2d5f 0ebe c8da a83e 5642 bbbe d991 cfbe
000000b0: e348 0a3e b839 8bbe a72c 083e 9cc9 373e
000000c0: 7a85 803e 392e 8f3e 1595 103e ace8 c53e
000000d0: c6ae d03e 901b 8fbe 5a56 98be efa5 46bd
000000e0: 62d4 c93e a663 1abe 1a45 bd3e 1468 9ebe
000000f0: 46f8 c23e 0c16 4abe 9460 c0be e233 b1be
00000100: b838 8b3e 4df1 68be 453f 79be 2651 95bd
00000110: e1ad abbe c644 d2bb 5cf4 923e 4964 dc3d
00000120: 176d 8039 a16b 8bbe efd0 e3b8 a245 b7be
00000130: 1797 333e c9ae 803e 2bba ebbe 9676 a6be
00000140: 2bab 133e cddb bb3e b5b7 83be 83d8 8abe
00000150: 9e5f 883e d622 dcbe 29e2 a3be 7a1d 64be
00000160: f732 54be 7823 e83d a8a3 ac3e e55a 823e
00000170: 2446 94bd 7d24 1d3e 1e24 be3e b00b ebbd
00000180: 6561 833e a7c0 a83e a217 18be 9c2e b1be
00000190: b23e 843d f4ea dcbe 08f1 a4be 1ae5 ddbe
000001a0: b7a9 243e 5c04 c8be 2225 e5be 930d a2be
000001b0: 9639 873e aa2a 9638 4950 083e 5023 a93e
000001c0: c95d 933d a260 a13c 17e7 d9be e0c1 e7be
000001d0: 87c5 43be 8044 903e 56ac 193e c6d8 ff3d
000001e0: 5728 8ebe 7726 813e e7b2 3dbe cec7 f9bd
000001f0: e7f7 b23e d739 773e 5d1b 8d3e e433 72be
