ball_data/model_4000.pth (torch_old, 853498 bytes, 13 tensors)

weight f4 [64, 1, 5, 5]
00000000: 434d 81bd bab6 cf3c 4dff 0a3d a0e2 b83c
00000010: b333 553d 5606 b0bd 537f b2bd d614 ee3d
00000020: 938b 783d 7983 a43d 1140 05be 0244 a8bb
00000030: 4685 a8bd f700 643d 0717 9f3d 8622 39be
00000040: fb70 07be 8c2f 2f3d 86b2 49bd e65b 653d
00000050: 7618 073d 06b7 88bd 8f0b ddbb a09f 9abc
00000060: 148b e73b a7cc 1f3e 86a0 e0bd 4227 263d
00000070: ac4b 39bd 6c3c 043c d716 d83d 82ae 573d
00000080: 9254 aebd 58a9 cebd 2811 8c3d b8ab b53d
00000090: c617 e33c c001 c4bd c8bd 25bd 7cc7 1fbd
000000a0: 0c3f adbd ab20 163d 212e 90ba 8c7e e9bc
000000b0: 74ac 923d 1f3f 973c 4abc ad3d a3de 12bb
000000c0: 601c 70bd 4d54 9d3c b8be cf3d 40bc fa3c
000000d0: 3113 f9bb 4ddd c9bd 8645 21bb d21c 0abd
000000e0: a4e2 f93d abc8 d83d e759 f0bd d7d5 9abd
000000f0: 5d3d 303d 1114 9b3d 749a 103d f1a4 bdbd
00000100: 9232 b7bb 3fa3 a43c 1e2a 96bd 60c8 9fbd
00000110: 3d9d 263d 8279 b4bd 1118 3c3d a81d 143d
00000120: eb10 203e 32be 56bd e0ff 553d 693f 9dbd
00000130: f0ac aabd c85c d73c 5b34 13bd ba73 06be
00000140: 0f06 343d 4017 f1bc fe90 d1bb db8f 81bd
00000150: 21d9 05be 26bd 0dbd 675f cb3a b577 50bd
00000160: 59f5 36bc ac85 cf3c 5c0a cf3b 343a 8fbd
00000170: 8142 91bd dd8f b5bc 4c90 73bd e220 8b3d
00000180: 2efc 87bd 89cb b73d 013c 4c3d eca9 1bbd
00000190: a985 2ebd c290 adba c62e bcba bb7e 6f3d
000001a0: 09c1 613d 8182 3abd 7db1 1f3c d7be 603d
000001b0: 2cb1 c7bd b446 3dbd 931f 89bd 986e 453e
000001c0: 5fdf 253c b1f7 babd d256 b43d ae21 043d
000001d0: 49ee dd3d 4cdd bcbd 3795 0cbe bdeb 68bd
000001e0: 47c6 73bd bc66 2fbd aa91 a4bd 34a6 b93c
000001f0: cf9a 0d3e 9c4e a43d e67b e03b f68a acbd
00000200: 19c4 0a3d 5bbb efbb aa61 323d 51a5 1fbb
00000210: 25d5 88bd b967 923d 8222 513d afed fbbc
00000220: d6cb d1bc 60fd f23d e280 0d3e 10cb de3c
00000230: 3c4a 86bd 0cb1 42be f49a 09be 4626 4ebd
00000240: 143b 34bd 99d1 833d d5d3 81bd fe6d 883d
00000250: 1c61 ed3d 8b9b 57bd 8e98 97bd 5cbe 4c3c
00000260: e73c 39bb d734 6fbd d282 5c3c 0a9d 5fbb
00000270: 84cf 743d 4e86 c23c 9b8a 9d3d d135 be3d
00000280: 8b63 8b3c 706b 1bbd 3ddf a2bc d6ad d43d
00000290: f3b5 a23c e10e 08bd 1683 ba3b 788c 733c
000002a0: 0a9c 693d 3d9a 6d3d 9b25 efbd f8d5 2dbe
000002b0: 6cae a4bd caf0 4ebd 848b fc3c 3079 69bd
000002c0: cc1c 923d 06e5 cfbd 2df0 a5bd 7d71 c6bd
000002d0: 264d adbd 7af8 38bd 6e01 b33c 8c15 abbc
000002e0: e43a b13d 4476 cc3d d9c3 fe3d 8355 133d
000002f0: 4db1 ed3d 9b3f 853a e06e 0f3c f8a3 933d
00000300: 3653 2c3d b981 38bc 5164 073d ba01 efbd
00000310: a755 25bc 108b cdbd 91d7 b23c dc91 853d
00000320: 90ec 553d b0d4 b23d 8cff d43d 0bd1 213d
00000330: 2b4e e93d b38c f23b 6146 7dbd beee 49bd
00000340: 66ae 82bd 8f33 733d a6ce 95bd 70ca c8bb
00000350: 1603 91bd d592 ebbd 5e6b 4fbd a759 0ebe
00000360: 83c8 c5bd 23fa 39bd d3ec b03c 1795 24ba
00000370: 3479 1f3d 4261 e23d a4c5 0b3d ee5d 443d
00000380: ba82 a73d c48b d13d 30c7 2fbd 01e7 fd3d
00000390: fdd6 263e b14f 233d 23d9 2a3d cd8d 2ebe
000003a0: 1cf3 afbd 8bb0 08bd c896 8dbd d068 8fbc
000003b0: 28f7 02be 1000 d9b7 4325 cf3c b58e b33c
000003c0: 1a84 eb3d 2712 f1bd 6fc3 90bd ac23 8a3d
000003d0: ea5d 3e3d 24f5 533d d3af 57bd 9f96 453c
000003e0: d703 0cbd db78 65bc f696 a7bd 6557 53bd
000003f0: 1281 053d 7826 85bb 8597 0cbd e6a1 013d
-0.06313565 0.025355686 0.03393488 0.022569 0.052051257 -0.085949585 -0.087156914 0.11625068
0.060679983 0.08032889 -0.1301272 -0.0051350603 -0.08228545 0.055664983 0.07768064 -0.18079576
-0.13226692 0.042769954 -0.04924252 0.055995844 0.032982312 -0.06675534 -0.0067457627 -0.018874943
0.00706614 0.15605412 -0.109681174 0.040564783 -0.045238182 0.008071046 0.10551231 0.052656658
-0.08512224 -0.100908935 0.0683921 0.088706434 0.027721297 -0.09570646 -0.040464193 -0.039008602
-0.08459291 0.03665225 -0.0011000076 -0.028502725 0.07161799 0.018462716 0.08483179 -0.0022410534
-0.05862081 0.019205237 0.101437986 0.030607343 -0.0076011647 -0.09856663 -0.002460809 -0.03371889
0.122014314 0.105851494 -0.117358975 -0.07560318 0.04302727 0.07572187 0.035303548 -0.09259976
-0.0055907452 0.020097373 -0.07332252 -0.078018904 0.040677298 -0.08812238 0.04592139 0.036161095
0.15631454 -0.052427478 0.052245975 -0.0767811 -0.083337665 0.026289359 -0.035938602 -0.13130084
0.04395109 -0.029430032 -0.0063954582 -0.063262664 -0.1307111 -0.034604214 0.0015516103 -0.05089541
-0.011166894 0.025332294 0.0063183736 -0.06993523 -0.07092763 -0.022163326 -0.059463784 0.06793381
-0.06639896 0.08974368 0.04986191 -0.038003847 -0.042607937 -0.0013241994 -0.0014357201 0.05847047
0.055115733 -0.045534614 0.009746906 0.0548695 -0.0975059 -0.046210006 -0.066954754 0.1928047
0.010124057 -0.09129275 0.08805622 0.032258682 0.10836465 -0.092218965 -0.13728796 -0.056865443
-0.059515264 -0.042822585 -0.08035596 0.02266226 0.13828586 0.08022806 0.0068507073 -0.08424942
0.03387842 -0.0073160357 0.04355017 -0.002436001 -0.06681279 0.0714869 0.0510583 -0.030752985
-0.025609892 0.11864734 0.13818696 0.027196437 -0.06557128 -0.1901285 -0.13438016 -0.05032947
-0.044001654 0.06436462 -0.06339232 0.06661604 0.11590788 -0.05263857 -0.07402144 0.012496557
-0.002826506 -0.0584 0.013458924 -0.0034120702 0.059768215 0.023745682 0.076924525 0.092876084
0.01701524 -0.037944257 -0.019881839 0.10384719 0.01986215 -0.033217315 0.005691896 0.014865033
0.057033576 0.05800842 -0.116770945 -0.16976154 -0.08041081 -0.050522603 0.030828245 -0.05700034
0.07134399 -0.10151105 -0.081024505 -0.09689615 -0.084619805 -0.04515884 0.021851268 -0.020884298
0.086538106 0.09983495 0.12439699 0.035970222 0.11606083 0.0010166051 0.008754462 0.07209009
0.042071544 -0.011261397 0.033054654 -0.11670251 -0.010091222 -0.1003629 0.021831306 0.06521961
0.052227557 0.08731973 0.10400304 0.039506 0.113918625 0.0074020266 -0.061834697 -0.049299948
-0.0638092 0.059375342 -0.07314806 -0.006127648 -0.07080667 -0.11502615 -0.050639503 -0.13901387
-0.09657385 -0.045404565 0.021597302 -0.00062783196 0.038933948 0.11053707 0.03412403 0.04794114
0.08179231 0.10231736 -0.04291457 0.12397576 0.16292949 0.03987092 0.041710984 -0.1704628
-0.08591291 -0.03337149 -0.06913525 -0.017506033 -0.12789595 -2.5868445e-05 0.025286322 0.021918634
0.11499806 -0.117710404 -0.07068526 0.06745085 0.046476282 0.051747456 -0.052657913 0.012059837
-0.03418335 -0.014005865 -0.081830904 -0.051597018 0.032593794 -0.0040634237 -0.034324188 0.03164854

bias f4 [64]
00000000: c84a dcbd 74fd 67bc a1ca afbd de44 17be
00000010: ad28 adbd 15a2 35bd 182f bfbd 1911 ed3c
00000020: 94ec acbd e738 b4bc f465 88bd 5629 eabd
00000030: ce06 f8bd 1791 c9bd e621 09be 947b 5cbd
00000040: d2d9 e5bd 5e5b 2dbd 006d f0bd 0ec4 d3bd
00000050: 3031 16bc 974d debc 35ab 1cbe 3e11 84bb
00000060: 95be 98bd 9dbe 183d d181 27bd 614c 15be
00000070: e1ff b7bc c783 2bbe 55e0 87bd abb2 023d
00000080: ffff e93c 5e73 95bd d639 dfbd 51b7 693b
00000090: 3b39 2dbe 4beb 9bbd 2339 2abe cf7b a0bc
000000a0: 0b8b ba3c ec99 9bbd eccc 793c d3aa b2bd
000000b0: 066f 7ebd cd99 d4bc 64b5 5cbe 1198 43bd
000000c0: 5790 d3bd 4526 c4bd a69f 6f3d 5f9e 713b
000000d0: debc 66be 1cb2 d73c a662 c9bd 2593 2bbd
000000e0: efd0 77bd 1f88 babd e196 c5bb a4f5 b6bd
000000f0: 7bd3 41be 1ba5 be3a b5c1 ccbd 5041 9dbc
-0.10756451 -0.014159549 -0.0858357 -0.14772364 -0.08455024 -0.044344027 -0.09335154 0.028938817
-0.08443561 -0.02199979 -0.06660071 -0.114336655 -0.12110673 -0.09842127 -0.13391837 -0.05382879
-0.112231866 -0.042323463 -0.1173954 -0.10340129 -0.009167001 -0.027136607 -0.15299685 -0.0040303757
-0.07458226 0.037291158 -0.040895287 -0.14579917 -0.02246088 -0.16749488 -0.06634585 0.031908672
0.028564451 -0.07297395 -0.10899703 0.0035662244 -0.16916363 -0.07613238 -0.16623358 -0.019590287
0.022771379 -0.07597718 0.015246611 -0.087239884 -0.0621176 -0.025952244 -0.2155357 -0.047752444
-0.10330265 -0.09577612 0.058501862 0.0036868078 -0.22532985 0.026330046 -0.09833269 -0.041888375
-0.06050199 -0.09107994 -0.006029949 -0.08933571 -0.1892833 0.0014545055 -0.09997884 -0.019196182

weight f4 [64]
00000000: 98c3 db3e deaa 063f f1f1 b73e 27d4 083f
00000010: 68fc eb3e 2c45 fc3e 5c8c 103e e842 233f
00000020: 7c3d 333f d364 113f 7f72 053f 5f27 373f
00000030: b958 de3e 1e95 283f 9f3a 273e 7f39 003f
00000040: dd03 fb3e e78a 023c 4d2d 463f e00b ae3d
00000050: aafb 153f 9a15 183f 6f1b ad3c e11a 333f
00000060: dcb2 5d3f 8b68 d43e 8793 943e 4d6e a03c
00000070: 5e36 363f dfc5 573f 4afb a33d c6a4 903b
00000080: 09e0 1c3e ba84 263f e508 183f f6cf 403f
00000090: 25e0 843e 55bb 883e 2054 143d 66cb 4b3f
000000a0: 595b f53e f627 7f3e 166d a53e e3e9 823e
000000b0: 8768 c53e f48d 363f e3f1 a4bd f516 353f
000000c0: 6b59 8f3e d86d 293f 6445 ec3e 978f bd3e
000000d0: 7bb8 b23e 160c c93d 352f de3e e5b7 1a3f
000000e0: d6ab 083f 1a76 bc3e 23fa 363f 1eb4 aa3e
000000f0: 96c2 193f ed44 303f 862e 183f b150 573f
0.42922664 0.5260447 0.35926774 0.5344872 0.46091008 0.49271524 0.14116043 0.63773966
0.7001569 0.5679447 0.5212783 0.7154445 0.43427065 0.65852535 0.16330956 0.5008773
0.49026385 0.007967687 0.77412874 0.08498359 0.58587134 0.5940796 0.021131245 0.6996289
0.8660104 0.4148601 0.29018804 0.019583846 0.7117671 0.842863 0.08006914 0.004414174
0.15319838 0.65046275 0.5938857 0.75317323 0.2595226 0.26705423 0.03621304 0.79607236
0.47921255 0.24917588 0.32309788 0.25569066 0.3855631 0.71310353 -0.08053949 0.70738155
0.27997908 0.66183233 0.4614669 0.37023613 0.34906372 0.09816758 0.4339539 0.6043685
0.533872 0.36808854 0.7147543 0.33340544 0.6006254 0.6885517 0.5944599 0.841075

bias f4 [64]
00000000: ed1c 823b 4704 173d 1e50 c33c 5384 703e
00000010: 8e41 173e 49ee 013e c2ee a43d b5d9 e33d
00000020: db2b 453e a78f 263e cc41 233e 944b 903e
00000030: c1ed 183b 29f5 8a3d e65d 9d3e 4eb1 573d
00000040: aabc 593e 6f5c bdbc 243a 0b3e dbf2 813c
00000050: 775b 89bd 1acf 443e 5bed 6cbe 8e6e f53d
00000060: 213f 213e 9bef 04be fc1f e53d f141 a4bc
00000070: e09a 15be 1940 b13d 4d64 2bbd 913b 7fbc
00000080: 5336 f6bc b136 6e3d 65ad 94bc c55d 4e3d
00000090: 86a0 4d3e 20d8 56bd 8e7a 8dbe e8ab 3c3d
000000a0: d707 0ebd 55ee 19be 201e d93d 4d3d cdbd
000000b0: 5bc7 3f3e 8741 81bd f718 c6be 6bfb 8c3e
000000c0: 794b 54bd 13d7 dd3c 9eda 0a3e d61d 2b3d
000000d0: be9b 1c3e aa80 b53b 632a 3e3e bb20 843d
000000e0: 76c5 15bc 66b9 af3c 6e0b 4d3e f4a0 debb
000000f0: b385 edbd c091 093e 59f7 653d 6ee9 273d
0.0039707334 0.036869314 0.023841914 0.23487978 0.14771101 0.12688555 0.08053352 0.11125509
0.19255011 0.16265737 0.15943068 0.28182662 0.0023335072 0.06785042 0.307357 0.052659325
0.21263376 -0.023115365 0.13596398 0.015862873 -0.06706899 0.19219628 -0.23137419 0.11983977
0.15746738 -0.12982027 0.11187741 -0.020050975 -0.14609861 0.08654804 -0.0418437 -0.015578167
-0.0300552 0.058157627 -0.018149087 0.050382394 0.20080766 -0.052452207 -0.27632564 0.04606238
-0.034675445 -0.15032323 0.10601449 -0.10021458 0.18728392 -0.063113265 -0.38690922 0.27535567
-0.05182979 0.027080094 0.13559958 0.0417765 0.15293786 0.0055390196 0.18570857 0.06451555
-0.009141317 0.02145071 0.20023891 -0.0067940895 -0.11597767 0.13434505 0.056144092 0.0409941

running_mean f4 [64]
00000000: 1168 083d 4b2a b53c dc03 6b3c c1cb 663d
00000010: 5568 f83b 63d8 773c 8464 943c dae3 3f3d
00000020: 8d1d 8a3c 8c44 b33c 79eb 0b3c 0769 9b3b
00000030: 7ac2 103c c5be b53c 8d88 653b c5b4 843c
00000040: 0704 a33b 54a0 103c 0f4b 3d3c ad9f be3a
00000050: 8427 153d 7f7e 673c da31 c03c 3552 2e3d
00000060: bee5 903c 9a01 973d 8eb9 e23b e9aa 883b
00000070: 19a1 2e3d cebb 9a3c f930 a03b 9693 1a3d
00000080: ec5a 353d dfb8 7c3c 805c 193c 10db a63d
00000090: 2113 4b3c dc84 013c 2a07 ad3c 81e5 053d
000000a0: f945 113d 2b3e 093c 7f09 7b3d 8d41 a93c
000000b0: 3e66 8e3b 3e6c df3c 87ae f239 ebe7 133c
000000c0: 5961 8c3c eea9 103d 66ab 8f3d 8510 083d
000000d0: d162 633c 888e 083d d71f 063c 184b bb3c
000000e0: 2927 ab3c 60cb 283c ee94 143d c937 8e3c
000000f0: 9c98 a73c 17c1 0f3d 46c7 953b a981 083d
0.03330237 0.022114893 0.014344182 0.05634666 0.0075807967 0.015127274 0.018114336 0.046848156
0.016859794 0.021883272 0.008540028 0.004742745 0.008835429 0.022185693 0.0035024018 0.016199479
0.0049748453 0.008827288 0.01155354 0.0014543437 0.03641464 0.01412928 0.023461271 0.042558867
0.017687675 0.07373352 0.0069190925 0.0041707647 0.042634103 0.01888838 0.0048886505 0.037738405
0.044276163 0.015424936 0.009360433 0.081472516 0.012394697 0.007905211 0.02112158 0.032689575
0.03546712 0.008376638 0.061288353 0.02066114 0.0043456843 0.027273294 0.0004628787 0.0090274615
0.017136263 0.035318308 0.070151135 0.03321888 0.01387854 0.033339053 0.008186302 0.022862956
0.020892696 0.010302395 0.036274843 0.017360585 0.020458512 0.035096254 0.0045708744 0.03332678

running_var f4 [64]
00000000: 56ad 0a3c c526 403b 242f 393b 9523 5a3c
00000010: a1bf 6c3a 6810 153b 674a 723b 7740 af3b
00000020: 4f01 613b b90f 523b 39ea 8f3a f50e 6c3a
00000030: 5a23 a83a 34a2 9b3b 6f27 0f3a 19be 0b3b
00000040: 95e6 6e3a ff3e 2c3a 6bf2 263b 811f 6339
00000050: 1f0a 493b fdf0 f63a bf27 813b 99c9 093c
00000060: 4e38 3a3b d06a 873c 841e 293a d2a9 0c3a
00000070: 5e02 273c dfa7 6a3b 7dd5 dd39 aefc 043b
00000080: 18e4 8e3b a0fe 2f3b 3ec0 9c3a 22e7 303c
00000090: f8e8 133b 058d 713a c0cf 8b3b fc4a b13b
000000a0: cba7 603b 9564 9b3a 474e 173c 81a4 803b
000000b0: 1bdc fb39 578b 9c3b c7c2 c739 fa65 a13a
000000c0: 70bf 543b 6b30 ef3b 3f18 ff3b d2a5 773b
000000d0: 367b 393b 2ce2 ce3a ee83 a43a db96 633b
000000e0: 56bd 4c3b e163 953a ae8f 773b 3600 343b
000000f0: 0462 8e3b 222d b23b 0317 433a 69e8 dd3b
0.008464178 0.0029319983 0.0028256858 0.0133141475 0.00090312405 0.0022745375 0.0036970617 0.005348261
0.0034333055 0.0032052828 0.0010979838 0.00090049143 0.0012827918 0.0047495607 0.0005460893 0.0021323024
0.0009113339 0.00065706664 0.0025474082 0.00021660143 0.0030676199 0.0018840131 0.0039415057 0.008409881
0.0028414908 0.016530424 0.00064513856 0.00053658814 0.0101934355 0.0035805625 0.00042311466 0.002029221
0.004360687 0.002685465 0.0011959148 0.010797294 0.002256928 0.0009214434 0.004266709 0.00541055
0.00342797 0.0011855537 0.009234971 0.0039258604 0.00048038442 0.004777353 0.00038101358 0.0012313717
0.0032462738 0.007299473 0.007784873 0.0037788046 0.00283022 0.0015783957 0.0012551525 0.0034727368
0.0031240783 0.0011397564 0.0037774849 0.0027465946 0.0043451805 0.005437509 0.00074420887 0.00677209

weight f4 [128, 64, 5, 5]
00000000: f6d0 293c dd75 fc3b 1517 b13b ac9a da3b
00000010: fcc2 00bb 5c7d c73b 8a1d eb3b 91c4 5c3c
00000020: 3f79 bbba 71e5 a8bb 4e3c 183b a893 06bb
00000030: 791d 2f3b 44a3 833b be61 2cbb ba89 9f38
00000040: 5dd7 f1ba 775c d1bb 01c8 a7ba 9fdb 863b
00000050: 2cfd 6cba 7a80 123a 5c0e 07bb 93c5 62bb
00000060: 4379 bd3b b527 a73a d327 e83b 724b 03bc
00000070: 5fe9 1bbc 4a3a 4ebb 3b4b 663b af80 173c
00000080: 1157 e8bb 4d1d d2bb c567 95bb 69f9 8d39
00000090: 7179 c63b 3bac 30bc c2bd bbb9 6c5f 8cbb
000000a0: 1ff9 39bc 455b 0c3c b642 1dbc ea2e 353c
000000b0: 47ef 8cbb b586 66bc 56c7 653c cce3 82bb
000000c0: 5e33 833b c3fa c4bb 34b0 d83b 6623 9b3a
000000d0: 4f14 ecb9 108b 80bb 859f c43b 8ba3 d93b
000000e0: 1c08 e33b 01f2 7639 5f4d 39bb dd45 9d38
000000f0: bd9e 3c3c 9bc2 0c3b 62db 8d39 52c1 d43b
00000100: 172e 35bb 68c9 153c fe3e fd3b 8a29 08ba
00000110: 35d9 c73b 8e84 14bb 6fb2 abbb 9d25 173c
00000120: 2a8d 73ba a72e 7c3a 6ce4 f0bb 4bdb f5ba
00000130: e191 f3bb 64bd 21bc 8fdc 29bc 05cf 21bc
00000140: 9025 e4ba b966 89bb a298 e1bb 4d43 30bc
00000150: ed2b 46bc e922 e43b 20f2 b53a 27bb 37bb
00000160: 15ef d5bb 398a c5bb 8670 f53a 2cea f03a
00000170: 735b 3dba 2991 cdbb 66aa 76bb aaad 6e3a
00000180: e99e c5bb f94f 0dbb 3215 f8ba 5684 89bb
00000190: 298b fcb9 ebbc 3c3c 1e99 da3b d4ee 02bc
000001a0: 2e81 083b f690 cc3a ef1b 7e3c a6e0 f03b
000001b0: 036b 603b af70 eebb 5952 153c 1331 93bb
000001c0: 6de3 85ba 3905 73bb 45d9 683a af61 02bc
000001d0: ab6b 9f3b f5d3 3abc 8de9 153c 78c6 a13a
000001e0: 8a64 e0ba 0aea b7ba b8d9 d8ba 653d 34bb
000001f0: 18d5 d43b be28 3f3c ff7f b83b 793d 1c3c
00000200: 2a30 263c bda7 85bb 6a9a be3b 2eb5 adba
00000210: 4f01 eb3b 65c1 4d3b 0717 29bc fb11 073b
00000220: 234d c5ba c04e 88bb d207 5cbb cbb8 283a
00000230: 714e de3a d04c 2c3b a3f8 edbb 4317 60bb
00000240: 1093 2b3b f948 8739 807f 023b a4e7 2cbc
00000250: 7ee6 303c e0a2 ea3b 636e 413b bda8 a83b
00000260: 9e4b 9f3b 2f41 beba 3267 d7bb 66f0 0239
00000270: 2bb7 223b 52c3 063c 43bf bc3b 472b 0d3b
00000280: 1bec 8f3a 2da7 06bb bc1e 9eba c2e1 4e3b
00000290: 0ba4 493b e9a1 6e3b 98ed fb39 0c18 a23a
000002a0: ef1b 883b c362 e33b 381a 963b a67b be3b
000002b0: 98f3 ba3b b437 983b 0065 893b d3c9 013c
000002c0: 0279 423b 6f9f 3e3c 95d9 913c e173 b33c
000002d0: 4557 ffb9 d2f2 573b 4cb0 4d3b 985d 6abb
000002e0: 617e cb38 9584 223b be07 353c 6ef8 b43a
000002f0: 1d34 a9ba 65a9 423b 1f40 b73a f424 d4ba
00000300: b632 7dbb 3564 02bc a63e 68bb c40a da3a
00000310: 57ce 1bbb 3d02 01bb 3c0e a6ba c589 71bb
00000320: 8334 933c c267 c43b 836e 503c 5d17 473b
00000330: 63f8 9abb ee39 7e3c b481 813b 7916 a33b
00000340: 531f b53b b887 13bc 3634 4a3b 5930 e83b
00000350: ead1 a23a b108 02bb bc25 533b 991e 0f3c
00000360: 6927 de3a 3773 ffba 7028 a7bb 22a1 df3a
00000370: 9780 d03a 5355 373b 5109 f5bb beec 26ba
00000380: 4a3a 9d3b 25e9 923c 64dd da3b 7814 023b
00000390: c5eb ba3b 2f5b 1dbc 3292 5d3c 51f4 333c
000003a0: 0d19 393c 8512 bd3a 35c2 2fbb 9a6c c93b
000003b0: 2643 e63b 031e 443b 90e6 ef39 66dd b83b
000003c0: 425d 5dbb 08d6 2bbb 45bf 773b a32f 93bb
000003d0: 6c0b 0b3c aa59 0d3c de79 4eba 7ea0 763b
000003e0: 36d9 663c 5c62 d8ba 4f72 0e3c 4680 3c3c
000003f0: 0562 0c3b e586 e8ba d23e c93b 3348 563b
0.010364762 0.00770448 0.005404363 0.0066712704 -0.001964747 0.006087942 0.007175152 0.013474599
-0.0014303102 -0.0051543047 0.0023229304 -0.0020534787 0.0026720448 0.0040172655 -0.0026303376 7.6073644e-05
-0.0018451024 -0.0063891965 -0.0012800695 0.0041155363 -0.0009040411 0.00055886025 -0.0020607924 -0.0034602627
0.005782278 0.0012752922 0.0070848255 -0.008013593 -0.009516089 -0.0031467848 0.0035140056 0.009246989
-0.0070904572 -0.0064121843 -0.0045594894 0.0002707944 0.0060569574 -0.01078325 -0.000358088 -0.004283836
-0.011350899 0.008566682 -0.009598425 0.011058548 -0.004300985 -0.014070203 0.014024576 -0.0039944407
0.004003926 -0.0060113384 0.006612802 0.0011836111 -0.0004502856 -0.0039228275 0.0060004615 0.0066418103
0.006928457 0.00023550542 -0.0028274877 7.4993564e-05 0.0115124555 0.0021478299 0.0002705707 0.006492772
-0.002764588 0.009142257 0.0077284565 -0.0005194178 0.006098891 -0.0022662017 -0.005239777 0.009225276
-0.00092907494 0.0009619989 -0.0073514488 -0.0018757371 -0.0074331616 -0.009871814 -0.010367527 -0.009876017
-0.0017406214 -0.0041931537 -0.0068846503 -0.010758233 -0.012095434 0.0069621694 0.0013881363 -0.0028035135
-0.006528745 -0.0060284403 0.0018725551 0.0018380336 -0.0007223405 -0.006273408 -0.0037638186 0.00091048575
-0.0060309065 -0.002156256 -0.0018927215 -0.004196684 -0.00048168868 0.011519651 0.006671085 -0.007991511
0.002082895 0.0015607167 0.01550959 0.007350999 0.0034243471 -0.0072766165 0.0091138715 -0.004491934
-0.0010214873 -0.003708197 0.00088824733 -0.00795786 0.00486513 -0.011403074 0.009149921 0.0012342473
-0.0017119807 -0.0014031541 -0.0016544377 -0.0027502414 0.0064951293 0.011667429 0.0056304927 0.009536141
0.010143319 -0.004078834 0.0058167474 -0.0013252848 0.007171787 0.003139579 -0.010320432 0.0020610082
-0.0015052896 -0.0041597784 -0.0033573997 0.00064362277 0.0016960633 0.00262909 -0.007262306 -0.0034193553
0.0026180185 0.00025803575 0.0019912422 -0.010553274 0.010797141 0.0071605295 0.0029515259 0.0051470683
0.004861309 -0.0014515276 -0.006573581 0.00012487322 0.0024828415 0.008225279 0.005760105 0.0021540688
0.0010980399 -0.0020546422 -0.0012063603 0.0031567668 0.0030767943 0.0036412424 0.00048051472 0.0012366786
0.0041537206 0.0069392635 0.0045807622 0.00581308 0.005705308 0.004645312 0.0041929483 0.007921654
0.0029674177 0.011634692 0.017803947 0.021905841 -0.0004870241 0.0032951129 0.0031385599 -0.0035761353
9.703334e-05 0.0024798263 0.011049209 0.0013806948 -0.0012909208 0.0029703018 0.0013980902 -0.0016185329
-0.0038634962 -0.0079584615 -0.0035437732 0.0016635288 -0.0023774111 -0.0019685172 -0.0012669037 -0.0036855799
0.017969375 0.005993814 0.012721661 0.0030378916 -0.004729317 0.015516741 0.0039522294 0.004977044
0.005527416 -0.009004526 0.0030853874 0.0070858416 0.0012422178 -0.0019841606 0.0032218536 0.008735322
0.0016949001 -0.0019489293 -0.005101256 0.0017061571 0.0015907463 0.0027974441 -0.0074779172 -0.0006367675
0.0047982084 0.017933438 0.006679224 0.0019848626 0.0057043754 -0.009604259 0.013523625 0.010983543
0.0112974765 0.0014425075 -0.0026818637 0.0061469795 0.0070270477 0.0029925115 0.00045757415 0.005641627
-0.003377751 -0.0026220102 0.0037803215 -0.0044917627 0.00848661 0.008627335 -0.0007876436 0.0037632282
0.014089873 -0.0016508806 0.0086942455 0.011505192 0.002142073 -0.0017740397 0.006141522 0.0032696843

bias f4 [128]
00000000: 3ef5 243c 50b0 10bd b0ad 11bd f534 a938
00000010: e09b b5bd fc16 bebd f252 adbd bc42 6dbd
00000020: ae45 0bbd d934 f4bb eafb 4139 8799 62bd
00000030: bf28 e4bd 7a62 54bd 1514 80bb 7d6d b3bd
00000040: 6034 68bd 9c78 89bb 97b2 7cbd 18b5 6dbc
00000050: 9836 20be f79a 72bd c566 5abd 84c3 d3bb
00000060: 57eb caaa a0ed 0b3c acc6 37bd df9a 2dbd
00000070: 0468 813a b899 b9bd 467c 1cbe 8767 25bc
00000080: 4bd4 b5bb 2040 08bd e831 2bbc 5b4a d3bb
00000090: e278 85bd d35f 29bc 98e0 ecbc 7a09 a7bd
000000a0: afd8 34bc 0a0b e5bd 8a59 10bd a5f3 31bc
000000b0: a41f e6bd 50ef b7bc 3cd1 9cbd e0f5 13be
000000c0: 47c4 08be 5366 87bd 3d36 2bbc 59be 93bd
000000d0: e5db f0bd ade0 98ba c5d4 9f3c 0a62 dc3b
000000e0: 413d 9fbd f299 16bb ea93 f8bd dcaf ebbc
000000f0: 6ded bbbd af02 a8bc fdcf 35bd f7ee 1e3b
00000100: 98d5 0cbe ce4f 66bd 3c3a cdbc 6736 98bc
00000110: 6252 28bd 38dc 9139 9401 c33c 590e 1dbe
00000120: b4fd 3eaf 7a17 b5bc 8649 aaba 5d1c 06bd
00000130: 824b b2bd 69a4 93bd 041c 34bd 904b 033a
00000140: be04 80bd ef3e 72bd 92ab 26bd ca07 003d
00000150: f01f ecbd c409 61bd 7ab7 5ebd c99b a2bd
00000160: f153 1e3c e33a 2cbd a994 c13b 400c 3abe
00000170: 33cb 52bc ab46 4fbd 7175 ceba b53e 1fbb
00000180: 3a0f 99bd 36b1 8abd 4ed7 e53a 54cc 0ebd
00000190: a157 fabc 7766 1abd 9202 61bc cb76 9fbd
000001a0: 6474 efbd a935 b1bd 42dd a1bc 1e79 9bbc
000001b0: 999d 163b 8d5f 94b7 dac8 02bb bffa d6bb
000001c0: 6948 17bc 6feb 2ebb 4de9 90bd eaf0 82bd
000001d0: 4cd7 8d3b 517c c3bc cd76 2abd c26e febc
000001e0: 3f2b 9a3b 1943 a3bd 6d4c 3ebd d18e aabc
000001f0: 8ad6 d5bd cd17 90bd acc5 03bd a68e 7f3b
0.010068236 -0.035324395 -0.035566032 8.068412e-05 -0.088676214 -0.09281728 -0.08463086 -0.05792497
-0.034002 -0.007452589 0.0001849976 -0.055322196 -0.11140584 -0.051851727 -0.003908644 -0.087611176
-0.056690574 -0.004195286 -0.061693754 -0.014508508 -0.15645826 -0.059229817 -0.053320665 -0.0064625163
-3.6045708e-13 0.008540541 -0.044867203 -0.042384025 0.0009872918 -0.09062523 -0.15281782 -0.010095484
-0.005548989 -0.03326428 -0.01044891 -0.006448073 -0.06517197 -0.010337788 -0.028915688 -0.081561044
-0.0110379895 -0.11183746 -0.03524164 -0.010861312 -0.11236504 -0.02245298 -0.07657096 -0.14449263
-0.13356124 -0.06611314 -0.010449943 -0.0721404 -0.117606916 -0.0011663638 0.019510636 0.0067255544
-0.07775355 -0.0022979942 -0.12137587 -0.02877038 -0.09176145 -0.020509092 -0.044387806 0.002425132
-0.13753355 -0.05622845 -0.025052182 -0.018580629 -0.04109419 0.0002782063 0.023804463 -0.15337504
-1.7370533e-10 -0.022105921 -0.0012991882 -0.032741893 -0.08705808 -0.07209093 -0.04397203 0.0005008513
-0.062509045 -0.05914205 -0.040690966 0.03125743 -0.11529529 -0.054940954 -0.054374196 -0.0793987
0.009663568 -0.042048346 0.0059076142 -0.18168736 -0.012865829 -0.050604504 -0.0015751553 -0.002429885
-0.07473607 -0.067720816 0.0017535479 -0.03486283 -0.030559363 -0.037695374 -0.013733523 -0.0778633
-0.116921216 -0.08652813 -0.019758824 -0.018978652 0.002298212 -1.768747e-05 -0.0019956143 -0.006560653
-0.0092335725 -0.0026690622 -0.070757486 -0.06393607 0.004328644 -0.02386299 -0.041617204 -0.031058673
0.0047048624 -0.07971782 -0.046459604 -0.020820053 -0.10441311 -0.0703579 -0.032170936 0.0038994937

weight f4 [128]
00000000: e1fe c23e eb35 363e 9c2e 483f 484e 323e
00000010: 3d1b f83e 7f84 e23e 50bf 0d3f e93c 103f
00000020: fa35 8a3e 5aae 5d3d daac 3a3a f406 233e
00000030: 2155 263e a958 943e 75f6 a83d fdb7 343f
00000040: a662 753f 12b5 1dbb f121 103f e459 ad3d
00000050: f70d 053f ce25 603e e53f b43e f26c 0c3d
00000060: 2fc2 822c 3f33 c23d d804 933e 41f8 c03e
00000070: 5ede 9c3a b6ec c03e 5774 cc3e 1563 8d3d
00000080: 28a7 1fbb 1628 9a3e f7eb 2f3f f173 7b3e
00000090: 5470 423f ace2 2f3e 7d8f 4f3e e968 3b3f
000000a0: 70d1 943d 2f49 3a3f a3cd 053e 4bd4 d93d
000000b0: a40a 173f 9db0 873e 1407 0c3f d0ed 683f
000000c0: 752a 673f 28ee ac3e e47d c93e fc32 353f
000000d0: 6fdb 173f daee 7c3e c46a e73e f9d6 233e
000000e0: 70ee 123f f2cf 113b 8cbf f13e 7f9f 5f3f
000000f0: a825 703f d2f9 fe3e 8502 653f 43f7 473e
00000100: d7c7 623f a85b 5d3e 9fe9 f63e 6ba5 6b3e
00000110: 1a58 253f fa75 253e f460 3b3f 49ce 093f
00000120: 7903 8c30 c3ff 083e 3935 473d b094 ef3e
00000130: 01e1 443f baf7 653f 092d 0e3e 84bc 9f3b
00000140: c82b 1e3f f79f 653f 1b05 113e 047b 703e
00000150: 8e9e 5f3f 325c 263f f25b 923e 6ed4 3a3f
00000160: 46c0 c03e 5c14 463f bae5 4f3f 55c1 723f
00000170: 4a00 763e b093 4a3f 9303 553f 11b2 153f
00000180: 6df7 2b3f 8566 f33e 176c 5fbb 9021 053e
00000190: abe0 f63e 7366 2b3f 3aed 523f cd0c 453f
000001a0: e195 533f c611 5e3f e32e 333f bd0b 353f
000001b0: f886 6d3a 2e1b b039 42a2 9aba 57c0 693b
000001c0: f195 b83d 41c7 fa3c 53cd 9b3e b19c 323e
000001d0: ac47 7f3e c432 343f d3da a33e e87a 3b3f
000001e0: adf2 d63e b588 173f 29e8 183f 9b75 783e
000001f0: 375b ca3e e79b 383f b585 1c3f 6981 323f
0.38085082 0.17794006 0.7819612 0.17412674 0.4845828 0.44241711 0.55370045 0.5634294
0.26994306 0.054121353 0.0007121094 0.15920621 0.16243412 0.28973892 0.08250133 0.70593244
0.9585365 -0.0024064225 0.5630179 0.08464411 0.51974434 0.21889421 0.35204998 0.034283586
3.716381e-12 0.09482431 0.28714633 0.37689403 0.0011968126 0.37680596 0.3993251 0.06903664
-0.0024361107 0.30108708 0.6871943 0.24555947 0.7595265 0.17176312 0.2026958 0.73206955
0.072665095 0.7276792 0.13066725 0.10636195 0.5900061 0.26501933 0.546983 0.90987873
0.9029916 0.3377545 0.3935386 0.7078092 0.59319204 0.2470049 0.45198643 0.15999974
0.57395077 0.002224919 0.4721645 0.87352747 0.9380746 0.49799973 0.8945697 0.19527917
0.8858618 0.21616995 0.48225114 0.2301232 0.6458756 0.16158286 0.73194814 0.5383039
1.0187328e-09 0.13378815 0.04863474 0.46793127 0.7690583 0.89831126 0.13884367 0.0048747677
0.61785555 0.8969721 0.14162104 0.23484427 0.8735131 0.6498443 0.28585774 0.7298039
0.37646693 0.77374816 0.8120991 0.9482625 0.24023548 0.79131603 0.8320858 0.5847483
0.67174417 0.47539154 -0.0034091526 0.13001084 0.48218283 0.669532 0.8239323 0.7697266
0.8265057 0.8674587 0.6999342 0.70721036 0.00090609444 0.00033589586 -0.0011797624 0.0035667622
0.09012974 0.03061259 0.30430087 0.17442586 0.24929684 0.7038996 0.32002887 0.73234415
0.41982022 0.59192973 0.5972925 0.24263613 0.39522716 0.7211289 0.6114152 0.69728714

bias f4 [128]
00000000: 5eb8 ba3d 44e2 1c3e d3a2 06be 966a 8f3d
00000010: be2d 19be 116a 1ebe 6417 21be 5cc5 1f3e
00000020: e982 2d3e ca05 c3bd 86b9 c13a 0a3e 2bbe
00000030: 8120 38be c362 2f3e 4f59 b6bd c50a 0abe
00000040: 0724 263e 001c 2f3e 2207 13be 3ed0 0f3e
00000050: 9a1d 26be f9d1 1abe 0185 263e 823d 17be
00000060: e64b c0b7 a0bb 143e 9668 323e e3a3 2c3e
00000070: 021f 763e 6ece 20be aa73 56be 24f8 0bbe
00000080: 963a 59be 97aa 063e fd68 1d3e e32a 8ebd
00000090: 95f9 313e aa2f e9bd 0cca 183e d4f3 0abe
000000a0: 06c2 2c3e dc16 19be 280d 2e3e 8343 2a3e
000000b0: a56b 05be 4535 163e 498e 03be 78f0 18be
000000c0: e5ef 1bbe 692c 16be 7704 f9bd dbf4 17be
000000d0: ea21 19be 7ae4 173e 09ae 153e be51 c23d
000000e0: baad 1ebe a034 1b3e 0abc 21be 60ac 143e
000000f0: d6aa 15be cd05 0f3e 49ac 1b3e 6203 1b3e
00000100: df10 24be 35a9 263e c325 183e ed40 cc3d
00000110: 686a 1d3e 9673 ca3c 02c8 12be 3139 f0bd
00000120: 74b5 d9b9 3001 2d3e ce7e 133c 3f85 1e3e
00000130: 0646 fcbd c6ad 0bbe 6750 343e da18 213e
00000140: d3cb f5bd 8778 1bbe 7187 313e ac84 103e
00000150: ccac 16be 432c 1d3e 3211 293e 03e4 2a3e
00000160: 36de 0f3e c8c3 e5bd 66f8 13be e320 39be
00000170: 8a32 de3d f41e f9bd 5b83 17be c43a f53d
00000180: b834 0bbe 1236 1fbe d12d 543e 95ca 313e
00000190: 96f6 c0bd ded1 223e ab87 133e 9a37 263e
000001a0: 5f35 21be b2da 223e a9b2 293e 4dd8 153e
000001b0: bbd4 82be 5b60 b8ba 63b5 03be a646 39be
000001c0: a916 eebd e0fa 40bd efdb 263e 399e 363e
000001d0: a4c0 113e a4de 10be 12c1 01be efb1 f0bd
000001e0: bca6 113e d435 0bbe 333b 103e 3ef1 163e
000001f0: 5570 27be 37c3 0bbe 1d76 0cbe 5d25 0f3e
0.091171965 0.15320688 -0.1314805 0.070027515 -0.14958856 -0.15470149 -0.15731579 0.1560263
0.1694447 -0.095225886 0.0014780022 -0.16722885 -0.1798115 0.17127518 -0.08903753 -0.13480671
0.16224681 0.17100525 -0.1435819 0.14044282 -0.1622223 -0.1511916 0.16261674 -0.14769557
-2.2923527e-05 0.14524698 0.17422709 0.16859393 0.24035266 -0.15703747 -0.2094256 -0.13668877
-0.21213755 0.13151012 0.15372081 -0.06941774 0.17380364 -0.11386044 0.14920825 -0.13569576
0.16870889 -0.14950126 0.16997206 0.16627316 -0.13029344 0.14668758 -0.12847246 -0.14935482
-0.15228231 -0.14665379 -0.12159055 -0.14839499 -0.14954343 0.1483325 0.1461717 0.09488247
-0.15495959 0.15156794 -0.15794387 0.14518881 -0.1461595 0.13967057 0.1520244 0.15138009
-0.16022061 0.16275485 0.14858155 0.09973321 0.15372622 0.024713319 -0.1433411 -0.117296584
-0.00041524658 0.16894984 0.009002401 0.15480517 -0.123180434 -0.13640508 0.17608796 0.15732136
-0.12001767 -0.15182696 0.17336823 0.1411311 -0.14714354 0.15348916 0.16510466 0.16688542
0.1404961 -0.11218983 -0.14450225 -0.18078952 0.10849483 -0.12164107 -0.14796202 0.11974099
-0.1359433 -0.1554797 0.20720603 0.17362435 -0.094220325 0.1590037 0.14407222 0.16232148
-0.15743016 0.15903738 0.1657206 0.14633293 -0.25552925 -0.0014066802 -0.12862162 -0.18093356
-0.11625416 -0.047114253 0.16294836 0.17833795 0.14233643 -0.1414743 -0.12671307 -0.11752688
0.1422376 -0.13594753 0.14085083 0.14740464 -0.16351445 -0.13648687 -0.13716932 0.13979097

running_mean f4 [128]
00000000: e999 af3e fe4c 483d 4514 2a3d 6bbc d93d
00000010: db4a 143b a14f 543d 82aa 4bbc d1eb 303b
00000020: b8d6 be3d 4413 b03d 219d 0f3d 607d 813d
00000030: 8def 973c 8bfa 1b3e 80cf c43d 07de 3e3d
00000040: 719c 473d 947f 753d c579 ff3d 02cb 163d
00000050: d914 8dbc 0e2d 603c 0d42 5fbc df04 4f3e
00000060: abad 212c bf14 ab3e 19cf 9a3b ceef ef3d
00000070: d1b2 d23d 1136 ddbc fb0c 2cbc 02ff 873e
00000080: 281e 213d 89c2 a23d 3d17 103e 0a2c 3f3e
00000090: 9b25 293d b31d 673e f089 cd3d 554a 603d
000000a0: 17a6 253e 1397 9abc 5382 3e3e bc49 593e
000000b0: 0376 a4bc 80a4 393e 50a1 503d 9a3f 85bc
000000c0: 0345 033c ad4e a33d fad7 223e 2edf 9b3b
000000d0: b52b 95bc 55a7 d43e 4aa7 1e3f f930 543e
000000e0: 7df0 503c 8214 cc3c 8ddd e7bc 837a de3c
000000f0: f385 883c 73e2 8b3e 9ad8 773d e546 d63e
00000100: d645 c0bc 61e5 51bb b6e9 683e df72 dc3d
00000110: 163f 4c3e be65 4f3d 9400 0b3f 842b 37bd
00000120: 854d b631 dbdb 5e3e 3527 e13b 0cd2 5d3e
00000130: 20f3 82bb 748a 1a3d 20ec a63d efad e33d
00000140: 3f06 4c3e 82a6 a83c 3b60 f63b 520d 3b3f
00000150: 2ce1 73bb a6ac 7fbb 9ec2 7bbc 64f1 b03c
00000160: 4700 9d3e c37d a33d 1e7d 1e3e 4059 3e3c
00000170: 7f82 a33d 4eca fb3d f31b 883e 80ea 5e3e
00000180: 3878 e73c c29b f0bc aa52 1f3e d647 803d
00000190: 1d02 9c3e afd6 cb3d 1953 9b3e a7c3 cd3c
000001a0: b137 733d 3dc5 d93c 9fbf b43d 4bc5 8d3d
000001b0: 81bc 933d 3688 9bb5 de9d 0d3d 9c0f 933d
000001c0: e24c 853d 7954 753d 758d 36bb 9e7a ba3d
000001d0: 4546 9a3e 660c bb3d b49c 7a3c bad4 ac3e
000001e0: 4b19 103f af1e 9e3d 70b9 623d 3d69 cb3d
000001f0: 755e c0bc 126e c33d 47a1 963e 3d66 053f
0.34297112 0.04890155 0.041523237 0.10631641 0.0022627625 0.051833753 -0.012430789 0.0026996026
0.09318298 0.085974246 0.03506196 0.063227415 0.018546844 0.15232293 0.0960989 0.04659846
0.04873318 0.05993612 0.124743976 0.036814697 -0.017221855 0.013682617 -0.013626588 0.20216702
2.2975881e-12 0.33414266 0.004724395 0.11715661 0.10288013 -0.02700332 -0.010501142 0.26561743
0.0393354 0.07947261 0.14071365 0.18669143 0.04129563 0.22569923 0.10036075 0.05475839
0.1617664 -0.018870866 0.18604402 0.21219534 -0.020075804 0.18129158 0.05093509 -0.01626568
0.008012059 0.079739906 0.15902701 0.0047568297 -0.018209318 0.41533914 0.6197401 0.20721807
0.012752649 0.024912123 -0.028303886 0.027158028 0.016665434 0.27321205 0.0605093 0.41850963
-0.0234708 -0.003202759 0.22745404 0.107640974 0.1994594 0.05063414 0.5429776 -0.044719234
5.30571e-09 0.21763556 0.006871129 0.21662158 -0.003996268 0.037729695 0.08150506 0.111171596
0.19924258 0.02058721 0.007518796 0.730672 -0.003721307 -0.0039012819 -0.015366225 0.021599479
0.30664274 0.079829715 0.15477416 0.011617959 0.079838745 0.12294446 0.26583824 0.21769142
0.028255567 -0.029371146 0.15558878 0.062637016 0.30470362 0.09953057 0.30336836 0.025117708
0.059379283 0.026583308 0.08825611 0.06922396 0.07213689 -1.1588043e-06 0.034574382 0.071807116
0.06508805 0.059895013 -0.002785531 0.091054186 0.30131736 0.09133224 0.01529615 0.33756047
0.56288594 0.07720696 0.05535263 0.09932182 -0.02348254 0.095424786 0.2941992 0.5210913

running_var f4 [128]
00000000: b72a d63e 75b0 4e3d d46c e03d 73e1 9a3d
00000010: c5b7 873d 7786 1b3e 2a85 fe3c ec63 383d
00000020: 54da 223e efbf 153d 6229 443b 9aaa 9a3d
00000030: 739e 493d f79a 7f3e 69eb 273d bd68 173e
00000040: 456e 223e 05c7 9b3c 3f37 983e 8e0a c13c
00000050: a543 ab3c 412f 393d ea52 003c 5a67 603e
00000060: 6717 c919 3451 db3e 3230 0b3d 06ed 6b3e
00000070: ae3e 5d3c e939 ab3b 790e aa3c a605 b93e
00000080: 832f 433c 5f85 db3d 55ab 9d3e edb7 433e
00000090: ed04 cc3d a6a1 843e 0b04 1f3e 1fbd 263e
000000a0: 5548 2e3e bd74 983c 844f ff3d 0995 943e
000000b0: 580b e83b e837 863e a55d dd3d 7bbd f73c
000000c0: 04af 693d 7360 263e ead9 733e c1a9 1b3d
000000d0: 6c03 bf3c e2b2 053f b805 913f 00c3 4d3e
000000e0: d4d2 d33d 451b be3b 0ba9 dc3b be66 613d
000000f0: 0012 c23d a91f 333e d7cf 013e e338 453f
00000100: 6f7b 153c 4468 603c a4da c83e fdab f23d
00000110: c027 d83e 8c81 533c 19dc 0a3f 2eb8 5a3a
00000120: e71c 0c25 953c 8a3e bad5 fb39 6e44 e13e
00000130: 1eda 0f3d 689c fb3d 79a8 183e bd05 903d
00000140: 2084 e83e 1518 c13d 1ff7 893c b216 ac3f
00000150: dd19 103d 6844 f33c cee6 9b3b cce6 843d
00000160: 767b e63e d522 2b3e 9501 043e e196 e73c
00000170: fad6 b23d 9c07 8c3e 2cc9 473e 7238 3d3e
00000180: e529 d23d 016c 973b 09b6 8c3d 1bfd 9b3d
00000190: 0934 f23e f838 513e 148c 013f 4294 da3d
000001a0: 7ff5 e33d 4f93 f23d 76d5 3f3e 8e8e 103e
000001b0: ced2 243c 3327 ce2f 3872 9a3b 05b8 2d3d
000001c0: 5bcf 3d3d 1dbd 8e3c 1ce0 183d de60 5b3e
000001d0: 4142 d73e 6133 443e 4734 5f3d 722c 5e3f
000001e0: 6481 913f 3564 693e d0cc 1a3e 2837 163e
000001f0: 61a0 053c 763e 933e 4747 293f 01a3 633f
0.41829464 0.05046125 0.10958257 0.07562532 0.06626848 0.15188013 0.031069357 0.045017168
0.15903598 0.036559995 0.0029931893 0.07552071 0.049223375 0.24961458 0.04099599 0.14786048
0.15862377 0.019015798 0.2972965 0.023564603 0.020906279 0.04521108 0.007832268 0.21914425
2.0792365e-23 0.4283539 0.03398151 0.23039636 0.0135037135 0.0052254093 0.020758854 0.36137122
0.011913183 0.10718798 0.30794778 0.19113131 0.09961877 0.25904578 0.15528886 0.16283081
0.1701978 0.018610353 0.12466338 0.29019955 0.0070814304 0.26214528 0.10808877 0.030241719
0.057051674 0.1624773 0.23813596 0.038003687 0.023317061 0.5222608 1.132987 0.20093918
0.10342947 0.0058015906 0.0067340187 0.055029623 0.094760895 0.17492546 0.12676941 0.7703993
0.009123667 0.013696734 0.3922931 0.118492104 0.42217827 0.012909304 0.5424209 0.0008343485
1.2152857e-16 0.26999345 0.0004803369 0.4399752 0.035120122 0.122856915 0.14908017 0.070323445
0.45413303 0.094284214 0.01684147 1.3444426 0.035180915 0.029695705 0.0047577387 0.064893335
0.45016068 0.16712506 0.12891228 0.028270187 0.0873241 0.27349555 0.19510335 0.18478563
0.10261897 0.0046210294 0.06870658 0.076166354 0.47305325 0.20431888 0.5060437 0.10672809
0.11130809 0.11844503 0.18733773 0.1411688 0.010060025 3.7499034e-10 0.004713323 0.042411823
0.046340328 0.01742416 0.037323102 0.2142367 0.42042735 0.19160224 0.054493215 0.8678657
1.1367612 0.22792132 0.15117192 0.14669478 0.008155913 0.2875859 0.66124386 0.889206

weight f4 [1, 128, 1, 1]
00000000: 0f51 20bd b31d 97be 229b 633e 58ff 79bc
00000010: d351 c33e d7ad cd3e 0d2f f43e 0240 8fbe
00000020: 1acf d2be 0371 533d 4d0a 55bb ce95 6a3e
00000030: 85b4 0d3f 8162 d1be 0651 9b3c 1c88 323e
00000040: 1f59 04bf deb2 38be 1395 843e 608d b8bd
00000050: e534 c03e 11ae c53e 8eb2 65be 2bfe 6c3e
00000060: a21e c038 3422 12be 33d8 b5be fc15 85be
00000070: 3cac 69be 2199 cd3e 923a b03e c0cf 323e
00000080: 3661 573e 01f0 c9bd e57e c9be 64ca eb3c
00000090: 1491 5bbe ddd9 883d b3b1 91be 5110 8b3e
000000a0: 3931 f3bd c1fc ae3e 781d b2be 4dd5 c0be
000000b0: 1f49 1a3e a6e4 89be 76d7 133e 394a 483e
000000c0: 0932 883e 0904 913e 6910 093e 01ad cb3e
000000d0: b25d da3e 9a99 8bbe 849d 94be ae6e 13bd
000000e0: 2e26 d03e bfb4 12be c8e0 c63e 421f a5be
000000f0: 9c99 cb3e ce09 46be 1abb bfbe 0e36 aabe
00000100: 8c8c 953e 6642 61be a35c 7fbe b52a 90bd
00000110: 3636 a9be 819f 5aba 59a8 913e f702 f13d
00000120: 5a11 7739 8b46 80be bfd3 04ba a38d b6be
00000130: e593 353e 0674 813e 8285 e1be 9e6e 9cbe
00000140: 4df9 163e c177 c63e 00bc 75be e15b 83be
00000150: c400 8f3e 397e dcbe 9b01 a3be b9ef 6ebe
00000160: 4ce9 51be bc13 e93d 52c5 b03e 04ea 913e
00000170: 0037 84bd c695 213e c373 c23e 50e1 dfbd
00000180: 54a9 833e a29b b03e 16fd 12be 290c a6be
00000190: de23 6d3d 3517 dcbe 48c3 a7be 32ef ebbe
000001a0: 1a27 333e 09ca d0be 96ec ebbe bc83 abbe
000001b0: e4fc 813e 2eb7 b038 d87c ff3d 2379 9e3e
000001c0: e983 813d 8558 433c ddb2 dfbe f8a8 dabe
000001d0: 1afd 3abe 2f84 953e f29c 163e 45c3 013e
000001e0: 863a 87be 869b 7f3e 5bd5 47be 5775 f9bd
000001f0: b3e1 bd3e 533e 773e 4046 8f3e 71d2 71be
-0.039139803 -0.29514846 0.22227147 -0.015258633 0.38148364 0.40171692 0.47692147 -0.27978522
-0.4117363 0.05162145 -0.003250736 0.22908708 0.55353576 -0.40895465 0.018959533 0.17434734
-0.5169849 -0.18036982 0.25894985 -0.0901134 0.37540355 0.38609365 -0.22431394 0.23143832
9.160979e-05 -0.1427086 -0.3551651 -0.25993335 -0.22819608 0.4015589 0.34419686 0.17462063
0.21033177 -0.0986023 -0.39354625 0.02878303 -0.21442062 0.06682179 -0.28455886 0.27160886
-0.11874623 0.3417721 -0.34788108 -0.37662736 0.15066956 -0.26932257 0.1443766 0.19559564
0.26600674 0.2832339 0.13385166 0.3978043 0.4264961 -0.27265626 -0.29026425 -0.035994224
0.4065413 -0.14326762 0.3884337 -0.3225041 0.39765632 -0.19339678 -0.37447435 -0.33244365
0.2920879 -0.21997985 -0.24937682 -0.07039396 -0.33049172 -0.0008339808 0.28448752 0.117681436
0.0002356222 -0.2505382 -0.0005066953 -0.35654935 0.17732199 0.2528383 -0.4404717 -0.30553144
0.14743538 0.3876324 -0.23997498 -0.25656036 0.27930272 -0.4306505 -0.31837162 -0.23333634
-0.20499152 0.11380717 0.34525543 0.28498852 -0.06455803 0.1577979 0.37978944 -0.10931647
0.25715125 0.34493738 -0.14354357 -0.32431152 0.057895534 -0.42986456 -0.32766175 -0.4608093
0.17495385 -0.4077914 -0.46078938 -0.33498943 0.25388253 8.426454e-05 0.12474984 0.30951795
0.06323988 0.01192296 -0.4369115 -0.42707038 -0.18260613 0.2920241 0.14708307 0.12672146
-0.26411837 0.24961671 -0.19514982 -0.12180584 0.37086257 0.24144869 0.27983284 -0.23615433
