ball_data/model_2500.pth (torch_old, 853498 bytes, 13 tensors)

weight f4 [64, 1, 5, 5]
00000000: 5cac 90bd d553 e03c 25c0 0e3d 0f8e 693c
00000010: 0a3d 643d 240a c3bd cd2e a8bd 5549 bd3d
00000020: 1092 2f3d 8b1b 7d3d e2c6 edbd 9f9b 31bb
00000030: 9fba a7bd 8d7d 393d df40 a13d 9fa3 20be
00000040: 1e07 02be ac91 3d3d ef75 74bd 010f 803d
00000050: d890 1d3d ac27 72bd cf21 6b3b f735 adbc
00000060: d760 c93a 2d83 0a3e 32c5 d4bd 7b0d 093d
00000070: 782c 1abd 9692 353c a077 b03d 7fae 453d
00000080: 7955 a5bd 7967 bbbd 7b2c 653d e204 a13d
00000090: 5501 c93c 3c5e bbbd fcda 25bd abe0 35bd
000000a0: a69b 6fbd a321 173d 78e9 b3b9 5ac6 c3bc
000000b0: 2bdb 833d 9959 c83c 0c8e 9c3d 46bb cebb
000000c0: d563 65bd a7db 9a3c 200c c43d 3947 b03c
000000d0: edb5 ccbb 40b8 b8bd 1755 da3b 4275 d4bc
000000e0: 7095 ee3d 8adb cf3d 8ac9 cdbd 436e 9cbd
000000f0: c30f 363d 11ca 943d d00e f43c d564 a9bd
00000100: 44f7 10bc 0602 ef3c a793 8cbd 51f1 aabd
00000110: 578e 5e3d b29b b8bd 6fc1 283d 1114 c13c
00000120: ce8e 073e e9db 53bd 40bd 3d3d 979d 76bd
00000130: 5077 a8bd 472d 6f3c a0ba 77bc 4e97 e7bd
00000140: 7ddb 3e3d 8fa0 d8bc 9bf0 e2bb b0a4 86bd
00000150: 0250 f2bd 68b1 4dbd be7b 6f3c 531a 67bd
00000160: 0e54 c4bc 6ceb f93c 7dac 283c 7f8d 62bd
00000170: 5787 91bd 1110 49bc 8935 46bd 259d 813d
00000180: 578d 89bd 8c08 aa3d e7ef 263d 2b33 14bd
00000190: a2a7 1bbd a79d 6a3c 0511 2b3c 380c 703d
000001a0: 1d44 6f3d 4eaa 1ebd 7e0a 1c3c a197 423d
000001b0: 76f3 dabd a666 53bd ae02 90bd 651d 313e
000001c0: 6259 c3bb ea68 a0bd d195 943d 43a2 513d
000001d0: 2945 e73d afe7 99bd 892d fabd 306d 60bd
000001e0: 7aa2 2abd b515 bcbc d02d 8fbd 462f dc3b
000001f0: c739 eb3d 3a27 8c3d e1eb b03b 3fb9 b6bd
00000200: bd5d 963c 8a5e 31bc 5834 063d d0ad 12bb
00000210: 542b 94bd 4134 773d e732 413d af4b 05bd
00000220: f40a 5fbc 1ea2 ed3d 1dd5 043e 385b 8f3c
00000230: 9b6f 71bd 7510 22be b8a0 efbd b7d7 43bd
00000240: fcaf 15bd db8f 423d 2e8a 9cbd 34c7 933d
00000250: da18 ed3d 0acd 51bd cd5f 9dbd a71d 913c
00000260: 09d7 84bb 2200 89bd 9ac8 8e3b eaa7 efba
00000270: c0c9 693d 0163 da3a 2707 a93d 9a5a b83d
00000280: 8405 9d3c 79ad 4abd ca6a b7bc 464c cd3d
00000290: e1df 923c 4d26 67bd 46b2 a6bb 6d69 5d3c
000002a0: 206a 653d fc9c 9a3d 0a0c dbbd cb6c 23be
000002b0: 0354 93bd 7663 49bd 84b5 343d 2975 88bd
000002c0: 9ec1 8b3d f616 c5bd dd77 7ebd fd5e afbd
000002d0: 2fd5 abbd 531b 35bd abb1 ba3c 968c 9ebc
000002e0: 58e3 953d c1cc ac3d 5b8f c73d bdc0 913c
000002f0: c65c d93d d08c b9ba e68a 803a 7a71 523d
00000300: 615a 293d 5f37 dfbb ec90 0b3d 96b2 d9bd
00000310: 4ce4 ecbb f534 9ebd 6fda 103d d746 7d3d
00000320: 6b9f 5d3d 1a41 943d c3bc ca3d f413 013d
00000330: 0029 d93d 634c 603c 5ef4 8cbd 04da 46bd
00000340: 2562 64bd 828e 803d b288 9bbd f685 15bc
00000350: e7b6 68bd b837 d2bd 499e 1abd d9ef fbbd
00000360: 60a9 b9bd d7bf 31bd 53d2 e23c d812 da3b
00000370: 53cf 0e3d 0db3 d53d e3a9 df3c ff93 4e3d
00000380: bcf8 a03d 471a d33d d975 dbbc c70d ef3d
00000390: 871c 123e c072 0a3d 770b 373d 9ef8 15be
000003a0: 0a88 bcbd 3fe8 25bd 1a6f 94bd b65f c0bc
000003b0: 13e5 e9bd c8aa 96bb b5c9 923c a1fe dc3c
000003c0: 9705 c13d de33 e7bd b95e 9fbd b540 633d
000003d0: 2b6e 023d 435b 4d3d 12b4 60bd 7beb 503c
000003e0: dfd1 1cbd e006 c5bc 574a aabd 5976 38bd
000003f0: aa1c 103d 9607 8b3b d451 22bd 2b04 1b3d
-0.07064125 0.027383724 0.034851212 0.014255061 0.055722274 -0.095234185 -0.082120515 0.092425026
0.042863905 0.061793845 -0.116101995 -0.0027100814 -0.08189892 0.04528575 0.07873701 -0.15687416
-0.12698027 0.0462815 -0.059682783 0.06252862 0.038468212 -0.059119865 0.0035878306 -0.021143897
0.0015363944 0.13526602 -0.103891745 0.03346012 -0.037640065 0.011082312 0.08616567 0.048262116
-0.08072943 -0.09150595 0.055950623 0.078622594 0.024536768 -0.09148833 -0.040492043 -0.044403713
-0.058498047 0.036897313 -0.00034315488 -0.023898292 0.06438287 0.024456786 0.07644281 -0.006308946
-0.05600341 0.018903567 0.09572625 0.021518337 -0.006247273 -0.09019518 0.0066629755 -0.02593482
0.11649597 0.10149296 -0.10048206 -0.07638218 0.044448625 0.072651036 0.02979222 -0.08271185
-0.008848015 0.02917577 -0.068641 -0.08346809 0.054334965 -0.090140715 0.041200098 0.023569139
0.1323807 -0.051723395 0.04632306 -0.060208883 -0.08225882 0.014598197 -0.015120178 -0.11308156
0.04659604 -0.026443748 -0.006925655 -0.065743804 -0.118316665 -0.050218016 0.014616905 -0.05642159
-0.023965862 0.030507766 0.010295031 -0.055310722 -0.07105892 -0.012271897 -0.0483909 0.06328801
-0.067164116 0.083024114 0.040756132 -0.03618161 -0.038001664 0.014319814 0.0104410695 0.058605403
0.058414567 -0.038736634 0.009523986 0.047507886 -0.10690968 -0.051611565 -0.07031761 0.1729637
-0.005961583 -0.07832511 0.07255138 0.051180135 0.11292488 -0.07514893 -0.122157164 -0.05479163
-0.041658856 -0.02295957 -0.0699116 0.0067195026 0.114856295 0.068434194 0.0053992127 -0.08922052
0.018355245 -0.0108257625 0.032764763 -0.0022381432 -0.07234827 0.060352568 0.047167685 -0.03254288
-0.013613451 0.11603187 0.12971921 0.017499551 -0.058944326 -0.1582659 -0.117005765 -0.047813144
-0.036544785 0.047500473 -0.07643543 0.07215729 0.11577006 -0.05122093 -0.07684288 0.017714335
-0.0040539545 -0.066894785 0.0043574097 -0.0018284295 0.05707717 0.0016661586 0.08253317 0.09001656
0.01916767 -0.049481843 -0.022389788 0.10024314 0.01792902 -0.05643301 -0.00508717 0.013513905
0.05600941 0.07549474 -0.10695656 -0.1595947 -0.07193758 -0.04916712 0.04411842 -0.066629715
0.06824039 -0.0962352 -0.06212603 -0.085630395 -0.08390271 -0.04421551 0.022789797 -0.019354146
0.07318753 0.08437491 0.0974414 0.0177921 0.10613398 -0.0014156345 0.000980702 0.05137775
0.041345958 -0.0068120207 0.034073755 -0.10629766 -0.0072293635 -0.077249445 0.035364565 0.061835136
0.05410711 0.0723898 0.09899285 0.03151317 0.10603523 0.013690087 -0.06882547 -0.04854776
-0.05575766 0.06277181 -0.07594432 -0.009126177 -0.056815054 -0.10264534 -0.03774861 -0.12301607
-0.09065509 -0.043395843 0.027688181 0.0066550784 0.03486569 0.10434542 0.027302688 0.05043411
0.07859942 0.103077464 -0.026789593 0.1167255 0.14268695 0.03380084 0.044688668 -0.14645621
-0.09205635 -0.04050469 -0.072477534 -0.023483139 -0.114206456 -0.0045979954 0.017918447 0.026976885
0.09424894 -0.1128919 -0.07781739 0.05548163 0.031843346 0.050135862 -0.05485923 0.012751455
-0.038286086 -0.02405113 -0.083149604 -0.04503474 0.035183586 0.0042428477 -0.03962882 0.03784577

bias f4 [64]
00000000: c47f c8bd 928c c4bc fa55 9dbd 8b03 10be
00000010: 12f2 a2bd 9d44 45bd 967e a9bd f036 f13c
00000020: 1b7c 8abd be6c 03bd 3003 61bd f5bc 84bd
00000030: 293c d6bd 4c58 adbd 8800 d3bd 606f 1cbd
00000040: 5261 eebd 48d8 52bd bba8 e9bd f7ce babd
00000050: a675 2e3b bbb0 92bc 5673 0fbe fc7a 9dbc
00000060: 1511 8ebd 2618 203d 7d8f f8bc e8cd 2fbe
00000070: 654d 8ebc 43c7 0abe 3f8b bbbc 984f 253d
00000080: 2ee7 143d 5ce5 91bd 9708 91bd 9423 3e3c
00000090: 154b 12be fcf9 90bd fa5c 10be f9c9 01bd
000000a0: c206 bd3c 8822 59bd 3728 7f3c 5f50 b8bd
000000b0: 9a86 55bd 2c4e e6bc 6672 33be f22e 2cbd
000000c0: 1607 bcbd 7d4d c6bd 4ce7 083d d54e 3ebc
000000d0: 9d18 48be b870 8e3c 5edf dabd b613 54bd
000000e0: fcef 50bd b254 6abd ad57 ac3a 4201 7cbd
000000f0: 0281 12be a631 483c 6283 bebd e4e5 aebc
-0.09789994 -0.02399281 -0.07682414 -0.14063852 -0.079563275 -0.048161138 -0.082760975 0.029445142
-0.067619525 -0.032086127 -0.05493468 -0.06481353 -0.104606934 -0.08464107 -0.10302836 -0.038192153
-0.11639656 -0.051475793 -0.11409136 -0.09121507 0.0026620417 -0.017906537 -0.14008841 -0.019223683
-0.06936852 0.03908553 -0.030341858 -0.17168391 -0.017370889 -0.13552575 -0.022893546 0.04035911
0.036353283 -0.07123825 -0.070817165 0.011605162 -0.14286454 -0.07078931 -0.14097968 -0.031686757
0.023074511 -0.053011447 0.015573553 -0.089997046 -0.05213032 -0.028113447 -0.17524108 -0.042036958
-0.09181039 -0.096827485 0.033423707 -0.011615475 -0.19540639 0.017387733 -0.10687135 -0.05177661
-0.051010117 -0.057209678 0.0013148688 -0.061524637 -0.14307025 0.012218868 -0.09302403 -0.021349855

weight f4 [64]
00000000: 428f e53e b21c 113f 9240 d93e ba2d 163f
00000010: b63f dd3e 34b7 003f 23bb 363e 4170 3b3f
00000020: dae0 383f fa35 123f d249 063f 8835 3e3f
00000030: 8d8a de3e 54cf 353f e3bc d03d 867d 093f
00000040: 9eba ed3e b9a8 023d c109 423f 5ae6 f63d
00000050: db37 273f 8887 1d3f 009b 183d d60f 413f
00000060: 9d20 643f 8526 063f 87ee 9a3e bdb0 6a3d
00000070: fa77 463f dd22 5c3f d521 c33d 1afe 483d
00000080: 25ac 6f3e 471a 363f ea0d 263f 8ec3 4f3f
00000090: 4dbe 5c3e 8605 8f3e a128 fe3c be1e 553f
000000a0: 720a fc3e d207 783e c1e6 b93e db6f 913e
000000b0: aa9c b43e 0c74 423f f302 7bbd 8096 333f
000000c0: a476 9b3e b35e 3d3f 6945 013f 676a d23e
000000d0: ffc8 9f3e b2c6 143e 7941 ba3e ddc9 2d3f
000000e0: 9110 133f a8ad d33e 4faf 4d3f e8de b33e
000000f0: 3a3a 253f 4994 3b3f a6f2 1f3f a4aa 603f
0.4483586 0.5668441 0.42432076 0.58663523 0.4321267 0.50279546 0.17844824 0.7321816
0.72218096 0.5711361 0.5245639 0.7430043 0.4346508 0.7101948 0.10192277 0.5370716
0.4643144 0.031899188 0.75796133 0.12055655 0.65319604 0.6153493 0.037257195 0.7541479
0.89112264 0.52402526 0.30260107 0.057297457 0.7752682 0.859907 0.09527937 0.049070455
0.23405512 0.71133846 0.6486498 0.8115777 0.21556969 0.27933902 0.031025233 0.83250034
0.4922672 0.24221733 0.36308864 0.2840565 0.35275775 0.75958323 -0.06128211 0.7015152
0.30363953 0.73972625 0.50496536 0.41096804 0.31208035 0.14528921 0.36378077 0.67886144
0.57447153 0.41343427 0.80345625 0.35131 0.6454197 0.7327314 0.6247963 0.87760377

bias f4 [64]
00000000: c4ae b8bc 4829 643b fad5 22bc 13c2 3a3e
00000010: 4340 113e c792 d23d df43 da3d e027 bc3d
00000020: 9035 273e efad 033e f466 013e 6eeb 763e
00000030: 12b4 00bd f4cf c43c 3558 9b3e 4b2f db3b
00000040: d03c 413e 83b8 b0bd db7b ae3d 7c90 e53c
00000050: bb56 c3bd d345 1e3e fe09 8abe 96fa a43d
00000060: 2fd0 fc3d f5d7 0ebe 0acf dc3d e5b8 b7bd
00000070: 067e 28be 0708 133d 0774 d1bd df03 94bd
00000080: 06dd 27bd cba0 ac3c c1e7 4cbd 7551 4e3c
00000090: c42e 613e 8a3d bfbd 0e8b 94be 5aac 383c
000000a0: 5219 52bd b526 34be bcdd be3d d2ad 02be
000000b0: 2cd2 343e 4380 cebd 86e1 bfbe affd 723e
000000c0: 0dbe efbd 26d5 cbbc 21f1 e03d 0e87 e73c
000000d0: 63b2 233e 5b05 0e3d ad29 353e 997b b53c
000000e0: 7e5c 84bd 42c4 093b 237b 123e f1ef f8bc
000000f0: 61f3 f3bd fb13 d43d 7ab5 b33c 2b8d 893c
-0.022544272 0.0034814645 -0.009938711 0.18238096 0.1418467 0.10281902 0.10657477 0.09187293
0.16329026 0.12859319 0.1263693 0.24113247 -0.03142173 0.024024941 0.30340734 0.0066889874
0.18870854 -0.08628943 0.08519717 0.028022997 -0.09538027 0.15456323 -0.26960748 0.08055608
0.12344395 -0.13949569 0.10781677 -0.08970813 -0.16454324 0.035896327 -0.102272086 -0.07227301
-0.04098227 0.021072766 -0.050025705 0.012592663 0.21990496 -0.093379095 -0.2901234 0.011271561
-0.05129368 -0.1759289 0.09319636 -0.1276162 0.17658299 -0.10083058 -0.37476748 0.23729585
-0.11706171 -0.02488191 0.10983492 0.028262641 0.15986018 0.034673076 0.1769168 0.022153663
-0.06462954 0.002102152 0.14304785 -0.03038785 -0.11911655 0.103553735 0.02193712 0.016790947

running_mean f4 [64]
00000000: f119 223d 018c a33c e905 813c 1cb6 313d
00000010: e0c5 b73b 0ec6 503c a60c b33c f07f 393d
00000020: 7180 8f3c 2ee6 b43c 7151 123c 47a3 143c
00000030: 031b 173c db0b c33c 3770 fa3a eddc 823c
00000040: d8e0 183b 06ea 123c d7db 3a3c 20ab 6b3a
00000050: e20b 0f3d 74df 733c 90c1 da3c e58d 263d
00000060: b02e 843c 373e 963d 1447 3f3c e75d f23a
00000070: 4164 163d 694c 803c c811 863c de90 4c3d
00000080: f111 533d 2639 513c d96d b73c 4bbc a23d
00000090: 664a 093c 63ce bf3b b525 a63c cd13 e63c
000000a0: 9720 253d aa1a 193c 19f5 733d 6fec 2e3c
000000b0: 25a1 b23b 91af b93c 37ac ad3a aacd 173c
000000c0: 1e84 8e3c 51b9 943c 1898 813d 245a e63c
000000d0: df05 f53b 53fb 243d 4583 6b3b db86 b63c
000000e0: 3ef0 c33c c8df 8c3c bac8 503d 67d9 d63c
000000f0: 5f3f cd3c dc16 203d faac 2d3b 0ced e13c
0.03957552 0.01996422 0.015749888 0.043386564 0.0056083053 0.012742532 0.021856617 0.045288026
0.0175173 0.022082414 0.00893055 0.0090721315 0.009222749 0.023809364 0.0019106929 0.015974486
0.0023327377 0.008966928 0.011404953 0.0008990038 0.03492344 0.014884818 0.026703626 0.040662665
0.016135544 0.07336085 0.011674661 0.001849112 0.036716703 0.015661435 0.0163659 0.049942844
0.051530782 0.012769973 0.022391247 0.0794607 0.008379554 0.0058534606 0.020281652 0.028085614
0.040314283 0.009344736 0.059559915 0.010676487 0.005451339 0.022666724 0.0013250177 0.009265343
0.017396983 0.018154772 0.06327838 0.028119154 0.0074775065 0.040278744 0.0035936397 0.022281101
0.023918267 0.017196551 0.050972678 0.026226712 0.025054632 0.0390843 0.0026500807 0.027578853

running_var f4 [64]
00000000: a5de 133c ba0d 353b c5a5 3a3b c666 183c
00000010: ada7 3e3a df88 e03a b16b 903b 50bb 933b
00000020: ece4 483b a9e9 503b c480 943a fcfa b63a
00000030: 7e2a a13a 76c9 953b 81e6 8939 47db 093b
00000040: b8ef e239 3bed 4b3a 2d99 1e3b 3f8c 0b39
00000050: 589c 2c3b 4bfe df3a ac31 be3b 52d1 ef3b
00000060: b39a 273b 9fe7 773c d318 773a 3cdd b539
00000070: bbeb 0b3c ce4e 303b 9245 943a 0ee9 7c3b
00000080: 3af8 913b 8b17 0b3b 4bbf 5e3b 5661 263c
00000090: 3224 c23a 4b9d 683a e5e1 6f3b fc14 953b
000000a0: e786 5f3b 4cf8 a93a 704b 173c bd19 013b
000000b0: 6198 0a3a 2338 783b d894 d239 ce48 973a
000000c0: 1dfe 483b d7b6 6b3b 0da8 013c bdcb 553b
000000d0: 022f 9c3a fd13 913b 775d 0e3a bf5f 503b
000000e0: 9064 503b f170 dc3a 1da0 a73b 9ac7 8b3b
000000f0: 78ef a53b a386 ab3b 01e8 ce39 598c ab3b
0.009025251 0.002762659 0.0028480154 0.009301847 0.00072729104 0.0017130635 0.004407369 0.0045084134
0.0030654026 0.0031877554 0.0011329879 0.0013960297 0.0012295989 0.004571135 0.00026302415 0.002103524
0.00043284683 0.00077791855 0.0024200187 0.00013308319 0.0026338305 0.0017089335 0.005804261 0.007318654
0.0025574386 0.015130906 0.00094260013 0.00034687843 0.008540089 0.002690244 0.0011312237 0.003859106
0.0044546397 0.002122375 0.0033988531 0.010155043 0.0014811812 0.0008873536 0.003660315 0.0045496207
0.0034107508 0.0012967675 0.009234294 0.001969918 0.00052869885 0.0037875257 0.00040165219 0.0011542083
0.0030669041 0.0035967135 0.007913602 0.0032622658 0.0011915865 0.0044274316 0.00054307975 0.003179535
0.0031798221 0.0016818327 0.0051155225 0.0042657377 0.0050639473 0.005234556 0.00039464238 0.0052352366

weight f4 [128, 64, 5, 5]
00000000: 8155 6c3b a4ac b1bb 89ff 1eb9 0751 4639
00000010: c01f f4bb 8dff 0f3c a773 dbbb 45a2 21bb
00000020: b1e9 a6bb dfa3 f6bb 0f32 8e3b 8196 a3b9
00000030: a9df 8bbc b589 7bbc 321e 55bc 4ead 9dbb
00000040: 5442 a4bb 8a73 9fbc 6633 30bc dca2 1fbc
00000050: 3dcb b3bc 2522 17bc 3b50 8cbc 900a 8fbc
00000060: ae74 46bc 026b ad3c 0420 183c 05a5 46bc
00000070: 7147 41bc db9a c53a a8d1 953c 5ed8 683c
00000080: fca9 4cbb ad28 a5ba 5828 ba3b 87af 933c
00000090: 6b61 11bb a881 43bb 5610 25bc da54 26bb
000000a0: 7a08 6ebc 4e0b b9bb 57e3 c0bc 72c3 5d3c
000000b0: d720 b9bb 8913 43bc cc27 eb3a 103a adba
000000c0: c9d6 94bb 38cc e2bb ee19 273b 1541 5cbb
000000d0: 13a7 08bb 58dd aebb d846 23bc 9603 6e3c
000000e0: 9801 e23b c96c aa3b 3973 f8ba 5ff3 1b3b
000000f0: bf73 4e3a a8f9 c53b 3ad6 c33b ee42 1a3c
00000100: 4160 efbb fb35 24bb e17c 7f3b 05d0 823c
00000110: cbe9 2d3a 9d8b 3f3c 5486 02bd 9982 e33a
00000120: 7d80 e839 8e6c 4b3b 8d54 edba a527 97bc
00000130: 9bda b3bc 7b0e b2bc 21f6 c2bc 5a58 b3bc
00000140: 355c 89bc 1e05 adbc eb6b b4bc 63bf bcbc
00000150: 9b60 01bd e954 93bb 20c1 f1bb 7ca8 83bb
00000160: 2840 84bb 168d 38bc f5b5 58bc a7b3 1dbc
00000170: 47a3 ddbb f734 c1bb 2d1a 25bc e4be b3bc
00000180: c49d 8abc 341f c5bb 2c92 85bb c762 6fbb
00000190: dd32 ce3b 0c5a 773b 6498 e7ba 04fc a2bb
000001a0: aaa2 053c 3ce6 363c 5601 78bb 91b1 c1bb
000001b0: 7dc0 8cbb e70d 1cbb 41ac 933c bab1 2bbb
000001c0: 1b36 54bc 9793 953a c05a 743b b5de f8bb
000001d0: 2314 7d3a 8841 b43c e56a 4bbb 3198 da3b
000001e0: fbb6 b53b b995 f43b c982 613b 5f72 e93b
000001f0: c957 aa3c aa6d 343c fa02 fbbb ea73 4d3c
00000200: ee54 183c 72ac 0dbc 382a ed3b 551d 3cbc
00000210: 3935 82bc b43a c5bb 7c72 bdbc 054e 133c
00000220: 6545 163c 44fb 983a 8d89 a8bb 8ba7 17bc
00000230: 4634 1f3b 6359 b33b 1b22 94bc a664 e9ba
00000240: b2c0 123b ff28 9b3b 6f55 48bc 37ca ccbc
00000250: 479b ae3b a5f8 c5bb 0bd1 bab8 420b dbba
00000260: bebc 093b 729c 2b3a 8175 9dbb c11d 6d3b
00000270: d3e2 81ba 95e9 c6bb 17bb f9bb 504d f2bb
00000280: 2b92 bd3a dec2 8fbb 27fe 5dbb a7c2 b5bb
00000290: 2a62 d3bb f41b f3bb a8c0 84bb 8c79 8fbb
000002a0: fb8b efbb 5e5e 473a a501 61ba 95cb 0bbc
000002b0: 3fc9 ebba 3436 1ebb a754 a0bb 0a8f f03a
000002c0: a635 47ba c6dc 563c e2d3 883c 1b3d 813c
000002d0: 9792 c33b 7d39 6d3c e2c8 5b3c f1ce 84bc
000002e0: 714f fe3b b2a4 af3a 07cb f73b ba60 71bb
000002f0: d3f0 2e3c 0f0e a33c 062a ee3a 898c 193c
00000300: 54fa 6f3b 0e2b bebc 0b9a dabb 14d4 2a3c
00000310: d4bc 233b 467c 253b c318 30bc 8c6a c4bc
00000320: e883 b83c 1725 453c a8bc 1a3c b3f4 80bb
00000330: 85d2 c13b 3777 c23c ad58 083c b48d 483b
00000340: 6225 093c d504 233b 9bd4 983c 5fa8 863c
00000350: 55fa 43bc 60a8 b0bc 686c 98bb 002c 0f3d
00000360: 9b9c a73c 17f9 babb fbd0 2cbc ff8c a93a
00000370: e72c cc3c eee8 b43a 562d 59bb ec6d b03b
00000380: c7af 923c 7b36 473c f765 593c 3cbb ba3c
00000390: 4a02 193b 45fa 603b 7cb3 ca39 b72a 4cbb
000003a0: ede5 613c 548b f23b aeb0 3bbb 369b 0bbb
000003b0: 9c5e a7b7 98d4 7bbc a8d1 c23b d30b 6e3b
000003c0: bfdb 933c be17 d839 b3b2 37bb c306 c4bb
000003d0: 2fe6 acbb 17af 063c 370d 5e3a 9820 f9bb
000003e0: e72b 8f3c b624 983c 9e93 2e3b fea0 933b
000003f0: 42d4 adbb e66d a13b 4e79 2c3c 23c1 b83c
0.0036061706 -0.0054221917 -0.00015163248 0.00018912937 -0.007450074 0.008788955 -0.0066971364 -0.002466337
-0.005093776 -0.007526859 0.0043394635 -0.00031201917 -0.017074423 -0.015352656 -0.013007687 -0.0048119193
-0.0050127897 -0.019464273 -0.010754442 -0.009743419 -0.021947498 -0.009224449 -0.0171281 -0.017461091
-0.01211278 0.02116919 0.009284977 -0.012124305 -0.011796818 0.0015076058 0.018288448 0.014211742
-0.0031229248 -0.0012600623 0.005681079 0.018028034 -0.002218331 -0.002983192 -0.010074696 -0.0025380165
-0.014528388 -0.0056470996 -0.023545904 0.013535367 -0.005649667 -0.011906513 0.0017940938 -0.0013216157
-0.004542206 -0.0069213174 0.0025497633 -0.0033608128 -0.0020851537 -0.005336445 -0.009965621 0.014527222
0.0068971626 0.0052009565 -0.0018955237 0.0023796184 0.0007875524 0.0060417242 0.0059764655 0.009415371
-0.0073051755 -0.002505659 0.0038984346 0.015968332 0.0006634264 0.011691001 -0.031866387 0.0017357647
0.0004434622 0.0031040045 -0.0018106863 -0.018451521 -0.021954825 -0.02173542 -0.023799004 -0.021892715
-0.0167676 -0.021120604 -0.022024116 -0.023040479 -0.03158627 -0.004496206 -0.0073777586 -0.0040178876
-0.0040359683 -0.011264106 -0.013226976 -0.009625352 -0.006763849 -0.0058962065 -0.010077042 -0.02194161
-0.016920932 -0.0060156826 -0.004076263 -0.0036527382 0.0062926845 0.003774288 -0.0017669317 -0.0049738903
0.008156458 0.011163291 -0.0037842593 -0.00591106 -0.0042954073 -0.0023811997 0.018026473 -0.0026198463
-0.012952353 0.0011411783 0.0037285537 -0.007594908 0.00096541847 0.022003904 -0.0031039056 0.0066709747
0.0055454946 0.0074641374 0.003441023 0.00712423 0.020793812 0.011012474 -0.007660267 0.012539843
0.009297593 -0.008647071 0.007237699 -0.011481603 -0.01589452 -0.006018961 -0.02312588 0.008990769
0.009171818 0.0011671563 -0.0051433505 -0.009256254 0.0024292632 0.005473302 -0.018082669 -0.0017806485
0.0022392687 0.0047351117 -0.0122274 -0.024998767 0.005328569 -0.0060416036 -8.9081084e-05 -0.0016711729
0.002101704 0.00065464445 -0.0048052673 0.0036181065 -0.0009909518 -0.0060703256 -0.00762118 -0.0073944703
0.0014463117 -0.0043872437 -0.003387341 -0.005546886 -0.006450911 -0.0074191038 -0.0040512867 -0.004378503
-0.007310388 0.00076053094 -0.0008583314 -0.008532424 -0.0017989053 -0.0024141194 -0.004892904 0.0018353176
-0.0007599242 0.01311416 0.016702596 0.015776208 0.0059684026 0.014479038 0.013414593 -0.016211959
0.007760935 0.0013400523 0.0075620445 -0.0036831335 0.010677534 0.019904165 0.0018170483 0.009371885
0.0036617713 -0.02321389 -0.0066711954 0.01042654 0.0024984377 0.0025251075 -0.010748091 -0.023976587
0.022523835 0.012032769 0.009444393 -0.0039354204 0.0059149885 0.023738487 0.008321923 0.003060204
0.008370729 0.0024874706 0.018656066 0.016437707 -0.011961539 -0.021564662 -0.004651595 0.03495407
0.020460417 -0.0057059634 -0.010547872 0.0012935697 0.024923755 0.0013802329 -0.0033138595 0.0053841975
0.017906083 0.012158985 0.013268939 0.022794358 0.0023347312 0.003432886 0.0003866217 -0.003115339
0.013787729 0.007401863 -0.0028639245 -0.002130223 -1.9952007e-05 -0.0153705105 0.005945403 0.0036322966
0.018049119 0.0004121642 -0.0028030097 -0.0059822514 -0.0052764635 0.008220456 0.0008470597 -0.0076027624
0.017476989 0.018572193 0.002663828 0.0045052757 -0.005304844 0.004926431 0.010526968 0.022553032

bias f4 [128]
00000000: 937e 873b 9446 6bbd 0355 07bd c430 b2ba
00000010: f38b 73bd 2c4f 94bd 6bd3 65bd 6147 15bd
00000020: fa9b 8abc 31b5 f3bc 581e 74b9 c03b abbd
00000030: 91ca d5bd 6132 92bd 027b 68bb 92d1 b9bd
00000040: 8a5a 62bd db71 19bc 865c 41bd f8ba 00bd
00000050: bbb1 11be 0548 5ebd 4c1e 92bd 3f16 4bbc
00000060: 4d8d dbb7 bf83 f13b 80f0 73bd 6418 f9bc
00000070: be3f 41ba 2f1d cdbd 9471 26be 1577 6abc
00000080: 8eee 00bb 3e0d 2bbd 1e72 8fbb 9362 86bc
00000090: 4e0c 95bd d521 80bc f555 713b 861d 78bd
000000a0: b1ca 2bbd b14e cabd a22f 3dbd 6030 f2bc
000000b0: fbcb c7bd 62ad 20bc 3cc1 b1bd 744b 08be
000000c0: ee39 e2bd 4b8e 9abd a02b acba 213a 38bd
000000d0: 47c3 90bd f1ba ccbb ebce 223b 82c5 593b
000000e0: f473 93bd 9c0f bb3b a1df e5bd 7ed4 2bbc
000000f0: 29d4 73bd abcb 54bc 4ac6 4cbc d09c 1f3b
00000100: f011 06be 06bf 2cbd 86ad 6cbc 0f86 e9bc
00000110: 2c06 19bd 4897 73bb 59cc 023d 393d acbd
00000120: 2c21 c337 d152 2abd eec5 5a3b abfc 3cbd
00000130: f8c3 7abd dc4e 96bd f9b8 63bd 8da9 043c
00000140: f794 50bd f229 1abd ec66 50bd 7ebe e93c
00000150: b2e6 b4bd cb26 6fbc 6f83 0dbd c469 cbbd
00000160: 895d 9b3b 7dab 0cbd 6b50 673c fc4a 3abe
00000170: 49c9 0bbc fd9d f8bc f39b 093d ed09 643b
00000180: 092d 86bd bba7 87bd abd4 463b a01a 74bd
00000190: 6203 16bd 68b7 05bd 9a8f 3cbc ad4b 7fbd
000001a0: 8f58 dabd 5933 a8bd fb7b a6bc c54c 33bc
000001b0: 674f 3cbb a01e e2b8 5482 633b 8cb0 3c3a
000001c0: 9dcd 31bc 5ac4 5dbc a285 aebd c2fb 94bd
000001d0: f0f9 ee3a 850a c1b9 6076 02bd d8cb 6dbc
000001e0: fd0d d73c 9f70 8abd 34fd 13bd da43 f0bc
000001f0: 71cc cdbd 5927 7bbd cfc7 f8bc 0f7a 233b
0.004134962 -0.057440355 -0.033040058 -0.0013594856 -0.059459638 -0.07241663 -0.056109827 -0.036445025
-0.016920079 -0.029749485 -0.00023280957 -0.08361006 -0.10439027 -0.07138515 -0.003547371 -0.090731755
-0.055262126 -0.009365524 -0.047207378 -0.031428307 -0.14227955 -0.054267902 -0.07134685 -0.012395441
-2.6172633e-05 0.0073704417 -0.05955553 -0.030407138 -0.0007371864 -0.10015332 -0.16254264 -0.014310618
-0.001967344 -0.041760676 -0.0043776175 -0.016404426 -0.072777376 -0.015641132 0.0036824916 -0.06057503
-0.04194135 -0.098782904 -0.046188004 -0.029564083 -0.09755703 -0.009806963 -0.08679435 -0.13310033
-0.110462055 -0.075466715 -0.001313556 -0.04497731 -0.07068496 -0.006247871 0.002484257 0.0033229296
-0.07199851 0.005708648 -0.112242945 -0.010487674 -0.059528504 -0.012988011 -0.012498448 0.0024354942
-0.1309278 -0.04217436 -0.014445668 -0.028506307 -0.0373594 -0.0037169028 0.031933162 -0.08410115
2.3261258e-05 -0.041582886 0.0033382135 -0.0461394 -0.061222047 -0.0733926 -0.055596326 0.008097065
-0.050923314 -0.03763766 -0.050879404 0.028533217 -0.08833064 -0.014596651 -0.034549173 -0.099322826
0.004741375 -0.03434323 0.014118294 -0.18192667 -0.008531877 -0.030348772 0.03359599 0.0034795955
-0.065515585 -0.06623789 0.0030339162 -0.059595704 -0.03662432 -0.032645613 -0.011508847 -0.06232803
-0.106614225 -0.08212919 -0.02032279 -0.010943596 -0.002873385 -0.00010782224 0.0034715133 0.00071979384
-0.010852245 -0.013535583 -0.08521582 -0.072745815 0.0018232446 -0.00036819666 -0.031851172 -0.014513932
0.026251787 -0.06759762 -0.036130145 -0.02932923 -0.1004876 -0.06131682 -0.030368714 0.0024944579

weight f4 [128]
00000000: 124e 153f 5129 383e db16 503f e136 b13e
00000010: aed4 e73e 4a13 d83e 1e9e 023f 973d 1c3f
00000020: 6e62 803e 8622 183e 8d9f d6ba 77d3 293e
00000030: 38bd 193e 1683 8b3e c842 233e 1cf0 403f
00000040: b5e0 743f 188b 413d 8410 153f 9d56 5e3e
00000050: dbc7 f73e 9bbe 433e ec21 c03e a9de 813d
00000060: 29a8 4a3a e2cd 173e bfce 853e a95a d03e
00000070: cc44 2cbb 72e1 ad3e d4fd ad3e aeda de3d
00000080: 5f53 653a 29c5 ed3e 3692 3d3f a84e c83e
00000090: d8dd 5d3f 6075 843e 888a 703e 3d7f 3f3f
000000a0: ce68 3d3e 5dc5 383f 62fe 103e c010 063e
000000b0: c1df 203f 94e6 8b3e aeb7 193f 31aa 703f
000000c0: 771b 643f dc03 a93e 24ea e73e db98 343f
000000d0: 2a26 103f 8f5f 8a3e 56bf 003f b554 8c3e
000000e0: 0b30 0a3f e15d 7b3d 443c dd3e c35b 6d3f
000000f0: d683 6c3f bdf7 133f 3629 793f 7958 613e
00000100: 64fd 5e3f 90fb 783e db10 063f c704 ea3e
00000110: 8a74 2d3f 7ecd de3e 6f3d 463f c745 103f
00000120: f9b3 133b e4ef 1c3e a08e 263e adb6 f03e
00000130: a65c 513f b8af 6c3f 1dc6 f63d 3b59 533d
00000140: cb40 313f 5777 603f 020f 383e f64e 913e
00000150: ae38 603f 8272 2e3f a9b2 923e 2401 4c3f
00000160: 177f db3e ee27 5b3f 7f26 553f 7922 693f
00000170: 1459 c43e ec22 5d3f e817 5e3f 49af 3a3f
00000180: 389a 2b3f d601 e13e c8f3 0a3c 1a44 073e
00000190: d468 2a3f 2b6d 303f ff20 6a3f daad 3d3f
000001a0: d69d 623f 7a45 603f 76b7 373f be2b 433f
000001b0: a9f1 3c3b 8e75 123d aab9 b93c 302a 33bb
000001c0: 6c86 2e3e 2ea3 203e f801 943e 8f93 393e
000001d0: ff02 9b3e dbff 323f 0f35 b73e ed8f 503f
000001e0: f30d fb3e d13e 1d3f 99fe 2d3f 3846 b73e
000001f0: 8e3f b63e 09f3 403f f70f 243f 7fc3 423f
0.5832225 0.17984511 0.81284875 0.34612182 0.4527945 0.42202216 0.5102252 0.6103148
0.25075096 0.1485692 -0.0016374454 0.16584574 0.15013587 0.27248448 0.15943444 0.7536638
0.95655376 0.04725179 0.58228326 0.21712728 0.48394665 0.19115679 0.3752588 0.06341297
0.00077307463 0.14824632 0.26134297 0.40694168 -0.0026286123 0.33961064 0.33982718 0.108815536
0.000874808 0.46439484 0.74051225 0.3912251 0.8666663 0.258708 0.23490345 0.74803525
0.18497011 0.7217615 0.1415954 0.13092327 0.6284142 0.27324355 0.600459 0.9400969
0.8910441 0.33010757 0.45295823 0.7054574 0.56308234 0.2702603 0.50291955 0.27408376
0.5397956 0.061368827 0.43210042 0.9271814 0.92388666 0.57799894 0.9732851 0.22006406
0.87105393 0.24314713 0.5236947 0.4570677 0.6775595 0.43516153 0.7743749 0.5635647
0.0022537692 0.15325886 0.16265345 0.4701437 0.81781995 0.92455626 0.12049506 0.05159877
0.6923949 0.876821 0.17974475 0.28380555 0.87586486 0.68143475 0.28651932 0.7968924
0.428704 0.856078 0.83261865 0.91068226 0.3834921 0.8638141 0.8675523 0.72923714
0.67032194 0.43946713 0.008480974 0.13209572 0.66566205 0.6891658 0.914566 0.740934
0.8852209 0.8760601 0.71764314 0.7623862 0.0028830564 0.03575664 0.02267154 -0.0027338378
0.17043465 0.15687248 0.28907752 0.18122695 0.30275723 0.69921654 0.35782668 0.81469613
0.4903408 0.61423975 0.6796661 0.3579576 0.35595363 0.7537084 0.6408686 0.76079553

bias f4 [128]
00000000: ac53 033e 596e 163e e8db 02be 8f25 003e
00000010: dc17 0fbe b918 13be ed49 14be 7c94 193e
00000020: 626e 223e 80de fabd 4db7 603c b825 2abe
00000030: 14f5 29be 197b 243e 25e1 24be 6b9d 0cbe
00000040: dcab 183e 656f 363e af40 0dbe 9254 2b3e
00000050: 9f11 1bbe 60b7 10be c8e7 273e 8f7a 13be
00000060: 3f34 39bb f052 1b3e faaa 293e 52af 2a3e
00000070: 3247 813e 9230 14be f227 52be fe3d 0bbe
00000080: a5de 63be 31c2 263e d8b5 123e d2d1 ddbd
00000090: 263e 393e 96ca 0abe 58ad 123e eb51 04be
000000a0: fdb4 413e ea65 0fbe 6abf 253e 17e1 203e
000000b0: 53a5 13be f359 113e 4451 0bbe 043f 20be
000000c0: aa72 16be 583c 0fbe 6698 febd e8a7 0dbe
000000d0: 1093 0dbe 5376 123e f530 0f3e e59c 053e
000000e0: aaac 12be fa3f 253e 56e1 15be ca64 0d3e
000000f0: 0ed7 0abe 9bdd 0e3e 042d 113e 2f3d 133e
00000100: 3b80 1dbe 8d7e 263e 0980 143e c4c4 fe3d
00000110: a692 143e 5059 bd3d 75d4 0bbe a124 0cbe
00000120: 04d6 f9bb 20a2 293e 4d35 853d 3d44 153e
00000130: a301 fdbd c404 06be 16ea 293e 089f 1a3e
00000140: b095 f9bd 7af4 0fbe a2dc 2f3e 5b6f 0b3e
00000150: 04da 0fbe b387 113e 99a5 213e 3d58 2c3e
00000160: a4f4 0e3e 7b74 f2bd 216f 0abe 274b 38be
00000170: a4dd 0a3e b8ba fabd 20b7 0dbe 515c 053e
00000180: e353 05be bfa6 15be 0db0 743e dc4f 2a3e
00000190: f4ce f0bd 06dd 163e e75b 0b3e e658 193e
000001a0: 7042 2dbe 6580 173e d2f5 1c3e 7cdd 0d3e
000001b0: 9af3 87be 2bdd 91bc 25d2 0cbe 72ec 33be
000001c0: 378f 16be 06ae c8bd d933 1b3e fc8f 2b3e
000001d0: f198 123e 82dd 09be bafb 05be 1ca6 f8bd
000001e0: 2926 0c3e 716b 05be aaf0 123e be65 2e3e
000001f0: 6c0d 1dbe 8e73 06be 3709 06be 36c1 0b3e
0.12824887 0.14690532 -0.127792 0.12514327 -0.13973945 -0.143649 -0.14481325 0.14998049
0.1586242 -0.1224947 0.013715577 -0.16615951 -0.16597396 0.16062583 -0.16101511 -0.13731925
0.14909309 0.17815931 -0.13794206 0.1673148 -0.1514344 -0.14132452 0.16397011 -0.14402221
-0.00282599 0.15168357 0.16569129 0.16668442 0.2524963 -0.14471653 -0.2052305 -0.13597867
-0.22252901 0.16285016 0.1432718 -0.10831036 0.18090114 -0.13553843 0.14323938 -0.12921874
0.18916698 -0.14003721 0.161863 0.15710865 -0.14418535 0.14194469 -0.13605219 -0.15649039
-0.14692178 -0.13987863 -0.124314114 -0.13833582 -0.13825631 0.1430295 0.1398352 0.13048132
-0.14323679 0.16137686 -0.1463674 0.13807979 -0.135586 0.13951723 0.14177328 0.14378808
-0.15380947 0.16259213 0.14501967 0.12439874 0.14509067 0.09245551 -0.13655265 -0.13685848
-0.0076243896 0.16565752 0.06504307 0.14576812 -0.12353828 -0.13087755 0.16593203 0.15099728
-0.12186754 -0.14058104 0.17174008 0.13616697 -0.1404801 0.14211921 0.15785827 0.16830535
0.1396051 -0.11838623 -0.13518955 -0.17997418 0.13561112 -0.12242645 -0.13839388 0.13023497
-0.13020281 -0.1461439 0.23895283 0.16632026 -0.11758223 0.14732751 0.13609277 0.14975318
-0.16919875 0.14795072 0.15328148 0.13854021 -0.2655304 -0.017805656 -0.13752039 -0.17570665
-0.1470307 -0.09798817 0.15156497 0.16754144 0.14316155 -0.13463405 -0.13084307 -0.12141058
0.13686432 -0.13029267 0.14349619 0.17030999 -0.15337151 -0.13130018 -0.13089453 0.13647923

running_mean f4 [128]
00000000: 3096 083f b286 77bb 9eb3 7a3d c762 9a3e
00000010: bd84 fd3c 3803 483d ad93 30bc 687b ae3d
00000020: 3b2e 9d3e 3a0a 5e3d cd0a 623c 296f 943d
00000030: 4194 433d fed9 a93c fa22 863e 024e 603c
00000040: 8326 003d a958 493e 2863 e43d ccb9 573e
00000050: 62d7 9abc 595d 493d 217d f8b9 7885 af3e
00000060: 2e8c ff38 7e92 f83e 8173 7f3c 5835 193e
00000070: 4088 3e3e cf03 19bd 36b4 f9bb f389 8e3e
00000080: a266 333d 1c7d d13d 8ec4 243e a28a 973e
00000090: 95a0 813d ae42 923e 738f d43e 58e5 6f3c
000000a0: d5fb 823d d820 a03a ce54 533e adde 5b3e
000000b0: 04e2 d03a d542 783e 16cf dbba 2fcb abbc
000000c0: 085c c63c 18fd 063d c0b9 953e 9ee1 b23d
000000d0: 3e49 083d b85d f83e 9566 143f 126f ba3e
000000e0: affd c4ba ee67 ae3e 7bce 06bc f450 4f3e
000000f0: 1aa6 c13c ae5a f63e 1039 683e 44ab 073f
00000100: 8516 cbbc b329 493e 6e7e 913e 5f47 9b3e
00000110: 531e 433e 76ec 713e 5334 b63e d1b1 db3d
00000120: a244 893b 3fce fa3d 70be 263e a43d cd3d
00000130: 52de 983d 6362 9dba f651 143e bd46 f53e
00000140: 375e 373e 2a7e 9b3c 4fa1 da3d 0465 3e3f
00000150: 1300 be3c c563 003e ccb9 823e cb58 dfbb
00000160: 86f5 973e 2dff b43d 5b30 103e df3a bebc
00000170: 5f16 913e e7fa 103e 68fc 1a3f 197c 123f
00000180: 238d bc3b a89a d4bc 00bb 1e3e ec18 bb3c
00000190: 0b98 913e 18a9 c83d 1de7 f43e d143 5d3d
000001a0: ee61 883c a96c 103d 9906 d33d 64e2 be3d
000001b0: 0f1d 553e 481d 2a3c 7516 a73e 38a2 303e
000001c0: c83c 863e f2df 0b3e 01f8 f9bb 7248 453d
000001d0: b8c1 0c3f dbe8 ca3d 1005 f63d 52b8 843e
000001e0: 0b6c 4b3f 21d1 e03c 2c7a 8b3d 3331 fd3d
000001f0: d487 8bbc 7f93 673d 8ede 6f3e 5c3c 333f
0.5335417 -0.0037769494 0.061206453 0.30153486 0.030947084 0.048831195 -0.010777396 0.085196316
0.30699334 0.05420897 0.01379652 0.072477646 0.047748808 0.02073383 0.2619856 0.0136904735
0.031286728 0.19662727 0.11151725 0.2106697 -0.01890153 0.04916129 -0.00047395474 0.34281516
0.00012185458 0.48549265 0.015591503 0.14961755 0.18606663 -0.037357148 -0.00762036 0.27839622
0.04379905 0.10228941 0.16090605 0.29597956 0.06329457 0.28566498 0.41515693 0.014642082
0.063956894 0.001221682 0.20637819 0.21471663 0.0015936499 0.24244244 -0.001677009 -0.020970909
0.024213806 0.032956213 0.29243279 0.08734439 0.033272974 0.48509002 0.5796903 0.36412865
-0.0015029217 0.34063667 -0.00822794 0.20245725 0.023638774 0.48116058 0.22678018 0.52995706
-0.024791012 0.19644813 0.2841677 0.3032789 0.19054537 0.23625359 0.35586795 0.10727275
0.00418909 0.122463696 0.16283584 0.10021523 0.07464279 -0.0012007471 0.1448439 0.47905532
0.17907034 0.018981058 0.106752984 0.7437289 0.023193395 0.12538059 0.25532377 -0.006816005
0.29679507 0.088377334 0.14080946 -0.023221431 0.2833738 0.14158212 0.6054139 0.5722061
0.0057541295 -0.025952652 0.15501022 0.022839032 0.28436312 0.09797877 0.47832575 0.054019753
0.016648259 0.035259876 0.10303993 0.09320524 0.20811866 0.010382958 0.3263432 0.17249382
0.26218247 0.13659647 -0.0076284413 0.048164792 0.5498309 0.09907695 0.12012684 0.25921875
0.79461735 0.02744347 0.06810412 0.123629 -0.017032541 0.056537148 0.23424742 0.70013976

running_var f4 [128]
00000000: 2d55 8c3f 033f a43c 4500 283e 77ca f83e
00000010: dcc0 c03d 7adb 1b3e 696c e83c 81e3 a63d
00000020: 36f6 933e 65b4 943d 9d35 493a 05a6 2f3e
00000030: 1160 a23d 9984 5b3d a0b4 8f3e e7d3 873d
00000040: 84b1 c63d 79f0 713e 3ba6 7f3e 9f2d 8d3e
00000050: 7a0a 833c a457 953d c3a4 1f3d 180a 123f
00000060: 4772 9133 a1c7 713f 6e4f 533d ac80 773e
00000070: 96ce f23d be20 c93a 09f4 173d 347c 0a3f
00000080: 0a33 463c 03d9 1e3e 2bee bb3e fea4 d73e
00000090: d05b 253e 942c c93e 5e16 673f 97a2 883d
000000a0: dc29 b73d 97a7 213d 0e51 033f 0a0b 803e
000000b0: 2f80 213d 6457 ba3e 3baf 193d 1f5f 893c
000000c0: 4b78 b53d fe42 c13d 68aa c13e 9347 193e
000000d0: 5fa9 ea3d b582 5a3f 4661 b13f 8dc6 173f
000000e0: 1b43 563d 34d6 083f a7b0 d73c 416a 593e
000000f0: 95a0 c93d 4b4a 013f 1bdc de3e 95d8 8a3f
00000100: 392d 343c 0a5a 903e c8bd 983e 6f54 163f
00000110: 4d70 bd3e dda8 a03e e21f ae3e 565a f23d
00000120: 6c27 a337 7edd 283e a6da e73d 6072 4a3e
00000130: ec65 a43d 6e3f 693d 5252 9a3e 9719 723f
00000140: a4e4 da3e 582b b63d 59de 5b3e 0536 d73f
00000150: 30b8 743d 3c7d 9b3e 46bd 053f 814c 0c3d
00000160: 5df1 ee3e 4bda 393e 6645 063e 9875 913c
00000170: 8db5 fa3e c7ef aa3e 4247 ea3e 095f 943f
00000180: cd1f 4d3d ebc9 fc3b d860 e83d f0a3 713d
00000190: 1b37 0f3f 33e7 5c3e 1ade 263f 3393 2f3e
000001a0: 7a98 303d a8db 213e 1f23 833e 8e28 2b3e
000001b0: 8770 243e c03a 1e3a 80ac bc3e 480f 793d
000001c0: 697d 843e 971f db3d c450 d63c 2ea5 083e
000001d0: 59a5 8a3f cf05 3d3e 35d2 553e 23c4 2b3f
000001e0: 45b5 f13f fe53 ef3d 1e4b 293e 1ea9 553e
000001f0: 2887 763c 6042 433e 4719 0b3f 0904 cb3f
1.0963494 0.020049578 0.16406353 0.48591968 0.09411785 0.15220442 0.028372006 0.08148862
0.28898782 0.0726097 0.00076755305 0.17153175 0.079284795 0.05359325 0.28067493 0.06632214
0.09701827 0.2362689 0.24965756 0.2757387 0.015996207 0.07292107 0.03897549 0.5704665
6.7728756e-08 0.94445235 0.051589422 0.24170178 0.118558094 0.0015344841 0.037097964 0.5409577
0.01209713 0.15512471 0.36705145 0.42118067 0.16148305 0.39291823 0.90268505 0.066716366
0.08943531 0.039466467 0.51295555 0.25008422 0.039428886 0.363948 0.03752063 0.01676899
0.08860835 0.09436606 0.37825322 0.1496871 0.11458086 0.85355693 1.385781 0.5928734
0.05231009 0.5345185 0.026329352 0.21231939 0.09845082 0.5050399 0.43527302 1.0847346
0.01099711 0.28193694 0.29832292 0.58722585 0.3699974 0.31378832 0.340087 0.118336365
1.9449471e-05 0.16490743 0.11321001 0.19770193 0.080272526 0.056945257 0.3014093 0.94570297
0.42752564 0.08894986 0.21471538 1.681336 0.059745967 0.30368984 0.52241933 0.034252647
0.4666852 0.18149678 0.13112411 0.017756268 0.48966637 0.3338606 0.4575749 1.1591502
0.050079156 0.0077145 0.113465965 0.058994234 0.5594346 0.2157257 0.6518265 0.17145996
0.043114163 0.15806448 0.25612733 0.16714689 0.16058551 0.0006035976 0.36850357 0.06080559
0.2587693 0.10699385 0.026161559 0.13344261 1.083171 0.18459247 0.20880969 0.67096156
1.8883444 0.11685942 0.16532561 0.20865294 0.015046872 0.19068289 0.54335445 1.5860606

weight f4 [1, 128, 1, 1]
00000000: 4130 7ebd 36ec 9ebe 9a77 563e 956d 26bd
00000010: c355 ac3e 4765 bf3e 45ea d93e 8ab0 84be
00000020: 7489 d2be f282 9a3d 19e3 debb bbef 713e
00000030: fa94 163f 52c9 cfbe a38d 353d 9254 1d3e
00000040: 3cfe ecbe 488d 4cbe 91de 773e 90cc f8bd
00000050: b81f a73e 6924 bc3e f4f6 52be f93b 933e
00000060: 1048 3938 74b6 30be 7e61 abbe 423a 73be
00000070: 59d0 74be 5938 b93e cdcf 8d3e 7b70 603e
00000080: d5fd 633e 15dd bfbd ef17 c4be cf76 3f3d
00000090: e1f5 32be 202c bc3d 11c8 a1be 45ca 823e
000000a0: 5424 14be 1820 a03e afad cbbe fb2b e1be
000000b0: 1ca2 e43d 89a4 88be 2318 073e 8409 173e
000000c0: bb9e 563e 2b3c 883e af4b 173e 3c77 bc3e
000000d0: e230 c33e 6e9f 93be eb70 9ebe 224c 83bd
000000e0: 7e22 b83e a3f0 25be a297 af3e 2272 95be
000000f0: 151b b73e 0b6f 41be dc6e b9be cd8d b9be
00000100: 2bb3 753e 4975 6abe 109f 6abe c54e 94bd
00000110: 4d20 9ebe 009e a1bc 0135 8d3e 11bd b93d
00000120: d372 8c38 ab25 8dbe 34fa e8bb 8a68 aabe
00000130: 26e2 183e 1bb9 723e ef6a fcbe 4ef0 b5be
00000140: 46c2 143e 23c1 aa3e 594f 89be c8a0 94be
00000150: 017d 6a3e f7c1 d5be bfe8 9ebe 4555 56be
00000160: 4869 51be 4dee e23d f928 a63e 6abe 513e
00000170: 2e3b a5bd 9556 203e e369 ba3e a7d2 eebd
00000180: ef59 6f3e 9eba 9a3e 1e2b 13be 43c5 b9be
00000190: 4e32 843d bac5 cebe a201 a2be 5949 cbbe
000001a0: d07a 103e 27e2 b3be 3fba ddbe d227 9dbe
000001b0: 75a8 883e 9913 bfb9 5e64 0d3e a9a8 b63e
000001c0: 64f9 b43d 07c1 e43c 5909 debe e65f f4be
000001d0: cfef 50be 71de 803e 3a7c 173e f0cb 043e
000001e0: ebc5 97be 688c 773e 386f 1ebe 9e78 eebd
000001f0: 2bde a63e 524d 6e3e b268 8f3e 3d19 6abe
-0.062057737 -0.3103959 0.20944062 -0.04063185 0.3365918 0.37381956 0.42561546 -0.2591594
-0.41120493 0.07544507 -0.0068019745 0.23626606 0.5882107 -0.40583283 0.04432453 0.15364292
-0.46287715 -0.1997577 0.24205996 -0.12148392 0.32641387 0.3674653 -0.20602018 0.28756693
4.417455e-05 -0.172571 -0.33472818 -0.23752692 -0.23907603 0.36175802 0.27697602 0.21917908
0.22264798 -0.0936834 -0.3829951 0.046744164 -0.17476608 0.09188104 -0.3159795 0.25544944
-0.14466983 0.31274486 -0.39780948 -0.43978867 0.111637324 -0.2668803 0.13192801 0.14749724
0.20958988 0.26608405 0.14774965 0.3680972 0.38123232 -0.28832573 -0.30945525 -0.064110056
0.35963815 -0.16205077 0.34295374 -0.2918864 0.3576285 -0.18890016 -0.36217391 -0.36240998
0.23994128 -0.22896303 -0.2291224 -0.072415866 -0.3088402 -0.01972866 0.275795 0.09069265
6.697108e-05 -0.275678 -0.0071099047 -0.33282882 0.14930019 0.23703425 -0.49300334 -0.355349
0.14527234 0.33350477 -0.2681835 -0.29028916 0.22899248 -0.41749546 -0.31036946 -0.20930965
-0.20450318 0.110806085 0.32453135 0.20482793 -0.08067928 0.15658028 0.3640891 -0.116612725
0.2337415 0.30220503 -0.14371917 -0.3628331 0.06454907 -0.40385228 -0.3164187 -0.39704397
0.14109349 -0.35133478 -0.43306157 -0.30694443 0.26691023 -0.0003644496 0.13807818 0.35675552
0.0883663 0.027924074 -0.43366507 -0.47729415 -0.2040398 0.2516971 0.14793482 0.12968421
-0.29643187 0.24174654 -0.15472114 -0.116441 0.32591376 0.23271683 0.28009564 -0.2286119
