ball_data/model_8500.pth (torch_old, 853498 bytes, 13 tensors)

weight f4 [64, 1, 5, 5]
00000000: cd4b 9abd fc7b 203d 9d31 d83c e999 f53c
00000010: ede7 333d 664f 91bd fba9 82bd b0fd 163e
00000020: 2f4d 813d 8970 ae3d 4558 30be 8d11 9ebc
00000030: 79f1 a3bd 5213 503d 5c0a 753d d365 65be
00000040: 7e7e 23be 2e60 283d 77fb f6bc eca2 443d
00000050: 23be 153d d9da afbd 9889 893c c418 1a3c
00000060: a64d 893c 3c68 393e 933a 0fbe bdf5 fa3c
00000070: 5d76 60bd 9117 e43b 580a 0b3e 90e5 483d
00000080: bc47 e8bd 7a09 0cbe 883a ac3d c02b bc3d
00000090: 911d 243d ce24 00be d281 8abd 472c 6ebd
000000a0: 87ec 01be a904 003d 6458 01bd 55f2 1abd
000000b0: eea8 ef3d 2fa6 96bb 84f4 be3d 440a 6fbc
000000c0: 218c 88bd dff8 893c ba14 c63d 0cef 2e3d
000000d0: a212 d0bc 4293 e7bd bc1a ddba 1521 3fbd
000000e0: 8f6d 003e 68b9 db3d 5992 09be 872d 8ebd
000000f0: 11a0 233d 216f 823d 148e 8e3c 8df3 c3bd
00000100: b860 893c 2954 003d a5ed cbbd d4f5 bfbd
00000110: 16b1 413c 32ff babd 4c63 3b3d 3e76 123d
00000120: ee4c 323e 8528 11bd 768b 863d 4b77 b6bd
00000130: 5d7e c0bd cbdc 603d 4180 0ebd 9f3b 19be
00000140: 9d6a 463d 48d7 2ebd df31 cf3c 56d6 6cbd
00000150: 4849 04be 165d 64bc f05c b23b bbba 41bc
00000160: 7b7f 24bc 6e6f a13d 690b fe3c d107 dcbd
00000170: 34d2 9ebd 6455 65bd 0db6 a7bd 3c2e 823d
00000180: 27d9 3bbd b17a d73d c9c6 443d a00a 4cbd
00000190: 5eaa 16bd 7f06 c0bc b9d9 56bb a0ab 943d
000001a0: 57a6 023d e8ac 10bd a7f7 b23c a3f4 963d
000001b0: f5ec e0bd 1a24 47bd 9d6f 65bd 64ed 723e
000001c0: 0a5f 0d3d 79ca f7bd 1baf d53d 97d1 b53c
000001d0: af09 023e eaf4 fdbd 7aac 3abe 1447 4cbd
000001e0: 8029 4cbd b0f5 0abd 9f5e cbbd 97c7 363d
000001f0: fe2b 3f3e 4d5b 973d 09a7 b3bc 2e77 fabd
00000200: 32b2 c03c d986 ccbc c66b 2d3d 553b 863c
00000210: 39c7 5dbd 980f c43d 6d91 773d 8507 4cbd
00000220: 490c 02bc d4e0 113e 12b9 213e 5b55 423d
00000230: df40 b9bd 11a0 7bbe f1e1 2cbe bc2c 82bd
00000240: 8df2 50bd 2545 c63d ca07 51bd 106c 7e3d
00000250: ff40 083e 6a2c 34bd 66d3 7bbd 8f6f ba39
00000260: be55 4abb b3d2 edbc 762d 323b 9abb 4cbc
00000270: eabc 0a3d 7c11 a53c 14c9 443d 2fe5 7d3d
00000280: 1d2d 063b 9e3a e1bc 68ba bebc ca6e 413d
00000290: 0402 7d3a c53f 95ba a2a2 db3b 2fed 5e3c
000002a0: b8eb 7f3c c88d 593c 0630 66bd 80a9 a4bd
000002b0: e8a8 20bd 0b2f a0bc 727a 213c 8b95 72bd
000002c0: c001 8d3d 2bca 0bbe c0df dbbd c9ea f1bd
000002d0: c666 cbbd ca74 3fbd f5f6 0e3c 92fa 89bb
000002e0: cc9d ff3d c4dd f83d 4782 363e 3f42 5d3d
000002f0: 5131 073e 807f 0dbc 16bd 2f3c b584 be3d
00000300: c0ee 113d e52c 3dbd b494 233c 8e8c 08be
00000310: 5f47 1ebc 6b97 0fbe 91b4 993c 87d4 a73d
00000320: 3b97 453d 6d6a fe3d c738 fe3d 5eeb d53d
00000330: a6d1 183e a7c4 d5bc 3330 6ebd 222f 2cbd
00000340: 19fa c9bd e64f 773d e2f5 cebd eeaf c1bc
00000350: 6bb4 c1bd f93b 00be f784 76bd b4d0 1fbe
00000360: c586 d0bd a7dc 54bd 3d14 b33c 8642 9dbc
00000370: fe42 983d 4c96 143e 9c4d 383d 6e95 2e3d
00000380: 5dba c73d a2be ea3d d28e 87bd ae8f 183e
00000390: 1b68 5d3e 85ca 283d 40fc 543d 771b 4fbe
000003a0: 89c3 c2bd 6d35 3cbd 21c2 83bd ec9a f23a
000003b0: 941b 18be aeb1 be3b d705 f83c e3c7 4d3c
000003c0: 029e 2b3e b05e 14be 7799 8ebd e2ed 853d
000003d0: 2b15 273d 6d46 113d 6679 99bd 672e 2b3b
000003e0: 9146 40bd a1f9 52bb 81db adbd 12ae 84bd
000003f0: 4a7f 3f3c 9296 0fbd 8bd1 a2bd b34f 4a3d
-0.07533989 0.03918074 0.026390845 0.029980617 0.043922354 -0.07095222 -0.063800775 0.14745212
0.0631355 0.08517558 -0.17221172 -0.019295478 -0.08005042 0.050799675 0.059824333 -0.22402124
-0.15966222 0.04110735 -0.030149205 0.048006937 0.03655828 -0.08586664 0.016789243 0.009405319
0.016760658 0.18106169 -0.13987188 0.030634755 -0.05480038 0.006960817 0.13578165 0.049047053
-0.11341807 -0.1367549 0.084096014 0.09188032 0.04006726 -0.1251404 -0.067630425 -0.058147695
-0.12687884 0.031254444 -0.031578436 -0.037828762 0.11702143 -0.0045974473 0.093239814 -0.01458985
-0.066673525 0.016842304 0.09671922 0.04270844 -0.02539951 -0.11307384 -0.0016868929 -0.04666241
0.12541793 0.10728723 -0.13434733 -0.069422774 0.039947573 0.063688524 0.017401733 -0.09567938
0.016769752 0.03133026 -0.099574365 -0.0937306 0.011822006 -0.09130706 0.045748994 0.035757296
0.17412159 -0.035439033 0.06569569 -0.08909472 -0.09399102 0.054898065 -0.03479028 -0.1496415
0.048441518 -0.042685777 0.025292335 -0.057821594 -0.1291858 -0.013938209 0.005443208 -0.011824305
-0.010040159 0.07882582 0.0310113 -0.10743678 -0.07754937 -0.055989638 -0.0818902 0.06356475
-0.04586139 0.105214484 0.04804114 -0.04981482 -0.03678357 -0.023440598 -0.0032783581 0.07259297
0.031896915 -0.035321146 0.021846605 0.073708795 -0.10982696 -0.048618414 -0.056014646 0.2372337
0.034514464 -0.120991655 0.10433789 0.022194667 0.12699006 -0.12400229 -0.18229857 -0.049872473
-0.049844265 -0.033925712 -0.09930157 0.044623937 0.18669125 0.07390461 -0.021930235 -0.12229763
0.02352247 -0.024966644 0.04233911 0.016385714 -0.05414507 0.09573287 0.060441423 -0.04981186
-0.007937499 0.14245921 0.15793255 0.047444683 -0.09045576 -0.24572779 -0.16883065 -0.06356189
-0.051012564 0.09681157 -0.05103282 0.062114775 0.13306044 -0.04398767 -0.061480902 0.00035559802
-0.003087386 -0.029031133 0.0027187741 -0.0124959 0.03387157 0.020149939 0.048043326 0.061986145
0.0020473667 -0.027493771 -0.023282245 0.047224797 0.00096514844 -0.0011386803 0.006702737 0.013606354
0.015620165 0.013278432 -0.056198142 -0.08040142 -0.03922358 -0.019553682 0.009855853 -0.059224647
0.068850994 -0.1365134 -0.10736036 -0.1181236 -0.09931712 -0.046742238 0.008725871 -0.0042107785
0.12481269 0.121516734 0.17823134 0.054018255 0.13202406 -0.008636355 0.010726234 0.093026556
0.03562808 -0.046185393 0.009984184 -0.13334867 -0.009660571 -0.14022605 0.018762859 0.08194833
0.048239928 0.12422643 0.12413173 0.10445283 0.14923725 -0.026094748 -0.058151435 -0.042037137
-0.098621555 0.06037893 -0.10105492 -0.02364346 -0.0945824 -0.12522878 -0.0601854 -0.15606958
-0.10181955 -0.051968243 0.021860236 -0.01919676 0.07434653 0.14510459 0.04499589 0.042622976
0.09752343 0.114621416 -0.06619038 0.1489856 0.21621744 0.041208763 0.051998377 -0.20225321
-0.095099516 -0.04594939 -0.064335115 0.0018509305 -0.1485427 0.005819521 0.030276222 0.012559864
0.16759494 -0.14489245 -0.06962865 0.06539513 0.04079167 0.035467554 -0.07493858 0.0026120187
-0.046942297 -0.0032192247 -0.08489133 -0.06478514 0.011688063 -0.035055704 -0.079501234 0.049392413

bias f4 [64]
00000000: cee4 20be 8855 8cbc 74ef c1bd 02aa 43be
00000010: b6d5 b9bd 8b0a 57bd 3634 81bd 56f6 123d
00000020: 7c1e b5bd 2509 04bd 30d9 80bd 32fd 12be
00000030: cbb8 14be 9083 1dbe 64ff 1dbe 5c4a 7abd
00000040: 98df 2cbe c3c9 45bb c93f 10be 3783 e4bd
00000050: c401 66bc ded4 14bd b9ca b8bc 7de1 40bc
00000060: c9bf d2bd 462d 1b3d 5c45 ccbd 0712 3dbc
00000070: 5924 0ebd e55c 62be 538f a9bd fdbe 1dbc
00000080: 6617 123c 49e8 c7bd 2929 13be c2b0 02bc
00000090: c8ad 56be 2525 d5bd 53a0 1abe 913a 25bd
000000a0: 8004 d93c b758 ccbd 801d 72bc 00de dbbd
000000b0: 511a a8bd bc19 12bd 47c7 81be a206 64bd
000000c0: 65f4 02be 0662 0dbe fdef 493d c3d5 9a3b
000000d0: 663f 99be 8217 f63b 3f48 09be ab1f cbbd
000000e0: c11a adbd 4d22 40be 0054 15bc d7c0 e8bd
000000f0: f771 7cbe 6484 033c 011d 0bbe 1954 1bbb
-0.15712282 -0.017130628 -0.094695 -0.19107822 -0.09073965 -0.05250029 -0.063087866 0.035879456
-0.08843705 -0.032235283 -0.06291425 -0.14354399 -0.14523618 -0.15382218 -0.15429455 -0.06110607
-0.16882169 -0.0030180074 -0.14086832 -0.1115784 -0.014038507 -0.03633582 -0.022557603 -0.011772511
-0.10290486 0.037884973 -0.09974167 -0.011539943 -0.034702633 -0.22105749 -0.0827929 -0.009628055
0.008916711 -0.09761102 -0.1437117 -0.007976713 -0.2096473 -0.104074754 -0.15100221 -0.040339056
0.026491404 -0.099778585 -0.014777541 -0.107357025 -0.082081445 -0.035669073 -0.2534735 -0.055670388
-0.12788542 -0.13806924 0.049301136 0.0047251894 -0.29931182 0.0075101266 -0.13406466 -0.099181496
-0.084523685 -0.18763085 -0.009114265 -0.11364906 -0.24652849 0.00802717 -0.13585283 -0.002370125

weight f4 [64]
00000000: b2d0 cb3e 0461 b73e 7e14 0d3e 4e80 da3e
00000010: b2df fb3e 4298 f73e 5e63 d83b 1c16 fc3e
00000020: 12d0 213f 2c36 013f 2cce 123f 8889 293f
00000030: 5a92 d43e e82c 103f 29eb 883e de0c b83e
00000040: cc96 073f 21bb efbb 3263 3c3f 8079 163d
00000050: afa3 e93e f06b 0a3f 87ff 21b9 5882 193f
00000060: f716 493f 708c 653e 7057 ba3e c9a7 b03a
00000070: a6a9 0c3f 37ef 483f 7782 a93b c357 b838
00000080: e1a7 a63b b2b8 0b3f fb87 be3e 8bef 223f
00000090: 4002 ac3e 30b0 783e 44f8 233c cec6 293f
000000a0: fd98 dd3e dd4a 6c3e a2ba 3c3e 2d56 e73d
000000b0: bd10 db3e ab72 1d3f 42ad 16be c212 373f
000000c0: 5ef6 413e e5de 033f a1d6 b53e e6a7 473e
000000d0: 7a9a cf3e d02e 973a d91f 063f 0aeb fb3e
000000e0: ea67 e03e 5eff 553e ec39 fb3e c461 853e
000000f0: c5f5 053f 7d1d 0f3f 7a6e 113f 9f9c 383f
0.3980766 0.35816205 0.13777348 0.42676014 0.49194103 0.4835835 0.0066036424 0.49235618
0.63208115 0.50473285 0.57345843 0.6622548 0.41517907 0.5631852 0.26741913 0.35947317
0.5296447 -0.0073160087 0.7358886 0.036736965 0.45632693 0.5407095 -0.00015449348 0.59964514
0.78550667 0.22416854 0.36394835 0.0013477738 0.5494636 0.7849001 0.0051730233 8.7901506e-05
0.0050859307 0.545787 0.3721312 0.63646764 0.33595467 0.2428596 0.010007922 0.66318977
0.43280783 0.23075433 0.1843057 0.112957336 0.42786208 0.61503094 -0.1471453 0.71513
0.18941638 0.51511985 0.3551531 0.19497642 0.40547544 0.0011534337 0.52392346 0.49202758
0.4382928 0.20898196 0.49067628 0.26051152 0.5232814 0.5590437 0.568092 0.72113985

bias f4 [64]
00000000: 3e39 4c3d fe83 b93d 2db0 023c bce2 853e
00000010: a81f 283e 5ffb 1c3e e0e6 423b 2055 ff3d
00000020: b70f 583e de59 493e 9feb 373e f33f 943e
00000030: 7dfd 0f3d 3351 303e c853 863e bbee c53d
00000040: c072 6b3e cd19 633b 4081 603e 82a8 223c
00000050: 5155 2b3d 6a64 813e 4024 26bd de90 103e
00000060: 9304 633e b3d8 1dbe 98b6 ea3d 703b 9fba
00000070: f209 d4bd ec79 3e3e 8c72 f13b 5957 123a
00000080: be98 1cbb 9593 753d 9f37 053c bc5b 3d3e
00000090: 82a1 253e 649d 993c b995 16be 367c b93d
000000a0: bcc0 cbbc 9ca9 8fbd bacd f53d d250 16bd
000000b0: 4fa4 543e e178 9abd 5e6e bfbe c8e7 b23e
000000c0: e7db a7bc c855 e63d 1d12 123e 6d82 f43c
000000d0: 7389 0a3e a5ec f43a 2fc0 593e df61 b73d
000000e0: 351f cd3d 40da 403d 5eec 853e 7cd0 b13c
000000f0: 05a8 2bbe 9cc1 063e 45c9 8a3d 459e ba3d
0.049859278 0.09058379 0.007976574 0.26149547 0.16418326 0.15330265 0.0029739663 0.12467408
0.21099745 0.19663188 0.17960976 0.2895504 0.035153855 0.17218475 0.26235795 0.09664675
0.22992992 0.003465283 0.21924305 0.009927871 0.04182941 0.25271922 -0.040561914 0.14117762
0.22169714 -0.15414695 0.11460608 -0.0012148451 -0.103534594 0.18601197 0.0073683914 0.0005582474
-0.0023894752 0.0599552 0.008130937 0.18492025 0.16174892 0.018751808 -0.14705552 0.090568945
-0.024872176 -0.07014772 0.1200213 -0.03669817 0.20765804 -0.07542587 -0.3738889 0.3494246
-0.0204906 0.1124683 0.14264722 0.029847348 0.13528995 0.0018686248 0.21264718 0.08954214
0.10015718 0.04708314 0.26156896 0.021705858 -0.16763313 0.13159794 0.0677667 0.09112219

running_mean f4 [64]
00000000: d543 d03c f3f3 1d3d 326a 1a3c e69a f53c
00000010: 6f7b b33b 5e5f 8a3c e38d b73b bfc4 603d
00000020: f497 a23c ff1b 973c a49e a53c 8233 8c3b
00000030: c44c 703b 1ee3 893c 2303 ae3a 8949 6d3c
00000040: bbf6 813b 5e7f a73c b631 673c 1914 36ba
00000050: bf84 9a3c 26da 423c 15ac 6bb9 470e 863d
00000060: d592 713c 1e74 833d 1d43 c93b bcca e9b8
00000070: f295 313d 3844 a73c 06fc 99b7 aa4c ac3b
00000080: d9f8 9f3c 39e5 7f3c 5de3 bd3b 3c68 dc3d
00000090: d038 9a3b 0086 a33b a3e7 5d3c 353c 0b3d
000000a0: 4e88 263d 4bf0 ec3b 03c6 403d f0cd 283c
000000b0: c3d8 933b bee0 cf3c 4b7d e43a 4131 133c
000000c0: 9504 5b3c 9d5d a53c 71b7 883d 985e 083d
000000d0: 5197 f03b b5de 373c 5862 b63b 7eb2 883c
000000e0: 0177 633c 5d1c d43a 0cc0 443d 1ee6 343c
000000f0: 4f4c a93c 2b12 493d a459 973b 1f5e 433d
0.02542297 0.038562726 0.009424733 0.029981088 0.005477361 0.016891178 0.005601631 0.05487513
0.019847848 0.018445967 0.020217247 0.004278601 0.003666685 0.01683193 0.0013276081 0.014482864
0.00396618 0.020446476 0.014110973 -0.0006945744 0.018862126 0.011892831 -0.00022475452 0.06545692
0.01474448 0.06418632 0.0061420337 -0.00011148068 0.04335589 0.020418271 -1.8356379e-05 0.0052581625
0.01952784 0.015618616 0.005794926 0.10762069 0.0047064796 0.0049903393 0.013543996 0.033992965
0.040657334 0.0072307936 0.04706384 0.010303006 0.004511924 0.02537572 0.001743236 0.008983911
0.013367792 0.02018624 0.06675614 0.033293337 0.007342257 0.011222531 0.0055659227 0.016686674
0.013883353 0.0016182769 0.048034713 0.011041192 0.02066627 0.049089592 0.0046188403 0.047697183

running_var f4 [64]
00000000: 15c0 de3b 5112 a23b d7cd df3a 217d cc3b
00000010: 351f 4e3a ddbb 2e3b 7ccb fe39 d90c b13b
00000020: 5f6d 933b 0ac7 473b c0e8 423b ef5d 803a
00000030: 2704 5d3a fee8 893b aea4 c239 87ac fc3a
00000040: 14a0 883a 27de e63a bdeb 733b 303c c037
00000050: 444c 0d3b 1dda d53a c070 8d2f 565e 683c
00000060: acd5 323b 1d2a 5c3c c251 6c3a 16be 0d30
00000070: a990 433c c45e 8f3b 201d e637 738a a738
00000080: ba28 753a 2e3b 373b 394f 903a 2a2b 903c
00000090: d9b1 913a 1f48 4a3a 0fcb 123b 2912 d73b
000000a0: 4879 803b 03a6 923a 2f6d 003c 69a9 133b
000000b0: bf1e 1e3a b51b a43b 0996 2e3a fa44 a23a
000000c0: ee91 453b f933 863b 0b10 0d3c 63e4 713b
000000d0: ea19 d03a eda3 7c39 e97a 883a 22dd 383b
000000e0: 298f 283b 1582 9239 dc20 b03b bcbb 083b
000000f0: 0d55 a73b d5e5 1b3c 879a 673a 534f 383c
0.0067978003 0.004946031 0.0017074895 0.0062405025 0.00078629266 0.0026662268 0.00048598263 0.005403143
0.004499122 0.0030483627 0.002974078 0.0009793619 0.00084310997 0.004208683 0.0003712526 0.0019277491
0.0010423684 0.0017613814 0.0037219368 2.291621e-05 0.002156035 0.0016315613 2.5727864e-10 0.014182648
0.0027288003 0.013437775 0.00090148684 5.156563e-10 0.011936345 0.0043753106 2.7431699e-05 7.988969e-05
0.0009352077 0.0027958858 0.0011009938 0.017598707 0.0011115625 0.00077164354 0.0022398864 0.006563444
0.003920708 0.0011188391 0.007838531 0.0022531396 0.0006031803 0.0050081857 0.000665993 0.0012380176
0.0030146795 0.004095551 0.008609782 0.003690981 0.0015876864 0.0002409366 0.0010412607 0.0028207977
0.0025720096 0.0002794421 0.005375011 0.0020863852 0.0051065744 0.009515245 0.0008834977 0.011249381

weight f4 [128, 64, 5, 5]
00000000: ad6a 37b4 7bff 90b4 5e79 f0b3 fc8d 6bb4
00000010: 7ac0 3cb4 0d40 6ab4 8ab6 6ab4 0218 c5b1
00000020: cc93 32b4 106c e832 3cd0 acb4 0052 91b4
00000030: fe99 bfb2 3e66 52b4 7979 44b4 feb4 b2b4
00000040: b94b 93b4 05c5 2cb4 3d54 92b5 ed17 dbb3
00000050: 4947 8db4 da35 6db4 c947 39b5 abe5 67b5
00000060: 1573 22b4 3e02 5eb3 4396 13b4 5084 30b4
00000070: 6978 11b5 0003 89b4 5a7c 6033 71dc 8f33
00000080: 2a59 85b4 bd4c 00b5 db85 87b3 0bb4 14b4
00000090: 673b c8b3 faaf c231 df2d deb4 73fe bfb4
000000a0: 0854 5234 ac5a 04b5 8d97 2bb5 1a8b edb3
000000b0: a1b4 13b5 2c9b 1935 c8ae bdb5 f6d0 26b5
000000c0: a973 9534 ab3f a8b4 468c b6b3 4d8f a0b3
000000d0: b3ec deb3 26a7 cbb3 fe2e 04b4 560f adb3
000000e0: baf2 76b3 5725 ccb3 5135 b1b3 1c08 5cb3
000000f0: 3c72 05b4 46a4 9232 4f05 b2b3 6b12 e5b3
00000100: 38de 60b3 c080 29b4 66ca 2eb4 fc7c 4930
00000110: c56a e7b3 d780 61b4 ffef e532 0c8a 1eb4
00000120: 5539 ae33 ff3e 4db3 d2af 01b4 8fc4 36b4
00000130: 01e9 76b4 bb56 0bb5 d512 5cb5 d454 51b5
00000140: b9ea 5fb4 ccd5 1cb4 f3f4 04b4 2e7b cdb4
00000150: cb52 ebb4 3bd2 b732 0d2f f533 c0b8 0834
00000160: 679c 0d34 dbb2 6bb3 941a 5b31 611f 92b1
00000170: ef36 00b3 5faf f7b2 f329 2ab2 ff08 5834
00000180: 2b5a 3ab4 0cc4 5934 d13e 0433 42a8 0434
00000190: fa21 7eb3 1ce3 c033 85e4 9fb2 78ac 9cb2
000001a0: 95a7 9432 8671 63b3 76f9 9533 22d4 c833
000001b0: f0a0 ceb5 5603 55b3 874e bdb2 cbb8 9b34
000001c0: 5b73 ccb3 fb37 8f34 6297 5033 82b8 6534
000001d0: 8881 54b4 bc0e d4b4 d68b e033 7902 8833
000001e0: 1345 bf32 2352 a0b5 1891 e6b2 a0f6 0134
000001f0: 4f9e 29b4 9f5c 3cb3 cde1 9cb1 1239 4f32
00000200: b180 47b4 70a5 1eb5 5234 80b3 b78c f7b3
00000210: 809e 4234 4d48 1733 3027 36b5 fbae 88b3
00000220: 03df c2b4 a92b e3b3 391a d9b4 deee 4333
00000230: 0052 b6b4 7343 6633 4912 c1b4 7348 9eb5
00000240: 654a 16b4 ff59 0ab4 ea99 15b2 ea90 1eb3
00000250: 4d61 b3b3 e31b 87b3 62fe efb1 3e83 b6b1
00000260: 6538 eab1 509e 8ab0 626c 77b1 7955 efb1
00000270: 661d 1eb2 e129 11b2 3f55 f8b1 91ff f7b1
00000280: 6a1c f9b1 0620 0fb2 34be 91b1 801a b8b1
00000290: f859 3c2f 2892 f2b1 3b54 00b2 3733 23b1
000002a0: f5fd 61b1 0b11 f8b1 cd53 cdb1 351c aeb1
000002b0: db93 1ab2 c511 60b1 4b2a 40b2 cd68 08b5
000002c0: 9964 1fb5 c420 87b3 2a62 99b4 f55d b3b5
000002d0: 8a38 5cb5 279a 82b5 fd3b 8ab5 5155 b3b5
000002e0: 109a 77b5 9b8d 1c33 55d8 88b5 7d75 13b6
000002f0: 22bb 9eb5 e63b 2ab5 504e 4334 aec7 84b5
00000300: b35c 9ab5 70dc 86b5 e565 0934 6182 64b4
00000310: 1b47 8e32 5e30 30b5 1ef9 fab4 d792 0034
00000320: 92c9 7fb2 7ce3 b6b3 df28 1433 1277 efb2
00000330: f666 f8b4 f9a7 0bb4 fabc 7a33 01ef 97b4
00000340: ef6a c9b5 9526 b8b4 555a 4bb4 e0b5 e8b4
00000350: e8f8 beb5 963f 98b5 688e f4b4 a275 d1b3
00000360: 3768 18b5 76f6 64b6 c0cb 66b6 53a5 a1b5
00000370: 82b3 c4b3 11c2 0cb5 8bd7 9bb5 2986 89b3
00000380: 976a d633 ecb9 52b4 a7df a634 f3c7 b5b3
00000390: 248a 64b2 28e2 b433 8800 2e32 c79d 2234
000003a0: 5350 af34 4d68 afb3 03c3 6fb5 36cd aeb2
000003b0: 9675 48b4 9a92 51b5 6b4b 9734 d3a0 48b5
000003c0: 1286 4cb3 691e 0c34 907c 11b6 ec30 c034
000003d0: 3f53 b6b4 6186 2ab4 b7e7 6d32 cfd0 ffb3
000003e0: 84d5 7ab5 89e8 15b5 c693 2cb3 ced9 2934
000003f0: 862c eeb3 140b 10b5 b2c9 c634 0ecb 9bb3
-1.7082012e-07 -2.7007977e-07 -1.11979475e-07 -2.1937734e-07 -1.7578887e-07 -2.181625e-07 -2.1859356e-07 -5.736184e-09
-1.663131e-07 2.7057496e-08 -3.2189007e-07 -2.7068018e-07 -2.2305354e-08 -1.959497e-07 -1.8298114e-07 -3.3286773e-07
-2.743598e-07 -1.6090424e-07 -1.0902364e-06 -1.0202334e-07 -2.6315163e-07 -2.2091936e-07 -6.902233e-07 -8.6388417e-07
-1.5129292e-07 -5.1690442e-08 -1.3745107e-07 -1.6439412e-07 -5.419193e-07 -2.552042e-07 5.226716e-08 6.6990545e-08
-2.4838056e-07 -4.7795385e-07 -6.3107755e-08 -1.3849073e-07 -9.324031e-08 5.6661493e-09 -4.1384098e-07 -3.5761659e-07
1.9588344e-07 -4.9305777e-07 -6.3923e-07 -1.1061475e-07 -5.5024617e-07 5.7222746e-07 -1.4132465e-06 -6.2143897e-07
2.7837567e-07 -3.1338763e-07 -8.500551e-08 -7.476647e-08 -1.0380736e-07 -9.483328e-08 -1.2310554e-07 -8.05873e-08
-5.7497097e-08 -9.506282e-08 -8.251903e-08 -5.1230117e-08 -1.2428148e-07 1.707134e-08 -8.2897365e-08 -1.0666994e-07
-5.235617e-08 -1.578619e-07 -1.6278645e-07 7.330099e-10 -1.0776197e-07 -2.100163e-07 2.6768246e-08 -1.4765118e-07
8.112935e-08 -4.7787577e-08 -1.2078024e-07 -1.7021578e-07 -2.2995302e-07 -5.1907745e-07 -8.198379e-07 -7.798201e-07
-2.0853885e-07 -1.4606411e-07 -1.238257e-07 -3.827385e-07 -4.38324e-07 2.1399606e-08 1.141726e-07 1.2733199e-07
1.3188547e-07 -5.487787e-08 3.1883802e-09 -4.2527266e-09 -2.9852284e-08 -2.8834334e-08 -9.9048405e-09 2.011984e-07
-1.7355403e-07 2.0281021e-07 3.0790776e-08 1.235467e-07 -5.9169885e-08 8.982008e-08 -1.8613955e-08 -1.823922e-08
1.7305675e-08 -5.2955805e-08 6.98373e-08 9.3518125e-08 -1.5395035e-06 -4.959596e-08 -2.2038206e-08 2.9005454e-07
-9.520473e-08 2.6676557e-07 4.8566456e-08 2.139441e-07 -1.9791162e-07 -3.9498798e-07 1.0456249e-07 6.333443e-08
2.2266738e-08 -1.1944834e-06 -2.6841505e-08 1.2103783e-07 -1.5796944e-07 -4.38564e-08 -4.565868e-09 1.2061962e-08
-1.8580137e-07 -5.910033e-07 -5.9699815e-08 -1.152743e-07 1.812532e-07 3.5223184e-08 -6.785731e-07 -6.364822e-08
-3.6297578e-07 -1.0578453e-07 -4.043848e-07 4.5619224e-08 -3.3959805e-07 5.3612393e-08 -3.5962356e-07 -1.1793003e-06
-1.3996903e-07 -1.2884992e-07 -8.7079375e-09 -3.691904e-08 -8.353036e-08 -6.2915e-08 -6.9847355e-09 -5.3118177e-09
-6.8167076e-09 -1.0085817e-09 -3.600484e-09 -6.9655326e-09 -9.203495e-09 -8.449633e-09 -7.2274413e-09 -7.2177007e-09
-7.250084e-09 -8.330977e-09 -4.241679e-09 -5.3581175e-09 1.7130464e-10 -7.059743e-09 -7.469732e-09 -2.3748734e-09
-3.2886167e-09 -7.2196875e-09 -5.9758123e-09 -5.0672733e-09 -8.997598e-09 -3.260639e-09 -1.1185487e-08 -5.0816453e-07
-5.9378505e-07 -6.2923874e-08 -2.8569895e-07 -1.3363884e-06 -8.203866e-07 -9.730619e-07 -1.029926e-06 -1.336137e-06
-9.223886e-07 3.645037e-08 -1.019575e-06 -2.1973094e-06 -1.182638e-06 -6.34171e-07 1.818928e-07 -9.892881e-07
-1.1500873e-06 -1.0047934e-06 1.2796188e-07 -2.1281586e-07 1.656331e-08 -6.563549e-07 -4.6747385e-07 1.1974349e-07
-1.4888785e-08 -8.5164146e-08 3.4496107e-08 -2.7877409e-08 -4.6268514e-07 -1.3006492e-07 5.8379534e-08 -2.829984e-07
-1.5006789e-06 -3.4300743e-07 -1.8938711e-07 -4.33457e-07 -1.4228544e-06 -1.1343388e-06 -4.5552156e-07 -9.753718e-08
-5.6776065e-07 -3.4118107e-06 -3.4391269e-06 -1.204355e-06 -9.1596135e-08 -5.243647e-07 -1.1611131e-06 -6.403963e-08
9.98454e-08 -1.9625412e-07 3.1082638e-07 -8.46484e-08 -1.3302756e-08 8.423041e-08 1.0128254e-08 1.5144825e-07
3.2654734e-07 -8.168045e-08 -8.931822e-07 -2.0349585e-08 -1.8669229e-07 -7.80719e-07 2.8180816e-07 -7.4739836e-07
-4.7619388e-08 1.3049579e-07 -2.1679189e-06 3.5798382e-07 -3.396071e-07 -1.588137e-07 1.38479015e-08 -1.1912345e-07
-9.3442964e-07 -5.584521e-07 -4.018127e-08 1.5818588e-07 -1.10908374e-07 -5.36603e-07 3.7027127e-07 -7.2546854e-08

bias f4 [128]
00000000: aa21 1e36 79cd f2ba 8196 91bd 8a48 c9b3
00000010: 794a e0bd d91e fabd 0717 29be 3d43 80bd
00000020: a6d2 f2bc 385a 03bb e100 0000 d9f3 35bb
00000030: 496a 3fbd 5071 8bbd 0827 c6b3 8174 d3bd
00000040: eb5b 5ebd e2b0 7cba df3a 96bd 6c90 b43a
00000050: ed0b 44be f1eb adbd 0215 e9bc e1e0 2bbb
00000060: 8601 0000 ccc9 213a 48a5 23bd 7d78 06bd
00000070: 9d43 83bb d84f adbd 0ab6 12be 6120 91ba
00000080: 91cb 713c d498 d3ba e107 3fbd bee2 06b4
00000090: 9480 d9bc 7bfb 15b6 038d 48bc 0cd5 bfbd
000000a0: 8626 1d3b f299 14be d523 e83a c8f9 6fbb
000000b0: 49b9 adbd 81cb 6dbc 7f58 3fbd 96d1 0ebe
000000c0: dedb 3bbe a332 37bd 3df0 30bc 7998 d6bd
000000d0: 40f6 4abe 15cb b7bb 50ce bb3c b2ab 91b5
000000e0: a557 93bd 2af8 1bbb 285a f9bd 5241 9cbd
000000f0: 0e6e 28be 382c 6bbc 44d4 56bd 0a42 92bb
00000100: 5812 20be ad16 05bb 43ce 87bc b272 36ba
00000110: 558f 7fbd 7627 d7aa 42cd af3c 0297 43bc
00000120: 1901 0080 1b71 69bb 3330 2129 5393 0dbd
00000130: afe0 d1bd f332 9cbd 2bd1 41bb 5cf3 1a3a
00000140: d5f6 b9bc 785f c0bd 5331 273b b04e bfba
00000150: 0867 0ebe 3957 52bd 3663 dc3b 705f 9bbd
00000160: 26d4 1fbc 2caf 05bd 5fca f9bc 74ad 4abe
00000170: 0ec2 1aba 52d8 90bd 5db2 01bd 4a4e 903b
00000180: 1ef0 bcbd 135b a2bd f6b5 f5b9 c616 9cbb
00000190: f0cc f1b8 00f7 2fbd 42eb 40bc d809 cbbd
000001a0: cf2a e3bd 2873 cfbd 728d a6bc ca79 01bd
000001b0: 9a02 da39 7600 0000 1096 b9bb bc25 8dbb
000001c0: cbb8 51ba 7aaf 6f31 94e4 84bd dbbf bdbc
000001d0: 2055 0039 6790 d3bd fa23 d6bc 4cf5 8bbc
000001e0: 2cb9 adbc 70e6 ffbd 40a2 2fbd 36fa 95ba
000001f0: ef9b cbbd 6baf d8bd af5d 60bd 868b 45bc
2.356343e-06 -0.001852437 -0.071087845 -9.372987e-08 -0.109517045 -0.12212915 -0.1651269 -0.06262825
-0.02964146 -0.0020042788 3.15e-43 -0.0027763753 -0.04673222 -0.06808722 -9.227193e-08 -0.10324956
-0.05428688 -0.00096393947 -0.073354475 0.0013775951 -0.19145174 -0.08492268 -0.0284524 -0.0026226568
5.47e-43 0.00061717327 -0.039952546 -0.03282975 -0.004005863 -0.084624946 -0.14327255 -0.0011072272
0.014758007 -0.0016143569 -0.046638373 -1.2562211e-07 -0.026550569 -2.234911e-06 -0.012240651 -0.09366807
0.002397926 -0.1451185 0.0017710874 -0.0036617387 -0.08482606 -0.014513851 -0.046715256 -0.13947138
-0.18345591 -0.044726025 -0.010799465 -0.104783006 -0.198205 -0.005608926 0.022925526 -1.0853312e-06
-0.07194451 -0.002379904 -0.12175399 -0.07629646 -0.16448233 -0.014353804 -0.052448526 -0.004463439
-0.15631998 -0.0020307705 -0.016577845 -0.000695984 -0.06239255 -3.8219054e-13 0.02146018 -0.011937859
-3.94e-43 -0.0035620395 3.5790988e-14 -0.034564327 -0.10247933 -0.07626905 -0.0029574137 0.0005910897
-0.022700706 -0.09393209 0.0025511577 -0.0014595594 -0.13906491 -0.051352713 0.006725694 -0.07586563
-0.00975517 -0.03263776 -0.030492006 -0.1979273 -0.000590355 -0.0707251 -0.03166424 0.004403864
-0.09225486 -0.07927527 -0.00046865613 -0.004763457 -0.00011529948 -0.042960167 -0.01177484 -0.09913987
-0.110921495 -0.10129386 -0.020331118 -0.031610288 0.00041582139 1.65e-43 -0.005663641 -0.004307477
-0.00080002536 3.4878824e-09 -0.0648891 -0.023162773 0.00012238743 -0.10330277 -0.026140202 -0.01708474
-0.02120646 -0.12495124 -0.042879343 -0.0011442367 -0.09941851 -0.10580333 -0.054776844 -0.012057191

weight f4 [128]
00000000: 15f6 1b3b 0d71 d73c 9e09 383f 298e f437
00000010: 15ff 063f 6dc4 e03e 9c71 1c3f 9810 d23e
00000020: ed30 9d3e 1f2b e0ba 6801 0000 73d5 113c
00000030: 5cee 393e bda1 9a3e 7798 e338 6e11 083f
00000040: 86e3 633f 693e 5cbb a182 e03e 7778 37ba
00000050: 4ba0 083f 73f2 843e 61d0 703e 5047 343c
00000060: 5c01 0000 2e1b 26bb ef44 8b3e 69f0 4a3e
00000070: 2d18 c3b8 337d dd3e e30b e33e fa3d ae3b
00000080: 919c f53b 7289 483a 177e 013f b6de 833a
00000090: 8dba ce3e 1e4e 2437 7cdf 9c3c c261 2b3f
000000a0: 30ed 02bc 4ddd 403f 09f9 373b b2b9 b4bb
000000b0: c10f 003f 8eff d73d c748 a43e ecbe 563f
000000c0: 34ef 623f 1486 823e 39b9 053e 19b8 2e3f
000000d0: f986 2c3f 3c07 6c3d 541e 7e3e bb90 383a
000000e0: 56a2 243f fe55 713b 8d61 083f a6a6 373f
000000f0: 5228 763f d75b 4d3e 6009 343f 0e12 6b3d
00000100: 8a47 5e3f e2a5 283b b1f8 983e c94f 073a
00000110: 3d87 113f a9d6 2033 aa78 0c3f 7d3e 133e
00000120: ca01 0080 0a7e a63a 2acc c42e 7a27 cf3e
00000130: e6d0 303f 1fc6 593f 2711 0e3b f70b 01bc
00000140: cf50 8e3e fd26 6a3f 3d21 543a 3d90 6d3d
00000150: 7b11 5d3f 3c89 ed3e b2b0 833d 3243 173f
00000160: 7d2a 043e e6f4 d93e 1d46 443f 84c5 723f
00000170: 7ee6 9038 ca04 ef3e 1a0a 323f c358 9f3d
00000180: 0d6e 283f d878 053f 5441 f33a 98b4 653a
00000190: 3c2c aa3c 32e2 153f 70f8 023f 4f29 403f
000001a0: ebca 293f cf85 4b3f 5ee1 113f 118d 083f
000001b0: e6bc a0ba 2b01 0000 6dc9 5bbb d1c9 253c
000001c0: c0b8 0cbb ed1a 4033 8920 a73e 97c0 413d
000001d0: f357 3f39 9122 1d3f 4325 133e 3d19 983e
000001e0: 9b92 173e f62a 003f 8d9f 9a3e dbc2 4d3a
000001f0: eda5 f03e 90b3 1c3f c90f e53e 34cc d43e
0.00237978 0.026299024 0.71889675 2.9153265e-05 0.52732974 0.4389986 0.61110854 0.41028285
0.3070139 -0.0017102695 5.04e-43 0.008900988 0.18157333 0.30201522 0.00010852602 0.53151596
0.8901905 -0.0033606535 0.43849662 -0.00069988467 0.5336959 0.25966224 0.2351699 0.01100333
4.88e-43 -0.002534579 0.2720103 0.19818272 -9.302828e-05 0.43259582 0.44345006 0.005317447
0.007495471 0.00076498755 0.5058302 0.001006088 0.40376702 9.79335e-06 0.019149534 0.6694604
-0.00799112 0.7533768 0.002807202 -0.0055153007 0.5002404 0.1054679 0.32086775 0.83885074
0.88646245 0.25492918 0.13058938 0.6824966 0.6739345 0.057624087 0.24816257 0.00070406095
0.64310205 0.0036824937 0.5327385 0.7173866 0.96155274 0.20054565 0.70326805 0.057390265
0.8682791 0.002573364 0.29877236 0.000516173 0.5684698 3.7448135e-08 0.5487162 0.14379306
-6.42e-43 0.0012702357 8.949315e-11 0.40459806 0.69068754 0.85067934 0.0021677704 -0.007876388
0.27796027 0.9146574 0.0008092111 0.057998884 0.863548 0.46393764 0.06430186 0.59086907
0.12906833 0.42569655 0.76669484 0.94832635 6.9093876e-05 0.4668334 0.69546664 0.07780602
0.65792924 0.5213752 0.0018558898 0.00087625673 0.020773046 0.5854827 0.51160336 0.7506303
0.66325253 0.7950105 0.5698451 0.5334025 -0.0012263327 4.19e-43 -0.0033536807 0.010118918
-0.0021472424 4.4727972e-08 0.3264201 0.04730281 0.00018247943 0.6138087 0.14369683 0.29706755
0.1480202 0.50065553 0.30199853 0.0007849165 0.4700159 0.6121149 0.44738606 0.41562045

bias f4 [128]
00000000: ecd2 e738 fa52 113e 1916 15be 4b94 bf36
00000010: d001 3fbe dc40 3fbe 0bed 4fbe 593f 293e
00000020: 43e3 453e 0967 38bc 02b5 5330 f260 07be
00000030: 447a 58be fccf 463e 7ddc 04b6 441b 04be
00000040: 0615 573e ae34 e93d 9147 1bbe e9ca 3c3d
00000050: d2ef 47be 4010 39be 81ac 163e be11 efbd
00000060: 38d3 9428 52fb a13d d156 403e 5ab4 213e
00000070: ff58 323e 122c 44be 7d43 62be 6178 b4bd
00000080: 653d 19be 440a 443d 1dba 3a3e 8e24 16b7
00000090: e210 213e d1a1 c7bb c474 053e 4f38 1fbe
000000a0: 33d6 9f3d efc2 38be 6dde 233e 7b36 273e
000000b0: 78be fdbd 1bdd 0d3e 1776 d3bd f67c 1cbe
000000c0: 53e6 31be 62be 1dbe 632e 89bd 81ee 3cbe
000000d0: 899c 46be a052 093e 1fc1 163e 4bb2 0739
000000e0: 5656 49be b470 b33d 835c 45be d5b8 2f3e
000000f0: 65cc 40be 3fbc ee3d 1b59 3d3e 1ae1 193e
00000100: 56ad 38be 0045 f53d 6af3 163e eb76 bd3c
00000110: 9546 383e 8abf 3233 3f23 20be cde1 81bd
00000120: 67e6 1431 005d 073e 59cf 7732 941b 383e
00000130: fe73 09be e7a9 22be 5465 353e 5468 143e
00000140: c7fd afbd d355 45be 40cb 073e 7b80 fd3d
00000150: b496 33be 6e77 3d3e 5c2a 1e3e 19eb 2e3e
00000160: 7022 f53d 4fcf 94bd dcd4 34be 9a7c 4cbe
00000170: 115a 7b3c 663a ccbd 8898 35be 6f89 483d
00000180: 9067 20be cd62 3fbe 8d07 e33d dacf 1f3e
00000190: d123 88bb 39b8 473e 5298 2b3e b64a 523e
000001a0: 31be 13be c3b4 4a3e 8d27 4e3e 64da 2f3e
000001b0: 1236 47be 282b 5134 a715 85bd 20b6 24be
000001c0: c78d 93bc edc8 c4b8 91d4 453e 1675 393e
000001d0: 9f72 bb3d 7605 26be 77c0 bdbd 5f8d 8cbd
000001e0: b983 063e 8de8 17be d4a9 023e 5bb3 803d
000001f0: c725 47be 6538 19be 894d 14be 9126 0d3e
0.000110542256 0.1419181 -0.14559211 5.709507e-06 -0.18653035 -0.18677086 -0.20305268 0.16528071
0.19324975 -0.011255034 7.701858e-10 -0.13220575 -0.2114039 0.19415277 -1.9797874e-06 -0.12901026
0.21004114 0.11387001 -0.15164019 0.046091948 -0.19525078 -0.18072605 0.14714243 -0.11673306
1.6522902e-14 0.07909264 0.18783118 0.15791455 0.17416762 -0.19157436 -0.22096057 -0.08812023
-0.14964826 0.047861353 0.18235059 -8.949208e-06 0.15729097 -0.006092288 0.13032824 -0.15548824
0.07804527 -0.18043111 0.16002817 0.16329376 -0.12389845 0.13853876 -0.10325258 -0.15282044
-0.17373018 -0.15404657 -0.06698301 -0.18450357 -0.19395651 0.13410425 0.14722107 0.00012941023
-0.19661841 0.08761731 -0.19273572 0.17160352 -0.1882797 0.11656999 0.18491022 0.15027276
-0.18034872 0.11976051 0.14741293 0.023127994 0.17995675 4.161806e-08 -0.15638445 -0.06341896
2.1667803e-09 0.1321907 1.4424438e-08 0.1797927 -0.13423154 -0.15885125 0.17714435 0.14492923
-0.08593326 -0.1927102 0.13261127 0.12378021 -0.17537957 0.1850259 0.15445846 0.1708187
0.11969459 -0.072661035 -0.17659324 -0.19969407 0.015341298 -0.09972076 -0.17733967 0.048959192
-0.15664506 -0.18690033 0.110854246 0.15606633 -0.0041546603 0.19503869 0.16757324 0.20536312
-0.14428021 0.19795518 0.20132275 0.17173153 -0.1945422 1.9480342e-07 -0.064982705 -0.160851
-0.01801194 -9.383434e-05 0.19319369 0.18111071 0.091527216 -0.1621302 -0.092652254 -0.06862902
0.13136186 -0.14834805 0.12760097 0.06284209 -0.19448005 -0.14962919 -0.14482702 0.13784243

running_mean f4 [128]
00000000: 4e23 a237 55b0 0d3e c7e9 103a 447c abb2
00000010: 07ef 313c a8d7 163e 4375 42bc 1467 703a
00000020: bbb7 5a3d 2ca3 383c d908 0000 7cd3 5e3e
00000030: 4b51 1b3e 08bb 9fbc 4db3 dc34 795b f83c
00000040: 6af1 2b3d ad33 4a3e 4f85 4b3e a04b d13d
00000050: 36ed c9bc ff32 32bc 9e4f febb 48cf a13d
00000060: a20c 0000 68f6 ab3d 1ebb 1a3d c73b 413c
00000070: 8c13 ca3d 2b44 e5bc 0a45 e5bb 8492 eb3d
00000080: eec0 843e bfee b43a 4247 ae3d e3f7 0534
00000090: 08a7 b93d 71b2 07b5 00ec 8139 b82b cb3c
000000a0: 4e3c 933e 181c f9bc b1da 1c3e e56e 013c
000000b0: e041 18bc e3ed 733e 906a 233e da85 a8bc
000000c0: 7757 183d ae02 5e3e 3318 703d 2173 8a3c
000000d0: 1b52 e5bb 9532 703d 5a29 863e 9b78 d2b3
000000e0: 527a 033a 1ed7 a83d 778a ffbc a276 06bd
000000f0: 78b4 b03c 27ac eb3d 1070 2e3d cdfe 293e
00000100: cb72 a7bc 19a4 5a3d 04c9 a43d 4fcb 4bb9
00000110: 14e1 52bc fda0 1eaa 15dc 033f 2a34 a53e
00000120: 3a0b 0000 662e f33a 91b0 0a2b 7ddf 143d
00000130: e778 77bc fae7 92bc 1a42 f23c 33e9 753e
00000140: b1e5 593e d582 463c 18a1 323e 0b32 133e
00000150: a280 ea3c b7b9 373e 803c 193f 1748 a93a
00000160: 911b 013e 4acc 2c3e e03b adbb a5a3 bfbc
00000170: 8a16 c8b8 0589 da3d ed51 443e 4bac 953d
00000180: bdb7 36bc 8312 bdbc 791e ee3d 17b7 a5b9
00000190: 2e6a da3b 661b 0d3e 6b48 e03d dcfe b53c
000001a0: a2ab 8c3d 5f84 bdbc 5fae ae3c 7597 c73d
000001b0: b08a 083e 5b09 0000 1483 2a3c 0f3c 883e
000001c0: 5ab2 eb3a b22e 0734 c3be 9dbc 0e4b 603c
000001d0: ad3a c23c 478a d93c 0e81 173d 2214 9c3e
000001e0: e02d 883d e27c cabc 6a2c 6a3d 25c0 0b3d
000001f0: 82aa e8bc 21c0 353d c733 933e 8e55 733d
1.9328345e-05 0.13836797 0.00055279996 -1.996353e-08 0.010860211 0.14730704 -0.011868778 0.0009170633
0.053397875 0.011269372 3.174e-42 0.21760362 0.1516773 -0.019498363 4.1108652e-07 0.030317055
0.041978277 0.19746275 0.19875072 0.102195024 -0.024649244 -0.010876416 -0.007760956 0.07900864
4.532e-42 0.08396608 0.037776105 0.011794037 0.098670095 -0.027986607 -0.0069967555 0.11502555
0.25928444 0.0013804062 0.08509685 1.2476771e-07 0.09065062 -5.0551085e-07 0.0002478063 0.02480112
0.28756946 -0.030408904 0.15317799 0.0078999745 -0.00929305 0.23821215 0.15958619 -0.020571638
0.037192788 0.2168071 0.05861683 0.0169006 -0.006998313 0.05864199 0.26203424 -9.800825e-08
0.00050154806 0.08244155 -0.031193955 -0.03282798 0.02157043 0.11507445 0.04258734 0.16601105
-0.02044048 0.053379152 0.08046153 -0.00019435327 -0.012871046 -1.4089073e-13 0.51507694 0.3226636
4.027e-42 0.0018553257 4.9272484e-13 0.036345948 -0.015104509 -0.01793288 0.029572535 0.2401474
0.21279027 0.012116154 0.17444265 0.14374559 0.02862579 0.17941938 0.5985794 0.0012915161
0.12608172 0.16874805 -0.0052866787 -0.023393461 -9.5409414e-05 0.10670666 0.19171877 0.07308253
-0.011152205 -0.023080116 0.11626906 -0.00031607665 0.0066654896 0.13779983 0.10951313 0.022216253
0.06868674 -0.023134409 0.021323381 0.09745685 0.13334155 3.356e-42 0.010407228 0.2660832
0.001798223 1.2589842e-07 -0.019256001 0.013689769 0.02370962 0.026555194 0.03698831 0.3048411
0.06649375 -0.024717752 0.057171263 0.03411879 -0.028401617 0.04437268 0.2875044 0.059407763

running_var f4 [128]
00000000: 9af1 4430 65d8 b03d f3d9 4a3d 10b6 df25
00000010: 1b77 a13d 8c3a a03e 1039 993c debe c83c
00000020: 2e93 ad3d 56c7 343a 0400 0000 a7bf b53d
00000030: b5a9 b83d 9fa0 a53b a154 442b 3bf6 e13d
00000040: 6e66 ee3d 8725 943d 096f e93e 5ff8 773c
00000050: 6248 b23b 3833 c03c 679e ad3b 492a d83c
00000060: 0400 0000 6772 813c a509 a33d b565 b93c
00000070: 5a41 ee3c f66e aa3a 1715 c33c 9128 dd3c
00000080: 93a5 273e dc8b 8338 f90b 363e 343e 852b
00000090: 2ee4 143e f26f 7f2b 9fac b93a a6a1 9d3d
000000a0: e4af ad3d c4b9 563b aaa1 823d 93a4 c13a
000000b0: 87e9 363c d3d8 813e 2e8f 553e af6e 1d3c
000000c0: a570 083e c6fb 983e 7c77 273d 8dbe 823d
000000d0: 37d7 143d f86c 083d 918a a23e e578 a32b
000000e0: 03f2 8e3d 4280 8b3c 2f06 1a3b b7bc 313a
000000f0: b750 ba3d d54c f93d 5ce3 cf3d c91e 183e
00000100: 3587 fb3b 0f41 103c 48fd 863d b5e6 af33
00000110: 1f74 8e3c c399 9615 e84e d43e 6d79 903e
00000120: 0400 0000 a491 8939 ca9f 7f16 6e2f 943d
00000130: dc7b 573c ace5 c13c 4268 9a3b 5c67 c73d
00000140: bc9c 9b3e 47bd 8c3d 5bbb 2e3d cd20 dd3d
00000150: ace4 873d 73a8 b13e 46dd c53e fbba f23c
00000160: 2dd1 053e e06b 843e 514a e63c 5886 6c3c
00000170: 4248 e832 0be3 463e e9cb f73d f0eb 0c3d
00000180: dd85 bf3c 5420 013c 6c79 dd3c 90be b738
00000190: 5033 0e39 8065 743e c715 3e3e 3b89 c63d
000001a0: c798 423e 2a08 6a3c 7a8b 843d 4b4c 523e
000001b0: 358c 2d3d 0400 0000 4aad f53a 49a5 d93e
000001c0: 9ba6 2938 90a3 d528 710d ca3b 619e 743c
000001d0: 383d 9f3b 496b cb3d 0d49 153d 9f57 ad3e
000001e0: 2947 703d e769 633b 4bea b13d d14c 9f3b
000001f0: b05b 383b 7b2d 223e 1117 1f3f aaf6 683d
7.164772e-10 0.08635024 0.04952426 3.8807704e-16 0.07884046 0.31294668 0.018703967 0.024505075
0.08475338 0.00068961584 6e-45 0.088744454 0.09016744 0.005054548 6.9750634e-13 0.11033293
0.11640631 0.0723372 0.45592526 0.0151349 0.0054407576 0.023461923 0.005298424 0.02638735
6e-45 0.015801622 0.07960824 0.022631506 0.029083896 0.001300304 0.023813767 0.026996883
0.16371755 6.2726176e-05 0.17778005 9.467483e-13 0.14540169 9.0749554e-13 0.0014165825 0.076968476
0.08480814 0.0032764534 0.06378491 0.0014773778 0.011164076 0.25360736 0.208554 0.009608909
0.1332422 0.29879588 0.040885434 0.06384001 0.036338057 0.033307046 0.31746343 1.1615402e-12
0.06979754 0.017028932 0.002350222 0.0006780135 0.090974264 0.12172858 0.10150787 0.14855494
0.00767603 0.008804574 0.06591278 8.191038e-08 0.017389355 6.082711e-26 0.4146645 0.2821764
6e-45 0.00026239187 2.0649156e-25 0.07235609 0.013152089 0.023669086 0.0047121355 0.09736511
0.30393016 0.06872039 0.042659145 0.10797272 0.066354126 0.3469883 0.3864538 0.029630175
0.13068075 0.25863552 0.028111609 0.014436327 2.7041214e-08 0.19422548 0.1209944 0.034404695
0.02337926 0.007881243 0.027035438 8.761615e-05 0.0001356129 0.23866844 0.18562995 0.096941434
0.19003592 0.014284173 0.064719155 0.20536916 0.04237004 6e-45 0.0018743661 0.42508915
4.0447903e-05 2.3718684e-14 0.006166153 0.014930339 0.0048595928 0.099325724 0.03644662 0.33855912
0.058661614 0.0034700574 0.08687266 0.004861452 0.0028130822 0.15837662 0.6214457 0.056875862

weight f4 [1, 128, 1, 1]
00000000: 44e2 2836 5598 1dbe ec72 933e 03f8 3eb7
00000010: 30ec eb3e 0526 d83e b050 0f3f 3815 a2be
00000020: f32c cebe 3753 1f3c 718e 0aaf d390 fe3d
00000030: 774a e23e 211b c8be 4929 fd35 93fd 503e
00000040: 8052 1dbf cfab dbbd bbd2 7f3e 8826 20bd
00000050: 9220 de3e cef2 c73e 3118 50be 2366 f53d
00000060: 370b a9a7 4b20 95bd ed4d acbe 2794 55be
00000070: 65c7 28be cf7e ed3e b3db d53e 5ef3 a63d
00000080: 1a61 113e 1c2b 32bd 8b6f cbbe 5ea4 b733
00000090: 85ec 5bbe 9ffb ce3b 5058 0bbe 2f48 9f3e
000000a0: 0a09 90bd 4d83 dd3e e466 3bbe 54fb 55be
000000b0: 7501 6f3e 84ee 2bbe 46f1 003e b2c5 9c3e
000000c0: 864a c83e 74ae 733e 840b 453d 2aa1 ea3e
000000d0: e9b4 0c3f 3d3e 14be 0d57 5abe 045a 0cb7
000000e0: 982e 053f 4abf a8bd 542a ee3e f503 c8be
000000f0: 5993 023f e8d1 19be 3451 dcbe e435 45be
00000100: 903d c33e da61 e7bd 70fb 79be be51 cbbc
00000110: 6474 ccbe 2af2 24b4 fc1b 8c3e 906b 6b3d
00000120: 62dd a5af 0c54 07be 670b 3c34 c961 c1be
00000130: 433d 8d3e 0743 aa3e 0042 68be ce2f 2cbe
00000140: 8166 a13d fa40 023f f8eb 06be 1991 0cbe
00000150: 4a2e d53e 13ed c6be bb6a 26be c455 a6be
00000160: 721f 0cbe afcf 8f3d 2710 d53e 62ac dd3e
00000170: 45f0 90bc b9d4 f53d a625 d03e 7bb1 f8bc
00000180: 2cee 9e3e acf4 d33e 9506 c6bd 4def 31be
00000190: a8e3 4a38 5aee f5be 3aab aebe 778d 0ebf
000001a0: b2ea 7f3e 5867 04bf 1310 f2be 8b9f c4be
000001b0: b360 3e3e fd3c 5734 9080 633d 7e83 373e
000001c0: 8033 863c 54d3 5539 2365 dcbe a7f5 72be
000001d0: cc5b 9fbd f41f a53e fa10 be3d 537d 4e3d
000001e0: be5a 1cbe 63bd 853e 63cb 3cbe a833 60bd
000001f0: f77c eb3e f0f4 8d3e 816f 663e 1651 5dbe
2.5165655e-06 -0.15390141 0.28798616 -1.1382627e-05 0.46078634 0.42216507 0.55982494 -0.31656814
-0.4026867 0.00972443 -1.2601632e-10 0.12429967 0.44197437 -0.39083198 1.8861984e-06 0.20409231
-0.6145401 -0.10726129 0.24982731 -0.039099246 0.43384224 0.39052433 -0.20321728 0.11982372
-4.691908e-15 -0.0728155 -0.33653203 -0.20857297 -0.16482313 0.4638581 0.4176918 0.08151887
0.14197198 -0.043498144 -0.39733538 8.5515e-08 -0.21476944 0.0063166167 -0.13607907 0.3110976
-0.07032974 0.43264237 -0.18300968 -0.20896655 0.233404 -0.16790205 0.12592039 0.3061958
0.39119357 0.23797017 0.048106685 0.45826083 0.54963547 -0.14476867 -0.2132227 -8.365609e-06
0.5202422 -0.082396105 0.4651667 -0.3906552 0.51006085 -0.15021479 -0.43030703 -0.19258839
0.38132906 -0.112979606 -0.24412322 -0.024819251 -0.3993255 -1.5361789e-07 0.273651 0.057475626
-3.0170627e-10 -0.13215655 1.7513013e-07 -0.37769917 0.275858 0.33254263 -0.22681427 -0.16815111
0.07880879 0.50880396 -0.13175952 -0.13727225 0.41636878 -0.38852748 -0.16251652 -0.3248731
-0.1368387 0.070220344 0.41613886 0.4329558 -0.017692694 0.12003464 0.40653723 -0.030358067
0.31041086 0.41397607 -0.09669224 -0.17376442 4.8372574e-05 -0.4803341 -0.3411501 -0.5568461
0.24991873 -0.5172019 -0.4727789 -0.38402972 0.18591575 2.0045623e-07 0.05554253 0.17921254
0.016381979 0.00020391989 -0.4304591 -0.23726521 -0.07781181 0.3225094 0.09280582 0.050412487
-0.1526899 0.26121053 -0.18436961 -0.054736763 0.45993778 0.27725935 0.22503473 -0.21612963
